DRL coding/saved_network/FJSP_J15M15/100_99/policy_job.pth (torch, 648359 bytes, 53 tensors)

_input f4 [128]
00000000: a83c 593f e419 553f 1326 b93e db7b 40bf
00000010: eec0 04bf 698a 03be cbb9 063d 15ce a6be
00000020: a399 7dbf 805a 23bf 7203 38bf 4506 49bf
00000030: 7fa1 3ebc 62a4 7e3f f77e 033f 1f6a 61bf
00000040: cf76 b2be 42f2 98be e511 b73e 8659 29bf
00000050: a0da 5a3f dcb2 24bf 9f47 3abf 18a2 2dbf
00000060: a2ac 573f 5d59 603f 05e6 4bbf e767 0abf
00000070: e157 f43e e32f 0fbe 03dd 7ebf 60e2 fd3e
00000080: 5e5f f1bd e09d 763f 9716 ae3e 6bf8 203f
00000090: e952 2b3f 7d3a 00be 9a81 6bbf c38f 283f
000000a0: c6ed 193f bee4 b7be 6a24 373f 20b0 a63d
000000b0: 9159 9bbe 2338 42bf f9f5 98bd 36ca b3bb
000000c0: c6af 363f 77e7 233f 248f ae3e 5782 ce3d
000000d0: b349 68bf 1aa2 5cbf e28c 733f 3cb2 36bf
000000e0: ba68 a13e 0d03 4e3e c4b7 9e3e 5517 953e
000000f0: 2409 1e3e 43c4 1cbf ff03 a63e 7faa 313e
00000100: 4ada 51bf 69ed 4f3e c15e 873e df99 41bf
00000110: 0057 1d3f ae71 893e f8ce 5b3f e796 233e
00000120: 66d5 e7be 12f1 0ebd 407b 2b3f 519e 943d
00000130: 7131 bcbe 985e 1a3f 7f26 783f 5574 403d
00000140: f6eb 3b3f 33e4 13bf 4620 083f ca26 c03c
00000150: 8f29 b3be 484e ed3d f92c c3be 7516 8d3e
00000160: 324d c73e 37cf cb3e 7ee7 283e 47ff 50be
00000170: 50b2 353f 9101 e8be 1904 5ebf b89c 51be
00000180: 3002 36bf 1c97 51bf 38ed b7be 8e20 0bbe
00000190: 69ae 02bf 9847 033f dc0f 4a3e bb8b e83e
000001a0: e17c fdbe c474 293f b3ab 59be 44e5 f7bc
000001b0: 9949 7dbf 6d20 75bf ce37 03bf 141f d6bc
000001c0: ff09 c53e 750e 11bf a2d1 6dbf cc8d 203f
000001d0: d05e 773f 85cf 463f b260 ae3e abc7 3d3f
000001e0: 5080 2a3e eff4 b1bb 9dec 693f 013d b83e
000001f0: d03a 31be bb61 553f 85e5 b93e f348 823e
0.8485818 0.8324263 0.3616186 -0.7518899 -0.5185689 -0.12845768 0.03289203 -0.32579103
-0.99062556 -0.6380997 -0.7188026 -0.7852519 -0.011635183 0.9946958 0.5136561 -0.8805255
-0.3485627 -0.29872328 0.3575584 -0.66152227 0.85489845 -0.6433542 -0.72765535 -0.6782546
0.8424779 0.8763636 -0.79647857 -0.5406479 0.47723296 -0.13983111 -0.9955599 0.49586773
-0.11785768 0.9633465 0.3400161 0.62879056 0.66923386 -0.12522312 -0.9199463 0.6584436
0.6012844 -0.35916704 0.7153994 0.08139062 -0.3034177 -0.7586691 -0.074687906 -0.005486752
0.7136196 0.6402506 0.34093583 0.10083454 -0.90737456 -0.8618485 0.95136845 -0.71365714
0.31525213 0.20118351 0.30999577 0.29119363 0.15433174 -0.6123697 0.32424924 0.17350195
-0.8197371 0.20305409 0.2643948 -0.75625414 0.61460876 0.26844543 0.85862684 0.15975533
-0.45279998 -0.03489787 0.6698494 0.07256759 -0.3675647 0.6030059 0.9693374 0.046985943
0.7340692 -0.5777008 0.53174245 0.023455996 -0.34992644 0.115871966 -0.3812025 0.27556196
0.38926083 0.3980653 0.16494557 -0.2040988 0.7097521 -0.45313695 -0.86725 -0.2046994
-0.7109709 -0.818712 -0.3592317 -0.13586637 -0.5104738 0.5128112 0.19732612 0.45419106
-0.49509338 0.66193795 -0.21256904 -0.03026069 -0.98940426 -0.957526 -0.51257026 -0.026137866
0.3848419 -0.56662685 -0.92898 0.62716365 0.9662905 0.776604 0.34058148 0.74132794
0.1665051 -0.0054308097 0.9137667 0.35984042 -0.17307591 0.8335225 0.36307922 0.2544628

bn.weight f4 [2]
00000000: 0000 803f 0000 803f
1.0 1.0

bn.bias f4 [2]
00000000: 0000 0000 0000 0000
0.0 0.0

bn.running_mean f4 [2]
00000000: 0000 0000 0000 0000
0.0 0.0

bn.running_var f4 [2]
00000000: 0000 803f 0000 803f
1.0 1.0

encoder.feature_extract.mlps.0.linears.0.weight f4 [128, 2]
00000000: cca8 ccbc 3071 88bd 0100 053e 0680 14bd
00000010: dc2e 62bd ff8c ea3c 0011 f0ba 5037 96bd
00000020: daad 933d 950e 0b3d 7f08 5abd bb02 cebd
00000030: 652e fb3d 5119 63bd f014 81bd 411a f43d
00000040: 1c12 713d 7635 243c 38e0 0bbd 27b2 97bd
00000050: 6693 f93d 2720 b63c d7a1 253d 9a57 67bd
00000060: dd36 9abd 4e6e f73d 671b 663c 09a5 843d
00000070: f4bc c23d 1e0a fb3d 2fcb 703d 43e5 853d
00000080: b63c 903c 853b 1dbd 9fe9 6f3b 7895 113e
00000090: 285e 1c3c a563 873c 806b 82bd a683 a0bc
000000a0: 1357 91bd eacf b03d a2e8 9d3c 9eb8 d23d
000000b0: e01e f2bd ec9a 8d3d 0843 c13d cd7e 173d
000000c0: fdc7 87bc 7852 213e c5e1 023e 5df3 b63c
000000d0: 307b ec3c 284f 52bd 6a06 5ebd 276c 233e
000000e0: 945d 12bd 5479 cc3d 5175 713c 588b 893d
000000f0: 48d6 30bd dfa5 483c b6b9 0cbd 9477 d53d
00000100: e140 b2bd e5c1 9bbb 204e 253e 737f 823d
00000110: b7bd 6f3d 38e5 fdbc 0cf7 5ebd 9dda 91bb
00000120: 51d6 8abd e104 bd3d 922e c23c e277 c13d
00000130: 3eff a6bc f429 e03d 4bcd 6fbc 70ef 1cbe
00000140: 6f16 933c 66c7 873d d5ea 8dbc ef5b 493c
00000150: 60cd fa3d 8b31 6bbd bf62 8ebd 3835 96bd
00000160: c164 74bd 4e83 a03d 96f6 8b3d 4a6e f1bd
00000170: 6ec7 81bd 7459 84bd 1522 fe3d 4742 3d3e
00000180: a385 cabc a2e7 7abe 33a3 a6bc 8ea2 4dbd
00000190: 61f2 d7bd fdc7 15be 7408 de3d a808 83bc
000001a0: 5435 833d 6230 60be 604c de3d 4314 4abe
000001b0: f4ac ba3d 3bb4 9f3d 04a6 943d d196 563b
000001c0: dd12 8dbd f9a6 11bd b64d 783d 5e21 de3b
000001d0: 4a99 43be fcf5 34bc 022a 0a3c 78c3 72bd
000001e0: e2ab f73d 9ad1 ea3d e94e 473d 44d4 a33d
000001f0: 93db 443c 49c5 63bd d2c7 2e3e 622a 233d
00000200: 000e 003d 66f7 c13d e28b ecbd d67e acbd
00000210: ffb3 96bc 3382 103e be60 aebc d716 3d3d
00000220: c55d 97bd ba7a a5bd c3ca 2f3c eebc d8bd
00000230: bdfa 103e 7d64 133d 5e6f efbc 0719 b4bd
00000240: 92aa 9c3d 355a e53d 2a59 6bbc b66c 9ebc
00000250: 6ec9 213e 16e8 6b3d 3cda 74bc 3991 393c
00000260: 968e 4c3e ec53 ce3c 6cb0 193e 6ec6 79bc
00000270: bac9 f63d aa3d 0d3d fea3 9ebd bbaa 833d
00000280: cefe ac3d 89c2 193e 7bff 7e3c 8796 ed3b
00000290: 82cc 293e ca1a 9ebd 25bd e6bd 9131 89bd
000002a0: 5b1e 1cbd 8a0f 7fbd 8b93 f63d eabf be3c
000002b0: 6f7d dcbd cb36 c93c b888 1ebd 5038 41bd
000002c0: 5192 a8bd d3b1 5ebd 913c 693d a7fd 20bd
000002d0: 02c1 a0bd d4f2 2d3e 0c99 f5bd 5dfa 693e
000002e0: 644b 90bd 5523 a33d ef14 d03d c001 c43b
000002f0: ac4b f63d 57da 05be 3319 bf3c 6b21 d4bd
00000300: 3718 19bc 4d3f 56bd b847 c33c dd9a 893d
00000310: 9fbc b03d 7348 863c 66a1 1f3d 8609 813e
00000320: baf9 0b3e f931 a3bd d979 0dbe 326a 4bbd
00000330: 16e2 b7bd f4cb bebd 7e92 abbd a0da 823d
00000340: 9d84 fcbd 7602 4e3d 4240 32bd 92f1 23bd
00000350: 3763 e13d e893 d6bd f381 f4bd 8918 063b
00000360: 785d 69be ca1b ba3d c503 cf3d 4f37 bb3d
00000370: 1e1a f63d 1d33 cc3d 9f28 6a3d 8fe9 1abc
00000380: 0e40 383e bc25 84bc 638f ce3d 46a7 e63c
00000390: b044 593c 51a6 0a3b 368e 0bbe fa66 55bc
000003a0: fed3 773c a086 2bbc 285a 3d3d bd21 3f3e
000003b0: f860 3abd 1282 753d 29af 81bd 82bc c2bd
000003c0: 5dd6 d83d 45d6 453b 4e11 213e 8de4 fdbd
000003d0: 9358 40bc dcc4 5fbd 1656 35bc d854 24bd
000003e0: 04e4 b13d c98e 143d 8f25 a4bd 61ce d93d
000003f0: 64f0 693d ca85 ac3d b0c4 5a3d e691 913d
-0.024982832 -0.06662214 0.12988283 -0.036254905 -0.05522047 0.028631685 -0.0018315613 -0.07334769
0.07210894 0.033949453 -0.05323076 -0.100591145 0.122647084 -0.055444065 -0.06302822 0.1191907
0.05885516 0.010022512 -0.03414938 -0.07407027 0.12186317 0.022232128 0.040437546 -0.056480028
-0.075299956 0.12081586 0.014044619 0.064767905 0.09508696 0.12257789 0.05878752 0.06537869
0.017607074 -0.03838684 0.0036607755 0.14217174 0.009543933 0.016527006 -0.0636816 -0.019594025
-0.07096686 0.086334065 0.019275967 0.10289119 -0.11822295 0.06914315 0.09436613 0.03698616
-0.016574854 0.15754116 0.12781437 0.022332842 0.028867334 -0.05134502 -0.054205336 0.15959226
-0.035733774 0.09984079 0.014737443 0.06716031 -0.043173105 0.012246578 -0.034356795 0.10423198
-0.08703781 -0.0047533386 0.16143084 0.06371965 0.058530536 -0.03099309 -0.05443482 -0.0044511096
-0.06779159 0.09229446 0.023703847 0.09446694 -0.02038538 0.10945502 -0.014636348 -0.15325713
0.017955033 0.06629829 -0.01732389 0.012289985 0.122462034 -0.057420295 -0.06952428 -0.073343694
-0.0596664 0.078375444 0.06834142 -0.11788614 -0.06336866 -0.06462374 0.124088444 0.18482314
-0.024721926 -0.24502423 -0.020341491 -0.050203852 -0.10544277 -0.1462707 0.10841456 -0.015995339
0.06406656 -0.21893457 0.10854411 -0.19734292 0.091150194 0.07798048 0.072582275 0.0032743702
-0.068883635 -0.03555963 0.060620986 0.00677888 -0.19101444 -0.011044975 0.008432867 -0.059268445
0.12093331 0.114657596 0.04865924 0.07999471 0.012015241 -0.055608068 0.17068413 0.03983534
0.03126335 0.09471016 -0.11550118 -0.084226295 -0.018396376 0.14112167 -0.021286365 0.04616436
-0.07390932 -0.08080049 0.0107294945 -0.105829105 0.14158149 0.035984505 -0.029227909 -0.08793836
0.07649721 0.11198846 -0.01436452 -0.019338947 0.15799496 0.05759438 -0.014944609 0.011326128
0.19976267 0.025186501 0.15008706 -0.015245063 0.12050195 0.034482636 -0.07746123 0.06429049
0.08447038 0.15015616 0.015563841 0.0072506103 0.1658192 -0.07719953 -0.11266545 -0.06698907
-0.038114887 -0.06227068 0.1203986 0.023284871 -0.10766112 0.02456226 -0.038704604 -0.047172844
-0.08231033 -0.054368805 0.056942526 -0.0393044 -0.07849313 0.16987163 -0.11992082 0.22849412
-0.070456296 0.079657234 0.10160243 0.005981654 0.12026152 -0.13071571 0.023327446 -0.103579365
-0.009344152 -0.052306462 0.02383791 0.06718991 0.086297266 0.016391968 0.03897228 0.25202578
0.13669482 -0.07968516 -0.13816012 -0.049661823 -0.08978669 -0.09316245 -0.083775505 0.06389356
-0.123299815 0.050295316 -0.043518312 -0.0400253 0.11005252 -0.1047743 -0.11938848 0.0020461401
-0.22789562 0.090873316 0.10108141 0.09141409 0.120167 0.099706866 0.057167646 -0.009455099
0.17993185 -0.016131274 0.100859426 0.028155934 0.013261005 0.0021156261 -0.13628468 -0.01302504
0.0151262265 -0.010469109 0.046228558 0.18665214 -0.045502633 0.059938498 -0.06332237 -0.09508611
0.105877616 0.003018753 0.15729257 -0.12397108 -0.011739868 -0.0546311 -0.011067888 -0.040119976
0.08686069 0.036268983 -0.08014976 0.10635067 0.05711402 0.08423956 0.053410232 0.07107906

encoder.feature_extract.mlps.0.linears.0.bias f4 [128]
00000000: 6a1d 82bb 5dfa cd3a 583e 2cbb 11a7 c03b
00000010: 892f c5ba 6624 793b 075a 7e3b 409f 3839
00000020: c379 41bb 2a2c 01bc ed27 40ba 13bf cfba
00000030: 5ced 1f39 dbb2 8cbb a277 8cbb a571 0fbc
00000040: cb86 93bb 6b63 cfba 3691 6fbb 6e95 293b
00000050: 3cdd b53b 1442 18bb 9e33 053c 9779 9abb
00000060: d586 b33b 3983 bbb9 bd49 3b3b 62d5 81bb
00000070: 86a2 20bb 14ff 69bb 1477 12bc 9276 553a
00000080: 9b4e 3bbc 04a6 ed3b 31c2 87b9 a720 6fbb
00000090: 57aa d4ba aa2f 84b8 3073 35bb de1e 37bb
000000a0: 9096 ea3b bfc4 ba3a 82c3 dbbb f70c 3fba
000000b0: 7008 1b3b ed3f c63b afc6 d53a 156a 843b
000000c0: db1c 073c b104 c1bb 23d7 a43b ea9c 91bb
000000d0: 9aae a23a 74e6 88bb b3ad 4dbb a8c2 1dbb
000000e0: ae4a 70bb 063a c93b 782d 0abb 9417 103c
000000f0: 93ef a1ba 4726 563a 6d3a 923b 1b13 86bb
00000100: b8cd 97bb 7a67 e93b 00e4 613a 3007 abba
00000110: 4627 253b e2d2 1ebc b6be 483b caab 9ebb
00000120: ddaf a4bb 24c1 c1bb 9e86 e63a 9862 f23b
00000130: 5648 2b3b b3cc ae3b 98df e5ba af4d a93b
00000140: ba3a 9a3a 091a 04bc 0e0a 1e3b f849 153b
00000150: a41c afbb 920c 8dbb be38 063b 363b 19bb
00000160: d7dc 973b 53aa e03a 4de5 6bbb c05a 91ba
00000170: c283 b9b9 57ea ecbb 8518 f43a bb61 e63b
00000180: 9f4b a9bb afd9 ef3b 98de 93b9 85e4 143c
00000190: 58e0 e63a 40b3 583b bd81 4cbb c3c1 a7b9
000001a0: 428a dbbb 61e7 4cba 45bb d5ba 6f9e 373b
000001b0: 1ae1 dabb 539c 433b f1cf ad39 32c2 ec3b
000001c0: 8a03 8ebb d4bd 833b 6a14 563b dc33 a1bb
000001d0: ca9b ccb9 411c 803b 62a3 ac3b 8127 733b
000001e0: ba26 f43b 022d 423b 98ce a5bb 5a53 45bb
000001f0: aa2e 373b ddd4 82bb 8517 a1ba 128a 063b
-0.0039707916 0.0015714873 -0.0026282277 0.005879291 -0.0015044074 0.003801608 0.0038810985 0.00017606933
-0.0029522039 -0.007884065 -0.0007330168 -0.0015849791 0.00015251845 -0.004293782 -0.0042867223 -0.008755122
-0.0045021526 -0.0015822476 -0.0036555058 0.002587642 0.005550055 -0.0023232745 0.008129982 -0.0047142017
0.0054787197 -0.00035765188 0.0028577887 -0.003962205 -0.0024510934 -0.0035705017 -0.008939523 0.00081429735
-0.011432315 0.0072524566 -0.0002589389 -0.0036487968 -0.0016225082 -6.3031286e-05 -0.0027687065 -0.0027941982
0.0071590617 0.0014249309 -0.006706656 -0.00072880037 0.0023656152 0.006050101 0.0016309823 0.0040409663
0.008246626 -0.005890452 0.005030529 -0.0044437544 0.0012411654 -0.004177863 -0.003138405 -0.0024072323
-0.0036665606 0.00614095 -0.002108423 0.008794684 -0.0012354724 0.0008169156 0.0044625313 -0.004091633
-0.004632678 0.007122931 0.00086170435 -0.0013048407 0.002520041 -0.009693833 0.003063125 -0.004842256
-0.0050258473 -0.0059129167 0.0017587726 0.007397007 0.0026135645 0.0053344606 -0.001753795 0.0051667313
0.001176677 -0.008062848 0.002411488 0.0022779685 -0.0053439904 -0.004304477 0.0020480598 -0.002338124
0.0046344805 0.0017140604 -0.0035994828 -0.0011089668 -0.00035384117 -0.007230084 0.001862303 0.0070306933
-0.0051664854 0.007319651 -0.0002820387 0.009087686 0.0017614467 0.0033065826 -0.003120526 -0.00031997086
-0.006699831 -0.00078164606 -0.0016306421 0.0028018018 -0.006679666 0.0029847815 0.0003315206 0.0072252983
-0.004333918 0.004020432 0.0032665976 -0.004919512 -0.00039025984 0.003909618 0.0052685 0.0037102404
0.0074509056 0.0029628878 -0.0050600283 -0.0030109496 0.0027951398 -0.0039926604 -0.0012290335 0.0020529074

encoder.feature_extract.mlps.0.linears.1.weight f4 [128, 128]
00000000: 1c72 963d fb53 7fbd 5f7f 443d 7f32 f3bb
00000010: 85c5 973d c46f cdbb 3f61 c7bd 1bd1 9abd
00000020: 749a 353e c5c7 723c 5814 cabd 41fd 61bd
00000030: 3c1a 313b 3ce1 133c 5c4b 263d c886 5f3e
00000040: 9407 c4bc bdb2 eb3c d269 a1bc f7f1 67bd
00000050: f62a f9bd dc3f c2bd babd 99bd 530b 793d
00000060: 2e10 e33d 1fa7 2dbd 15fc 65bd 67eb fb3c
00000070: 15aa acbd c41b 04be a529 f9bd 844d 593e
00000080: e1fe 3ebd 652f 8ebd 3f5f 043d b504 5fbd
00000090: 5a86 0abc 9187 38be 43be 1cbe 9ed2 333d
000000a0: 3d64 943d e8c0 fcbd ff8e 6fbe 1b33 b4bd
000000b0: 4d11 0fbe dc24 32bd b97f e63d 9dfc 7abd
000000c0: d08e 1fbe 1178 2dbe b541 f73d 959d 2a3d
000000d0: 3821 c4bd a73e 78bd daca 713c 54e1 abbc
000000e0: a6ba 903d 20a9 9e3d 817b 153d 15d5 9abc
000000f0: 9077 ec3d a5eb 133e dfd1 e6bd 1ac3 b339
00000100: 1ec3 9f3c bef1 13bc a1e8 edbd c74a 813e
00000110: 15fd 03bd f5fc 183b f765 b93d 940c 693d
00000120: 483b 8fbc 8725 b43b 06dc d43a 1869 e73c
00000130: 1002 753c 45d7 b93c 34fd ea3d f22a 6d3d
00000140: c7d1 03bd 5583 90bd 7bdc f53c 3f4d 3bbc
00000150: e649 3b3d ec30 25bc c1f0 2eba adb1 10be
00000160: b65d 943d 819e ca3c 3c62 e63c 1908 9f3d
00000170: b1fb dc3d 9f9e 11be 9bd7 a53c 6dd8 33bd
00000180: 9866 e1bb 9f06 133d 04c1 b6bc fd6a 86bd
00000190: dee5 27bd bf51 27be 4025 37be dc49 29bd
000001a0: 8994 04bc 82e6 1c3d f7b5 d33c 3826 073d
000001b0: 0c63 ec3d efdb 88bd fd84 063b ac89 4e3d
000001c0: 6e7b dd3c 7f46 f6bc 8c74 80bd a7c2 10be
000001d0: 42a8 933d 9196 d63d 376b 963a b796 6cbd
000001e0: c2c1 63bd df90 c53d cebe 20be 9b9b 2e3c
000001f0: 0425 93bd 3e98 d9bd 8968 1abe fbe4 0fbd
00000200: 2ae7 e2bb a842 69bd 0a73 0bbc 39a2 51bd
00000210: a7d8 113d 024a 09bd 387f 5bbd f375 7bbd
00000220: c52a 783c 649f e1bd 3f02 4dbc b42c 1abe
00000230: ce20 4ebe fcdb 7dbb c975 b23d 5598 87bd
00000240: 053e 61bd f69c 143e 673f 813d 32e3 eb3d
00000250: abcf a8bc 4c54 1bbc 0eed b5bd 34b1 97bd
00000260: 5a96 503e 0f7c a53d a27c 483c ca58 063d
00000270: 7fed d8bd 74d2 683d 743c c63d c44a e3bd
00000280: af91 81bc e43e e1bd efc1 d6ba 999a 87bd
00000290: 55a9 123e e8a3 b03c 05dd 0a3e f432 99bc
000002a0: 9507 1d3d e2eb ae3c 2e11 4c3d 7490 0e3e
000002b0: 628f dcbd 1d58 9d3d e85a a13d 5a85 243c
000002c0: f93d 2b3e 8a0f 803c de16 c03d 1bdb b2bd
000002d0: cc06 893c 687e 2f3e 2016 fd3d 3ea0 36bb
000002e0: 116c 273d df04 fe3d 1782 4b3c cfd9 2bbd
000002f0: 9a7c c5bb 4aa7 0bbc 6c01 083e a7e9 933d
00000300: 2b3d babd 5daa f4bd eedb 5ebd 5fe7 3a3d
00000310: b53a 933d 9cbd 9d3d e2c8 d4bd 5ef3 a3bc
00000320: 248b 70b9 a6a1 e93d bc19 dcbd a0b2 dbbd
00000330: 82f6 e1bd b3b0 febd 3eb1 86bc 7a60 b4bb
00000340: a1ec fcbd 27de c7bc 4dcb 60be 3813 763d
00000350: d32f 8c3d b4fc 903d d77f f43c 6b53 183e
00000360: 8e38 8d3d 5cba 973c e7c6 da3d b39b 06be
00000370: 97fb 16bc 4046 973d 918a 9fbc 94af 11bd
00000380: 5c09 6e3d ff62 223e 5e03 2fbe ec25 1abd
00000390: b4b5 843d b6f9 abbd dc5b 4f3d aa12 3a3b
000003a0: 1821 023d 2fa9 c63d b204 64bd 530d 363d
000003b0: 9c1b 483d f963 45be ec18 0dbb b0d4 69bd
000003c0: d67d 34be ec94 a23d 3c2f 27bd 46e9 ffbc
000003d0: 6bc0 243e 3ac0 5e3d 3d7e c1bb beaf 77bb
000003e0: 0f87 093d 0236 b53c 650f 6e3d 73cf 9abd
000003f0: 3831 aebd a10e a83d cfc6 56be c743 1bbc
0.073459834 -0.06233595 0.047973033 -0.007421791 0.07410721 -0.006269427 -0.09735345 -0.07559415
0.177347 0.014818137 -0.098671615 -0.055173162 0.0027023694 0.009025868 0.040599212 0.21828759
-0.023929395 0.028771752 -0.01970378 -0.05662724 -0.12166397 -0.094848365 -0.075068906 0.060801815
0.110870704 -0.042395707 -0.056148607 0.030751897 -0.08430878 -0.12901217 -0.12166146 0.21220976
-0.04662979 -0.069426335 0.032317396 -0.05444785 -0.0084548835 -0.18020464 -0.15306954 0.043902032
0.072456814 -0.123414814 -0.23394392 -0.0879881 -0.13971443 -0.043492183 0.1125483 -0.061276067
-0.15581822 -0.16940333 0.120730795 0.04165419 -0.095766485 -0.060606625 0.014757836 -0.020981468
0.0706685 0.07747102 0.036494736 -0.018900434 0.11546242 0.1444536 -0.112704985 0.00034286903
0.019502219 -0.009029804 -0.11616636 0.25252363 -0.03222378 0.0023344134 0.090526514 0.05689676
-0.017484322 0.0054976377 0.0016239889 0.028248355 0.014954105 0.022685656 0.11474076 0.057902284
-0.03218248 -0.070562996 0.03001236 -0.011431991 0.045724772 -0.010082465 -0.00066734484 -0.14130278
0.072444364 0.024733784 0.028123014 0.077652164 0.10790194 -0.14220665 0.02024441 -0.04390757
-0.006878685 0.035894986 -0.022308834 -0.06563375 -0.040990703 -0.16339777 -0.17885303 -0.041330203
-0.008092054 0.038305767 0.025843604 0.032995433 0.11542329 -0.06682574 0.0020526045 0.050424263
0.027036395 -0.030062912 -0.062722296 -0.14136754 0.07209827 0.10477937 0.0011476044 -0.05776092
-0.055604704 0.096467726 -0.15697786 0.010657216 -0.071847945 -0.10624741 -0.1507894 -0.035130482
-0.0069245296 -0.056948334 -0.008511314 -0.0511801 0.035607006 -0.033517845 -0.053588122 -0.061391782
0.015146916 -0.110167295 -0.012512743 -0.15056115 -0.20129701 -0.0038735857 0.08713872 -0.06620852
-0.054990787 0.14513001 0.06310921 0.115179434 -0.020606836 -0.009480547 -0.08883105 -0.07406846
0.20369855 0.08080303 0.012236746 0.03279952 -0.10592174 0.05684133 0.09679499 -0.11098245
-0.015816538 -0.109983236 -0.0016384701 -0.06621284 0.14322408 0.021562532 0.13560875 -0.018701054
0.03833731 0.021352712 0.04982107 0.13922292 -0.107695356 0.07682822 0.07878667 0.010041559
0.1672286 0.01563241 0.093793616 -0.08733197 0.016726874 0.17138064 0.12357736 -0.0027866508
0.040874545 0.12403273 0.012421153 -0.041955765 -0.0060268166 -0.008523772 0.13281792 0.072223
-0.09093698 -0.11946557 -0.05440896 0.04563081 0.07188932 0.07702181 -0.10389878 -0.020013507
-0.00022940018 0.11407785 -0.10747096 -0.107274294 -0.11033346 -0.124360465 -0.016441938 -0.005504665
-0.12349821 -0.024397923 -0.21952553 0.060076922 0.06845059 0.07079449 0.029846115 0.14875571
0.068955526 0.01852148 0.10682469 -0.13145332 -0.009215257 0.07386446 -0.019475253 -0.035567835
0.058114395 0.15858077 -0.17091128 -0.03763382 0.064799696 -0.08397238 0.050624713 0.0028392472
0.031769842 0.09700238 -0.05566854 0.0444463 0.048854455 -0.19276418 -0.0021529747 -0.0570876
-0.17626128 0.07938561 -0.04081653 -0.031239163 0.16089027 0.05438254 -0.0059049414 -0.003779396
0.033576068 0.02212048 0.05812015 -0.07559099 -0.085054815 0.08205915 -0.20974277 -0.009476609

encoder.feature_extract.mlps.0.linears.1.bias f4 [128]
00000000: cfe6 27bb 701d 7dba 228a 50bb 0536 d13a
00000010: 5483 91bb aaab 37ba 1598 0f3a 5bf5 32bb
00000020: 2e55 2ebb 9c5d 8d3b 01ee 7d3a 91bc 65bb
00000030: 9828 acbb b5f4 c23a 1096 abbb 5c48 a9bb
00000040: 0442 583a 236e 063a 59b7 0f3b 4ee5 9b3b
00000050: ceee 1dba 89aa 52ba 5beb 3bba ce98 c6ba
00000060: 3c7f 943a 2939 153a 664c c2bb 4154 91bb
00000070: 0307 5d3a 0eac d03a 1370 f23a 80ad cfb9
00000080: e9a2 aa3b 1cc4 9aba 5cac aa3a 09af eabb
00000090: 4c20 023b 7d2f 84bb 8f9b 38bb e013 e53a
000000a0: d8e1 5d3a 95a4 cf3b fc16 ebb7 c368 873b
000000b0: 9dd2 f838 5a26 d23b 0282 4bbb 4290 b4ba
000000c0: 9437 4339 2d21 213b 69db f13a f7f1 323a
000000d0: 8b70 2e3b cd20 c73a 5a0d 62bb 56a3 43ba
000000e0: d964 b8ba eaa0 b1bb f11c 94bb 8bd2 83bb
000000f0: b90c bdba ee38 6cbb b200 16bb 8b6e 9abb
00000100: bb75 4c39 55e8 51bb 0133 0d3b cebd 75ba
00000110: 30af 26bb 5090 1cbb b4dc 073b a222 acbb
00000120: fabd 393a a0c2 863a 97bc 6e39 f68c 8e3b
00000130: c4a2 8f3b 2d21 373b fd10 423a cfe0 9dba
00000140: d7b3 df3a b848 883a 2ebd 7e3b 9e1e ccbb
00000150: 99e4 613a 13da ae3b f813 8e3b f5bf 30b7
00000160: 2a34 3e3b 9ced 183b 2c42 e53a 8640 48bb
00000170: 18b2 5bb9 0d84 beba d0a2 c6b7 dcc1 573a
00000180: aa2a bab8 5b7e 31ba d0c6 02bb f925 aebb
00000190: 0063 323b e2b5 c0bb 876c 723b da3c 11bb
000001a0: 11f2 f0bb 235f 623b 282c fc3a 697b 153b
000001b0: 4a87 ac3b 5549 603a 0757 913b e412 52b8
000001c0: 8684 0eba 61e0 5539 aafb 12bb 08a6 91bb
000001d0: 326a 483a 7f0b 87bb c00e 683b 075b 453a
000001e0: ad2a 5d3a c80c 9d3a 3dbb e3b9 845e d9bb
000001f0: 5fa6 71ba 3960 ecba cc20 0b39 776d c0ba
-0.002561975 -0.00096555706 -0.0031820615 0.0015961534 -0.0044407044 -0.0007006476 0.0005477679 -0.0027306888
-0.0026601064 0.0043141376 0.00096866494 -0.0035055021 -0.0052538626 0.0014873954 -0.0052363947 -0.0051660966
0.0008249583 0.0005128106 0.0021929352 0.00475756 -0.00060246594 -0.0008036276 -0.00071685546 -0.001515174
0.0011329423 0.00056924165 -0.0059295176 -0.0044350927 0.0008431526 0.0015920417 0.0018496535 -0.00039611384
0.0052074087 -0.0011807713 0.0013021338 -0.007161979 0.0019855676 -0.0040339814 -0.0028168892 0.0017477237
0.00084641343 0.0063367584 -2.8024886e-05 0.0041323616 0.00011864791 0.0064132633 -0.0031052832 -0.0013775902
0.00018617354 0.0024586425 0.001845223 0.00068262167 0.0026617374 0.001519227 -0.0034492821 -0.00074629986
-0.0014068141 -0.005420794 -0.0045200516 -0.0040229014 -0.0014423347 -0.0036044675 -0.0022888598 -0.004712885
0.00019498814 -0.003202935 0.0021545293 -0.00093742914 -0.002543401 -0.0023889728 0.0020730915 -0.005253152
0.00070854987 0.0010281391 0.00022767704 0.0043503 0.004383417 0.0027943358 0.0007403044 -0.0012045148
0.0017067146 0.0010397648 0.0038870084 -0.006229236 0.00086171326 0.005336055 0.0043358766 -1.0535111e-05
0.0029022791 0.0023334986 0.0017491034 -0.0030556037 -0.00020951813 -0.0014535204 -2.3679255e-05 0.00082304864
-8.877118e-05 -0.00067708426 -0.0019954927 -0.0053145853 0.0027219653 -0.005881057 0.0036990957 -0.0022161514
-0.0073530753 0.003454157 0.0019239234 0.0022809154 0.005265151 0.0008555849 0.0044354233 -5.0085495e-05
-0.00054366176 0.0002039685 -0.0022427836 -0.0044448413 0.0007645219 -0.0041212435 0.0035409182 0.0007528518
0.000843684 0.0011981959 -0.00043436317 -0.0066335816 -0.00092182116 -0.0018034048 0.00013268291 -0.001468106

encoder.feature_extract.mlps.0.linears.2.weight f4 [128, 128]
00000000: e0f0 d23c bcc0 0b3e 921b 10be 850f 733d
00000010: 6b12 3ebd b0b4 14bd 1d78 96bd daa0 b7bc
00000020: 1e4f 08bd 3e82 40be 78de c53d 7151 9b3d
00000030: b35f cdbd a92e 65be f177 e9bc 0511 90bc
00000040: eba8 2cbe 3462 b03b f77d 87bd ed83 033d
00000050: f0c6 ff3d ed14 063e 829b a23c dccf acbd
00000060: ccaa dc3d e627 eb3d 4cdc 303e bbc3 77bd
00000070: 1d20 67bc 8a29 883d e95a f03d ef01 43bd
00000080: 227b 89bd dff1 c93d c25f 19bd 3444 273b
00000090: 8cae 5fbd 184d 1d3d 2cc9 0cbe e936 a53d
000000a0: fd47 773b ac7f 243e f41a a3bc 75a8 63bd
000000b0: 568b f3bd b7b4 0ebe f525 c23d d967 a43b
000000c0: 86f8 003e 053f eabc 9230 e2bd 298a 9f3c
000000d0: dc89 9abc 5af6 093e d687 c93d 5488 fcbd
000000e0: 3b3c 95bc f548 4abd 6c40 e63d f0f3 70bd
000000f0: 551f c4bd 15a2 11be 4e6c f53d 343f b9bc
00000100: 873f 203e b4ff 1ebc 8ba0 023e b457 f23c
00000110: ca5e 11bd 6d08 1ebd 030d f9ba 0ba8 e2bd
00000120: d3de 63bd 3297 3cbd 0806 83bd dfc5 bf3c
00000130: a2f6 08bd 9291 573d 6c41 f8bd 6a91 92bd
00000140: 034b 21be 9912 d93c 32c8 923d c83e d3bb
00000150: 249d b43d 1776 2d3d 8a9b 973d b8e4 e1bc
00000160: 7aa3 1bbd d3ae 04be d0e4 6f3c 227f 103c
00000170: 22fe a53d 6fa9 fb3c 6586 dabd a042 c2bc
00000180: ad0a c13d 03bb 44bc 96ea 2d3e 40e1 023e
00000190: 23ed 103e 403f 02be b8d3 23be cdae ce3d
000001a0: 5de2 1a3d ea51 17bd eb23 883a f6e7 133c
000001b0: 0af1 a13d d295 9d3a e82d 3c3d e2c6 b4bd
000001c0: 267a a0bd bffd 12be f2ec cb3d 1d6e 9ebc
000001d0: f5f9 51bc 4c51 413d 2996 aabd d16d 813d
000001e0: ade5 083e c1db 84bd bbd9 9fbd 687f bfbd
000001f0: a1fd a63c 41a7 bebc bd1e da3d cae0 04be
00000200: e914 c53c c542 14bd 4fe8 ac3c 3973 b1bd
00000210: af05 ef3c 3d9e f23d 89c5 3bbd 73c3 c23d
00000220: ac2f edbd 4c3c 33bd b6e4 dfbd 3f10 aebd
00000230: 064e 653d dc12 62bc d06d d23c 5f5c c73c
00000240: b88d 51bd 5a63 efbd 144c a0bd d9e1 ae3c
00000250: 481c 303d 5951 783d eb14 f3bc cbf8 aa3d
00000260: 3786 d73c b6b8 9f3d 7ec6 53ba 96d6 20bd
00000270: 90e8 98bd 7e12 1e3e 30f8 efbc 3d34 b03d
00000280: 945c 1b39 25b1 75bb 34fe b43b a7c4 3e3e
00000290: 65e7 30be b069 8cbe 3a85 f6bd e074 47bd
000002a0: bff1 923d 9880 263d d12b 753e d22a 58bd
000002b0: 1ce2 6c3d 7fcc 593d 224c d2bb a130 5e3b
000002c0: 90bb 103e c751 cabd 57db a93d 22d9 3cbd
000002d0: 0bb6 9fbd 727a 89bb fe02 2abe bd2b 873d
000002e0: 4975 08bd eaf3 f5bd 16a2 a03d 68d9 41bd
000002f0: 9a5f cc3c d04b 3d3d 59cf a5bd da13 01be
00000300: 87f2 8c3c 220f 8dbd 0a1d d5bd 02db 80bd
00000310: 44b0 84bd a3c0 2bbd 2cd7 273d 17ef 2ebd
00000320: 16e0 d03d 32c3 1b3e d61a 84bc 1d36 aabd
00000330: 3a32 d1bd da60 273e 2bac 643c 19ce 10be
00000340: c0a7 34be 111e 86bc ad35 bc3c 2896 c5bc
00000350: 9d2c 833d a809 483e 1e51 64bd 2db6 e13c
00000360: 4495 b33d 9131 3fbd 8442 8c3c a2fd 80bd
00000370: c426 eabd 7283 a23d f374 1c3e 8586 78bd
00000380: fcb1 233e 0f22 c6bd 4a3a 1f3d 00a1 16bd
00000390: a3ed aebd 0504 55bd 9783 f83d 8ada 3ebb
000003a0: 1053 3cbd 086d 353e 4dd2 4a3e d176 32bc
000003b0: 1318 f53c 5bfe 043e efd0 8a3d 4837 65bc
000003c0: cf0a 55bb a6e3 02be 85ef 3ebd 6e41 823d
000003d0: 7b82 a63b f384 07be d318 70bd a1d6 aebb
000003e0: b89d ebbb 23dc 9c3c 9c85 d33d 34a1 1d3d
000003f0: aa31 233d 9ea5 a73d b74c 58bd 97ea 06bd
0.025749624 0.13647741 -0.14073017 0.059340972 -0.046404283 -0.03630513 -0.073471285 -0.022415567
-0.033278577 -0.18799683 0.09661573 0.07583893 -0.10028019 -0.2238108 -0.028499575 -0.01758624
-0.16861312 0.0053828005 -0.06615823 0.032108236 0.12489116 0.1309392 0.019849543 -0.084380835
0.107747644 0.114822194 0.17271537 -0.060489397 -0.0141067775 0.06648548 0.1173609 -0.047609266
-0.06712939 0.098605864 -0.037444837 0.002552283 -0.05460982 0.0384036 -0.13748616 0.08067114
0.0037732117 0.16064328 -0.019910313 -0.055580575 -0.118918106 -0.13936125 0.09479896 0.0050172624
0.12594804 -0.028594503 -0.1104442 0.01947506 -0.018864565 0.13472882 0.09840362 -0.1233069
-0.018217197 -0.049385983 0.11242756 -0.058826387 -0.095762886 -0.14221986 0.11983548 -0.022613145
0.15649234 -0.009704519 0.12756555 0.029582836 -0.03549079 -0.038582254 -0.001900107 -0.11067208
-0.055632424 -0.04604263 -0.06397635 0.023409782 -0.033438332 0.05262906 -0.12121853 -0.07156642
-0.15751271 0.026498126 0.071670905 -0.006446693 0.08819035 0.042348947 0.074027136 -0.027574882
-0.0379977 -0.12957315 0.0146419555 0.008819373 0.081051126 0.03072044 -0.10670165 -0.02371341
0.09425864 -0.012007478 0.16984019 0.12781239 0.1415296 -0.1271944 -0.15998733 0.10091934
0.037813533 -0.036943354 0.0010386681 0.009027472 0.07907303 0.0012022799 0.045942217 -0.088269964
-0.07835798 -0.14354609 0.09957303 -0.019339615 -0.012815942 0.04719667 -0.08329422 0.06319774
0.13368864 -0.06487227 -0.07805201 -0.09350473 0.020384612 -0.023273112 0.10650394 -0.12976375
0.024057822 -0.03619649 0.021106867 -0.08664555 0.029177515 0.11846588 -0.04584268 0.09509935
-0.11581358 -0.043758675 -0.10932295 -0.084991924 0.055982612 -0.013798442 0.025687128 0.024336038
-0.051160544 -0.11688872 -0.07827011 0.021347927 0.04299572 0.060624454 -0.02967306 0.08348235
0.026309116 0.07798903 -0.0008078589 -0.039267145 -0.07466233 0.15436742 -0.02929315 0.08603714
0.0001481644 -0.003748962 0.0055234674 0.18629704 -0.1727577 -0.27424383 -0.1203713 -0.048695445
0.07175016 0.04064998 0.23942496 -0.05277521 0.057832822 0.05317354 -0.006417767 0.0033903497
0.1413405 -0.09878879 0.08293789 -0.04610551 -0.07798394 -0.004195505 -0.16602704 0.06600139
-0.033314977 -0.120094135 0.078434154 -0.047326475 0.02494793 0.04621488 -0.08096189 -0.12605229
0.01720549 -0.06887652 -0.104059294 -0.062917724 -0.064789325 -0.04193176 0.04097669 -0.042708483
0.10198991 0.1521118 -0.016126078 -0.083111025 -0.10214658 0.1634554 0.013957064 -0.1414112
-0.17642117 -0.016371759 0.022974813 -0.024119452 0.06404994 0.19534934 -0.055741422 0.027552688
0.087687045 -0.04667813 0.01712156 -0.062983766 -0.11433175 0.079352275 0.15278988 -0.060675163
0.15985864 -0.09674465 0.03887395 -0.036774635 -0.08541419 -0.052005786 0.12134474 -0.0029121959
-0.045977652 0.17717373 0.19806786 -0.010892586 0.029918706 0.12987654 0.06778132 -0.013990231
-0.0032507663 -0.12782153 -0.046615142 0.06360136 0.0050814725 -0.1323431 -0.058617424 -0.0053356444
-0.0071904324 0.019147938 0.10328218 0.038483813 0.039842285 0.08185886 -0.052807536 -0.032938566

encoder.feature_extract.mlps.0.linears.2.bias f4 [128]
00000000: cc15 af3a 9886 a4ba 0c0a f638 d93f a73a
00000010: c5d5 61bb 9432 5939 c11d 12bb 76b9 a83a
00000020: ceac b1ba f192 fc3a 4bda 31bb 67ff 40bb
00000030: 9c16 82bb 62d7 563a 59ec 5bbb 3d22 abba
00000040: ace3 083a 3531 ffba 4659 b7ba 6256 af3a
00000050: ff64 1ebb 36c7 3bbb 3137 eab9 4b0d 1dbb
00000060: 7847 a4b8 ffee 9b3b 75a4 5939 5e7f 3eba
00000070: eef0 82b9 2103 26ba 0f16 b6b7 35d7 d23a
00000080: 3a02 60ba 9a16 6a3a 77a0 963b 3924 1bba
00000090: 7607 deba 90d1 82b7 a73d bfb9 5120 4db9
000000a0: 233b be3a b49b c2ba 8aa8 543a c283 65b8
000000b0: 2184 40bb 24f0 10b9 a028 913b 6153 903a
000000c0: 8415 5a3b 5aaf 693a d6af 0539 81ea c7b9
000000d0: 2e19 463a 8317 a9ba 371d 323b 5c0f c037
000000e0: 81e3 553b 14d9 7cba 7adf c4b8 91d1 e8ba
000000f0: 0bff 51bb 4fa6 4c3b d30e 9839 afff 873a
00000100: 760e 3039 9c33 4439 a456 3a3b 46c9 90bb
00000110: edce 7ebb f97b 4abb d183 66ba 5a9e 003b
00000120: 572c c3bb 2a8a 293b c21c 243b be2f bb3a
00000130: 9442 38ba c65b 0fbb 2862 fc39 9ac0 bc39
00000140: 7593 efba e931 8cb8 c1fc 8539 415d 843a
00000150: 2856 e039 69fc 133a 898b 8139 eb6c 3ebb
00000160: 22c7 903b 0e6f 1fba a897 4cbb 439d 97bb
00000170: a571 0bba 532b 56ba 1876 86bb a91b c33a
00000180: 1f69 34ba 3811 ddba 071b 453b 7080 a7b8
00000190: 78e3 39ba a47c 4dbb a01c 03bb 5b0f 2f3b
000001a0: 5258 3cba ebbe 023b 4187 0f3a 3ccb efba
000001b0: 03a0 98bb 7725 af3a 1f29 8b39 14cf a4ba
000001c0: 39ed 8e38 508b aa3a 6b98 c23a 8a55 c93a
000001d0: b1c1 dbba 750f 063b 445c b03a 336e 2cba
000001e0: 6cc3 bf3a daaf d6b9 c3e8 fbba a993 db3a
000001f0: cfef 2dba ff0c fa39 bfd5 1dbb be9b 0ab9
0.0013357936 -0.0012552319 0.000117320655 0.0012760117 -0.0034459692 0.00020713574 -0.0022295567 0.0012872654
-0.0013555528 0.0019269866 -0.002713817 -0.0029449107 -0.0039699804 0.00081955467 -0.0033557622 -0.0013056468
0.0005221914 -0.0019469621 -0.0013988398 0.0013377185 -0.0024169085 -0.0028652675 -0.0004467308 -0.0023964222
-7.8334415e-05 0.004758715 0.00020755998 -0.0007266904 -0.0002497504 -0.00063328637 -2.1706363e-05 0.0016085865
-0.00085452537 0.00089297595 0.0045967656 -0.00059181784 -0.0016939479 -1.5594793e-05 -0.00036476293 -0.00019562362
0.0014513474 -0.0014847429 0.00081122725 -5.4720564e-05 -0.002937563 -0.0001382237 0.0044298917 0.0011011177
0.0033276984 0.0008914374 0.00012749372 -0.00038130957 0.00075568527 -0.0012900684 0.0027178058 2.2895336e-05
0.0032636824 -0.0009645384 -9.387634e-05 -0.0017762651 -0.0032042887 0.0031227057 0.00029002744 0.0010375882
0.00016790055 0.00018711243 0.002843299 -0.004418525 -0.0038880662 -0.0030896647 -0.0008793446 0.0019625635
-0.0059562135 0.0025869706 0.0025041555 0.0014281196 -0.0007028964 -0.002187477 0.00048138318 0.00036001654
-0.0018278199 -6.685017e-05 0.00025556053 0.0010098593 0.000427888 0.0005645217 0.0002470876 -0.002905662
0.0044182697 -0.0006081917 -0.0031218324 -0.0046269014 -0.00053193636 -0.0008169908 -0.0041034333 0.0014885563
-0.00068821193 -0.0016866094 0.0030075924 -7.987104e-05 -0.00070910854 -0.003135481 -0.0020006076 0.0026712033
-0.00071847916 0.0019950222 0.00054751715 -0.0018294821 -0.0046577468 0.0013362606 0.00026542784 -0.0012573921
6.815274e-05 0.0013011489 0.001484645 0.0015360576 -0.0016766099 0.002045599 0.0013455232 -0.00065777
0.0014630384 -0.0004094828 -0.0019219149 0.001675238 -0.00066351605 0.000476934 -0.0024083701 -0.00013218724

encoder.feature_extract.mlps.0.batch_norms.0.weight f4 [128]
00000000: 12ee 7f3f da65 803f f0b9 7e3f 35d7 7f3f
00000010: f6c5 7e3f 1d26 803f 9911 7d3f 914c 7f3f
00000020: 6faf 7e3f 7423 803f 1128 803f 023a 7e3f
00000030: 3bb5 7f3f a1dd 803f 4cbf 7e3f 7ffc 7f3f
00000040: b4a8 7f3f 239c 803f 5cbe 7f3f f031 7f3f
00000050: 7b80 7f3f 2a60 803f e033 803f 485d 7f3f
00000060: ab02 803f 3be4 803f 34ed 7f3f bd20 803f
00000070: f505 7f3f 92ae 803f 2ea9 7f3f 1dcf 7e3f
00000080: 2c68 803f 5937 7f3f 468d 7f3f db12 803f
00000090: 1a99 7f3f dbd6 7e3f 73c7 7f3f 7e34 803f
000000a0: 2e6b 803f 9d3b 7f3f dbbb 7f3f a0de 803f
000000b0: 9716 7f3f bbce 803f 257a 803f 2501 803f
000000c0: 9aaf 803f 1765 803f eff4 7d3f 41a2 7f3f
000000d0: fd8b 803f a74b 803f 8421 7f3f 7cf6 7f3f
000000e0: 3cdb 803f ab20 813f 1cab 803f c18a 803f
000000f0: c1a4 803f e496 803f ae35 803f 53cd 7e3f
00000100: 3829 813f 8545 7f3f 7547 803f c076 803f
00000110: 19d5 803f 83da 7d3f 0145 813f 45aa 7e3f
00000120: 29da 7e3f 9c7a 803f 157d 7f3f 8005 803f
00000130: 61f4 7e3f ae5b 803f e9b5 7e3f 28b6 7e3f
00000140: e669 803f da99 7f3f df6c 803f 5c38 7f3f
00000150: 1091 7f3f e1f2 7f3f 5d05 803f 8993 7f3f
00000160: 412d 803f 808b 7e3f 8c23 7f3f f7e3 7f3f
00000170: f9cb 7f3f 39a0 7e3f ee6a 803f 0966 803f
00000180: 23a6 803f b768 7f3f 1176 803f a477 7f3f
00000190: 3042 803f 68a0 7f3f a8e1 7f3f fbb1 7f3f
000001a0: 4cbe 803f 06dc 803f 911b 813f 0b9f 7f3f
000001b0: d63c 7f3f fd47 803f 4674 803f b127 803f
000001c0: 8ab0 7f3f 4158 803f aec1 7e3f 13a8 7f3f
000001d0: 6f57 803f 253c 803f e1c8 803f bf16 803f
000001e0: cacf 803f ed97 7e3f e52b 813f cae1 7e3f
000001f0: 0006 803f 788a 7e3f a53a 803f 264d 7e3f
0.9997264 1.0031083 0.9950247 0.99937755 0.99520814 1.0011631 0.98854977 0.99726206
0.9948644 1.001082 1.0012227 0.9930726 0.9988591 1.0067636 0.99510646 0.99994653
0.99866796 1.0047649 0.9989984 0.99685574 0.9980542 1.0029347 1.0015831 0.9975171
1.0000814 1.006965 0.9997132 1.0009991 0.99618465 1.0053275 0.9986752 0.9953478
1.0031791 0.9969383 0.9982494 1.0005754 0.9984299 0.99546593 0.9991371 1.0016019
1.0032709 0.9970034 0.9989602 1.006794 0.99643844 1.0063089 1.0037276 1.0000349
1.0053589 1.003085 0.99201864 0.99856955 1.0042721 1.0023087 0.99660516 0.9998548
1.0066905 1.0088094 1.0052218 1.0042344 1.0050279 1.0046048 1.0016382 0.9953205
1.0090704 0.99715453 1.0021807 1.003624 1.0065032 0.9916155 1.0099183 0.9947856
0.99551636 1.0037417 0.99800235 1.0001678 0.9959164 1.0027978 0.9949632 0.994967
1.0032318 0.99844134 1.0033225 0.9969537 0.9983072 0.9997998 1.0001637 0.99834496
1.001381 0.9943161 0.99663615 0.9995722 0.9992061 0.9946323 1.0032632 1.0031139
1.0050701 0.9976916 1.0036031 0.9979193 1.0020199 0.99854136 0.999537 0.9988095
1.0058074 1.0067146 1.0086538 0.99852055 0.99702203 1.0021969 1.0035484 1.0012113
0.9987875 1.0026933 0.9951428 0.99865836 1.0026683 1.0018355 1.0061303 1.0006942
1.0063412 0.9945057 1.009152 0.99563277 1.0001831 0.99430037 1.0017897 0.9933647

encoder.feature_extract.mlps.0.batch_norms.0.bias f4 [128]
00000000: ff16 613b 48fe 5039 0417 14bc 2a8c c5bb
00000010: dc58 16bb d237 063b 8922 34bc 1dad c5bb
00000020: e1b0 f1ba 8842 3cbb 0112 9abb d68d b4ba
00000030: a629 47b9 3d67 a93b 3a85 00bb 37bd 2e3b
00000040: 9603 6a3a 813c dc3b 3d16 b5bb 3934 81bb
00000050: 4190 883b 7d1d 4a3a f9e2 41bb 491a 99bb
00000060: edb5 063c 93b4 0fbb fed7 bbbb 3b08 c2bb
00000070: 576e 8abb 31f4 1c3c 2b4c 903b 142f 02bc
00000080: f93d 0e3c bbb7 52bb 0258 123a 093d 55bb
00000090: a50c e5bb 206f 83bb 6027 0abc b078 653a
000000a0: d9b1 9d39 4de5 75bb 8622 823a 9717 71bb
000000b0: 216b 423b 6199 073c 03a9 f63b 1265 b1bb
000000c0: 487b 403b a1c1 aa3b 146d b9bb 11f4 b53a
000000d0: 82d9 64ba f5a1 353b c00a e3bb d113 aebb
000000e0: 228f b23b f9a2 d13a bc9b e03b 5d11 a2bb
000000f0: 8edf 743b 693e 043c aa00 153b c952 a9bb
00000100: 0506 5fbb fda4 c9ba 0e49 c33b e31d 7abb
00000110: aeaa 4f3c 5b2e 38bb 0553 ee3b bf10 07bc
00000120: 990f bbbb ec51 973b 64fd d13a d32d 06bc
00000130: a04d e2ba 248e a33b 5c34 82bb f0ba e23a
00000140: a5d9 3c3b 20c9 423b a2c7 333b ecdf c5bb
00000150: e8d6 59bb 941f 4b3b c401 7d3b 564e e639
00000160: 1b93 123b c20e 4abc 229b c2bb a64e 60bb
00000170: e858 04bc 3221 31bc 0706 6b3b ffdb 70bb
00000180: bc64 8fbb 40c5 e0bb 63ab 0f39 1822 a5bb
00000190: 0b5d 3a3a d3e8 da3a 6b0c bbbb b269 5cbb
000001a0: 340d 3e3c a882 fcbb 1b6f ad3b 3d6e f9b8
000001b0: a459 1abb dafc ea39 9344 783b 7200 983a
000001c0: 8e2e f737 3a2e 32ba 3ae9 12bc cf7a d43b
000001d0: 5fae 673b 3d4e 06bb 17d4 963b e034 a3ba
000001e0: 9435 1abb a366 d2bb cba6 e23b 6507 f6ba
000001f0: 4e0a 0dbb edd9 85ba 10ae 0e3a d28c cabb
0.0034345982 0.00019931153 -0.0090386905 -0.0060286717 -0.0022941148 0.002048005 -0.010994562 -0.0060325996
-0.0018439555 -0.002872618 -0.0047018533 -0.001377518 -0.00018993634 0.0051697777 -0.001961066 0.0026663074
0.0008926926 0.00672108 -0.0055263327 -0.003942993 0.004167587 0.00077100826 -0.002958475 -0.004672323
0.008222085 -0.00219277 -0.0057325354 -0.0059213913 -0.0042245793 0.009579704 0.004403611 -0.007945795
0.008681768 -0.003215297 0.0005582572 -0.00325376 -0.0069900327 -0.00401105 -0.008432239 0.00087536406
0.0003007788 -0.0037520707 0.0009928502 -0.0036787742 0.0029665905 0.0082763145 0.007527472 -0.00541366
0.0029370356 0.0052110706 -0.005658755 0.0013881942 -0.0008729921 0.0027714942 -0.0069287717 -0.005312421
0.0054491917 0.0015994004 0.0068545025 -0.0049459175 0.0037364694 0.00807152 0.0022735992 -0.0051673395
-0.0034030688 -0.0015384253 0.0059596365 -0.0038164787 0.012674971 -0.0028103802 0.0072730803 -0.008243739
-0.0057086465 0.00461792 0.0016020951 -0.008189636 -0.0017265566 0.0049913097 -0.003973527 0.0017298143
0.002881625 0.002972193 0.0027432223 -0.0060386565 -0.0033239666 0.0030994164 0.0038605789 0.00043927383
0.0022365514 -0.01233262 -0.0059389034 -0.0034226566 -0.0080778375 -0.010811137 0.0035861747 -0.0036752222
-0.004376022 -0.0068594515 0.00013701389 -0.0050394647 0.00071092014 0.0016701467 -0.0057082674 -0.0033632335
0.011599828 -0.007706005 0.005292786 -0.00011893779 -0.0023551965 0.00044820347 0.003788267 0.0011596812
2.9466373e-05 -0.00067970494 -0.008966738 0.0064843665 0.0035351736 -0.002049341 0.00460292 -0.0012451671
-0.002353047 -0.0064209267 0.006916856 -0.0018770514 -0.0021521035 -0.0010212042 0.00054428075 -0.006181338

encoder.feature_extract.mlps.0.batch_norms.0.running_mean f4 [128]
00000000: 2633 97bd 1b4f 96bb 76b7 503c b6c4 85bd
00000010: 7979 413d d92a d7bd 098b b7bc 1143 cf3d
00000020: ac12 a23c 6315 b2bd 86a5 433d 37fa 40bd
00000030: d2c5 cc3d 2424 7b3d af51 0a3e 5ef6 893d
00000040: 0c2b 1abd fab8 0b3e 4816 6c3c 0a7f f9bc
00000050: 1ac6 953d 5f58 cf3d c126 473d 9da5 543d
00000060: e98d 1d3e a2fc 4a3d 68ed 24bd bd43 0d3e
00000070: 5110 b03d 4511 843d b6df dbbb 4c0e c03d
00000080: 94b5 10bd 971e d63d 6aa8 8cbc 3909 a4bc
00000090: ac38 943d e358 c53d 8252 c93d 978e 1dbe
000000a0: 53cc 993d dea9 1a3c 9800 0fbd ff0b b2bd
000000b0: 119a 843d ae90 bdbd fd2a 99bd 04f0 563e
000000c0: 753d 6fbe 830b 71bd 684d 23be dce0 883b
000000d0: cc6b 48be a0a5 2ebe 4920 bd3d 4a1c 8a3c
000000e0: a32a 5abd 7827 d63c 0bf2 61bd a48c 3ebd
000000f0: fa86 0b3e 3ae7 b53d 0590 3ebd a6e1 933d
00000100: 70e0 bf3d df57 ccbd 5420 083e 86cc 1d3d
00000110: 8b1f bcbd 1f1d e0bd 5dba 8d3d 8600 c5bd
00000120: 91c9 f53d fa5b e3bc 6f32 bd3d 49e0 753c
00000130: 52e7 913d 5030 c43c 4e9f 6e3d d7bf 4c3d
00000140: d0c1 283e f804 1c3b 8c93 10bd fef7 b2bd
00000150: 4759 97bd 73e0 373d 3864 f23a 4a37 67bd
00000160: b25d 87bd cc1f c1bc 845e 123e 0764 453e
00000170: 1f57 793d bbd1 ac3c 9ee0 c7bd daab b3bd
00000180: 1164 6cbd 5b9c 9e3d d91f 0e3d fb8c 853e
00000190: fb89 37bd c625 9abd 8f3d e7bd fa24 2f3d
000001a0: 84fd 6c3c 05fd 48bd 1b68 a0bd 10d9 b1bc
000001b0: bf53 f93c 93b8 e83d ba61 fc3d bfbb 303c
000001c0: 7e17 a43c cf61 5b3d 9218 073c 8777 43bd
000001d0: c4e0 e9bb 94ec 463e 0616 593d 081a d1bd
000001e0: 76ab 0a3d 476c a7bd 924a 77bd dee5 34bd
000001f0: 10c5 693d 267f a53d 60df bd3d b9fe a83d
-0.07382803 -0.004587067 0.012739053 -0.0653166 0.047234986 -0.105062194 -0.022405164 0.10120214
0.019784294 -0.086954854 0.047765277 -0.047113623 0.09998669 0.061313763 0.13507722 0.06736444
-0.03763871 0.13644782 0.014409609 -0.030456085 0.073131755 0.10124277 0.048620943 0.051915754
0.15386166 0.049557336 -0.04026547 0.13795371 0.08596862 0.064486064 -0.006710018 0.09377727
-0.035329416 0.10455053 -0.01717015 -0.020023929 0.07237372 0.096360944 0.0983019 -0.15386425
0.07509675 0.009439914 -0.034912676 -0.08693694 0.06474698 -0.09256111 -0.074789025 0.20989996
-0.23363288 -0.05884887 -0.15947497 0.004177196 -0.19572371 -0.17055368 0.092346735 0.016859192
-0.053263318 0.026141867 -0.05516247 -0.046520844 0.13625708 0.088819936 -0.046524066 0.072207734
0.0936898 -0.099776976 0.13293582 0.038525127 -0.09185704 -0.109430544 0.069203116 -0.096192405
0.12001336 -0.027753819 0.09238135 0.015007087 0.07124199 0.023948818 0.058257394 0.04998764
0.16480184 0.0023806673 -0.03529696 -0.08738707 -0.07390075 0.044891786 0.0018493002 -0.056449212
-0.06609668 -0.023574732 0.14293867 0.19276439 0.0608741 0.021096101 -0.09759639 -0.087730125
-0.05771262 0.07744666 0.03469834 0.26084122 -0.044809323 -0.07526736 -0.11291038 0.042759873
0.01446474 -0.049069423 -0.078323565 -0.021709949 0.030435441 0.1136333 0.12323327 0.01078695
0.020030733 0.053560074 0.008245604 -0.047721412 -0.00713739 0.19426185 0.05299952 -0.10210043
0.033854924 -0.08174949 -0.06037385 -0.04416453 0.0570727 0.08080892 0.09271121 0.082517095

encoder.feature_extract.mlps.0.batch_norms.0.running_var f4 [128]
00000000: 1f93 e438 c3bc be39 08c2 c238 7bb1 1b39
00000010: b2a6 9d38 d64c 8139 291c da39 3a31 153a
00000020: 15c6 4438 ad38 0c39 9bf4 5139 b227 1b39
00000030: 39ea 243a a1d4 df38 43d6 c939 8a85 f138
00000040: 7fa0 6a38 1833 123a 6845 e036 b0b4 6238
00000050: c137 c539 57b9 8e39 d55b f539 f03d 0039
00000060: 6032 413a 687a 6739 3625 e338 d8d4 673a
00000070: 5b09 b839 2962 f038 98af 2938 6184 c439
00000080: aac2 e638 6ed3 bb39 0e40 de38 55a8 3038
00000090: d72e d239 b2ca 6b39 5824 c439 ea16 243a
000000a0: b6d3 e638 eb81 4837 2ee8 de39 abc1 1b39
000000b0: 31c9 9a39 c9df 173a b4f6 f538 39b3 5e3a
000000c0: 6454 d13a 5834 8138 f23a 0d3a 3857 5e39
000000d0: 3ff1 d23a 78e0 cf3a 07a3 4839 68ae a138
000000e0: 51cf 9538 dfcf 5638 089b 0a3a fba9 df38
000000f0: 48de c939 32fc 2439 5f97 ce38 6b4b cb39
00000100: cf92 6839 6100 8739 ec54 1d3a bafe a938
00000110: 8bea 3939 ccdf ad39 ecb4 8b39 3e66 4839
00000120: e502 a439 99ff 1e37 ae6a b139 c656 1f37
00000130: bb8d 103a 1773 c939 386c 4a39 642c 9339
00000140: 6b6a 103a 072a 6a36 3244 4b3a be48 5939
00000150: d20f c838 2938 4c39 171f 7439 ae39 7338
00000160: 41c6 fa38 e6eb 0339 25fe 8f3a 1fa4 083b
00000170: b638 b039 6fc1 1c39 1e19 743a a14e b439
00000180: bbf5 9338 aa0f e938 b8fe d138 3e80 d83a
00000190: 6c9f 233a 8f7d 8739 1d2d 7d39 5b7d 9d39
000001a0: 91c9 ce39 e0bf 4838 0aaf 2d3a f8d9 6739
000001b0: f451 ae3a 445e 8439 a617 a839 8c0e 7d38
000001c0: db9d 0e3a 62b2 0d39 edad 2036 0118 8939
000001d0: 236c 1537 453e 663a c3c4 3439 348f 6b39
000001e0: 4da4 2e39 4391 8f3a eb5e 9f38 e5bc 2838
000001f0: b87b dc38 159a 0d3a 444d 3939 fcc3 0639
0.00010899291 0.00036380262 9.286782e-05 0.00014848069 7.517393e-05 0.00024662045 0.0004160118 0.0005691234
4.691452e-05 0.00013372554 0.00020022916 0.0001479674 0.00062910054 0.00010673074 0.00038497345 0.00011516649
5.593942e-05 0.00055770716 6.6838e-06 5.4050877e-05 0.00037616308 0.0002722244 0.00046798462 0.00012230105
0.0007369872 0.00022075477 0.000108311346 0.0008843667 0.00035102185 0.000114623756 4.0456274e-05 0.00037482663
0.00011003514 0.00035824947 0.00010597716 4.211844e-05 0.0004008922 0.00022486856 0.0003741111 0.0006259518
0.00011006689 1.1951178e-05 0.00042516127 0.00014854099 0.00029523068 0.00057935395 0.000117284624 0.0008495334
0.0015970585 6.160949e-05 0.00053875067 0.00021204061 0.0016093625 0.0015859744 0.00019134219 7.709564e-05
7.143489e-05 5.121517e-05 0.00052873837 0.0001066513 0.0003850332 0.00015734209 9.8510405e-05 0.00038775368
0.00022179935 0.0002574949 0.0006001729 8.1059945e-05 0.00017730349 0.00033163873 0.00026646943 0.00019111575
0.00031282674 9.477045e-06 0.00033839553 9.497342e-06 0.00055142835 0.00038423456 0.00019304536 0.00028071098
0.00055090216 3.489318e-06 0.00077539973 0.00020721831 9.53969e-05 0.00019475877 0.00023281235 5.7989433e-05
0.000119578566 0.00012581013 0.0010985775 0.0020849777 0.0003361159 0.00014949379 0.0009311604 0.00034390858
7.055277e-05 0.000111132234 0.00010013342 0.0016517711 0.0006241712 0.00025842755 0.00024144766 0.0003003877
0.0003944156 4.7862413e-05 0.0006625509 0.00022111076 0.001329957 0.00025247235 0.00032061076 6.033345e-05
0.00054403924 0.0001351326 2.3943096e-06 0.0002614856 8.90627e-06 0.00087830826 0.00017239437 0.00022464694
0.0001665514 0.0010953326 7.599391e-05 4.0230243e-05 0.00010513462 0.0005401683 0.00017671759 0.00012852246

encoder.feature_extract.mlps.0.batch_norms.1.weight f4 [128]
00000000: fc0b 803f 10e0 7e3f 3a6a 803f ac6a 7f3f
00000010: ec1d 803f 8fdc 7e3f b75b 803f 9c74 803f
00000020: 8579 803f 1351 7f3f bba8 7e3f aee9 803f
00000030: 7f4c 7e3f 27b9 803f 59d4 7d3f 286c 803f
00000040: 348a 803f 2de9 7d3f df37 803f 4881 7f3f
00000050: f5d5 803f 6fa5 803f 81ec 7e3f 5363 803f
00000060: 930e 813f fa3e 803f bee1 7d3f 3b85 7f3f
00000070: 7231 803f e361 7e3f 398c 7e3f e7cf 803f
00000080: e097 803f 3adc 7e3f b110 803f b564 7e3f
00000090: 29c2 7f3f d88c 7f3f 4182 803f bd6f 7f3f
000000a0: c264 803f 8ce6 803f 5f2e 803f a8ac 7f3f
000000b0: cb4b 7f3f b5cd 803f a389 803f 76bb 803f
000000c0: d6c6 7e3f 7c2e 7f3f 50cc 7f3f 514b 803f
000000d0: fc9b 803f a06e 7e3f 9370 803f b979 7e3f
000000e0: 2b27 803f 0f42 803f b466 803f 9124 7e3f
000000f0: f018 813f 3ad8 7f3f 35ef 7f3f f863 803f
00000100: ccea 7f3f 3e80 803f 9956 7f3f 383f 803f
00000110: 732a 7e3f 007a 7f3f f949 7f3f b32e 7f3f
00000120: 1cc3 7f3f 307e 7f3f 8d42 7f3f ac77 7f3f
00000130: be63 803f c16b 7e3f fc08 7f3f c791 7f3f
00000140: 300f 7f3f f2f8 803f 1132 803f 7bd1 803f
00000150: 2d02 803f f3f6 7f3f 7754 803f 117e 803f
00000160: 11c6 7e3f f080 7d3f 41d6 7e3f a382 803f
00000170: f0b4 7f3f a493 7e3f b0a1 803f 7b01 803f
00000180: 0174 7e3f 6af7 803f d61d 803f 4026 803f
00000190: 6b71 803f 72e2 7d3f 5a5d 7e3f 17ae 803f
000001a0: a2c8 803f 174f 7f3f 3bc0 7d3f f380 7f3f
000001b0: 9e8f 803f a8e3 7f3f b1d2 7e3f 550f 803f
000001c0: 3676 803f 0995 7f3f 8f8a 7e3f a4da 803f
000001d0: d54b 813f 6621 803f 4e06 803f 1da9 803f
000001e0: 9bd9 7e3f a588 7f3f d771 803f a3c8 803f
000001f0: 8f3e 803f 1d8f 803f 0de6 7e3f f861 803f
1.0003657 0.9956064 1.0032418 0.99772143 1.0009131 0.99555296 1.0027989 1.0035586
1.0037085 0.99733084 0.9947621 1.0071313 0.99335474 1.0056504 0.9915214 1.0033007
1.0042176 0.99183923 1.001705 0.9980664 1.0065295 1.0050486 0.99579626 1.0030311
1.0082573 1.0019219 0.9917258 0.9981267 1.001509 0.99368113 0.9943271 1.0063447
1.0046349 0.9955479 1.0005094 0.99372417 0.9990564 0.99824286 1.003975 0.99779874
1.0030749 1.0070357 1.0014151 0.9987283 0.99725026 1.0062777 1.0042003 1.0057209
0.9952215 0.99680305 0.9992113 1.0022985 1.0047603 0.9938755 1.0034355 0.99404484
1.0011953 1.002016 1.0031343 0.99274546 1.0085735 0.9993931 0.99974376 1.0030508
0.99967647 1.0039136 0.9974151 1.0019293 0.9928352 0.9979553 0.9972225 0.9968063
0.9990709 0.9980192 0.99710923 0.9979198 1.0030439 0.9938317 0.99623084 0.99831814
0.9963255 1.0075972 1.0015279 1.0063928 1.0000664 0.9998619 1.0025777 1.0038472
0.99520975 0.9902487 0.99545676 1.0039867 0.99885464 0.9944403 1.0049343 1.0000452
0.9939576 1.0075505 1.0009105 1.0011673 1.0034612 0.99173653 0.99361193 1.0053128
1.0061228 0.99730057 0.99121445 0.99806136 1.0043828 0.9995675 0.9954024 1.0004679
1.0036075 0.99836785 0.99430174 1.0066724 1.0101267 1.0010192 1.0001924 1.0051609
0.9955079 0.9981788 1.0034741 1.006123 1.0019091 1.0043675 0.9956978 1.0029898
