DRL coding/saved_network/FJSP_J15M15/100_99/policy_mch.pth (torch, 274615 bytes, 14 tensors)

bn.weight f4 [128]
0	0x3f7ea4d4	0.9947026
1	0x3f7f77e0	0.9979229
2	0x3f7fc4be	0.9990958
3	0x3f804271	1.0020276
4	0x3f80838d	1.0040146
5	0x3f801cb0	1.0008755
6	0x3f7f9c32	0.9984771
7	0x3f809a7e	1.0047147
8	0x3f7f3775	0.99693996
9	0x3f804964	1.0022397
10	0x3f7f2194	0.9966061
11	0x3f8023f4	1.0010972
12	0x3f7fd96c	0.99941134
13	0x3f7fa9ed	0.9986866
14	0x3f7f9b89	0.998467
15	0x3f7f9d66	0.99849546
16	0x3f805501	1.0025941
17	0x3f7fc581	0.9991074
18	0x3f804c1e	1.0023229
19	0x3f7f4252	0.9971057
20	0x3f8035b9	1.0016395
21	0x3f80d0f9	1.0063773
22	0x3f7fc072	0.99903023
23	0x3f7f8a86	0.99820745
24	0x3f7f268a	0.9966818
25	0x3f802f5e	1.0014455
26	0x3f80d904	1.0066228
27	0x3f80b568	1.0055361
28	0x3f7ea532	0.9947082
29	0x3f7fd2a6	0.999308
30	0x3f80ad41	1.0052873
31	0x3f805200	1.0025024
32	0x3f7ece47	0.99533504
33	0x3f7f6bba	0.9977375
34	0x3f7eaf23	0.9948599
35	0x3f8107c7	1.0080498
36	0x3f7f7faa	0.99804175
37	0x3f7efdcc	0.99606013
38	0x3f7f4a83	0.9972307
39	0x3f7efe18	0.99606466
40	0x3f809403	1.004517
41	0x3f7eafb0	0.9948683
42	0x3f7f90c7	0.9983029
43	0x3f806b34	1.0032716
44	0x3f7f0dbe	0.99630344
45	0x3f802ff8	1.0014639
46	0x3f7fbcc4	0.9989741
47	0x3f7fb562	0.99886143
48	0x3f7e48de	0.99329937
49	0x3f804f2a	1.0024159
50	0x3f80831f	1.0040015
51	0x3f7f85fd	0.99813825
52	0x3f8010c6	1.0005119
53	0x3f805024	1.0024457
54	0x3f7f14f4	0.99641347
55	0x3f7ecfb1	0.9953566
56	0x3f806c2d	1.0033013
57	0x3f811641	1.0084916
58	0x3f8022cb	1.0010618
59	0x3f806c65	1.0033079
60	0x3f7ec358	0.9951682
61	0x3f7fbf4c	0.9990127
62	0x3f7f1f21	0.99656874
63	0x3f7fa0e8	0.998549
64	0x3f7f52ea	0.9973589
65	0x3f81435b	1.009868
66	0x3f800ecb	1.0004514
67	0x3f7f23ea	0.99664176
68	0x3f7ee497	0.9956755
69	0x3f7f5d15	0.99751407
70	0x3f80d41a	1.0064728
71	0x3f7efaac	0.99601245
72	0x3f801f57	1.0009564
73	0x3f80a457	1.0050153
74	0x3f7f4aec	0.99723697
75	0x3f7df37f	0.9919967
76	0x3f80d596	1.0065181
77	0x3f80c27c	1.0059352
78	0x3f80e51a	1.0069916
79	0x3f7f2115	0.99659854
80	0x3f7fde46	0.9994854
81	0x3f7fe2a4	0.999552
82	0x3f805cc2	1.0028307
83	0x3f7f8af8	0.99821424
84	0x3f808f12	1.0043662
85	0x3f80f592	1.0074942
86	0x3f7fb64b	0.9988753
87	0x3f7e260d	0.9927681
88	0x3f7f543c	0.99737906
89	0x3f80a2ac	1.0049644
90	0x3f80d211	1.0064107
91	0x3f80c329	1.0059558
92	0x3f7e48c0	0.9932976
93	0x3f7f0e55	0.99631244
94	0x3f802634	1.0011659
95	0x3f80d795	1.006579
96	0x3f7fac30	0.9987211
97	0x3f809eec	1.0048499
98	0x3f7f9d6d	0.9984959
99	0x3f805cf7	1.0028371
100	0x3f801ab7	1.0008153
101	0x3f804dfb	1.0023798
102	0x3f801041	1.000496
103	0x3f7f276c	0.9966953
104	0x3f803d5b	1.0018724
105	0x3f804b1e	1.0022924
106	0x3f802d86	1.0013893
107	0x3f802fcc	1.0014586
108	0x3f809271	1.004469
109	0x3f80cbf9	1.0062248
110	0x3f80f480	1.0074615
111	0x3f809010	1.0043964
112	0x3f808e37	1.00434
113	0x3f7e16c8	0.9925351
114	0x3f8042e6	1.0020416
115	0x3f802e7b	1.0014185
116	0x3f8045a9	1.0021259
117	0x3f7dcad9	0.99137646
118	0x3f80aa8e	1.0052049
119	0x3f7f5c55	0.9975026
120	0x3f7f5b8f	0.9974908
121	0x3f80360c	1.0016494
122	0x3f803740	1.0016861
123	0x3f7f8b74	0.99822164
124	0x3f7f43c0	0.99712753
125	0x3f80f0b0	1.0073452
126	0x3f80b736	1.0055912
127	0x3f807e0b	1.0038465

bn.bias f4 [128]
0	0x3bca6ea4	0.00617774
1	0xbbc9c8be	-0.0061579635
2	0xbbe5f421	-0.007017628
3	0x3c00fc1c	0.007872608
4	0x3a59aa83	0.00083033013
5	0x3c1d7fc3	0.00961298
6	0x3baa2c4c	0.005193269
7	0xbb0a5fe8	-0.0021114293
8	0x3bbb22ee	0.005710951
9	0x3ba4ea66	0.0050328253
10	0x3bb39eb5	0.005481566
11	0xbb08a691	-0.0020851234
12	0x3ba68269	0.005081464
13	0x3b76f91f	0.003768511
14	0x3ab3d2bb	0.0013719419
15	0xbbc38943	-0.0059672906
16	0x3b2a30da	0.002596906
17	0xbb2481aa	-0.00251017
18	0xbbb9cba2	-0.005670027
19	0xb9ece2de	-0.00045182457
20	0xbbc4d257	-0.00600652
21	0xb886939b	-6.4171116e-05
22	0x3ac5744e	0.0015064569
23	0xbaf402f7	-0.0018616606
24	0x3c0180c1	0.0079042325
25	0xb9411488	-0.00018413563
26	0xbbbcdf77	-0.005763944
27	0x3bb68860	0.0055704564
28	0xbbf7b6ab	-0.0075596175
29	0x3bc953e6	0.0061440347
30	0x39ebbdb0	0.0004496402
31	0xb9254d5e	-0.00015764448
32	0x3be7bb5a	0.0070718946
33	0xbab2160e	-0.0013586895
34	0xbbf201a5	-0.00738545
35	0xb990012a	-0.00027466688
36	0x3bf61562	0.0075098732
37	0x3bab5fe1	0.0052299355
38	0xbb843288	-0.004034344
39	0x3c214fb7	0.009845666
40	0xbbce718b	-0.0063001565
41	0x3b2478a5	0.0025096324
42	0xbc15c311	-0.009140746
43	0x3b4260b4	0.002965969
44	0x3b44b51e	0.003001518
45	0xba826e0a	-0.0009951007
46	0x3be017b3	0.0068387627
47	0xbbf45c92	-0.0074573243
48	0x3aa2063d	0.0012361478
49	0xbbd45c24	-0.0064807106
50	0xbb209c46	-0.0024507209
51	0xbaf3e0d6	-0.0018606435
52	0x3bdf6fcb	0.0068187467
53	0xbac860db	-0.0015287654
54	0xbaedfe93	-0.0018157534
55	0xbaac70cd	-0.0013156176
56	0xb9568dd7	-0.0002046147
57	0x3be0785a	0.0068502845
58	0x3b71b2ed	0.003688033
59	0x3a231148	0.00062205316
60	0xbb8e25cd	-0.0043380023
61	0x3b19e78c	0.002348396
62	0xb9d0d52e	-0.00039831683
63	0xbb4151a5	-0.0029498127
64	0x3bb945d4	0.005654076
65	0xbbb86430	-0.0056271777
66	0xbb8b1f3a	-0.004245666
67	0x3b602d7c	0.0034206798
68	0xbbbe0d1d	-0.005799903
69	0x3b957dfc	0.0045621376
70	0xba77f04c	-0.0009458109
71	0x3b99ec9e	0.0046973964
72	0x3ba4d208	0.0050299205
73	0x3ab65194	0.001390981
74	0xb861af29	-5.380731e-05
75	0x3a397348	0.0007074368
76	0x3b93c9e2	0.0045101503
77	0xbb25f967	-0.0025325657
78	0xbba193f4	-0.0049309675
79	0x3b97e6d4	0.004635671
80	0x3b99c842	0.004693062
81	0x3c08039d	0.008301643
82	0xbbac72ea	-0.0052627223
83	0xbb9d484a	-0.0047998773
84	0xbbf88426	-0.0075841127
85	0x39b39ebb	0.00034259804
86	0x3b31bfa6	0.0027122288
87	0x3bb25174	0.005441839
88	0x3bd9e36b	0.006649425
89	0xbb2859ca	-0.0025688284
90	0xbb373d78	-0.0027960222
91	0x3bd5ba9b	0.0065224892
92	0x3c0026c5	0.007821743
93	0xbb56fc6e	-0.0032804268
94	0x3b9211d6	0.0044576926
95	0x3b444fbe	0.0029954757
96	0xbb046c76	-0.002020625
97	0xbbb627f4	-0.005558962
98	0x3b814c50	0.0039458647
99	0x3bd19461	0.006395862
100	0xbbb923aa	-0.0056500034
101	0xbbe3fff3	-0.0069580018
102	0xbbbe8b12	-0.0058149183
103	0xbba3d872	-0.0050001675
104	0xbbf01a1f	-0.0073273326
105	0x3bfd7e97	0.007736038
106	0x3b649ea8	0.0034884606
107	0xbbae01b6	-0.0053102626
108	0xbab099c3	-0.0013473559
109	0x3a9dbbec	0.0012034154
110	0xbc0e0e41	-0.008670391
111	0xbbbe7a6c	-0.0058129337
112	0xbbd2d0a2	-0.0064335624
113	0x3bcd2e95	0.0062616565
114	0xbba73b03	-0.0051034703
115	0xbba4ef5b	-0.005033416
116	0x3beb492c	0.0071803536
117	0xbbeb5d5c	-0.00718276
118	0x3b8d0ffc	0.004304884
119	0x3b972b54	0.0046133194
120	0x3bf3205f	0.0074196304
121	0x39d4f529	0.0004061845
122	0x3c100675	0.008790602
123	0xbbfd4de0	-0.0077302307
124	0xba81db02	-0.0009907188
125	0x3bf03702	0.007330776
126	0xba62b8a6	-0.00086487306
127	0x3b9a6fdd	0.004713042

bn.running_mean f4 [128]
0	0x3c63cb9a	0.013903523
1	0x3d06e4c8	0.032933027
2	0xbce51535	-0.027964214
3	0xbd415c1e	-0.04720699
4	0x3d4c3b54	0.049861267
5	0x3bfd4f3a	0.007730392
6	0xbca96ca4	-0.020681687
7	0xbc9bc910	-0.019016773
8	0x3d0ba157	0.034089413
9	0xbcb453e6	-0.022012662
10	0xbd247280	-0.04014826
11	0xbc9b64c7	-0.018968953
12	0x3cb5dc12	0.022199664
13	0x3bd6b33e	0.006552129
14	0x3d0e8d89	0.034802947
15	0x3c1d10f3	0.009586561
16	0xbcfa9e87	-0.03059317
17	0x3c114742	0.008867087
18	0x3bca9feb	0.0061836145
19	0xbca0f0d3	-0.019646084
20	0x3cd7f278	0.026360735
21	0x3be9f781	0.0071401005
22	0x3d537b97	0.051631536
23	0x3c54315e	0.012951223
24	0x3c4376ca	0.011930177
25	0x3cba7a2b	0.022763332
26	0xbbb1a156	-0.005420844
27	0x3c0d005d	0.008606044
28	0x3a0c4c6f	0.00053519657
29	0xbb2e8b90	-0.0026633479
30	0x3cd9e351	0.02659765
31	0x3d2ffff6	0.042968713
32	0x3ca76073	0.020431733
33	0xbcc8cdac	-0.024512134
34	0x3d1b7a16	0.037958227
35	0xbcef322f	-0.029198734
36	0x3cd7af7e	0.026328798
37	0xbc5b62ef	-0.013390287
38	0x3af0ff0e	0.0018386559
39	0x3bb41927	0.0054961625
40	0x3c141fd6	0.009040793
41	0xbba0a781	-0.0049027805
42	0xbc4bf923	-0.012449536
43	0xbd0c4762	-0.034247763
44	0x3d366bfc	0.044536576
45	0xbbfaf025	-0.007658022
46	0xbd831a40	-0.06401491
47	0xbd0f9372	-0.035052724
48	0x3c7b6c5d	0.01534566
49	0xbc886ee7	-0.016654445
50	0xbd115a47	-0.035486486
51	0xbc1a2118	-0.009407304
52	0xbc899c07	-0.016798032
53	0x3b226366	0.0024778484
54	0x3c5ecebf	0.013599097
55	0xbbe8834d	-0.0070957304
56	0x3ba6036e	0.005066327
57	0xbd651b8f	-0.055934485
58	0xbc59fde6	-0.013305163
59	0xbd034a38	-0.032053202
60	0xbced3e0f	-0.028960256
61	0x3cbdc8e0	0.023167074
62	0xbcfb4076	-0.030670386
63	0x3ca1264d	0.019671584
64	0xbd117f12	-0.035521574
65	0x3c667d99	0.014068031
66	0xbd52732f	-0.05137938
67	0x3b99070f	0.004670031
68	0x3ce4be93	0.027922904
69	0x3bdedeb6	0.0068014516
70	0xbb3bb954	-0.00286444
71	0x3c1ca16f	0.009559973
72	0x3c9bba21	0.019009652
73	0xbdd7afa5	-0.105315484
74	0x3ceb123f	0.028695224
75	0x3d89386f	0.06700217
76	0x3d81c37d	0.063361146
77	0xbb0feef9	-0.0021962507
78	0x3c8e2c65	0.017355153
79	0x3c760051	0.015014724
80	0x3d01cdd7	0.031690445
81	0xbd0cca50	-0.034372628
82	0xbd22ded4	-0.039763287
83	0xbcbcae5d	-0.023032362
84	0xbc884e8c	-0.016639017
85	0xbcc37fb6	-0.023864608
86	0x3d25c422	0.04047025
87	0xbbce5757	-0.006297033
88	0xbdb9758d	-0.09055624
89	0xbd917f62	-0.071043745
90	0x3c62c927	0.013841904
91	0xbcc7baf4	-0.024381138
92	0x3d468413	0.0484658
93	0x3c97a04f	0.018509058
94	0xbbff2e53	-0.0077875047
95	0x3d1cfc65	0.03832664
96	0x3d421fdc	0.047393665
97	0xbb0e2530	-0.0021689646
98	0xbd31d700	-0.04341793
99	0x3c874f9e	0.016517457
100	0x3d34d908	0.04415229
101	0xbc36268c	-0.011117589
102	0x3c30f77f	0.010801195
103	0x3cb253dd	0.021768505
104	0x3ca0b040	0.019615293
105	0xbd6b2f9b	-0.057418447
106	0x3dcfcaf7	0.10146134
107	0x3c145188	0.009052642
108	0x3cc4023c	0.023926847
109	0x3cbfb0b1	0.023399683
110	0x3b574895	0.0032849659
111	0x3c64c9f0	0.013964161
112	0x3ce42412	0.02784923
113	0xbd08580a	-0.033287086
114	0x3b2cc550	0.0026362725
115	0xbd47b35f	-0.048755046
116	0x3c444c3a	0.011981064
117	0x3d19d619	0.037557695
118	0x3d09e9df	0.033670302
119	0x3c5c5cdf	0.013449877
120	0x3d21a328	0.03946224
121	0xbd076c05	-0.033062
122	0x3c7f4ec0	0.01558274
123	0x3cb3cc52	0.021948013
124	0x3be07bfa	0.0068507167
125	0x3b17b00b	0.0023145701
126	0x3d190d85	0.03736641
127	0xbcf7ebc9	-0.030263798

bn.running_var f4 [128]
0	0x379f833d	1.901539e-05
1	0x3936975c	0.00017413258
2	0x3923a2e6	0.00015605576
3	0x39a6397a	0.0003170481
4	0x39d15e78	0.0003993397
5	0x36d14015	6.2361455e-06
6	0x38d366d1	0.00010080415
7	0x380a86bb	3.302724e-05
8	0x39099d08	0.00013123837
9	0x388ec276	6.807309e-05
10	0x399b5c7a	0.00029632804
11	0x38712f63	5.750301e-05
12	0x38befa1e	9.106494e-05
13	0x37b03a1a	2.100789e-05
14	0x3930aab0	0.00016848254
15	0x3766a9fa	1.3748644e-05
16	0x38ebe2ab	0.000112478934
17	0x36db6396	6.538302e-06
18	0x3659ce64	3.2455655e-06
19	0x38536394	5.039906e-05
20	0x38bc443a	8.977247e-05
21	0x377eedb5	1.5194925e-05
22	0x39f1233f	0.00045993362
23	0x384136ca	4.6065812e-05
24	0x37a153e9	1.923177e-05
25	0x388ff723	6.864804e-05
26	0x37ac0795	2.0507528e-05
27	0x37ee7726	2.8427294e-05
28	0x374cc5ad	1.22053725e-05
29	0x36bbfdce	5.602581e-06
30	0x38bc56d3	8.980711e-05
31	0x39882c71	0.00025973053
32	0x3826fe22	3.9814164e-05
33	0x38c33b8e	9.3094175e-05
34	0x39700097	0.00022888403
35	0x38a5a5f8	7.898727e-05
36	0x3903c8cc	0.00012567936
37	0x381123ad	3.460392e-05
38	0x361a4f9f	2.2994134e-06
39	0x369ef31d	4.737069e-06
40	0x3721659d	9.6200065e-06
41	0x378f1c1e	1.7060021e-05
42	0x375794c1	1.2849633e-05
43	0x38da5422	0.00010410721
44	0x39d091c6	0.0003978146
45	0x36a6f743	4.9759706e-06
46	0x39f89163	0.00047410568
47	0x3928f236	0.00016111959
48	0x388b6055	6.64598e-05
49	0x389038a8	6.877008e-05
50	0x3971c93d	0.00023058518
51	0x3725059e	9.836074e-06
52	0x382807eb	4.0061695e-05
53	0x37b3b8ef	2.142458e-05
54	0x37f52798	2.9224713e-05
55	0x36a91ff7	5.0403137e-06
56	0x37249b9d	9.811393e-06
57	0x39d12d48	0.00039897324
58	0x379ac2ca	1.8448936e-05
59	0x390dec13	0.00013534752
60	0x38eebf3b	0.00011384344
61	0x390118c6	0.00012311628
62	0x390365ca	0.00012531053
63	0x3856bbab	5.1196355e-05
64	0x3963a478	0.00021709676
65	0x37ae063f	2.0745325e-05
66	0x39b62438	0.0003474073
67	0x368bf4b2	4.171009e-06
68	0x38d85955	0.00010316322
69	0x37b66332	2.1742282e-05
70	0x37c1f66c	2.3122142e-05
71	0x37a11471	1.9202214e-05
72	0x38b1c8b6	8.477403e-05
73	0x3ac74a5f	0.001520466
74	0x39061c89	0.00012789866
75	0x3a5572a0	0.00081423856
76	0x39f5c2bd	0.00046875133
77	0x36b33da7	5.341793e-06
78	0x37d934bb	2.589297e-05
79	0x38060593	3.195328e-05
80	0x3936d245	0.00017435204
81	0x39152467	0.00014223308
82	0x398d3b7a	0.0002693793
83	0x38598916	5.1864503e-05
84	0x38675a38	5.5158715e-05
85	0x38615b08	5.372896e-05
86	0x393a7b62	0.00017784306
87	0x378db2ec	1.6891827e-05
88	0x3aa2452f	0.0012380237
89	0x3a502a52	0.00079408765
90	0x379095e0	1.7235929e-05
91	0x388c1db5	6.6812536e-05
92	0x39ed2837	0.00045234125
93	0x39365013	0.00017386703
94	0x36fb60ad	7.4916375e-06
95	0x39309800	0.00016841292
96	0x39a42cd6	0.00031313923
97	0x35d44a89	1.5816923e-06
98	0x39971b93	0.0002882151
99	0x385eec51	5.314901e-05
100	0x396d90b1	0.00022655983
101	0x3849dabb	4.8125843e-05
102	0x37d0b5c9	2.4880183e-05
103	0x3829f56b	4.0521303e-05
104	0x383c520d	4.489911e-05
105	0x3a1db601	0.00060161954
106	0x3ac137a1	0.001474131
107	0x36e4a377	6.8139593e-06
108	0x387ac653	5.978935e-05
109	0x386e2897	5.6781424e-05
110	0x35b2c9e0	1.3320787e-06
111	0x37bb82c7	2.2353035e-05
112	0x389bfcf0	7.438089e-05
113	0x3940d2bb	0.0001838905
114	0x351c4f70	5.8230125e-07
115	0x39a879ac	0.0003213411
116	0x38de30aa	0.00010594849
117	0x3994107a	0.00028241036
118	0x3907e552	0.00012960032
119	0x378206ae	1.5500318e-05
120	0x395bfb37	0.00020979052
121	0x39072d31	0.00012891438
122	0x38796ff3	5.9470487e-05
123	0x38d36839	0.00010080677
124	0x36b9d29b	5.5379473e-06
125	0x3694886f	4.4266267e-06
126	0x398b9b9d	0.00026628087
127	0x38be697f	9.079556e-05

bn1.weight f4 [128]
0	0x3f800000	1.0
1	0x3f800000	1.0
2	0x3f800000	1.0
3	0x3f800000	1.0
4	0x3f800000	1.0
5	0x3f800000	1.0
6	0x3f800000	1.0
7	0x3f800000	1.0
8	0x3f800000	1.0
9	0x3f800000	1.0
10	0x3f800000	1.0
11	0x3f800000	1.0
12	0x3f800000	1.0
13	0x3f800000	1.0
14	0x3f800000	1.0
15	0x3f800000	1.0
16	0x3f800000	1.0
17	0x3f800000	1.0
18	0x3f800000	1.0
19	0x3f800000	1.0
20	0x3f800000	1.0
21	0x3f800000	1.0
22	0x3f800000	1.0
23	0x3f800000	1.0
24	0x3f800000	1.0
25	0x3f800000	1.0
26	0x3f800000	1.0
27	0x3f800000	1.0
28	0x3f800000	1.0
29	0x3f800000	1.0
30	0x3f800000	1.0
31	0x3f800000	1.0
32	0x3f800000	1.0
33	0x3f800000	1.0
34	0x3f800000	1.0
35	0x3f800000	1.0
36	0x3f800000	1.0
37	0x3f800000	1.0
38	0x3f800000	1.0
39	0x3f800000	1.0
40	0x3f800000	1.0
41	0x3f800000	1.0
42	0x3f800000	1.0
43	0x3f800000	1.0
44	0x3f800000	1.0
45	0x3f800000	1.0
46	0x3f800000	1.0
47	0x3f800000	1.0
48	0x3f800000	1.0
49	0x3f800000	1.0
50	0x3f800000	1.0
51	0x3f800000	1.0
52	0x3f800000	1.0
53	0x3f800000	1.0
54	0x3f800000	1.0
55	0x3f800000	1.0
56	0x3f800000	1.0
57	0x3f800000	1.0
58	0x3f800000	1.0
59	0x3f800000	1.0
60	0x3f800000	1.0
61	0x3f800000	1.0
62	0x3f800000	1.0
63	0x3f800000	1.0
64	0x3f800000	1.0
65	0x3f800000	1.0
66	0x3f800000	1.0
67	0x3f800000	1.0
68	0x3f800000	1.0
69	0x3f800000	1.0
70	0x3f800000	1.0
71	0x3f800000	1.0
72	0x3f800000	1.0
73	0x3f800000	1.0
74	0x3f800000	1.0
75	0x3f800000	1.0
76	0x3f800000	1.0
77	0x3f800000	1.0
78	0x3f800000	1.0
79	0x3f800000	1.0
80	0x3f800000	1.0
81	0x3f800000	1.0
82	0x3f800000	1.0
83	0x3f800000	1.0
84	0x3f800000	1.0
85	0x3f800000	1.0
86	0x3f800000	1.0
87	0x3f800000	1.0
88	0x3f800000	1.0
89	0x3f800000	1.0
90	0x3f800000	1.0
91	0x3f800000	1.0
92	0x3f800000	1.0
93	0x3f800000	1.0
94	0x3f800000	1.0
95	0x3f800000	1.0
96	0x3f800000	1.0
97	0x3f800000	1.0
98	0x3f800000	1.0
99	0x3f800000	1.0
100	0x3f800000	1.0
101	0x3f800000	1.0
102	0x3f800000	1.0
103	0x3f800000	1.0
104	0x3f800000	1.0
105	0x3f800000	1.0
106	0x3f800000	1.0
107	0x3f800000	1.0
108	0x3f800000	1.0
109	0x3f800000	1.0
110	0x3f800000	1.0
111	0x3f800000	1.0
112	0x3f800000	1.0
113	0x3f800000	1.0
114	0x3f800000	1.0
115	0x3f800000	1.0
116	0x3f800000	1.0
117	0x3f800000	1.0
118	0x3f800000	1.0
119	0x3f800000	1.0
120	0x3f800000	1.0
121	0x3f800000	1.0
122	0x3f800000	1.0
123	0x3f800000	1.0
124	0x3f800000	1.0
125	0x3f800000	1.0
126	0x3f800000	1.0
127	0x3f800000	1.0

bn1.bias f4 [128]
0	0x00000000	0.0
1	0x00000000	0.0
2	0x00000000	0.0
3	0x00000000	0.0
4	0x00000000	0.0
5	0x00000000	0.0
6	0x00000000	0.0
7	0x00000000	0.0
8	0x00000000	0.0
9	0x00000000	0.0
10	0x00000000	0.0
11	0x00000000	0.0
12	0x00000000	0.0
13	0x00000000	0.0
14	0x00000000	0.0
15	0x00000000	0.0
16	0x00000000	0.0
17	0x00000000	0.0
18	0x00000000	0.0
19	0x00000000	0.0
20	0x00000000	0.0
21	0x00000000	0.0
22	0x00000000	0.0
23	0x00000000	0.0
24	0x00000000	0.0
25	0x00000000	0.0
26	0x00000000	0.0
27	0x00000000	0.0
28	0x00000000	0.0
29	0x00000000	0.0
30	0x00000000	0.0
31	0x00000000	0.0
32	0x00000000	0.0
33	0x00000000	0.0
34	0x00000000	0.0
35	0x00000000	0.0
36	0x00000000	0.0
37	0x00000000	0.0
38	0x00000000	0.0
39	0x00000000	0.0
40	0x00000000	0.0
41	0x00000000	0.0
42	0x00000000	0.0
43	0x00000000	0.0
44	0x00000000	0.0
45	0x00000000	0.0
46	0x00000000	0.0
47	0x00000000	0.0
48	0x00000000	0.0
49	0x00000000	0.0
50	0x00000000	0.0
51	0x00000000	0.0
52	0x00000000	0.0
53	0x00000000	0.0
54	0x00000000	0.0
55	0x00000000	0.0
56	0x00000000	0.0
57	0x00000000	0.0
58	0x00000000	0.0
59	0x00000000	0.0
60	0x00000000	0.0
61	0x00000000	0.0
62	0x00000000	0.0
63	0x00000000	0.0
64	0x00000000	0.0
65	0x00000000	0.0
66	0x00000000	0.0
67	0x00000000	0.0
68	0x00000000	0.0
69	0x00000000	0.0
70	0x00000000	0.0
71	0x00000000	0.0
72	0x00000000	0.0
73	0x00000000	0.0
74	0x00000000	0.0
75	0x00000000	0.0
76	0x00000000	0.0
77	0x00000000	0.0
78	0x00000000	0.0
79	0x00000000	0.0
80	0x00000000	0.0
81	0x00000000	0.0
82	0x00000000	0.0
83	0x00000000	0.0
84	0x00000000	0.0
85	0x00000000	0.0
86	0x00000000	0.0
87	0x00000000	0.0
88	0x00000000	0.0
89	0x00000000	0.0
90	0x00000000	0.0
91	0x00000000	0.0
92	0x00000000	0.0
93	0x00000000	0.0
94	0x00000000	0.0
95	0x00000000	0.0
96	0x00000000	0.0
97	0x00000000	0.0
98	0x00000000	0.0
99	0x00000000	0.0
100	0x00000000	0.0
101	0x00000000	0.0
102	0x00000000	0.0
103	0x00000000	0.0
104	0x00000000	0.0
105	0x00000000	0.0
106	0x00000000	0.0
107	0x00000000	0.0
108	0x00000000	0.0
109	0x00000000	0.0
110	0x00000000	0.0
111	0x00000000	0.0
112	0x00000000	0.0
113	0x00000000	0.0
114	0x00000000	0.0
115	0x00000000	0.0
116	0x00000000	0.0
117	0x00000000	0.0
118	0x00000000	0.0
119	0x00000000	0.0
120	0x00000000	0.0
121	0x00000000	0.0
122	0x00000000	0.0
123	0x00000000	0.0
124	0x00000000	0.0
125	0x00000000	0.0
126	0x00000000	0.0
127	0x00000000	0.0

bn1.running_mean f4 [128]
0	0x00000000	0.0
1	0x00000000	0.0
2	0x00000000	0.0
3	0x00000000	0.0
4	0x00000000	0.0
5	0x00000000	0.0
6	0x00000000	0.0
7	0x00000000	0.0
8	0x00000000	0.0
9	0x00000000	0.0
10	0x00000000	0.0
11	0x00000000	0.0
12	0x00000000	0.0
13	0x00000000	0.0
14	0x00000000	0.0
15	0x00000000	0.0
16	0x00000000	0.0
17	0x00000000	0.0
18	0x00000000	0.0
19	0x00000000	0.0
20	0x00000000	0.0
21	0x00000000	0.0
22	0x00000000	0.0
23	0x00000000	0.0
24	0x00000000	0.0
25	0x00000000	0.0
26	0x00000000	0.0
27	0x00000000	0.0
28	0x00000000	0.0
29	0x00000000	0.0
30	0x00000000	0.0
31	0x00000000	0.0
32	0x00000000	0.0
33	0x00000000	0.0
34	0x00000000	0.0
35	0x00000000	0.0
36	0x00000000	0.0
37	0x00000000	0.0
38	0x00000000	0.0
39	0x00000000	0.0
40	0x00000000	0.0
41	0x00000000	0.0
42	0x00000000	0.0
43	0x00000000	0.0
44	0x00000000	0.0
45	0x00000000	0.0
46	0x00000000	0.0
47	0x00000000	0.0
48	0x00000000	0.0
49	0x00000000	0.0
50	0x00000000	0.0
51	0x00000000	0.0
52	0x00000000	0.0
53	0x00000000	0.0
54	0x00000000	0.0
55	0x00000000	0.0
56	0x00000000	0.0
57	0x00000000	0.0
58	0x00000000	0.0
59	0x00000000	0.0
60	0x00000000	0.0
61	0x00000000	0.0
62	0x00000000	0.0
63	0x00000000	0.0
64	0x00000000	0.0
65	0x00000000	0.0
66	0x00000000	0.0
67	0x00000000	0.0
68	0x00000000	0.0
69	0x00000000	0.0
70	0x00000000	0.0
71	0x00000000	0.0
72	0x00000000	0.0
73	0x00000000	0.0
74	0x00000000	0.0
75	0x00000000	0.0
76	0x00000000	0.0
77	0x00000000	0.0
78	0x00000000	0.0
79	0x00000000	0.0
80	0x00000000	0.0
81	0x00000000	0.0
82	0x00000000	0.0
83	0x00000000	0.0
84	0x00000000	0.0
85	0x00000000	0.0
86	0x00000000	0.0
87	0x00000000	0.0
88	0x00000000	0.0
89	0x00000000	0.0
90	0x00000000	0.0
91	0x00000000	0.0
92	0x00000000	0.0
93	0x00000000	0.0
94	0x00000000	0.0
95	0x00000000	0.0
96	0x00000000	0.0
97	0x00000000	0.0
98	0x00000000	0.0
99	0x00000000	0.0
100	0x00000000	0.0
101	0x00000000	0.0
102	0x00000000	0.0
103	0x00000000	0.0
104	0x00000000	0.0
105	0x00000000	0.0
106	0x00000000	0.0
107	0x00000000	0.0
108	0x00000000	0.0
109	0x00000000	0.0
110	0x00000000	0.0
111	0x00000000	0.0
112	0x00000000	0.0
113	0x00000000	0.0
114	0x00000000	0.0
115	0x00000000	0.0
116	0x00000000	0.0
117	0x00000000	0.0
118	0x00000000	0.0
119	0x00000000	0.0
120	0x00000000	0.0
121	0x00000000	0.0
122	0x00000000	0.0
123	0x00000000	0.0
124	0x00000000	0.0
125	0x00000000	0.0
126	0x00000000	0.0
127	0x00000000	0.0

bn1.running_var f4 [128]
0	0x3f800000	1.0
1	0x3f800000	1.0
2	0x3f800000	1.0
3	0x3f800000	1.0
4	0x3f800000	1.0
5	0x3f800000	1.0
6	0x3f800000	1.0
7	0x3f800000	1.0
8	0x3f800000	1.0
9	0x3f800000	1.0
10	0x3f800000	1.0
11	0x3f800000	1.0
12	0x3f800000	1.0
13	0x3f800000	1.0
14	0x3f800000	1.0
15	0x3f800000	1.0
16	0x3f800000	1.0
17	0x3f800000	1.0
18	0x3f800000	1.0
19	0x3f800000	1.0
20	0x3f800000	1.0
21	0x3f800000	1.0
22	0x3f800000	1.0
23	0x3f800000	1.0
24	0x3f800000	1.0
25	0x3f800000	1.0
26	0x3f800000	1.0
27	0x3f800000	1.0
28	0x3f800000	1.0
29	0x3f800000	1.0
30	0x3f800000	1.0
31	0x3f800000	1.0
32	0x3f800000	1.0
33	0x3f800000	1.0
34	0x3f800000	1.0
35	0x3f800000	1.0
36	0x3f800000	1.0
37	0x3f800000	1.0
38	0x3f800000	1.0
39	0x3f800000	1.0
40	0x3f800000	1.0
41	0x3f800000	1.0
42	0x3f800000	1.0
43	0x3f800000	1.0
44	0x3f800000	1.0
45	0x3f800000	1.0
46	0x3f800000	1.0
47	0x3f800000	1.0
48	0x3f800000	1.0
49	0x3f800000	1.0
50	0x3f800000	1.0
51	0x3f800000	1.0
52	0x3f800000	1.0
53	0x3f800000	1.0
54	0x3f800000	1.0
55	0x3f800000	1.0
56	0x3f800000	1.0
57	0x3f800000	1.0
58	0x3f800000	1.0
59	0x3f800000	1.0
60	0x3f800000	1.0
61	0x3f800000	1.0
62	0x3f800000	1.0
63	0x3f800000	1.0
64	0x3f800000	1.0
65	0x3f800000	1.0
66	0x3f800000	1.0
67	0x3f800000	1.0
68	0x3f800000	1.0
69	0x3f800000	1.0
70	0x3f800000	1.0
71	0x3f800000	1.0
72	0x3f800000	1.0
73	0x3f800000	1.0
74	0x3f800000	1.0
75	0x3f800000	1.0
76	0x3f800000	1.0
77	0x3f800000	1.0
78	0x3f800000	1.0
79	0x3f800000	1.0
80	0x3f800000	1.0
81	0x3f800000	1.0
82	0x3f800000	1.0
83	0x3f800000	1.0
84	0x3f800000	1.0
85	0x3f800000	1.0
86	0x3f800000	1.0
87	0x3f800000	1.0
88	0x3f800000	1.0
89	0x3f800000	1.0
90	0x3f800000	1.0
91	0x3f800000	1.0
92	0x3f800000	1.0
93	0x3f800000	1.0
94	0x3f800000	1.0
95	0x3f800000	1.0
96	0x3f800000	1.0
97	0x3f800000	1.0
98	0x3f800000	1.0
99	0x3f800000	1.0
100	0x3f800000	1.0
101	0x3f800000	1.0
102	0x3f800000	1.0
103	0x3f800000	1.0
104	0x3f800000	1.0
105	0x3f800000	1.0
106	0x3f800000	1.0
107	0x3f800000	1.0
108	0x3f800000	1.0
109	0x3f800000	1.0
110	0x3f800000	1.0
111	0x3f800000	1.0
112	0x3f800000	1.0
113	0x3f800000	1.0
114	0x3f800000	1.0
115	0x3f800000	1.0
116	0x3f800000	1.0
117	0x3f800000	1.0
118	0x3f800000	1.0
119	0x3f800000	1.0
120	0x3f800000	1.0
121	0x3f800000	1.0
122	0x3f800000	1.0
123	0x3f800000	1.0
124	0x3f800000	1.0
125	0x3f800000	1.0
126	0x3f800000	1.0
127	0x3f800000	1.0

fc2.weight f4 [128, 2]
0	0x3cf65df1	0.030074092
1	0x3d80e45f	0.06293558
2	0x3dc38be3	0.09548166
3	0xbcc3954d	-0.023874903
4	0xbdb73f72	-0.08947648
5	0x3da44769	0.08021433
6	0xbe0411f5	-0.12897475
7	0xbcb4d06f	-0.022072045
8	0x3e14100d	0.14459248
9	0xbd14fb84	-0.036372676
10	0x3c8faff6	0.01753996
11	0x3cef1785	0.02918602
12	0xbd918111	-0.071046956
13	0x3dc0ae5e	0.09408258
14	0xbd1c7383	-0.038196098
15	0xbddb4b7b	-0.10707756
16	0x3da74cd0	0.08168948
17	0x3dc7e46b	0.09760364
18	0xbd74c0eb	-0.059754293
19	0xbc5603b2	-0.0130624045
20	0xbdfdb9e4	-0.123889714
21	0x3da90648	0.08253151
22	0xbd60c407	-0.054874446
23	0x3c532be3	0.012888881
24	0x3d8c9d42	0.06865932
25	0xbd3f8139	-0.046754096
26	0x3cf7a6c7	0.030230893
27	0xbdade8cd	-0.08491669
28	0x3dc07d4e	0.093989
29	0x3cc55f98	0.024093434
30	0x3cdc0912	0.026859794
31	0xb996933d	-0.0002871993
32	0xbd9c0d46	-0.07619719
33	0xbd893aa0	-0.06700635
34	0x3c717394	0.014737029
35	0x3d9335ac	0.071879715
36	0x3c350807	0.011049277
37	0x3d36c6b1	0.04462308
38	0xbd5220ff	-0.051301
39	0xbcd5f8f5	-0.026119689
40	0x3d8c265f	0.06843256
41	0x3d1b5435	0.037922103
42	0xbb986062	-0.0046501616
43	0x3e33f52d	0.17573996
44	0x3e1e8509	0.15480436
45	0xbd975324	-0.07388905
46	0x3d422671	0.04739994
47	0xbda32d6a	-0.079676464
48	0x3d01fe98	0.03173694
49	0x3c403270	0.011730775
50	0x3d7563c0	0.059909582
51	0x3cdc835e	0.02691811
52	0xbcebfebc	-0.02880799
53	0x3dc768af	0.09736764
54	0x3d13a4a6	0.036045693
55	0xbdaef2c4	-0.085423976
56	0x3c8f8caa	0.017523129
57	0xbdea27a9	-0.11433346
58	0xbc73b6be	-0.014875112
59	0x3d58fa90	0.05297333
60	0x3d8c097c	0.068377465
61	0x3d304c7c	0.04304169
62	0x3def0a39	0.11671872
63	0x3ccc13ad	0.024911726
64	0x3d2ffdfb	0.042966824
65	0x3dcf6c1c	0.10128042
66	0xbd8f156c	-0.06986508
67	0x3c16b9ec	0.009199601
68	0x3de03f24	0.10949543
69	0xbcc10396	-0.02356128
70	0xbd74233d	-0.05960392
71	0xbe2157e9	-0.15756191
72	0x3da55a6d	0.08073888
73	0xbd4eec63	-0.050518405
74	0xbd2cede2	-0.04221905
75	0x3d0b1769	0.033957873
76	0xbb802183	-0.003910245
77	0x3d845c11	0.06462873
78	0x3c811f59	0.015762018
79	0xbb31e0ec	-0.002714212
80	0x3cb63215	0.022240678
81	0x3cb2b405	0.021814356
82	0xbcd6e0f8	-0.02623032
83	0x3db6ee6a	0.089321926
84	0xbca5a67c	-0.020220987
85	0xbdd57f75	-0.10424701
86	0xbd87cf7d	-0.06631372
87	0xbe578516	-0.21046862
88	0x3e123d7c	0.14281267
89	0xbe051772	-0.12997225
90	0xbc2928da	-0.010324681
91	0xbda247c1	-0.07923842
92	0xbe1f848b	-0.15577905
93	0xbe2a4d64	-0.16631085
94	0xbdbbe42c	-0.0917438
95	0xbd38b74e	-0.045096688
96	0x3d689cb9	0.056790087
97	0xbdca8939	-0.098894544
98	0xbd6f5948	-0.058434755
99	0x3dad0eb0	0.08450067
100	0xbddfdc65	-0.10930709
101	0x3d928961	0.07155109
102	0xbbea7a0f	-0.007155664
103	0xbe0c0174	-0.1367243
104	0xbd3bc9d8	-0.04584679
105	0xbc065aa8	-0.008200325
106	0x3cd2d8ee	0.025738206
107	0xbe096e85	-0.13421066
108	0x3d204991	0.03913266
109	0xbbfda15f	-0.007740184
110	0xbbd9cdb7	-0.0066468376
111	0xbdc0fb09	-0.09422881
112	0xbbae296f	-0.005314998
113	0x3e0e6c64	0.13908535
114	0xbe139efd	-0.14416118
115	0xbdb40d13	-0.08791556
116	0xbcf705f2	-0.030154202
117	0xbd4ea28a	-0.050447978
118	0xbdac3e7c	-0.084103554
119	0xbd22c31f	-0.039736863
120	0xbd9e22d0	-0.07721484
121	0xbcde624a	-0.027146477
122	0x3da12624	0.07868603
123	0xbdcab3d7	-0.09897583
124	0xbda5cf94	-0.08096233
125	0xbd0d89ea	-0.034555353
126	0x3d53e9f8	0.051736802
127	0x3cc0cd26	0.023535322
128	0xbdd9d705	-0.10636715
129	0x3d4c4954	0.04987462
130	0x3d0328d4	0.03202136
131	0x3d5672c0	0.052355528
132	0xbe09f8c0	-0.13473797
133	0xbd838b17	-0.06423014
134	0x3c703b66	0.014662599
135	0xbc3b27cf	-0.011423065
136	0x3d9667a6	0.07343988
137	0x3d08b995	0.03338011
138	0x3cfcfdc1	0.030882718
139	0xbdad3a58	-0.08458394
140	0x3c94bd64	0.018156715
141	0xbe3f3a0a	-0.18674484
142	0xbaae9294	-0.001331883
143	0x3e4d2c6e	0.2003648
144	0x3d857b12	0.065176144
145	0xbdaf455c	-0.08558151
146	0xbe9084bc	-0.28226268
147	0xbdb4c8cc	-0.088273615
148	0x3da7b402	0.08188631
149	0xbc3c082d	-0.011476559
150	0x3e526eb3	0.20550041
151	0xbe03ea8f	-0.12882446
152	0x3e1ecaac	0.15507
153	0x3e221dd2	0.15831688
154	0xbc666895	-0.01406302
155	0x3d6784ef	0.05652326
156	0x3cb82de7	0.022482825
157	0x3e3e7e78	0.18602931
158	0x3d27b619	0.040945146
159	0x3bf87c4b	0.0075831763
160	0x3dc3258c	0.09528646
161	0xbd41b36c	-0.04729025
162	0xbdaf82a0	-0.085698366
163	0xbd98e437	-0.074654035
164	0xbdf2c080	-0.11853123
165	0x3d54f616	0.0519925
166	0xbd4afc0c	-0.049556777
167	0xbdd96dc0	-0.10616636
168	0xbd59e799	-0.053199384
169	0x3d4262c2	0.047457464
170	0xbd4b5cf2	-0.049649186
171	0xbdfa192c	-0.122118324
172	0x3dc175e8	0.09446317
173	0x3e090979	0.1338252
174	0xbce138c3	-0.027492886
175	0x3d905bef	0.07048785
176	0xbe827e30	-0.25486898
177	0x3c31eba8	0.0108594075
178	0xbe50e3d2	-0.20399407
179	0x3d19117f	0.0373702
180	0x3cdf9531	0.02729282
181	0x3da71304	0.08157924
182	0xbd6e91ee	-0.05824464
183	0xbd919c93	-0.07109942
184	0x3e1c557b	0.15266983
185	0xbdf99387	-0.12186342
186	0x3db175ba	0.08665033
187	0xbe7ebbca	-0.24876323
188	0xbca18619	-0.019717263
189	0xbc7280ac	-0.014801186
190	0x3dbdec51	0.092735894
191	0x3dd3b0f2	0.10336484
192	0x3e033740	0.12814045
193	0x3d02096d	0.03174727
194	0x3aee5b9a	0.0018185258
195	0xbd669e49	-0.056303296
196	0xbdfbcfd1	-0.12295497
197	0x3c2dd670	0.010610208
198	0x3d56359a	0.052297212
199	0xbd31da67	-0.043421175
200	0x3ddcaa70	0.10774696
201	0x3de67c36	0.1125416
202	0xbd3fd68e	-0.046835475
203	0x3de5e8e2	0.112260595
204	0x3d11ae29	0.035566483
205	0xbd1c5226	-0.03816428
206	0x3d21fed2	0.039549656
207	0x3e1bfdf9	0.15233602
208	0x3d4491d0	0.04799062
209	0x3d493e64	0.049131766
210	0xbe34d4a3	-0.1765924
211	0x3de92390	0.11383736
212	0x3e8e65c8	0.27812028
213	0x3d2777f7	0.04088589
214	0x3c5a5b39	0.013327413
215	0x3daf6688	0.08564478
216	0x3d5e73aa	0.054309525
217	0x3db88bdf	0.09011053
218	0x3d5865ef	0.052831586
219	0x3db89808	0.09013373
220	0x3b01d868	0.0019812826
221	0x3d52cd5b	0.051465373
222	0x3d0a64ce	0.03378754
223	0x3d1a5db6	0.037687026
224	0x3d7126de	0.058874957
225	0x3e0b168a	0.13582817
226	0xbdc8c149	-0.09802491
227	0x3d0f2fed	0.034957815
228	0x3b7486e6	0.003731185
229	0x3cd56b0c	0.02605202
230	0xbe04d338	-0.12971199
231	0xbd436821	-0.047706727
232	0x3d855fd9	0.06512422
233	0xbe66ea4d	-0.22550316
234	0x3df676a7	0.1203435
235	0xbddf1e4d	-0.10894451
236	0x3da68ab3	0.081319235
237	0x3dbc2b7e	0.09187983
238	0x3cc90e55	0.024542967
239	0x3dbf3d0f	0.09337818
240	0x3dd69f27	0.10479575
241	0x3d23ce43	0.03999163
242	0xbda6bd84	-0.08141616
243	0xbda1e42e	-0.0790485
244	0x3d5ed261	0.05439985
245	0xbd9dd9bb	-0.077075444
246	0x3d92d073	0.07168665
247	0xbd9644de	-0.07337354
248	0x3c8a49a7	0.016880823
249	0x3c85e5d3	0.01634494
250	0x3c57a206	0.013161188
251	0xbd438060	-0.04772985
252	0x3df007e6	0.117202565
253	0xbdb90eee	-0.09036051
254	0xbd86f8e6	-0.06590442
255	0xbe0914b7	-0.13386808

actor.linears.0.weight f4 [128, 384]
0	0xbd071c8e	-0.032986216
1	0xbd00da93	-0.03145845
2	0xbc022768	-0.0079439655
3	0xbd9ac0b0	-0.075562835
4	0xbb95bc01	-0.004569531
5	0x3cc5ca17	0.024144216
6	0x3cfdf735	0.031001667
7	0x3d023eb0	0.031798065
8	0xbc40837f	-0.011750101
9	0xbc1726a7	-0.009225524
10	0xbbb54cd3	-0.00553284
11	0x3c2bb020	0.010479003
12	0xbd2ecccb	-0.042675775
13	0xbc2e0e04	-0.010623459
14	0xbd254366	-0.04034748
15	0xbd337e97	-0.043821897
16	0xbb860f46	-0.004091176
17	0x3dc51247	0.09622627
18	0xbd66f743	-0.05638815
19	0xbda620f2	-0.081117526
20	0x3c1619fb	0.009161468
21	0x3b662982	0.0035119955
22	0xbd07a440	-0.033115625
23	0xbd17819f	-0.03698885
24	0x3d9778f4	0.07396117
25	0x3daa1d4d	0.0830637
26	0xbd7a09ab	-0.061044376
27	0xbbde01c8	-0.0067751147
28	0x3d6c28e5	0.057656188
29	0x3b82a353	0.003986755
30	0x3c3f4f46	0.011676615
31	0xbdd02b17	-0.10164469
32	0xbc264833	-0.01014905
33	0x3d0630b8	0.032761306
34	0xbd23f10d	-0.040024806
35	0x3c201f93	0.009773153
36	0xbd2e7d22	-0.042599805
37	0xbd4c7dcb	-0.049924653
38	0x3ca667f0	0.020313233
39	0x3d14620d	0.03622632
40	0xbcdf3555	-0.02724711
41	0xbbde0162	-0.006775067
42	0x3d20b01c	0.03923045
43	0x3b87a077	0.004139002
44	0xbdedee5f	-0.11617731
45	0xbcaad385	-0.020852813
46	0x3ce3d3db	0.027810981
47	0xbc6056bf	-0.013692557
48	0xbd1ea977	-0.038735833
49	0x3d351e3a	0.04421828
50	0xbd1730d9	-0.03691182
51	0xbdd61f4c	-0.10455188
52	0x3c191f43	0.009345832
53	0xbcf35cbb	-0.029707303
54	0xbb0e3448	-0.0021698643
55	0x3d28083d	0.04102348
56	0xbd05daf9	-0.03267953
57	0x3d819e77	0.06329053
58	0x3ca43171	0.020043107
59	0x3d46c013	0.04852302
60	0xbd2a6398	-0.041598886
61	0x3d5608c3	0.05225445
62	0xbc48bc8a	-0.012251982
63	0x3c6b0b2d	0.014345926
64	0x3cbcf24b	0.023064753
65	0x3e0acc40	0.13554478
66	0x3d7393f2	0.059467264
67	0xbd6b5e14	-0.057462767
68	0xbd975c00	-0.073905945
69	0xbb469f6c	-0.0030307425
70	0x3ca991c0	0.020699382
71	0x3ba62305	0.0050700926
72	0xbd560e52	-0.05225975
73	0xbc90a88d	-0.017658496
74	0x3cd0fd59	0.02551143
75	0x3dab8914	0.08375755
76	0xbd867da3	-0.06566932
77	0x3b1f39ec	0.0024295999
78	0x3a421b2e	0.0007404563
79	0xbbdc331e	-0.006719961
80	0xbc72d661	-0.01482162
81	0xbd6e7990	-0.0582214
82	0x3c86a2a4	0.016434975
83	0xbd14310d	-0.03617959
84	0xbdb74be6	-0.08950023
85	0xbca54a5b	-0.020177057
86	0xbd836c19	-0.06417102
87	0xbd20fff9	-0.039306615
88	0xbcff91a8	-0.031197384
89	0xbc7392a1	-0.014866502
90	0x3d326fba	0.043563582
91	0x3c072ce1	0.008250446
92	0xbe10b8a1	-0.1413293
93	0xbd8e4ead	-0.069486
94	0xbc474904	-0.012163404
95	0xbb5356b0	-0.0032247715
96	0x3c880c71	0.016607495
97	0x3d9f94a3	0.07792022
98	0x3c8d590a	0.017254371
99	0xbcc70212	-0.02429298
100	0xbcd670d3	-0.026176846
101	0xbe29b8c2	-0.16574386
102	0xbd3663e0	-0.044528842
103	0xbc01c122	-0.007919582
104	0x3ce9966b	0.028514108
105	0x3c6cf55b	0.014462794
106	0x3dd52685	0.10407738
107	0xbdb4fb1c	-0.08836958
108	0xbcd5062d	-0.026003921
109	0x3c145844	0.009054247
110	0xbd87c7ab	-0.066298805
111	0xbdd035c5	-0.10166506
112	0x3a267ada	0.0006350704
113	0x3ceba15f	0.028763471
114	0xbd613d56	-0.054990135
115	0x3d7c83e5	0.061649222
116	0xbc346231	-0.011009739
117	0x3d3a7e6b	0.045530718
118	0x3bf76a69	0.007550527
119	0x3caa233b	0.020768752
120	0x3c92c951	0.01791826
121	0xbda2f7af	-0.07957398
122	0x3da36c49	0.07979638
123	0xbde6c438	-0.112678945
124	0x3ca406ed	0.020022834
125	0x3ba5baca	0.0050576674
126	0x3d1d0fa5	0.038344998
127	0x3c8a5148	0.016884461
128	0xbd4ede76	-0.050505124
129	0xbdc23a71	-0.09483803
130	0x3d94da7b	0.07268234
131	0x3d1b945f	0.037983295
132	0xbd113fb2	-0.035461135
133	0xbd423af5	-0.047419507
134	0x3d268339	0.040652487
135	0x3cf369ff	0.029713629
136	0x3d3a80c1	0.045532946
137	0xbc41a4f0	-0.011819109
138	0xbd649457	-0.05580553
139	0xbb6bccc3	-0.0035980202
140	0x3be7003b	0.007049588
141	0x3d915d64	0.07097891
142	0xbd75d2ea	-0.060015596
143	0x3b78eeba	0.003798409
144	0x3d05a809	0.032630954
145	0xbd718ca3	-0.058972012
146	0xbd3385bd	-0.043828715
147	0xbd4daa50	-0.05021125
148	0xbd4e289d	-0.0503317
149	0xbd2532a1	-0.040331487
150	0xbd2675f3	-0.04063983
151	0xbdf6399e	-0.12022708
152	0x3c8f6cea	0.017507989
153	0xbd85dca6	-0.06536226
154	0xba6e3727	-0.0009087198
155	0xbd8211f4	-0.063510805
156	0xbcc2d413	-0.023782765
157	0x3da7cb74	0.081931025
158	0x3dd5d9bc	0.1044192
159	0xbd5d8ba8	-0.054088265
160	0x3d638ab0	0.055552185
161	0xbcc5a658	-0.02412717
162	0x3b422677	0.0029624978
163	0xbd66d2de	-0.056353442
164	0xbd06c7e7	-0.032905485
165	0x3d29e4a9	0.041477833
166	0x3b8fbce7	0.0043865326
167	0xbd4b8122	-0.049683698
168	0x3ac81c05	0.001526714
169	0xbc0a88ed	-0.008455497
170	0x3ab54f86	0.0013832904
171	0x3d452032	0.048126407
172	0x3c9c546d	0.019083226
173	0x3dd0b15b	0.10190078
174	0x3bc02e1b	0.005864871
175	0x3cbeda1f	0.023297368
176	0x3d64d352	0.055865593
177	0x3bde3e40	0.006782323
178	0x3d057cd8	0.032589763
179	0x3c117e57	0.008880219
180	0xbdba5869	-0.09098894
181	0xbd5b9b1e	-0.05361473
182	0xbc6e2b65	-0.014536713
183	0xbda2f331	-0.07956541
184	0x3cf78a0f	0.030217199
185	0xbd6851ff	-0.056718823
186	0x3d55b492	0.05217416
187	0xbdcf0570	-0.10108459
188	0x3ca3090c	0.019901775
189	0x3dcafee2	0.09911896
190	0x3cb43b8e	0.022001054
191	0xbd453971	-0.048150484
192	0xbd30d594	-0.043172434
193	0x3d2e81d5	0.042604286
194	0xbddf35a4	-0.10898903
195	0xbd0c6dfb	-0.034284573
196	0xbd12c6d6	-0.035834156
197	0xbd232fb5	-0.03984042
198	0x3c857234	0.016289808
199	0xbda7d462	-0.08194806
200	0xbc0b32a5	-0.008495961
201	0xbcdf5bc3	-0.027265435
202	0x3d2506f7	0.040289845
203	0xbd6e6b73	-0.05820794
204	0xbd165ab6	-0.036707602
205	0x3d00c5e0	0.03143871
206	0x3d05704c	0.032577798
207	0x3c3bd596	0.011464497
208	0xbcd796fe	-0.026317116
209	0xba06c01d	-0.00051403214
210	0x3c7dafce	0.01548381
211	0x3c6f4506	0.014603859
212	0x3dac9f40	0.08428812
213	0xbd98eabf	-0.07466649
214	0x3d936ae1	0.0719812
215	0x3d13d41c	0.036090955
216	0xbd045401	-0.032306675
217	0xbd206849	-0.039161954
218	0x3d3057c6	0.043052457
219	0xbd1b168c	-0.0378633
220	0x3d42724c	0.047472283
221	0x3be682ab	0.00703462
222	0xbdcb97a0	-0.099410295
223	0xbccd6dc6	-0.025076758
224	0x3d09d849	0.03365353
225	0xbcb6b6fe	-0.022304054
226	0xbc105310	-0.008808866
227	0x3e1fab02	0.15592578
228	0x3caa22cc	0.020768546
229	0xbd8e2e08	-0.069423735
230	0x3c7ec959	0.015550935
231	0x3b95516e	0.0045568263
232	0x3d594cad	0.05305164
233	0xbb9c32f0	-0.0047668144
234	0xbbeb1daf	-0.0071751694
235	0xbd10bee9	-0.035338316
236	0x3d7d5274	0.06184621
237	0x3d8f8818	0.0700838
238	0xbaed8f08	-0.0018124292
239	0xbcf0414e	-0.029328015
240	0xbd5963a7	-0.05307355
241	0x3baae305	0.005215051
242	0x3c63029e	0.013855604
243	0xbd256c93	-0.040386748
244	0xbc00cf8a	-0.007861981
245	0x3d87aca3	0.06624725
246	0x3d911ad2	0.07085194
247	0xbd59087b	-0.052986603
248	0x3d2a2ec5	0.04154851
249	0xbd0957fb	-0.03353117
250	0xbd98df7c	-0.07464501
251	0x3c1e7e2c	0.009673636
252	0xbc9bd29c	-0.019021325
253	0xbd234fdb	-0.039871078
254	0xbd40fe54	-0.047117546
255	0x3cd2c5f0	0.02572915

actor.linears.0.bias f4 [128]
0	0x3bc10393	0.0058903187
1	0xbaa5796b	-0.0012624686
2	0x3c082b05	0.008311038
3	0x3be2f70d	0.0069264234
4	0xbbb88b65	-0.0056318515
5	0x3bdf9677	0.0068233567
6	0x3b4fd496	0.0031712404
7	0xbb9af75e	-0.0047291955
8	0x3bfb8c7f	0.0076766605
9	0xba0425e2	-0.00050410454
10	0x3ac0f94d	0.0014722735
11	0xbb0b2a2f	-0.002123486
12	0xbb5a649d	-0.003332413
13	0x3b850f7e	0.0040606847
14	0xbb317bf1	-0.0027081931
15	0x3bd3cbb7	0.0064634937
16	0x3bc08eb5	0.005876387
17	0xbb75000b	-0.0037384059
18	0x3ad0635a	0.001589875
19	0xba83f3a7	-0.0010067121
20	0x3b799f73	0.0038089424
21	0xbb05239b	-0.0020315412
22	0xbbfbbc7a	-0.0076823803
23	0x3babecc5	0.005246731
24	0xbb9927e1	-0.0046739434
25	0x3b884df8	0.004159685
26	0xbbfbc66b	-0.0076835654
27	0xbb6ffa3f	-0.0036617664
28	0xb9ef965d	-0.00045697662
29	0x3b61de22	0.0034464677
30	0xbbe65586	-0.007029238
31	0x3be141a1	0.0068742787
32	0xbb340507	-0.0027468817
33	0x3b20a62d	0.002451311
34	0x3bb1db9d	0.0054277913
35	0xbb76ab5a	-0.0037638755
36	0xbb1386bf	-0.0022510735
37	0xbbf445b6	-0.0074545993
38	0x3b47eb08	0.003050508
39	0x3a7fbc06	0.00097554957
40	0x3a03263a	0.00050029496
41	0x3aa36273	0.0012465253
42	0xbb7e86ba	-0.0038837628
43	0x3bbde33b	0.0057949102
44	0x399fdda3	0.00030491975
45	0x3bd419ae	0.006472788
46	0x3b9ee994	0.004849622
47	0xbaba6a15	-0.0014222289
48	0x3b7caa64	0.003855371
49	0x3bfd273e	0.0077256253
50	0xbbd7cfc8	-0.0065860488
51	0x3c00027f	0.007813095
52	0x3a3f67b7	0.00073015265
53	0x3a16bf79	0.00057505775
54	0xbbfa0c11	-0.007630833
55	0xbbdd7972	-0.006758862
56	0xbb9a20e6	-0.004703629
57	0xbb8c20b2	-0.0042763585
58	0xbba2e7f4	-0.0049714986
59	0xba64cca2	-0.00087280024
60	0xbb8a321b	-0.004217399
61	0x3b59f8e4	0.0033259923
62	0x3b1cdec5	0.0023936492
63	0x3bcc06c3	0.006226392
64	0x3b43c922	0.0029874523
65	0xbbe971b6	-0.007124151
66	0xbb2119dd	-0.0024582066
67	0x3c0c5e08	0.008567341
68	0xbb4ad773	-0.0030951172
69	0xbbe40b4c	-0.0069593545
70	0x3b2ce050	0.0026378818
71	0xbbd90da2	-0.0066239396
72	0xbbea4cd6	-0.007150273
73	0xbbc56d5d	-0.006025
74	0xbc17495c	-0.009233799
75	0xbb623b54	-0.0034520226
76	0x3be09f7c	0.0068549495
77	0xbb6e1ef5	-0.003633437
78	0xbb066d98	-0.00205121
79	0x3af2e0ea	0.0018530164
80	0x3b834c43	0.004006894
81	0xba3f2346	-0.0007291328
82	0x3bd8c714	0.006615529
83	0x3b25591f	0.0025230122
84	0xbbc908ea	-0.006135096
85	0xbba55e2f	-0.005046628
86	0xbbcd3f4d	-0.0062636496
87	0x3bfc8db1	0.0077073206
88	0xbbba2912	-0.0056811655
89	0x3a2a25ed	0.0006490637
90	0x3be19436	0.006884123
91	0x3b5adbb3	0.003339511
92	0xbbcf9f88	-0.0063361563
93	0x3bf90a7c	0.007600127
94	0xbb37b3a6	-0.0028030663
95	0xbbe26499	-0.006908965
96	0xbb365c86	-0.0027826144
97	0x3bbaad28	0.0056969114
98	0xbb7c39a0	-0.0038486496
99	0x3a00eac7	0.0004917797
100	0x3b0d99eb	0.0021606635
101	0x3b63c3b9	0.003475411
102	0xbad12b1a	-0.001595828
103	0xbbba80f0	-0.00569164
104	0x3b25610c	0.0025234846
105	0x3af95437	0.001902229
106	0x3b27dd8e	0.0025614235
107	0x3acdbbd4	0.0015696236
108	0x3bbd7eec	0.0057829525
109	0xba20671a	-0.0006118879
110	0xbae8561f	-0.0017725861
111	0xbb4bf46f	-0.0031121036
112	0xbbc39669	-0.005968858
113	0xbac24c75	-0.0014823811
114	0xb824c72a	-3.9286133e-05
115	0xbb3e523f	-0.0029040722
116	0xbbe460ee	-0.0069695627
117	0xbc04efbe	-0.0081138
118	0xbb8c228f	-0.0042765806
119	0x3a9af1b5	0.0011821302
120	0x3b2998ba	0.0025878386
121	0xbbfe5e4f	-0.0077627073
122	0x3bb683df	0.0055699195
123	0xbbf28657	-0.0074012685
124	0xbbab2bb1	-0.0052237143
125	0x3a297d78	0.00064655347
126	0xbbbfd858	-0.0058546476
127	0xbb02f64b	-0.0019983228

actor.linears.1.weight f4 [128, 128]
0	0x3dcfdc68	0.10149461
1	0xbe32697a	-0.17423049
2	0xbe03845b	-0.12843458
3	0x3dda320e	0.106540784
4	0xbc87dab8	-0.016583785
5	0x3d972c6b	0.07381519
6	0x3dedd7bf	0.11613416
7	0x3e0ed5af	0.13948701
8	0x3d163ec1	0.03668094
9	0x3da65658	0.081219375
10	0xbe0d4a73	-0.13797931
11	0xbe24e5e9	-0.16103329
12	0x3d715e1c	0.05892764
13	0x3dc533c4	0.09629014
14	0xbe2b550a	-0.16731659
15	0xbd93028e	-0.07178222
16	0xbcb7f9af	-0.022457926
17	0x3caf0405	0.021364221
18	0xbbb83577	-0.005621608
19	0xbcb6bf72	-0.022308085
20	0x3e1fda50	0.15610623
21	0x3cf89e70	0.030348986
22	0xbe11e84b	-0.14248769
23	0x3d9e1ae7	0.07719975
24	0x3c8e0130	0.01733455
25	0x39678213	0.00022078333
26	0xbd897795	-0.067122616
27	0x3aed196d	0.0018089243
28	0xbcbf72d5	-0.023370186
29	0x3b72dbee	0.0037057358
30	0xbde996b9	-0.11405701
31	0x3db79e37	0.08965724
32	0xbe17a936	-0.14810643
33	0x3e72c0ce	0.23706362
34	0x3cd00560	0.025393188
35	0xbb61b84f	-0.0034442132
36	0x3e0e5d18	0.139027
37	0x3d06f39a	0.03294716
38	0x3de81e59	0.11333913
39	0x3dba4414	0.09095016
40	0x3de420f3	0.11139097
41	0x3cd7c3b5	0.026338438
42	0xbdb613d0	-0.08890498
43	0xbc9e1771	-0.019298287
44	0xbdaf01ac	-0.08545241
45	0xbd971e3e	-0.07378815
46	0x3d300c85	0.04298069
47	0xbc8b5a1a	-0.017010737
48	0x3c7c8882	0.015413405
49	0x3e141ab7	0.14463316
50	0xbe209394	-0.15681297
51	0xbc741b32	-0.014899062
52	0x3a0a28a9	0.0005270341
53	0xbd43141c	-0.0476266
54	0x3e1c1239	0.15241326
55	0x3e3766f4	0.17910367
56	0xbaed484b	-0.001810321
57	0x3e35f62d	0.1776969
58	0xbc5389b3	-0.012911248
59	0x3d897edf	0.06713652
60	0x3dc81379	0.09769339
61	0xbb4758c3	-0.0030417896
62	0x3d35ef51	0.044417683
63	0xbd31242f	-0.043247398
64	0x3c57c32d	0.013169092
65	0x3d9304ff	0.07178687
66	0xbd9c1e7d	-0.07623003
67	0xbc8490c8	-0.016182318
68	0xbe5547d0	-0.20828176
69	0x3cc1753c	0.023615472
70	0x3d500b9c	0.05079232
71	0xbd2f4339	-0.042788718
72	0xbc67be6c	-0.014144521
73	0xbc31066e	-0.010804756
74	0xbd2afbb2	-0.04174394
75	0xbd31be7a	-0.043394543
76	0x3c857321	0.01629025
77	0x3b776223	0.0037747703
78	0xbd6f0ab4	-0.058359817
79	0x3ab03291	0.0013442804
80	0xbd948ca8	-0.072533906
81	0xbb912479	-0.0044293967
82	0x3d4dd3e3	0.0502509
83	0x3df702b8	0.120610654
84	0xbdead527	-0.11466437
85	0xbe292f05	-0.16521843
86	0x3db3199f	0.08745121
87	0x3d9f6c89	0.07784373
88	0xbdce2040	-0.10064745
89	0x3d53c556	0.051701866
90	0x3dc035ac	0.09385237
91	0xbe5033db	-0.20332281
92	0xbc20e4d1	-0.009820179
93	0x3e0eb3cb	0.13935773
94	0x3e01a930	0.12662196
95	0xbc214279	-0.0098425085
96	0xbd918507	-0.07105451
97	0x3d127f84	0.03576614
98	0xbd447b77	-0.047969308
99	0xbbac1a68	-0.0052521713
100	0x3cb92f08	0.022605434
101	0x3dc2a175	0.09503452
102	0xbd3884c0	-0.045048475
103	0xbd24380e	-0.04009252
104	0xbe0b1b84	-0.13584715
105	0xbd72e334	-0.05929871
106	0xbd4c4ff5	-0.04988094
107	0xbdd8bb8d	-0.105826475
108	0x3ded03e2	0.11573006
109	0xbc7d4aaf	-0.0154597005
110	0x3c9a53ba	0.018838752
111	0xbd1ee171	-0.038789216
112	0x3d3871d6	0.045030437
113	0x3d489243	0.04896761
114	0xbd2022de	-0.039095752
115	0x3df9fa6f	0.122059695
116	0x3c30e9fe	0.010797976
117	0xbdf71b4b	-0.120657526
118	0xbd8f34ec	-0.06992516
119	0xbe0ed611	-0.13948847
120	0x3d3da362	0.046298392
121	0xbd373a74	-0.04473348
122	0xbdc2d15c	-0.095125884
123	0x3cac61a8	0.02104266
124	0x3de172dc	0.11008236
125	0x3e068b0f	0.13138984
126	0xbd0aeeea	-0.033919252
127	0x3b46a6c8	0.0030311812
128	0x3e1ac564	0.15114361
129	0xbdc20de2	-0.09475304
130	0x3cdc131e	0.026864585
131	0x3d973ee0	0.07385039
132	0xbd05a2eb	-0.032626074
133	0xbd4b39fd	-0.04961585
134	0x3dbfb72c	0.09361109
135	0x3d374713	0.044745516
136	0x3d7689bc	0.060189947
137	0xbe0f9951	-0.1402333
138	0xbdb77de1	-0.08959556
139	0x3deb10ab	0.114777885
140	0x3dd77bb5	0.10521642
141	0xbcf9005b	-0.030395677
142	0xbdc30379	-0.09522147
143	0xbdfe3e3e	-0.124142155
144	0x3dc420ef	0.09576594
145	0x3db738d7	0.08946388
146	0x3c9fc67f	0.01950383
147	0x3e0e3923	0.13888983
148	0xbcc50e58	-0.024054691
149	0xbdfd505f	-0.12368845
150	0xbd84df39	-0.06487889
151	0xbd3b48d0	-0.045723736
152	0x3d0621f6	0.03274723
153	0xbdc7820c	-0.09741601
154	0xbde802b8	-0.113286436
155	0xbdaaa3e3	-0.0833204
156	0x3bba0143	0.00567642
157	0x3e20bbf9	0.15696706
158	0x3cc2bbee	0.023771252
159	0x3d448aa4	0.04798378
160	0xbe0ea01a	-0.13928261
161	0x3d1e4f68	0.038649946
162	0xbc8d3b09	-0.017240064
163	0xbe3e973f	-0.18612383
164	0x3d35700c	0.04429631
165	0xbd8ef163	-0.069796346
166	0x3d617af8	0.055048913
167	0xbde80af9	-0.11330218
168	0xbd9fe9b8	-0.0780825
169	0x3dd426ee	0.10358988
170	0x3e03064c	0.12795371
171	0xbdc34555	-0.095347084
172	0x3d96e104	0.07367137
173	0x3defd054	0.11709657
174	0xbdcd9a42	-0.10039188
175	0xbda349f7	-0.07973092
176	0xbd86caab	-0.065816246
177	0xbcabba61	-0.020962896
178	0xbd6aed6c	-0.05735533
179	0x3e2ce17f	0.16882895
180	0xbdd4ac79	-0.10384459
181	0x3d1feffb	0.039047223
182	0x3e077ff6	0.13232407
183	0xbddad10a	-0.10684402
184	0x3e080731	0.13283993
185	0x3c18b613	0.009320754
186	0xbc86665b	-0.016406229
187	0xbc789f42	-0.015174689
188	0xbda78980	-0.08180523
189	0x3dc3c79a	0.09559555
190	0xbc870922	-0.016483847
191	0xbd202544	-0.03909804
192	0x3d915ff6	0.07098381
193	0x3d6ce21f	0.057832833
194	0x3d7542c7	0.059878137
195	0xbc2d6d80	-0.010585189
196	0x3c815a0a	0.015790004
197	0x3d56063d	0.052252043
198	0xbc49020b	-0.0122685535
199	0xbe01dd67	-0.12682115
200	0xbdaad273	-0.08340921
201	0x3dd24169	0.10266382
202	0x3e1d3c10	0.15354943
203	0x3cd3576b	0.02579852
204	0x3d92eef4	0.07174483
205	0x3d7e2354	0.06204541
206	0xbddba966	-0.107256696
207	0xbdd1c987	-0.102435164
208	0xbb727fee	-0.0037002522
209	0x3dac94ee	0.084268436
210	0x3e0f2988	0.13980687
211	0xbe32c8cb	-0.17459409
212	0xbd087733	-0.033316802
213	0x3deead0e	0.11654101
214	0xbcb6ae0a	-0.022299785
215	0xbc3a205d	-0.011360255
216	0x3d5a53f7	0.05330273
217	0x3e2a0b59	0.16605891
218	0x3dda1b28	0.10649711
219	0x3ceae6a9	0.02867444
220	0x3d2e81b5	0.042604167
221	0x3e3bd97e	0.18344685
222	0xbd047c34	-0.03234501
223	0x3d965569	0.073405094
224	0x3db92351	0.09039939
225	0xbdb8a7af	-0.09016358
226	0xbd1148ef	-0.035469946
227	0xbda7cc62	-0.0819328
228	0xb980e389	-0.0002458359
229	0xbe21b165	-0.15790327
230	0xbcb9e450	-0.022691876
231	0x3d5f0997	0.054452505
232	0x3e17bec4	0.14818865
233	0xbdc1983e	-0.09452866
234	0xbd9b365b	-0.07578727
235	0xbc4d940c	-0.012547504
236	0x3e3644e2	0.17799714
237	0x3a805744	0.0009791632
238	0x3d869ca2	0.06572844
239	0x3da409fb	0.08009716
240	0x3da7ee74	0.08199778
241	0xbd8dfec4	-0.06933358
242	0x3d23a9a0	0.03995669
243	0x3d123fda	0.035705425
244	0xbb8d2d50	-0.00430838
245	0x3db4c019	0.08825702
246	0x3d637c35	0.055538375
247	0x3c65ad92	0.014018433
248	0x3dec0189	0.1152373
249	0x3e284750	0.16433454
250	0x3d9352ec	0.071935505
251	0xbd989a13	-0.07451262
252	0xbd9da24d	-0.07696972
253	0xbd08b076	-0.03337141
254	0x3cb3474e	0.021884587
255	0x3d20afe6	0.03923025
