DRL coding/saved_network/FJSP_J15M15/best_value100/policy_mch.pth (torch, 274615 bytes, 14 tensors)

bn.weight f4 [128]
0	0x3f7ea31f	0.99467653
1	0x3f7f9645	0.9983867
2	0x3f7fe83c	0.99963737
3	0x3f803a62	1.0017817
4	0x3f808cf0	1.0043011
5	0x3f8013e5	1.0006071
6	0x3f7f8c1e	0.99823177
7	0x3f8089b0	1.0042019
8	0x3f7f2906	0.9967197
9	0x3f803641	1.0016557
10	0x3f7f3861	0.996954
11	0x3f8019ab	1.0007833
12	0x3f7ff349	0.999806
13	0x3f7fc056	0.99902856
14	0x3f7fae85	0.9987567
15	0x3f7fba88	0.99894
16	0x3f8049c1	1.0022508
17	0x3f7fa864	0.9986632
18	0x3f8042fe	1.0020444
19	0x3f7f5164	0.9973357
20	0x3f80270d	1.0011917
21	0x3f80d733	1.0065674
22	0x3f7fe323	0.9995596
23	0x3f7f6d63	0.99776286
24	0x3f7f0e8f	0.9963159
25	0x3f8028a9	1.0012408
26	0x3f80e0e6	1.0068634
27	0x3f80bf0e	1.0058305
28	0x3f7e8e90	0.99436283
29	0x3f7fe9b1	0.9996596
30	0x3f809aae	1.0047204
31	0x3f805074	1.0024552
32	0x3f7ebc4b	0.9950606
33	0x3f7f7fb6	0.99804246
34	0x3f7ea745	0.99473983
35	0x3f80f1a4	1.0073743
36	0x3f7f628c	0.99759746
37	0x3f7f1373	0.9963905
38	0x3f7f3fdd	0.9970682
39	0x3f7ede85	0.9955829
40	0x3f80847d	1.0040432
41	0x3f7ec96d	0.995261
42	0x3f7f8767	0.9981598
43	0x3f805a82	1.0027621
44	0x3f7f27a0	0.9966984
45	0x3f80274c	1.0011992
46	0x3f7fbfe2	0.99902165
47	0x3f7fa36a	0.99858725
48	0x3f7e57cb	0.9935271
49	0x3f805dce	1.0028627
50	0x3f80896f	1.0041941
51	0x3f7f848f	0.99811643
52	0x3f800330	1.0000973
53	0x3f806031	1.0029355
54	0x3f7ef05b	0.99585503
55	0x3f7ecf81	0.99535376
56	0x3f806fce	1.003412
57	0x3f8116ec	1.008512
58	0x3f8016d5	1.0006968
59	0x3f8060a0	1.0029488
60	0x3f7eceed	0.99534494
61	0x3f7fe614	0.99960446
62	0x3f7f1f1d	0.9965685
63	0x3f7f97af	0.99840826
64	0x3f7f42a2	0.9971105
65	0x3f8132f1	1.0093671
66	0x3f800bd4	1.000361
67	0x3f7f36dd	0.9969309
68	0x3f7ed7fe	0.9954833
69	0x3f7f5c0e	0.9974984
70	0x3f80d7c8	1.0065851
71	0x3f7ef9dd	0.9960001
72	0x3f802c45	1.001351
73	0x3f80a415	1.0050074
74	0x3f7f57c0	0.9974327
75	0x3f7dff73	0.9921791
76	0x3f80c5dc	1.0060382
77	0x3f80d00d	1.0063492
78	0x3f80dfbd	1.006828
79	0x3f7f13d2	0.9963962
80	0x3f7fcd03	0.999222
81	0x3f7febae	0.99968994
82	0x3f806a83	1.0032505
83	0x3f7f680e	0.9976815
84	0x3f8096c3	1.0046009
85	0x3f80e2fc	1.006927
86	0x3f7fb92e	0.99891937
87	0x3f7e10c3	0.99244326
88	0x3f7f749a	0.99787295
89	0x3f80a769	1.005109
90	0x3f80c403	1.0059818
91	0x3f80b1d5	1.005427
92	0x3f7e6080	0.99366
93	0x3f7f0b4a	0.996266
94	0x3f801738	1.0007086
95	0x3f80d196	1.006396
96	0x3f7fbe26	0.9989952
97	0x3f80a1b4	1.0049348
98	0x3f7f8d3c	0.9982488
99	0x3f805f1f	1.0029029
100	0x3f801833	1.0007385
101	0x3f805af7	1.002776
102	0x3f8002e3	1.0000881
103	0x3f7f0456	0.9961599
104	0x3f802fa6	1.0014541
105	0x3f8057e8	1.0026827
106	0x3f803704	1.001679
107	0x3f80227d	1.0010525
108	0x3f807b2a	1.0037587
109	0x3f80bd29	1.0057727
110	0x3f80f55d	1.0074879
111	0x3f80800c	1.0039077
112	0x3f80827a	1.0039818
113	0x3f7e23a9	0.99273163
114	0x3f8039ac	1.00176
115	0x3f803881	1.0017244
116	0x3f805048	1.00245
117	0x3f7dec3e	0.991886
118	0x3f809c83	1.0047764
119	0x3f7f4153	0.9970905
120	0x3f7f73af	0.99785894
121	0x3f802b3a	1.0013192
122	0x3f80343f	1.0015944
123	0x3f7f80a9	0.99805695
124	0x3f7f2ade	0.99674785
125	0x3f80f3db	1.0074419
126	0x3f80c202	1.0059206
127	0x3f806d65	1.0033385

bn.bias f4 [128]
0	0x3bcde58e	0.0062834686
1	0xbbd2a396	-0.0064281924
2	0xbbe2e793	-0.0069245785
3	0x3c0665b5	0.00820296
4	0x39ba7c00	0.00035569072
5	0x3c1f37c0	0.009717882
6	0x3bb2208f	0.00543601
7	0xbadac072	-0.0016689433
8	0x3bb1712f	0.005415104
9	0x3baca4cf	0.00526867
10	0x3bb7144b	0.005587136
11	0xbae1fcee	-0.0017241517
12	0x3ba41a9f	0.0050080563
13	0x3b7b7acd	0.0038372756
14	0x3a9047a4	0.0011007679
15	0xbbcc74c8	-0.0062395073
16	0x3b27697d	0.0025545054
17	0xbb284bde	-0.0025679986
18	0xbbb0204d	-0.0053749443
19	0xb90f6f51	-0.00013679011
20	0xbbcbdc80	-0.006221354
21	0x39207dcf	0.00015305656
22	0x3a8fc0c1	0.0010967479
23	0xbb064ca1	-0.0020492452
24	0x3c043999	0.008070373
25	0xba0a5700	-0.0005277246
26	0xbbbe6416	-0.005810271
27	0x3ba76020	0.0051078945
28	0xbc00454e	-0.0078290235
29	0x3bdeb69b	0.0067966706
30	0x3902c1a4	0.00012469903
31	0xb9ebd0e0	-0.00044978317
32	0x3beb0700	0.0071724653
33	0xba84c7f2	-0.0010130389
34	0xbbf7f250	-0.0075667277
35	0xb899651b	-7.314441e-05
36	0x3bed4009	0.0072402996
37	0x3baf031d	0.0053409473
38	0xbb827a55	-0.0039818683
39	0x3c1d36d9	0.009595596
40	0xbbcd75f8	-0.0062701665
41	0x3b0a9fc2	0.0021152352
42	0xbc162576	-0.009164205
43	0x3b34fc8c	0.002761635
44	0x3b565846	0.0032706424
45	0xbaa1131a	-0.0012289018
46	0x3be886ba	0.007096139
47	0xbbebd36f	-0.0071968357
48	0x3a97107e	0.0011525301
49	0xbbd9bd2f	-0.006644867
50	0xbb072576	-0.0020621694
51	0xbaf1d6e3	-0.0018450882
52	0x3be9bb45	0.00713292
53	0xba9cc2f2	-0.0011959954
54	0xbb0c1dc7	-0.0021380053
55	0xbadbb753	-0.0016763009
56	0x3880102a	6.1065264e-05
57	0x3bde44ff	0.0067831273
58	0x3b632464	0.0034659142
59	0x3a614f40	0.0008594878
60	0xbb95a938	-0.0045672916
61	0x3b0fa933	0.002192092
62	0xba348d81	-0.0006887541
63	0xbb1d5917	-0.00240094
64	0x3bc4bb8b	0.006003802
65	0xbbc1d72e	-0.005915544
66	0xbb7e0290	-0.0038758852
67	0x3b473c8f	0.0030401086
68	0xbbc589d1	-0.006028392
69	0x3b957ccb	0.0045619956
70	0xba85ce00	-0.0010208488
71	0x3b956158	0.0045587234
72	0x3ba9cd0b	0.0051819137
73	0x3ad743e1	0.0016423428
74	0xba04f597	-0.0005071996
75	0x3a5ce7a5	0.0008426852
76	0x3b8aca68	0.0042355545
77	0xbb112cfc	-0.0022152057
78	0xbba12108	-0.0049172677
79	0x3ba1e28a	0.0049403356
80	0x3b88638a	0.0041622566
81	0x3c0b9e43	0.008521619
82	0xbb9ebc7d	-0.004844247
83	0xbb9192da	-0.004442555
84	0xbbfcc8f9	-0.0077143875
85	0x397d1aa2	0.00024137882
86	0x3b19a9b1	0.0023447091
87	0x3bc1f47d	0.005919038
88	0x3be42289	0.0069621247
89	0xbb0ea7a5	-0.0021767404
90	0xbb497f5e	-0.0030746083
91	0x3be0204b	0.006839787
92	0x3bf1bae9	0.0073770178
93	0xbb50600d	-0.0031795532
94	0x3b8b4d16	0.0042511327
95	0x3b2ddcee	0.002652939
96	0xbb19d122	-0.00234706
97	0xbbb5297d	-0.0055286274
98	0x3b712685	0.003679664
99	0x3bc3fef5	0.005981321
100	0xbbc2978c	-0.005938476
101	0xbbec949a	-0.007219863
102	0xbbbee761	-0.0058259224
103	0xbbadb58f	-0.0053011845
104	0xbbf5e699	-0.007504296
105	0x3c03e3f1	0.008049951
106	0x3b550b35	0.00325079
107	0xbbb4a06f	-0.0055122892
108	0xbad00f82	-0.0015873762
109	0x3a74b8bd	0.00093353895
110	0xbc0bc143	-0.008529964
111	0xbbc5ead1	-0.006039955
112	0xbbde3883	-0.006781639
113	0x3bd0962d	0.0063655586
114	0xbb9eeade	-0.0048497757
115	0xbb9e498a	-0.004830544
116	0x3bebd690	0.0071972087
117	0xbbf87b05	-0.0075830244
118	0x3b82ea90	0.003995247
119	0x3b8a29bc	0.004216401
120	0x3bfc29b6	0.007695402
121	0xb73ee497	-1.1378105e-05
122	0x3c0e5d49	0.008689233
123	0xbc01ca9c	-0.007921841
124	0xba8dc44f	-0.0010815951
125	0x3bebc013	0.007194528
126	0xbaa9e678	-0.0012962362
127	0x3b9e484d	0.0048303963

bn.running_mean f4 [128]
0	0x3c661f0c	0.014045488
1	0x3d08e51c	0.03342162
2	0xbce93478	-0.028467402
3	0xbd436c3b	-0.04771064
4	0x3d4f2b38	0.050578326
5	0x3bfa0cbe	0.0076309135
6	0xbcac19f2	-0.021008465
7	0xbc9b764d	-0.018977309
8	0x3d0c7762	0.03429354
9	0xbcb5722d	-0.02214917
10	0xbd270164	-0.04077281
11	0xbc9cf35e	-0.019159015
12	0x3cb901e5	0.022583911
13	0x3be26598	0.0069090836
14	0x3d1060c5	0.035248537
15	0x3c2168cf	0.0098516485
16	0xbcfc91d0	-0.030831248
17	0x3c0e2322	0.0086753685
18	0x3bc4ffeb	0.006011953
19	0xbca34607	-0.019930853
20	0x3cd9a73c	0.026569001
21	0x3be15614	0.0068767164
22	0x3d568e20	0.052381635
23	0x3c57b3b5	0.013165404
24	0x3c442748	0.011972256
25	0x3cbc0137	0.022949798
26	0xbbbafc22	-0.005706326
27	0x3c12d2d9	0.008961403
28	0x3a2835be	0.00064166996
29	0xbb37e94d	-0.0028062642
30	0x3cdb505b	0.026771715
31	0x3d31e7d3	0.043433975
32	0x3ca71e3f	0.020400165
33	0xbccbe26b	-0.024888238
34	0x3d1d5948	0.038415223
35	0xbcefb4f7	-0.029261095
36	0x3cda4cee	0.026648011
37	0xbc5fc0e5	-0.0136568295
38	0x3ad96660	0.0016586296
39	0x3bb05a62	0.005381868
40	0x3c1265b0	0.008935377
41	0xbbaab09d	-0.005209042
42	0xbc494efb	-0.012286897
43	0xbd0c99ba	-0.034326293
44	0x3d395b8a	0.045253314
45	0xbbf56177	-0.0074884254
46	0xbd84432d	-0.06458125
47	0xbd10ef8c	-0.0353847
48	0x3c81649a	0.01579504
49	0xbc8bbcc3	-0.017057782
50	0xbd13b200	-0.036058426
51	0xbc19204b	-0.009346078
52	0xbc8a7556	-0.016901653
53	0x3b3a93c8	0.0028469432
54	0x3c5f2fdc	0.01362225
55	0xbbe55850	-0.006999053
56	0x3b9dea3d	0.004819183
57	0xbd676b75	-0.056498963
58	0xbc598402	-0.013276102
59	0xbd047488	-0.032337695
60	0xbcf04752	-0.029330883
61	0x3cc1ba22	0.023648325
62	0xbcfe33ff	-0.031030653
63	0x3ca2da16	0.019879382
64	0xbd137c13	-0.036007
65	0x3c656210	0.014000431
66	0xbd550e33	-0.052015495
67	0x3b9f21e1	0.0048563336
68	0x3ce678d4	0.028133787
69	0x3be44f71	0.006967478
70	0xbb2e5a63	-0.0026604168
71	0x3c1822be	0.009285627
72	0x3c9eeef7	0.019401057
73	0xbdda27f0	-0.10652149
74	0x3cee77a7	0.029109789
75	0x3d8b411c	0.06799528
76	0x3d82d662	0.063885465
77	0xbb203e9a	-0.0024451376
78	0x3c8ca102	0.017166618
79	0x3c77b807	0.015119559
80	0x3d037328	0.032092243
81	0xbd0e3463	-0.03471793
82	0xbd2549bb	-0.040353518
83	0xbcbce4fb	-0.023058405
84	0xbc8ac409	-0.01693918
85	0xbcc371cf	-0.02385798
86	0x3d271532	0.040791698
87	0xbbd45aea	-0.0064805644
88	0xbdbbef66	-0.09176521
89	0xbd938e9c	-0.07204935
90	0x3c6107e1	0.013734789
91	0xbcc89912	-0.024487052
92	0x3d499431	0.049213592
93	0x3c9c11a1	0.019051375
94	0xbbfb565e	-0.007670208
95	0x3d1dfffb	0.0385742
96	0x3d447a44	0.047968164
97	0xbb02fd37	-0.0019987354
98	0xbd33ec64	-0.04392661
99	0x3c897f73	0.016784405
100	0x3d362efd	0.044478405
101	0xbc3c3f25	-0.011489664
102	0x3c3433e4	0.0109987
103	0x3cb1ea62	0.021718208
104	0x3ca167d1	0.019702824
105	0xbd6ebb60	-0.058284163
106	0x3dd25b75	0.1027135
107	0x3c117a2a	0.008879224
108	0x3cc45499	0.02396612
109	0x3cc029b3	0.023457384
110	0x3b4c6ad2	0.00311916
111	0x3c646370	0.013939723
112	0x3ce4e830	0.027942747
113	0xbd0a8401	-0.033817295
114	0x3b25fde7	0.002532834
115	0xbd49dd47	-0.049283292
116	0x3c4bd4ea	0.012440899
117	0x3d1c929b	0.03822575
118	0x3d0aca8f	0.03388458
119	0x3c5a054f	0.01330693
120	0x3d23b417	0.03996667
121	0xbd088b4d	-0.033335973
122	0x3c8199c2	0.015820388
123	0x3cb6983a	0.022289384
124	0x3bdb8f7f	0.0067004557
125	0x3b240019	0.0025024472
126	0x3d1b9c7d	0.037991036
127	0xbcf8ed61	-0.030386629

bn.running_var f4 [128]
0	0x38375836	4.3712753e-05
1	0x39d8cc61	0.00041351005
2	0x39bed97e	0.00036401668
3	0x3a45425a	0.0007524841
4	0x3a785098	0.00094724586
5	0x3766db90	1.3760189e-05
6	0x397057cd	0.00022920892
7	0x3894bd20	7.092417e-05
8	0x39a0eeeb	0.00030695586
9	0x3927ed3f	0.00016014742
10	0x3a364409	0.0006952887
11	0x390dda0f	0.00013528041
12	0x39609617	0.00021418218
13	0x383bb7d6	4.4755485e-05
14	0x39d2d73d	0.00040214686
15	0x380d2428	3.3650693e-05
16	0x398b1e46	0.00026534701
17	0x37434653	1.1639279e-05
18	0x36c9b806	6.01169e-06
19	0x38fd70db	0.00012085001
20	0x395e8465	0.0002122089
21	0x376df30a	1.4182888e-05
22	0x3a8e1ab5	0.00108417
23	0x38d6f05d	0.00010249086
24	0x383cdc16	4.5027664e-05
25	0x392a4320	0.0001623747
26	0x382d69b9	4.1344876e-05
27	0x388243f6	6.211542e-05
28	0x379c3c55	1.8624743e-05
29	0x373bba0b	1.1189385e-05
30	0x395ded7b	0.00021164671
31	0x3a21bb5a	0.000616958
32	0x38b7fe94	8.773539e-05
33	0x3968a75f	0.00022187595
34	0x3a0dd0dc	0.00054098456
35	0x39359335	0.00017316344
36	0x3999b5cc	0.00029317883
37	0x38aa9729	8.1343875e-05
38	0x36280bcd	2.504082e-06
39	0x372f5973	1.0451639e-05
40	0x37b5f0df	2.1689046e-05
41	0x38115147	3.464639e-05
42	0x37c052f8	2.2926819e-05
43	0x39682d64	0.00022142153
44	0x3a725594	0.00092443195
45	0x36f81034	7.3928622e-06
46	0x3a92a2d8	0.0011187447
47	0x39c875f9	0.0003823487
48	0x391d6582	0.00015010501
49	0x3924e11c	0.00015724119
50	0x3a0dffc5	0.0005416836
51	0x3733e59a	1.072269e-05
52	0x38c57c8f	9.416893e-05
53	0x381df7b4	3.766241e-05
54	0x388dc7ac	6.760596e-05
55	0x36c72988	5.935497e-06
56	0x37201945	9.542627e-06
57	0x3a787fc0	0.00094794855
58	0x382f362f	4.1773714e-05
59	0x39a8267f	0.0003207214
60	0x398ea1b8	0.0002720484
61	0x39947d33	0.0002832204
62	0x399ca8c4	0.0002988038
63	0x38ff96c2	0.000121874284
64	0x3a05e8a6	0.00051082147
65	0x3843c62e	4.6676192e-05
66	0x3a5969d2	0.00082936615
67	0x372ab57a	1.0175043e-05
68	0x397fad8f	0.0002438335
69	0x383da2f5	4.5212877e-05
70	0x37f28824	2.8912043e-05
71	0x3791bfb9	1.7374625e-05
72	0x394bd13d	0.00019437536
73	0x3b6d3d57	0.0036199891
74	0x399f7531	0.00030414158
75	0x3afa4a8d	0.0019095704
76	0x3a90e538	0.0011054641
77	0x3731c30f	1.0595438e-05
78	0x38205bf1	3.82326e-05
79	0x389e0119	7.5342316e-05
80	0x39d68b67	0.00040921124
81	0x39b0f1a1	0.00033749364
82	0x3a26b9a5	0.00063600607
83	0x38f3b93f	0.00011621648
84	0x3906f0b8	0.0001286891
85	0x38f7cea2	0.00011816366
86	0x39d9f55f	0.0004157228
87	0x3815d1c6	3.5719735e-05
88	0x3b40fcdc	0.002944759
89	0x3af72e7e	0.001885846
90	0x38175323	3.6078633e-05
91	0x39230455	0.00015546505
92	0x3a8a4afa	0.0010550909
93	0x39bc652f	0.00035933542
94	0x378cbb8e	1.6776637e-05
95	0x39cf0693	0.00039487015
96	0x3a439ced	0.00074620434
97	0x35cede9b	1.5412983e-06
98	0x3a32ef12	0.00068257854
99	0x3901fa98	0.00012395752
100	0x3a0bb19d	0.00053288956
101	0x38da112e	0.0001039825
102	0x3870a3e9	5.7373112e-05
103	0x38ab0d1f	8.1563594e-05
104	0x38dbf68a	0.00010488655
105	0x3ab8f504	0.0014111106
106	0x3b66136d	0.0035106794
107	0x373855bd	1.0987217e-05
108	0x390f4d76	0.00013666399
109	0x390821d9	0.0001298258
110	0x35ad0402	1.2890671e-06
111	0x3857b187	5.142533e-05
112	0x392e55f6	0.00016625956
113	0x39e49992	0.00043601968
114	0x3568460e	8.652868e-07
115	0x3a4859bc	0.0007642766
116	0x395b9847	0.00020942195
117	0x3a2c8f13	0.0006582599
118	0x399f3910	0.00030369358
119	0x3800292d	3.0555926e-05
120	0x3a0361c0	0.00050118193
121	0x399f7349	0.00030412737
122	0x390d0260	0.00013447693
123	0x39740e71	0.00023275033
124	0x374cd327	1.220851e-05
125	0x37159851	8.916556e-06
126	0x3a23551a	0.00062306377
127	0x3957e6c6	0.00020589968

bn1.weight f4 [128]
0	0x3f800000	1.0
1	0x3f800000	1.0
2	0x3f800000	1.0
3	0x3f800000	1.0
4	0x3f800000	1.0
5	0x3f800000	1.0
6	0x3f800000	1.0
7	0x3f800000	1.0
8	0x3f800000	1.0
9	0x3f800000	1.0
10	0x3f800000	1.0
11	0x3f800000	1.0
12	0x3f800000	1.0
13	0x3f800000	1.0
14	0x3f800000	1.0
15	0x3f800000	1.0
16	0x3f800000	1.0
17	0x3f800000	1.0
18	0x3f800000	1.0
19	0x3f800000	1.0
20	0x3f800000	1.0
21	0x3f800000	1.0
22	0x3f800000	1.0
23	0x3f800000	1.0
24	0x3f800000	1.0
25	0x3f800000	1.0
26	0x3f800000	1.0
27	0x3f800000	1.0
28	0x3f800000	1.0
29	0x3f800000	1.0
30	0x3f800000	1.0
31	0x3f800000	1.0
32	0x3f800000	1.0
33	0x3f800000	1.0
34	0x3f800000	1.0
35	0x3f800000	1.0
36	0x3f800000	1.0
37	0x3f800000	1.0
38	0x3f800000	1.0
39	0x3f800000	1.0
40	0x3f800000	1.0
41	0x3f800000	1.0
42	0x3f800000	1.0
43	0x3f800000	1.0
44	0x3f800000	1.0
45	0x3f800000	1.0
46	0x3f800000	1.0
47	0x3f800000	1.0
48	0x3f800000	1.0
49	0x3f800000	1.0
50	0x3f800000	1.0
51	0x3f800000	1.0
52	0x3f800000	1.0
53	0x3f800000	1.0
54	0x3f800000	1.0
55	0x3f800000	1.0
56	0x3f800000	1.0
57	0x3f800000	1.0
58	0x3f800000	1.0
59	0x3f800000	1.0
60	0x3f800000	1.0
61	0x3f800000	1.0
62	0x3f800000	1.0
63	0x3f800000	1.0
64	0x3f800000	1.0
65	0x3f800000	1.0
66	0x3f800000	1.0
67	0x3f800000	1.0
68	0x3f800000	1.0
69	0x3f800000	1.0
70	0x3f800000	1.0
71	0x3f800000	1.0
72	0x3f800000	1.0
73	0x3f800000	1.0
74	0x3f800000	1.0
75	0x3f800000	1.0
76	0x3f800000	1.0
77	0x3f800000	1.0
78	0x3f800000	1.0
79	0x3f800000	1.0
80	0x3f800000	1.0
81	0x3f800000	1.0
82	0x3f800000	1.0
83	0x3f800000	1.0
84	0x3f800000	1.0
85	0x3f800000	1.0
86	0x3f800000	1.0
87	0x3f800000	1.0
88	0x3f800000	1.0
89	0x3f800000	1.0
90	0x3f800000	1.0
91	0x3f800000	1.0
92	0x3f800000	1.0
93	0x3f800000	1.0
94	0x3f800000	1.0
95	0x3f800000	1.0
96	0x3f800000	1.0
97	0x3f800000	1.0
98	0x3f800000	1.0
99	0x3f800000	1.0
100	0x3f800000	1.0
101	0x3f800000	1.0
102	0x3f800000	1.0
103	0x3f800000	1.0
104	0x3f800000	1.0
105	0x3f800000	1.0
106	0x3f800000	1.0
107	0x3f800000	1.0
108	0x3f800000	1.0
109	0x3f800000	1.0
110	0x3f800000	1.0
111	0x3f800000	1.0
112	0x3f800000	1.0
113	0x3f800000	1.0
114	0x3f800000	1.0
115	0x3f800000	1.0
116	0x3f800000	1.0
117	0x3f800000	1.0
118	0x3f800000	1.0
119	0x3f800000	1.0
120	0x3f800000	1.0
121	0x3f800000	1.0
122	0x3f800000	1.0
123	0x3f800000	1.0
124	0x3f800000	1.0
125	0x3f800000	1.0
126	0x3f800000	1.0
127	0x3f800000	1.0

bn1.bias f4 [128]
0	0x00000000	0.0
1	0x00000000	0.0
2	0x00000000	0.0
3	0x00000000	0.0
4	0x00000000	0.0
5	0x00000000	0.0
6	0x00000000	0.0
7	0x00000000	0.0
8	0x00000000	0.0
9	0x00000000	0.0
10	0x00000000	0.0
11	0x00000000	0.0
12	0x00000000	0.0
13	0x00000000	0.0
14	0x00000000	0.0
15	0x00000000	0.0
16	0x00000000	0.0
17	0x00000000	0.0
18	0x00000000	0.0
19	0x00000000	0.0
20	0x00000000	0.0
21	0x00000000	0.0
22	0x00000000	0.0
23	0x00000000	0.0
24	0x00000000	0.0
25	0x00000000	0.0
26	0x00000000	0.0
27	0x00000000	0.0
28	0x00000000	0.0
29	0x00000000	0.0
30	0x00000000	0.0
31	0x00000000	0.0
32	0x00000000	0.0
33	0x00000000	0.0
34	0x00000000	0.0
35	0x00000000	0.0
36	0x00000000	0.0
37	0x00000000	0.0
38	0x00000000	0.0
39	0x00000000	0.0
40	0x00000000	0.0
41	0x00000000	0.0
42	0x00000000	0.0
43	0x00000000	0.0
44	0x00000000	0.0
45	0x00000000	0.0
46	0x00000000	0.0
47	0x00000000	0.0
48	0x00000000	0.0
49	0x00000000	0.0
50	0x00000000	0.0
51	0x00000000	0.0
52	0x00000000	0.0
53	0x00000000	0.0
54	0x00000000	0.0
55	0x00000000	0.0
56	0x00000000	0.0
57	0x00000000	0.0
58	0x00000000	0.0
59	0x00000000	0.0
60	0x00000000	0.0
61	0x00000000	0.0
62	0x00000000	0.0
63	0x00000000	0.0
64	0x00000000	0.0
65	0x00000000	0.0
66	0x00000000	0.0
67	0x00000000	0.0
68	0x00000000	0.0
69	0x00000000	0.0
70	0x00000000	0.0
71	0x00000000	0.0
72	0x00000000	0.0
73	0x00000000	0.0
74	0x00000000	0.0
75	0x00000000	0.0
76	0x00000000	0.0
77	0x00000000	0.0
78	0x00000000	0.0
79	0x00000000	0.0
80	0x00000000	0.0
81	0x00000000	0.0
82	0x00000000	0.0
83	0x00000000	0.0
84	0x00000000	0.0
85	0x00000000	0.0
86	0x00000000	0.0
87	0x00000000	0.0
88	0x00000000	0.0
89	0x00000000	0.0
90	0x00000000	0.0
91	0x00000000	0.0
92	0x00000000	0.0
93	0x00000000	0.0
94	0x00000000	0.0
95	0x00000000	0.0
96	0x00000000	0.0
97	0x00000000	0.0
98	0x00000000	0.0
99	0x00000000	0.0
100	0x00000000	0.0
101	0x00000000	0.0
102	0x00000000	0.0
103	0x00000000	0.0
104	0x00000000	0.0
105	0x00000000	0.0
106	0x00000000	0.0
107	0x00000000	0.0
108	0x00000000	0.0
109	0x00000000	0.0
110	0x00000000	0.0
111	0x00000000	0.0
112	0x00000000	0.0
113	0x00000000	0.0
114	0x00000000	0.0
115	0x00000000	0.0
116	0x00000000	0.0
117	0x00000000	0.0
118	0x00000000	0.0
119	0x00000000	0.0
120	0x00000000	0.0
121	0x00000000	0.0
122	0x00000000	0.0
123	0x00000000	0.0
124	0x00000000	0.0
125	0x00000000	0.0
126	0x00000000	0.0
127	0x00000000	0.0

bn1.running_mean f4 [128]
0	0x00000000	0.0
1	0x00000000	0.0
2	0x00000000	0.0
3	0x00000000	0.0
4	0x00000000	0.0
5	0x00000000	0.0
6	0x00000000	0.0
7	0x00000000	0.0
8	0x00000000	0.0
9	0x00000000	0.0
10	0x00000000	0.0
11	0x00000000	0.0
12	0x00000000	0.0
13	0x00000000	0.0
14	0x00000000	0.0
15	0x00000000	0.0
16	0x00000000	0.0
17	0x00000000	0.0
18	0x00000000	0.0
19	0x00000000	0.0
20	0x00000000	0.0
21	0x00000000	0.0
22	0x00000000	0.0
23	0x00000000	0.0
24	0x00000000	0.0
25	0x00000000	0.0
26	0x00000000	0.0
27	0x00000000	0.0
28	0x00000000	0.0
29	0x00000000	0.0
30	0x00000000	0.0
31	0x00000000	0.0
32	0x00000000	0.0
33	0x00000000	0.0
34	0x00000000	0.0
35	0x00000000	0.0
36	0x00000000	0.0
37	0x00000000	0.0
38	0x00000000	0.0
39	0x00000000	0.0
40	0x00000000	0.0
41	0x00000000	0.0
42	0x00000000	0.0
43	0x00000000	0.0
44	0x00000000	0.0
45	0x00000000	0.0
46	0x00000000	0.0
47	0x00000000	0.0
48	0x00000000	0.0
49	0x00000000	0.0
50	0x00000000	0.0
51	0x00000000	0.0
52	0x00000000	0.0
53	0x00000000	0.0
54	0x00000000	0.0
55	0x00000000	0.0
56	0x00000000	0.0
57	0x00000000	0.0
58	0x00000000	0.0
59	0x00000000	0.0
60	0x00000000	0.0
61	0x00000000	0.0
62	0x00000000	0.0
63	0x00000000	0.0
64	0x00000000	0.0
65	0x00000000	0.0
66	0x00000000	0.0
67	0x00000000	0.0
68	0x00000000	0.0
69	0x00000000	0.0
70	0x00000000	0.0
71	0x00000000	0.0
72	0x00000000	0.0
73	0x00000000	0.0
74	0x00000000	0.0
75	0x00000000	0.0
76	0x00000000	0.0
77	0x00000000	0.0
78	0x00000000	0.0
79	0x00000000	0.0
80	0x00000000	0.0
81	0x00000000	0.0
82	0x00000000	0.0
83	0x00000000	0.0
84	0x00000000	0.0
85	0x00000000	0.0
86	0x00000000	0.0
87	0x00000000	0.0
88	0x00000000	0.0
89	0x00000000	0.0
90	0x00000000	0.0
91	0x00000000	0.0
92	0x00000000	0.0
93	0x00000000	0.0
94	0x00000000	0.0
95	0x00000000	0.0
96	0x00000000	0.0
97	0x00000000	0.0
98	0x00000000	0.0
99	0x00000000	0.0
100	0x00000000	0.0
101	0x00000000	0.0
102	0x00000000	0.0
103	0x00000000	0.0
104	0x00000000	0.0
105	0x00000000	0.0
106	0x00000000	0.0
107	0x00000000	0.0
108	0x00000000	0.0
109	0x00000000	0.0
110	0x00000000	0.0
111	0x00000000	0.0
112	0x00000000	0.0
113	0x00000000	0.0
114	0x00000000	0.0
115	0x00000000	0.0
116	0x00000000	0.0
117	0x00000000	0.0
118	0x00000000	0.0
119	0x00000000	0.0
120	0x00000000	0.0
121	0x00000000	0.0
122	0x00000000	0.0
123	0x00000000	0.0
124	0x00000000	0.0
125	0x00000000	0.0
126	0x00000000	0.0
127	0x00000000	0.0

bn1.running_var f4 [128]
0	0x3f800000	1.0
1	0x3f800000	1.0
2	0x3f800000	1.0
3	0x3f800000	1.0
4	0x3f800000	1.0
5	0x3f800000	1.0
6	0x3f800000	1.0
7	0x3f800000	1.0
8	0x3f800000	1.0
9	0x3f800000	1.0
10	0x3f800000	1.0
11	0x3f800000	1.0
12	0x3f800000	1.0
13	0x3f800000	1.0
14	0x3f800000	1.0
15	0x3f800000	1.0
16	0x3f800000	1.0
17	0x3f800000	1.0
18	0x3f800000	1.0
19	0x3f800000	1.0
20	0x3f800000	1.0
21	0x3f800000	1.0
22	0x3f800000	1.0
23	0x3f800000	1.0
24	0x3f800000	1.0
25	0x3f800000	1.0
26	0x3f800000	1.0
27	0x3f800000	1.0
28	0x3f800000	1.0
29	0x3f800000	1.0
30	0x3f800000	1.0
31	0x3f800000	1.0
32	0x3f800000	1.0
33	0x3f800000	1.0
34	0x3f800000	1.0
35	0x3f800000	1.0
36	0x3f800000	1.0
37	0x3f800000	1.0
38	0x3f800000	1.0
39	0x3f800000	1.0
40	0x3f800000	1.0
41	0x3f800000	1.0
42	0x3f800000	1.0
43	0x3f800000	1.0
44	0x3f800000	1.0
45	0x3f800000	1.0
46	0x3f800000	1.0
47	0x3f800000	1.0
48	0x3f800000	1.0
49	0x3f800000	1.0
50	0x3f800000	1.0
51	0x3f800000	1.0
52	0x3f800000	1.0
53	0x3f800000	1.0
54	0x3f800000	1.0
55	0x3f800000	1.0
56	0x3f800000	1.0
57	0x3f800000	1.0
58	0x3f800000	1.0
59	0x3f800000	1.0
60	0x3f800000	1.0
61	0x3f800000	1.0
62	0x3f800000	1.0
63	0x3f800000	1.0
64	0x3f800000	1.0
65	0x3f800000	1.0
66	0x3f800000	1.0
67	0x3f800000	1.0
68	0x3f800000	1.0
69	0x3f800000	1.0
70	0x3f800000	1.0
71	0x3f800000	1.0
72	0x3f800000	1.0
73	0x3f800000	1.0
74	0x3f800000	1.0
75	0x3f800000	1.0
76	0x3f800000	1.0
77	0x3f800000	1.0
78	0x3f800000	1.0
79	0x3f800000	1.0
80	0x3f800000	1.0
81	0x3f800000	1.0
82	0x3f800000	1.0
83	0x3f800000	1.0
84	0x3f800000	1.0
85	0x3f800000	1.0
86	0x3f800000	1.0
87	0x3f800000	1.0
88	0x3f800000	1.0
89	0x3f800000	1.0
90	0x3f800000	1.0
91	0x3f800000	1.0
92	0x3f800000	1.0
93	0x3f800000	1.0
94	0x3f800000	1.0
95	0x3f800000	1.0
96	0x3f800000	1.0
97	0x3f800000	1.0
98	0x3f800000	1.0
99	0x3f800000	1.0
100	0x3f800000	1.0
101	0x3f800000	1.0
102	0x3f800000	1.0
103	0x3f800000	1.0
104	0x3f800000	1.0
105	0x3f800000	1.0
106	0x3f800000	1.0
107	0x3f800000	1.0
108	0x3f800000	1.0
109	0x3f800000	1.0
110	0x3f800000	1.0
111	0x3f800000	1.0
112	0x3f800000	1.0
113	0x3f800000	1.0
114	0x3f800000	1.0
115	0x3f800000	1.0
116	0x3f800000	1.0
117	0x3f800000	1.0
118	0x3f800000	1.0
119	0x3f800000	1.0
120	0x3f800000	1.0
121	0x3f800000	1.0
122	0x3f800000	1.0
123	0x3f800000	1.0
124	0x3f800000	1.0
125	0x3f800000	1.0
126	0x3f800000	1.0
127	0x3f800000	1.0

fc2.weight f4 [128, 2]
0	0x3cf75db8	0.030196056
1	0x3d80a4ec	0.06281456
2	0x3dc3e5e2	0.09565331
3	0xbcc42228	-0.023942068
4	0xbdb7a53e	-0.08967064
5	0x3da42953	0.080156945
6	0xbe03f4a6	-0.12886295
7	0xbcb51fbf	-0.022109864
8	0x3e1441f3	0.14478283
9	0xbd14ebc1	-0.036357645
10	0x3c8c0ba2	0.01709539
11	0x3cef9f06	0.029250633
12	0xbd915fbf	-0.0709834
13	0x3dc08bcb	0.094016634
14	0xbd1aa2ff	-0.0377531
15	0xbddbd31c	-0.10733625
16	0x3da6c406	0.08142857
17	0x3dc7e394	0.09760204
18	0xbd7384bb	-0.059452754
19	0xbc56dc58	-0.0131140575
20	0xbdfe01dc	-0.124026984
21	0x3da94192	0.0826446
22	0xbd603b35	-0.054743964
23	0x3c522197	0.012825391
24	0x3d8cf6be	0.06883
25	0xbd3f9996	-0.04677733
26	0x3cfb3e97	0.030669494
27	0xbdad3211	-0.08456815
28	0x3dc0c854	0.094132096
29	0x3cc4652d	0.023974026
30	0x3cdf2d89	0.027243393
31	0xb9a0cff8	-0.00030672527
32	0xbd9bb666	-0.07603149
33	0xbd896d51	-0.067103036
34	0x3c67993b	0.014135654
35	0x3d93327b	0.07187363
36	0x3c2beeaf	0.010493918
37	0x3d375549	0.04475907
38	0xbd52eaa2	-0.051493295
39	0xbcd600bd	-0.026123399
40	0x3d8bc350	0.06824362
41	0x3d1bc7a1	0.038032178
42	0xbba6a330	-0.0050853714
43	0x3e33d84b	0.17562978
44	0x3e1ea329	0.15491928
45	0xbd975d4e	-0.07390843
46	0x3d41c2a0	0.04730475
47	0xbda2aa0a	-0.079425886
48	0x3d00edc0	0.031476736
49	0x3c411318	0.011784337
50	0x3d74c67f	0.059759613
51	0x3cdd18fa	0.026989449
52	0xbcee62db	-0.029099872
53	0x3dc701ed	0.09717164
54	0x3d154e06	0.036451362
55	0xbdae810e	-0.08520709
56	0x3c8ee027	0.017440869
57	0xbde9b1b3	-0.114108466
58	0xbc7692c7	-0.015049643
59	0x3d5a0cfa	0.05323503
60	0x3d8b7f7a	0.068114236
61	0x3d30afda	0.043136455
62	0x3deee8fe	0.116655335
63	0x3ccc311a	0.024925757
64	0x3d2e1e0a	0.042509116
65	0x3dcf99b2	0.10136737
66	0xbd8f76ba	-0.07005067
67	0x3c16d227	0.009205378
68	0x3de01e9c	0.10943338
69	0xbcc0e89b	-0.023548415
70	0xbd72cf77	-0.059279885
71	0xbe2168e2	-0.15762666
72	0x3da5065f	0.08057856
73	0xbd4ddda5	-0.050260205
74	0xbd2daecc	-0.042403027
75	0x3d0b2fa9	0.033981
76	0xbb8aeb80	-0.0042394996
77	0x3d83d3ab	0.06436857
78	0x3c79a57e	0.01523721
79	0xbb1ee1ea	-0.0024243542
80	0x3cb1eafd	0.021718496
81	0x3cb32e43	0.021872645
82	0xbcda1bb5	-0.02662454
83	0x3db6a8b7	0.089188986
84	0xbca0f79f	-0.019649325
85	0xbdd60791	-0.10450662
86	0xbd87272c	-0.06599268
87	0xbe57c129	-0.21069779
88	0x3e1254e6	0.14290199
89	0xbe050738	-0.12991035
90	0xbc21739f	-0.009854226
91	0xbda1e8d4	-0.079057366
92	0xbe1f735e	-0.15571353
93	0xbe2a3fb6	-0.16625866
94	0xbdbbb25c	-0.09164879
95	0xbd387b0b	-0.045039218
96	0x3d6a3a0c	0.057184264
97	0xbdca134f	-0.09866964
98	0xbd70765d	-0.05870663
99	0x3dacc215	0.08435456
100	0xbde0370f	-0.109480016
101	0x3d928d1a	0.07155819
102	0xbbe79458	-0.0070672445
103	0xbe0c0dc7	-0.1367713
104	0xbd3ac6da	-0.045599796
105	0xbc0831eb	-0.008312683
106	0x3cd6f54f	0.02624002
107	0xbe094ba5	-0.13407762
108	0x3d1e92ba	0.038714148
109	0xbbf5106d	-0.0074787647
110	0xbbd1db80	-0.0064043403
111	0xbdc13600	-0.09434128
112	0xbbbbf13b	-0.005735544
113	0x3e0e44ff	0.13893507
114	0xbe139575	-0.14412482
115	0xbdb3f353	-0.08786645
116	0xbcf400ca	-0.029785533
117	0xbd4ed890	-0.0504995
118	0xbdabf013	-0.083954
119	0xbd22c4c9	-0.03973845
120	0xbd9e7164	-0.07736471
121	0xbcdcbd7c	-0.026945822
122	0x3da19fbb	0.07891794
123	0xbdca8c5a	-0.09890051
124	0xbda5f553	-0.081034325
125	0xbd0d262a	-0.034460224
126	0x3d53ea63	0.0517372
127	0x3cbf2f29	0.023337917
128	0xbdd9d2e0	-0.10635924
129	0x3d4b93aa	0.04970137
130	0x3d011513	0.03151424
131	0x3d57589f	0.05257475
132	0xbe0a3276	-0.13495812
133	0xbd837a99	-0.06419868
134	0x3c759dfe	0.014991282
135	0xbc3c5f7d	-0.011497376
136	0x3d95f741	0.073225506
137	0x3d086c8b	0.03330664
138	0x3cfcdea5	0.030867884
139	0xbdad3629	-0.08457596
140	0x3c95bbd1	0.018278034
141	0xbe3f3ff9	-0.18676747
142	0xbaed456a	-0.0018102352
143	0x3e4d1ab3	0.20029716
144	0x3d85d612	0.06534971
145	0xbdaf32b3	-0.08554592
146	0xbe90900a	-0.28234893
147	0xbdb49957	-0.0881831
148	0x3da7fda5	0.08202676
149	0xbc3a7ff3	-0.0113830445
150	0x3e528579	0.20558728
151	0xbe03969c	-0.12850422
152	0x3e1e9eae	0.15490219
153	0x3e221183	0.15826993
154	0xbc6d7b20	-0.014494687
155	0x3d676445	0.05649211
156	0x3cb3557c	0.021891348
157	0x3e3ee587	0.18642245
158	0x3d26fbca	0.04076747
159	0x3bf524cd	0.0074811936
160	0x3dc2f9b3	0.095202826
161	0xbd4152d1	-0.04719812
162	0xbdaf9abe	-0.085744366
163	0xbd98960e	-0.07450496
164	0xbdf2ffdb	-0.11865207
165	0x3d54a781	0.051917557
166	0xbd497c2a	-0.049190678
167	0xbdd98f24	-0.10623005
168	0xbd5a643b	-0.053318243
169	0x3d421f0e	0.047392897
170	0xbd498b43	-0.049205076
171	0xbdfa5693	-0.12223544
172	0x3dc155ad	0.094401695
173	0x3e0904c1	0.1338072
174	0xbce1dd45	-0.02757133
175	0x3d8fbf24	0.07018879
176	0xbe82a050	-0.25512934
177	0x3c327265	0.010891532
178	0xbe51292e	-0.20425865
179	0x3d18c845	0.037300367
180	0x3cdb4cb2	0.02676997
181	0x3da78775	0.08180133
182	0xbd6d47e8	-0.057929903
183	0xbd920726	-0.0713027
184	0x3e1c67d7	0.15273987
185	0xbdf9747d	-0.121804215
186	0x3db1b66a	0.08677371
187	0xbe7ea4af	-0.2486751
188	0xbc9cecdc	-0.019155912
189	0xbc768d5a	-0.015048349
190	0x3dbd6039	0.09246869
191	0x3dd3cb19	0.10341472
192	0x3e0350bb	0.12823765
193	0x3d01b35c	0.03166519
194	0x3b0f8cc0	0.0021903962
195	0xbd66795a	-0.056268074
196	0xbdfba573	-0.12287416
197	0x3c2bf1ef	0.010494693
198	0x3d5670ae	0.052353553
199	0xbd31cbc8	-0.04340723
200	0x3ddc3423	0.10752132
201	0x3de6ad11	0.112634785
202	0xbd410458	-0.047123283
203	0x3de59360	0.1120975
204	0x3d11c159	0.03558478
205	0xbd1a83b0	-0.037723243
206	0x3d205a9f	0.039148923
207	0x3e1c0fbc	0.15240377
208	0x3d437720	0.04772103
209	0x3d49e7ff	0.049293514
210	0xbe34f471	-0.17671372
211	0x3de90f19	0.11379833
212	0x3e8e81d8	0.27833438
213	0x3d2672f3	0.040636968
214	0x3c51a486	0.012795573
215	0x3daf912b	0.085726105
216	0x3d5cc773	0.053901147
217	0x3db8bf88	0.09020907
218	0x3d56f951	0.05248386
219	0x3db8d57d	0.09025095
220	0x3acc0880	0.0015566498
221	0x3d532c88	0.05155614
222	0x3d08b62f	0.03337687
223	0x3d1a9a72	0.037744947
224	0x3d6ffd56	0.05859121
225	0x3e0b4f7c	0.1360454
226	0xbdc92f4e	-0.09823476
227	0x3d0e8877	0.03479811
228	0x3b62b024	0.0034589851
229	0x3cd2ec42	0.025747422
230	0xbe04cb73	-0.12968235
231	0xbd4371e6	-0.047716044
232	0x3d85bed9	0.06530542
233	0xbe66cadb	-0.2253832
234	0x3df6f308	0.12058073
235	0xbddef77d	-0.108870484
236	0x3da608ba	0.08107133
237	0x3dbc50d3	0.091951035
238	0x3cc44723	0.023959702
239	0x3dbfd3f3	0.09366598
240	0x3dd70167	0.10498314
241	0x3d235d13	0.039883684
242	0xbda67fdc	-0.08129856
243	0xbda21abf	-0.07915258
244	0x3d5e7717	0.05431279
245	0xbd9df743	-0.07713177
246	0x3d92cc54	0.07167879
247	0xbd961f44	-0.07330182
248	0x3c859381	0.016305687
249	0x3c85bba8	0.016324833
250	0x3c5c3d56	0.013442358
251	0xbd42e74d	-0.047583867
252	0x3df0666d	0.11738286
253	0xbdb8c47d	-0.09021852
254	0xbd866cb8	-0.06563705
255	0xbe092a1c	-0.1339497

actor.linears.0.weight f4 [128, 384]
0	0xbd060d51	-0.032727543
1	0xbcff0ece	-0.03113499
2	0xbc071f12	-0.008247154
3	0xbd9b6fe1	-0.075896986
4	0xbb8bea78	-0.004269894
5	0x3cc7fae0	0.024411619
6	0x3cfb6f29	0.030692654
7	0x3d01564f	0.03157645
8	0xbc3a9763	-0.0113886325
9	0xbc1d1f7d	-0.009590027
10	0xbbbe84e4	-0.0058141816
11	0x3c25c297	0.010117195
12	0xbd2d6f11	-0.04234225
13	0xbc286a58	-0.010279261
14	0xbd23ce57	-0.039991703
15	0xbd31e845	-0.0434344
16	0xbb91fff0	-0.004455559
17	0x3dc53933	0.096300505
18	0xbd668bab	-0.05628554
19	0xbda6e354	-0.08148828
20	0x3c1c10b0	0.009525463
21	0x3b5ea2cf	0.0033971553
22	0xbd0680a3	-0.03283752
23	0xbd162037	-0.036651816
24	0x3d98381b	0.07432576
25	0x3daae1c2	0.08343841
26	0xbd7b6c27	-0.06138244
27	0xbbd29592	-0.0064265216
28	0x3d6d37e4	0.05791463
29	0x3b6e2a18	0.0036341008
30	0x3c454fc5	0.012042944
31	0xbdcf770f	-0.101301305
32	0xbc222a34	-0.009897757
33	0x3d04c1a9	0.03241125
34	0xbd22a8e5	-0.03971185
35	0x3c1c031d	0.009522227
36	0xbd2d3373	-0.042285394
37	0xbd4dfee6	-0.05029192
38	0x3ca57bd1	0.020200642
39	0x3d1619cb	0.03664569
40	0xbcdc3cd1	-0.026884468
41	0xbbe90fab	-0.0071124635
42	0x3d206214	0.039156035
43	0x3b80a6d9	0.00392614
44	0xbded61d4	-0.11590925
45	0xbcaadeda	-0.020858217
46	0x3ce0ab85	0.027425537
47	0xbc6640a3	-0.0140534965
48	0xbd1d56ea	-0.038412966
49	0x3d33c629	0.043890152
50	0xbd1866ff	-0.0372076
51	0xbdd6045e	-0.10450052
52	0x3c12f360	0.008969158
53	0xbcf0d48f	-0.02939823
54	0xbaeb8159	-0.0017967626
55	0x3d282c73	0.041058015
56	0xbd069621	-0.032858018
57	0x3d80dc74	0.06292048
58	0x3ca1c146	0.01974548
59	0x3d4545bc	0.048162207
60	0xbd2bdcd3	-0.04195864
61	0x3d57486a	0.052559294
62	0xbc4e8e39	-0.012607151
63	0x3c70f281	0.014706255
64	0x3cba7fc3	0.022766
65	0x3e0b1e5d	0.13585801
66	0x3d721c91	0.059109274
67	0xbd69c9cd	-0.057077218
68	0xbd969fee	-0.07354723
69	0xbb3049af	-0.0026899388
70	0x3caba88f	0.020954398
71	0x3ba33281	0.004980386
72	0xbd54bf8e	-0.051940493
73	0xbc937787	-0.018001331
74	0x3cd3c5c2	0.025851134
75	0x3dac0fd7	0.08401459
76	0xbd85b2c3	-0.06528237
77	0x3b08a947	0.002085285
78	0x3a424ee7	0.000741227
79	0xbbcfe194	-0.0063440297
80	0xbc6dcab9	-0.014513665
81	0xbd6ffe14	-0.058591917
82	0x3c842be1	0.016134204
83	0xbd1553a9	-0.036456738
84	0xbdb7ffd0	-0.08984339
85	0xbca75f85	-0.02043129
86	0xbd82b12f	-0.06381451
87	0xbd227317	-0.03966054
88	0xbd00faad	-0.031489063
89	0xbc784590	-0.015153304
90	0x3d333c53	0.0437587
91	0x3c0173ef	0.007901176
92	0xbe107299	-0.14106216
93	0xbd8db331	-0.06918944
94	0xbc4cc81c	-0.012498882
95	0xbb3b1ef1	-0.0028552378
96	0x3c8ae3de	0.016954359
97	0x3d9fd756	0.07804744
98	0x3c8ac5cf	0.016940026
99	0xbcc42b45	-0.023946414
100	0xbcd3632c	-0.025804125
101	0xbe2a0f04	-0.1660729
102	0xbd34da5a	-0.04415355
103	0xbbfe8491	-0.007767268
104	0x3cec77b7	0.028865678
105	0x3c689aed	0.014197093
106	0x3dd5cea5	0.10439805
107	0xbdb4ec3b	-0.0883412
108	0xbcd26749	-0.025684016
109	0x3c199263	0.00937328
110	0xbd87faf7	-0.066396646
111	0xbdcf7ea7	-0.10131579
112	0x3a6e5b16	0.00090925524
113	0x3ce91500	0.028452396
114	0xbd613bbf	-0.05498862
115	0x3d7b1204	0.061296478
116	0xbc2f5fba	-0.010703975
117	0x3d3ba2c0	0.045809507
118	0x3c01ad3b	0.0079148365
119	0x3cab3f61	0.020904245
120	0x3c95bc86	0.018278372
121	0xbda3b6cf	-0.07993852
122	0x3da41760	0.08012271
123	0xbde61fb5	-0.112365164
124	0x3ca715a5	0.020396063
125	0x3bb18924	0.0054179598
126	0x3d1e3d2e	0.038632564
127	0x3c87d9b3	0.0165833
128	0xbd4dfe88	-0.050291568
129	0xbdc246f6	-0.09486191
130	0x3d9511c7	0.072787814
131	0x3d1b2e1c	0.03788577
132	0xbd1124e7	-0.035435583
133	0xbd4170b5	-0.047226626
134	0x3d274668	0.04083863
135	0x3cf17e13	0.029479062
136	0x3d3b6688	0.04575208
137	0xbc42a7ad	-0.011880797
138	0xbd6434f6	-0.05571457
139	0xbb69df12	-0.0035685939
140	0x3be3f1bd	0.0069563077
141	0x3d90e45e	0.070748076
142	0xbd754ae0	-0.05988586
143	0x3b72d5bd	0.0037053667
144	0x3d04ea8a	0.032450236
145	0xbd70aea9	-0.05876032
146	0xbd32c9b1	-0.04364938
147	0xbd4e318c	-0.05034022
148	0xbd4d9f9f	-0.050201055
149	0xbd240c3e	-0.040050738
150	0xbd2691cf	-0.040666398
151	0xbdf6a82e	-0.120437965
152	0x3c904b9c	0.017614178
153	0xbd85986b	-0.06523212
154	0xba30c65e	-0.0006743426
155	0xbd828535	-0.063730635
156	0xbcc50ae1	-0.024053039
157	0x3da85331	0.082189925
158	0x3dd62dee	0.10457979
159	0xbd5d06e5	-0.053961653
160	0x3d648407	0.055789974
161	0xbcc5c551	-0.02414194
162	0x3b418bde	0.002953283
163	0xbd67d962	-0.056603797
164	0xbd070df5	-0.032972295
165	0x3d2aa451	0.04166061
166	0x3b971ddf	0.004611715
167	0xbd4b80f8	-0.04968354
168	0x3ad32070	0.001610769
169	0xbc0677fe	-0.008207319
170	0x3a9442cf	0.0011311414
171	0x3d440aad	0.047861744
172	0x3c9b819b	0.0189827
173	0x3dd037e9	0.10166914
174	0x3bb971c5	0.0056593143
175	0x3cbd627c	0.02311825
176	0x3d64001b	0.055664163
177	0x3be3eade	0.0069554886
178	0x3d05ca4e	0.032663636
179	0x3c0d1d38	0.008612923
180	0xbdba600c	-0.09100351
181	0xbd5caf67	-0.053878214
182	0xbc6f5bb9	-0.014609271
183	0xbda37330	-0.07980955
184	0x3cf9c0bb	0.030487409
185	0xbd690406	-0.056888603
186	0x3d54ff96	0.05200156
187	0xbdcf5393	-0.101233624
188	0x3ca1d6bc	0.019755714
189	0x3dcaab05	0.09895901
190	0x3cb30d73	0.021856999
191	0xbd44c8aa	-0.04804293
192	0xbd3092a4	-0.043108597
193	0x3d2f31d4	0.04277213
194	0xbddf9393	-0.109168194
195	0xbd0d1d75	-0.03445192
196	0xbd12480a	-0.035713233
197	0xbd241d56	-0.04006704
198	0x3c83219b	0.016007235
199	0xbda73a8a	-0.08165462
200	0xbc0de3b7	-0.0086602485
201	0xbce0b837	-0.02743159
202	0x3d251a2e	0.04030817
203	0xbd6ea0f8	-0.05825898
204	0xbd1570f5	-0.036484677
205	0x3d01bd1c	0.03167449
206	0x3d068f43	0.03285147
207	0x3c3d08d4	0.011537749
208	0xbcd7f14b	-0.026360175
209	0xba33a17a	-0.000685237
210	0x3c7df829	0.0155010605
211	0x3c6b6d33	0.014369297
212	0x3dace0ee	0.084413394
213	0xbd99666f	-0.07490241
214	0x3d93e29d	0.072209574
215	0x3d14d9ee	0.036340646
216	0xbd04ac45	-0.03239085
217	0xbd20ab6d	-0.039225984
218	0x3d3134c6	0.04326322
219	0xbd1bd395	-0.038043577
220	0x3d42268a	0.047400035
221	0x3bde66da	0.006787163
222	0xbdcbb459	-0.09946508
223	0xbccbae8e	-0.024863508
224	0x3d0a629d	0.03378545
225	0xbcb8b35b	-0.02254646
226	0xbc111890	-0.008855954
227	0x3e1f89ff	0.15579985
228	0x3cabbe71	0.020964833
229	0xbd8dbce1	-0.069207914
230	0x3c7b4c08	0.0153379515
231	0x3b9d770f	0.0048054527
232	0x3d59ebb8	0.053203315
233	0xbb999196	-0.0046865446
234	0xbbe602c1	-0.0070193713
235	0xbd0fd90a	-0.035119094
236	0x3d7e2f50	0.06205684
237	0x3d8ff9b9	0.07030053
238	0xbad3e9ef	-0.001616774
239	0xbcef2185	-0.029190788
240	0xbd58733b	-0.052844267
241	0x3bac65eb	0.005261173
242	0x3c65ba8a	0.014021525
243	0xbd261e52	-0.04055626
244	0xbc04da2e	-0.008108659
245	0x3d87683e	0.066116795
246	0x3d918aba	0.07106538
247	0xbd581333	-0.052752685
248	0x3d2ae56c	0.0417227
249	0xbd0a2532	-0.03372688
250	0xbd993757	-0.07481258
251	0x3c1bb4be	0.0095035415
252	0xbc9b1405	-0.018930444
253	0xbd2433ca	-0.040088452
254	0xbd4165f8	-0.047216386
255	0x3cd0e7d0	0.025501162

actor.linears.0.bias f4 [128]
0	0x3bcd33d8	0.006262284
1	0xba70659f	-0.0009170416
2	0x3c079449	0.0082751
3	0x3be5445f	0.006996676
4	0xbbc169e7	-0.005902517
5	0x3bed3b7d	0.0072397576
6	0x3b4ece81	0.0031556191
7	0xbb93127b	-0.004488287
8	0x3bf803f6	0.0075688316
9	0xb97a92a5	-0.00023896487
10	0x3a8ba09e	0.0010652726
11	0xbb1de0ff	-0.0024090407
12	0xbb3600ff	-0.002777159
13	0x3b7c4ac1	0.0038496705
14	0xbb3f4634	-0.0029186131
15	0x3bd6f046	0.0065594045
16	0x3bc233eb	0.0059265993
17	0xbb59e04e	-0.0033245268
18	0x3aabd107	0.001310856
19	0xba3d89a3	-0.00072302873
20	0x3b8671b4	0.00410291
21	0xbb067493	-0.002051626
22	0xbc029f12	-0.007972496
23	0x3bb7f73f	0.005614191
24	0xbb951a57	-0.004550259
25	0x3b824454	0.0039754305
26	0xbbf9421b	-0.0076067573
27	0xbb69f99c	-0.0035701757
28	0xb9872888	-0.00025779405
29	0x3b4f4c0b	0.0031631019
30	0xbbe16db2	-0.006879532
31	0x3bea6e18	0.0071542375
32	0xbb1cd568	-0.002393091
33	0x3b3feeec	0.0029286696
34	0x3bbab2cb	0.0056975833
35	0xbb626e1b	-0.0034550491
36	0xbb26b05e	-0.0025434713
37	0xbbeaad11	-0.0071617444
38	0x3b5949cb	0.0033155556
39	0x3aac6c20	0.0013154782
40	0x3a5073ca	0.0007951824
41	0x3a401ae8	0.0007328228
42	0xbb7ad98e	-0.0038276645
43	0x3bc5a2e9	0.0060313833
44	0x3a441050	0.00074792374
45	0x3bddd2b9	0.006769505
46	0x3b9c25aa	0.004765232
47	0xbaa5dcf5	-0.0012654351
48	0x3b835ac4	0.004008623
49	0x3c029d00	0.007972002
50	0xbbdf65cc	-0.006817555
51	0x3bfb667c	0.007672129
52	0x3a51b6ff	0.0007999986
53	0x399283b8	0.00027945428
54	0xbbfa392c	-0.00763621
55	0xbbe11661	-0.006869123
56	0xbba223c5	-0.0049481117
57	0xbb82b71c	-0.0039891135
58	0xbb99312d	-0.0046750517
59	0xb9febf56	-0.00048589212
60	0xbb8799c6	-0.0041382043
61	0x3b718bc0	0.003685698
62	0x3b0de5df	0.0021651906
63	0x3bd39f15	0.006458173
64	0x3b20226e	0.0024434584
65	0xbbeb4ec5	-0.007181021
66	0xbb0d1f9d	-0.0021533736
67	0x3c083689	0.008313783
68	0xbb34a554	-0.0027564364
69	0xbbe6f972	-0.007048779
70	0x3b168dff	0.002297282
71	0xbbe0d5ba	-0.0068614157
72	0xbbe36b2b	-0.0069402657
73	0xbbd2170f	-0.00641144
74	0xbc18a945	-0.009317701
75	0xbb756c5f	-0.0037448627
76	0x3be92135	0.0071145543
77	0xbb5ac8dd	-0.0033383884
78	0xbadd7fd7	-0.0016899061
79	0x3b14bbe3	0.0022694997
80	0x3b878170	0.004135303
81	0xba7dbfe9	-0.0009679781
82	0x3bd10334	0.0063785557
83	0x3b0f11ae	0.0021830606
84	0xbbd25a25	-0.0064194375
85	0xbb99ddfb	-0.0046956516
86	0xbbd94bba	-0.0066313418
87	0x3c010d25	0.007876669
88	0xbbb59e41	-0.005542547
89	0x3a5fa90f	0.00085319666
90	0x3be2d107	0.0069218907
91	0x3b58d891	0.0033088068
92	0xbbd6396e	-0.006537608
93	0x3c01044f	0.007874562
94	0xbb3945f4	-0.0028270455
95	0xbbed6262	-0.007244394
96	0xbb22730e	-0.0024787816
97	0x3bc07da8	0.0058743544
98	0xbb7146fc	-0.0036815992
99	0x389cb0ee	7.4716154e-05
100	0x3ae0582d	0.0017116122
101	0x3b4fb658	0.0031694379
102	0xbab8212b	-0.0014047971
103	0xbbc0f614	-0.00588871
104	0x3b3626dc	0.0027794158
105	0x3b0d00e7	0.002151543
106	0x3b3d54b8	0.0028889608
107	0x3a921e81	0.0011148007
108	0x3bbef987	0.005828086
109	0xb9a6ece6	-0.0003183849
110	0xbad20138	-0.0016022092
111	0xbb259db9	-0.0025271012
112	0xbbb99555	-0.0056635537
113	0xba8f6945	-0.0010941407
114	0xb9b8586a	-0.00035161088
115	0xbb3543ca	-0.0027658814
116	0xbbe41313	-0.0069602816
117	0xbc09beeb	-0.008407335
118	0xbb815d65	-0.003947901
119	0x3a5ca998	0.00084176054
120	0x3b24f10f	0.0025168096
121	0xbbfa9279	-0.0076468554
122	0x3bac28be	0.0052538803
123	0xbbf888ab	-0.0075846515
124	0xbbb1fc9c	-0.0054317247
125	0x3a25eae7	0.00063292537
126	0xbbbfdce1	-0.0058551882
127	0xbadeb826	-0.0016992136

actor.linears.1.weight f4 [128, 128]
0	0x3dcf48e7	0.10121327
1	0xbe32095c	-0.17386383
2	0xbe03d277	-0.12873255
3	0x3dda7063	0.10665967
4	0xbc8417f4	-0.016124703
5	0x3d970d20	0.0737555
6	0x3ded09f0	0.11574161
7	0x3e0e8c25	0.13920648
8	0x3d17ac40	0.037029505
9	0x3da60182	0.08105756
10	0xbe0ce588	-0.13759434
11	0xbe244dda	-0.16045323
12	0x3d6fc2b4	0.058535293
13	0x3dc5f074	0.096650034
14	0xbe2b4e4d	-0.16729088
15	0xbd926e37	-0.07149928
16	0xbcbb67d0	-0.02287665
17	0x3cac065b	0.020999124
18	0xbbabf8a8	-0.005248148
19	0xbcba3d77	-0.022734387
20	0x3e1f5d60	0.15562963
21	0x3cfbdcd6	0.030744951
22	0xbe117b19	-0.14207114
23	0x3d9d2c7b	0.076744996
24	0x3c8b2b1e	0.016988333
25	0x397989c9	0.0002379782
26	0xbd88a65b	-0.06672355
27	0x3ab1124c	0.0013509481
28	0xbcc282f1	-0.023744078
29	0x3b86f6e4	0.004118787
30	0xbde8b8c0	-0.11363363
31	0x3db6c7b9	0.08924813
32	0xbe181f63	-0.14855723
33	0x3e726e61	0.23674919
34	0x3ccd827c	0.025086634
35	0xbb7d99dd	-0.0038696446
36	0x3e0e9fd9	0.13928165
37	0x3d05ee0a	0.032697715
38	0x3de8e58c	0.113719076
39	0x3db9abef	0.09065997
40	0x3de31aa3	0.11089065
41	0x3cda4f35	0.026649097
42	0xbdb6e0af	-0.08929574
43	0xbca1581c	-0.019695334
44	0xbdafd7e1	-0.085860975
45	0xbd97dee8	-0.07415563
46	0x3d2e47de	0.042549007
47	0xbc8ec5ba	-0.017428268
48	0x3c80d91d	0.015728528
49	0x3e13a5fb	0.14418785
50	0xbe200a88	-0.15629017
51	0xbc6c2e22	-0.014415296
52	0x37d1f300	2.5027897e-05
53	0xbd419106	-0.047257446
54	0x3e1c599d	0.1526856
55	0x3e3775cb	0.17916028
56	0xbae55b86	-0.001749859
57	0x3e3594b8	0.17732513
58	0xbc5a8146	-0.013336485
59	0x3d887840	0.06663561
60	0x3dc7c803	0.09754946
61	0xbb64fe5a	-0.0034941644
62	0x3d373c52	0.04473526
63	0xbd333558	-0.043752044
64	0x3c5d8bef	0.013522132
65	0x3d92053c	0.07129905
66	0xbd9cf92d	-0.07664714
67	0xbc818b80	-0.01581359
68	0xbe55b1c0	-0.20868587
69	0x3cc558ea	0.02409025
70	0x3d51b170	0.05119461
71	0xbd2de5da	-0.04245553
72	0xbc6ea36b	-0.014565329
73	0xbc2c212a	-0.010505954
74	0xbd2968c4	-0.041359678
75	0xbd2f89c6	-0.042856
76	0x3c83683b	0.016040912
77	0x3b5a5760	0.003331624
78	0xbd70b7fc	-0.05876921
79	0x3a47880d	0.00076115207
80	0xbd94188d	-0.07231245
81	0xbb83ebf3	-0.00402593
82	0x3d4ea10b	0.05044655
83	0x3df63882	0.12022497
84	0xbde9bcae	-0.11412941
85	0xbe299ba7	-0.16563283
86	0x3db3e651	0.08784164
87	0x3d9ff732	0.07810821
88	0xbdce8808	-0.1008454
89	0x3d52eaac	0.05149333
90	0x3dbfc865	0.09364394
91	0xbe501433	-0.20320205
92	0xbc1e5e54	-0.009666044
93	0x3e0f1430	0.13972545
94	0x3e010f23	0.1260343
95	0xbc19f7fd	-0.009397504
96	0xbd927305	-0.071508445
97	0x3d10dfbf	0.03536963
98	0xbd45f82f	-0.04833239
99	0xbb9e6cae	-0.004834733
100	0x3cbc7724	0.02300603
101	0x3dc36396	0.09540479
102	0xbd3989f4	-0.045297578
103	0xbd224d7c	-0.039624676
104	0xbe0b6ae6	-0.13614997
105	0xbd7264bf	-0.05917811
106	0xbd4d9d28	-0.050198704
107	0xbdd80084	-0.10546973
108	0x3debf651	0.115215905
109	0xbc824d5b	-0.015906027
110	0x3c9d90c2	0.019234065
111	0xbd2062c5	-0.039156694
112	0x3d36a78b	0.044593375
113	0x3d466abc	0.048441634
114	0xbd1e62b8	-0.038668364
115	0x3dfa3a50	0.122181535
116	0x3c3207aa	0.010866085
117	0xbdf66f70	-0.12032974
118	0xbd8fe798	-0.07026595
119	0xbe0e6609	-0.13906111
120	0x3d3dd0e5	0.046341795
121	0xbd38b911	-0.045098368
122	0xbdc2085a	-0.09474249
123	0x3ca95dd6	0.020674627
124	0x3de23233	0.11044731
125	0x3e06ff44	0.13183314
126	0xbd0aa139	-0.03384516
127	0x3b365e1d	0.0027827092
128	0x3e1a8dd5	0.15093167
129	0xbdc1e6b1	-0.09467829
130	0x3cda6e63	0.026663965
131	0x3d974601	0.07386399
132	0xbd04bfc3	-0.03240944
133	0xbd4bde25	-0.0497724
134	0x3dbf2741	0.09333659
135	0x3d36563e	0.04451584
136	0x3d77db43	0.06051184
137	0xbe0f8803	-0.14016728
138	0xbdb6d19a	-0.08926697
139	0x3deb9505	0.115030326
140	0x3dd68b27	0.1047576
141	0xbcf70e9f	-0.030158339
142	0xbdc2b716	-0.09507577
143	0xbdfdcccc	-0.123925775
144	0x3dc3a49e	0.095528826
145	0x3db64114	0.088991314
146	0x3ca27ee5	0.019835899
147	0x3e0e079c	0.1387009
148	0xbcc74d33	-0.024328804
149	0xbdfca137	-0.12335437
150	0xbd844fb9	-0.064605184
151	0xbd3c88e7	-0.046028998
152	0x3d0525ef	0.03250688
153	0xbdc73e89	-0.097287245
154	0xbde79d77	-0.11309331
155	0xbdaaf024	-0.083465844
156	0x3bb5acc5	0.0055442774
157	0x3e20e57e	0.15712544
158	0x3cc485bd	0.023989553
159	0x3d43402b	0.047668617
160	0xbe0f1949	-0.1397449
161	0x3d1d0c03	0.038341533
162	0xbc8eee9b	-0.01744776
163	0xbe3ee3bc	-0.18641561
164	0x3d369a44	0.044580713
165	0xbd8f58be	-0.06999348
166	0x3d62b5be	0.055349104
167	0xbde8ad8d	-0.11361227
168	0xbda0a89f	-0.07844662
169	0x3dd4e397	0.10394972
170	0x3e02a2b0	0.12757373
171	0xbdc3d103	-0.0956135
172	0x3d95dd47	0.07317596
173	0x3def469c	0.116833895
174	0xbdce2da4	-0.10067299
175	0xbda3bc95	-0.079949535
176	0xbd864945	-0.06556944
177	0xbcadb1b3	-0.021202898
178	0xbd69c9ef	-0.057077345
179	0x3e2cf7b9	0.16891374
180	0xbdd52fc8	-0.10409504
181	0x3d21470d	0.0393744
182	0x3e079f27	0.13244306
183	0xbdda5c83	-0.106621765
184	0x3e082878	0.13296688
185	0x3c13ee26	0.009028947
186	0xbc8994aa	-0.016794521
187	0xbc80aad2	-0.015706453
188	0xbda7a0fd	-0.08185003
189	0x3dc334de	0.09531568
190	0xbc84137f	-0.016122578
191	0xbd21523b	-0.03938506
192	0x3d9223b5	0.07135717
193	0x3d6b91c2	0.057512052
194	0x3d7405dd	0.059575904
195	0xbc2958c4	-0.010336105
196	0x3c7c3888	0.0153943375
197	0x3d56f421	0.052478913
198	0xbc44353f	-0.0119755855
199	0xbe01b7da	-0.1266779
200	0xbdabb07a	-0.083832696
201	0x3dd2dd00	0.10296059
202	0x3e1d717e	0.15375325
203	0x3cd60ee8	0.026130155
204	0x3d929c46	0.07158713
205	0x3d7c9a40	0.06167054
206	0xbddc6495	-0.10761372
207	0xbdd25f94	-0.10272136
208	0xbb666f63	-0.0035161607
209	0x3dace2d4	0.084417015
210	0x3e0f6553	0.14003496
211	0xbe32ee2d	-0.1747367
212	0xbd073c49	-0.033016477
213	0x3dee059b	0.11622163
214	0xbcb3e286	-0.0219586
215	0xbc36c89a	-0.011156226
216	0x3d596cf9	0.05308244
217	0x3e29fb96	0.16599879
218	0x3dd9cf90	0.106352925
219	0x3ce94180	0.028473616
220	0x3d2efc52	0.0427211
221	0x3e3c14a8	0.18367255
222	0xbd05b880	-0.032646656
223	0x3d96e98e	0.07368766
224	0x3db8a089	0.09014995
225	0xbdb912ac	-0.090367645
226	0xbd12be55	-0.035826046
227	0xbda6fa80	-0.08153248
228	0x396296de	0.00021609242
229	0xbe216ba1	-0.15763713
230	0xbcba0a59	-0.022710012
231	0x3d6029ba	0.054727294
232	0x3e1790d2	0.14801338
233	0xbdc19c76	-0.09453671
234	0xbd9bc9bc	-0.07606837
235	0xbc468c66	-0.0121184345
236	0x3e36008b	0.17773645
237	0x3a260245	0.00063327356
238	0x3d86ff59	0.065916725
239	0x3da33151	0.07968391
240	0x3da75e21	0.081722505
241	0xbd8e8c73	-0.06960382
242	0x3d25399c	0.040338144
243	0x3d127e17	0.03576478
244	0xbb895168	-0.0041906126
245	0x3db526f5	0.08845321
246	0x3d621d73	0.055203866
247	0x3c691cd5	0.0142280655
248	0x3dec160a	0.11527641
249	0x3e27ec20	0.16398668
250	0x3d93e638	0.07221645
251	0xbd9916c3	-0.074750446
252	0xbd9d1f53	-0.0767199
253	0xbd07a7f0	-0.033119142
254	0x3cb39581	0.021921875
255	0x3d1fd96f	0.03902572
