DRL coding/RM_RealWorld/saved_network/FJSP_J15M15/best_value100/policy_job.pth (torch, 648359 bytes, 53 tensors)

_input f4 [128]
00000000: 024b 593f 930a 553f 410a b93e 9472 40bf
00000010: 27bb 04bf cc74 03be f033 083d e8f9 a6be
00000020: f0af 7dbf 9067 23bf a522 38bf 85ef 48bf
00000030: b950 40bc 2498 7e3f e687 033f 1680 61bf
00000040: b569 b2be 7ebd 98be 88e7 b63e 5c5b 29bf
00000050: cfec 5a3f 08ae 24bf 2f65 3abf b28f 2dbf
00000060: 06ae 573f 2f63 603f e7f6 4bbf a954 0abf
00000070: 6553 f43e af09 0fbe c7e5 7ebf c21c fe3e
00000080: 2e4e f1bd 9a9a 763f 6635 ae3e eb07 213f
00000090: ed6d 2b3f eb69 00be 4c87 6bbf b593 283f
000000a0: f2d4 193f 5ddb b7be 6f38 373f 287d a63d
000000b0: d880 9bbe c83e 42bf 9967 98bd 9d81 a8bb
000000c0: 98ba 363f fbdb 233f 8666 ae3e 5af6 ce3d
000000d0: d150 68bf 6ba3 5cbf 4f9a 733f 02ca 36bf
000000e0: 3f53 a13e da08 4e3e 05ca 9e3e 2cff 943e
000000f0: a05a 1e3e 22d3 1cbf b3e9 a53e e5eb 313e
00000100: f6cc 51bf 9de8 4f3e cf47 873e 3f9b 41bf
00000110: 0c43 1d3f 5e88 893e efd5 5b3f 5ad8 233e
00000120: 93a6 e7be f695 0dbd de7a 2b3f 7d26 953d
00000130: 4840 bcbe c851 1a3f 9117 783f fc6b 3f3d
00000140: 11fb 3b3f b3d7 13bf e918 083f 0dbd c33c
00000150: f54f b3be 51f1 ec3d a557 c3be c422 8d3e
00000160: b968 c73e 5c09 cc3e eb9e 283e bf17 51be
00000170: ae9a 353f a90b e8be 4109 5ebf 7052 51be
00000180: 88f6 35bf e5a1 51bf 4a0e b8be d6d0 0abe
00000190: 2fad 02bf 8c40 033f bd0e 4a3e 289e e83e
000001a0: b069 fdbe ac7b 293f 83a8 59be 9b80 f7bc
000001b0: 7f2d 7dbf 200d 75bf fe4c 03bf 4f63 d4bc
000001c0: e9df c43e d712 11bf a3df 6dbf a692 203f
000001d0: 023e 773f 71d0 463f 5786 ae3e ddb0 3d3f
000001e0: 4b81 2a3e afb6 a6bb 13cf 693f 146c b83e
000001f0: 525b 31be f872 553f 7aca b93e 6b5e 823e
0.8488008 0.8321926 0.36140636 -0.7517483 -0.5184807 -0.12837523 0.033252656 -0.32612538
-0.99096584 -0.638299 -0.71927863 -0.7849048 -0.011737996 0.994509 0.5137924 -0.8808607
-0.34846273 -0.2983207 0.3572352 -0.6615503 0.8551759 -0.6432805 -0.72810644 -0.67797387
0.84249914 0.8765134 -0.7967362 -0.5403543 0.47719875 -0.13968538 -0.9956936 0.49631315
-0.1178249 0.96329653 0.34025115 0.62902707 0.6696461 -0.12540404 -0.9200332 0.65850383
0.60090554 -0.35909548 0.71570486 0.081293404 -0.30371737 -0.75877047 -0.07441635 -0.005142404
0.7137847 0.6400754 0.34062594 0.101055816 -0.90748316 -0.86186856 0.9515733 -0.7140199
0.31508824 0.20120564 0.31013504 0.2910093 0.15464258 -0.61259663 0.3240486 0.17375143
-0.8195337 0.20303579 0.26421973 -0.7562751 0.6143043 0.26861852 0.8587331 0.160005
-0.45244274 -0.034566842 0.66984355 0.07282732 -0.36767793 0.6028104 0.9691096 0.04673384
0.7342997 -0.57751006 0.5316301 0.023893857 -0.3502194 0.11569465 -0.38152805 0.27565587
0.38947085 0.3985089 0.16466872 -0.20419215 0.7093915 -0.45321396 -0.8673287 -0.20441604
-0.710793 -0.81887656 -0.35948402 -0.13556227 -0.5104551 0.51270366 0.19732185 0.45433164
-0.49494696 0.66204333 -0.21255688 -0.030212691 -0.98897547 -0.9572315 -0.51289356 -0.02592626
0.3845208 -0.5666937 -0.9291937 0.6272377 0.9657899 0.77661806 0.34086868 0.74097997
0.16650884 -0.0050876956 0.91331595 0.36019957 -0.17319992 0.83378553 0.3628729 0.2546266

bn.weight f4 [2]
00000000: 0000 803f 0000 803f
1.0 1.0

bn.bias f4 [2]
00000000: 0000 0000 0000 0000
0.0 0.0

bn.running_mean f4 [2]
00000000: 0000 0000 0000 0000
0.0 0.0

bn.running_var f4 [2]
00000000: 0000 803f 0000 803f
1.0 1.0

encoder.feature_extract.mlps.0.linears.0.weight f4 [128, 2]
00000000: eca4 c9bc 3326 89bd 2acb 043e d967 15bd
00000010: d099 62bd d426 ea3c 7fbf 08bb 20d4 95bd
00000020: f6db 933d f875 0a3d fb36 5abd d9ef cdbd
00000030: 153b fb3d c74f 63bd f6d2 81bd da2a f33d
00000040: 90c8 703d 4ddd 2b3c fe62 0cbd c5e6 97bd
00000050: 9f8d f93d e0e4 b53c 0685 253d d513 68bd
00000060: 89ee 99bd 34cb f73d 78e6 623c 87ee 843d
00000070: 3b9f c23d df0f fb3d 95fe 703d 69ba 853d
00000080: 02fd 8e3c 8c36 1dbd 289f 643b f97b 113e
00000090: 42f1 193c 5917 883c b219 82bd c738 a4bc
000000a0: eaa5 90bd 6aaa b13d 756f 9f3c 1068 d23d
000000b0: 5ba1 f1bd 803b 8e3d ed74 c13d 79e1 163d
000000c0: 9066 86bc 9961 213e 6867 023e 6dbf ba3c
000000d0: 07ad ec3c 71ae 51bd facd 5dbd 3c2c 233e
000000e0: 1944 10bd 9d62 cc3d ea96 713c 4a8d 893d
000000f0: 5638 31bd 369c 463c 5baa 0cbd 7cb7 d53d
00000100: 07a0 b1bd 1c70 9cbb c422 253e 6cd7 823d
00000110: 31d4 6e3d c0d6 fdbc 073e 5ebd e674 91bb
00000120: d420 8bbd 58d7 bc3d 1d6e c13c 4a4b c13d
00000130: 787d a6bc 7b54 df3d e6f0 6fbc 4c34 1dbe
00000140: 13a3 913c 10d2 873d bb9d 8dbc dc77 503c
00000150: 0e4c fb3d 9bef 69bd d7d4 8dbd b84e 96bd
00000160: f076 74bd 83cb a03d 5514 8c3d d3ad f1bd
00000170: 367a 81bd 6383 84bd be94 fd3d 6c91 3d3e
00000180: 8871 c9bc 7eb0 7abe 6cec a7bc 1ae9 4ebd
00000190: a156 d8bd 81a3 15be 2aa3 dd3d 04e3 83bc
000001a0: 5aee 823d b928 60be 3738 de3d b4ee 49be
000001b0: d859 ba3d 10ce 9f3d 5fe1 943d dd7a 613b
000001c0: 9980 8cbd 696c 13bd f8a6 773d f90a dd3b
000001d0: 0e72 43be 9324 39bc 8383 093c 0949 73bd
000001e0: 2fa4 f73d 8008 eb3d 40c9 463d 0b74 a43d
000001f0: 7dc6 4b3c ff72 62bd 124d 2f3e 8c48 213d
00000200: ff8f 003d aaa7 c13d 3882 ecbd 2781 acbd
00000210: 2e65 96bc c345 103e 0c71 b2bc 86a9 3c3d
00000220: 91e5 97bd 8fea a4bd d152 2f3c 35c9 d8bd
00000230: c6f4 103e 0726 133d b715 f1bc 3456 b4bd
00000240: 7ba9 9b3d 02b6 e53d 1b08 67bc e52b 9fbc
00000250: 2300 223e 450c 6b3d 4657 74bc 047b 393c
00000260: 3798 4c3e 0f4f ce3c 9ff0 193e 4f00 75bc
00000270: c823 f73d f1bd 0c3d 72d7 9ebd a0ba 833d
00000280: 7c90 ac3d 1fb9 193e c84f 7a3c c7b3 f13b
00000290: 94df 293e 470f 9ebd 2c14 e6bd 60ec 89bd
000002a0: 76cd 1bbd 2578 7ebd 3ae8 f53d 18be c13c
000002b0: 14bd dcbd 7652 c93c bd56 1ebd 98e1 41bd
000002c0: 8098 a8bd 6001 5fbd d93c 683d 2660 21bd
000002d0: 8bee a0bd bb04 2e3e 2c6d f5bd 2014 6a3e
000002e0: acda 8fbd 1155 a33d 25eb cf3d 741e cc3b
000002f0: d5ec f63d 1b76 05be a257 bc3c afdc d4bd
00000300: 9724 1abc 9fcb 54bd b980 c13c bf95 893d
00000310: ed82 af3d 2c43 893c 636e 203d 8f13 813e
00000320: 4727 0c3e 5bbd a2bd f561 0dbe c3e1 4bbd
00000330: f848 b8bd b40a bebd 8fbf abbd bb13 833d
00000340: f7df fbbd 09a1 4f3d d1a7 30bd acf2 24bd
00000350: 7032 e13d 517a d6bd d3ca f4bd 0403 0d3b
00000360: ec7a 69be a1e2 b93d 4cf9 ce3d 0c6c bb3d
00000370: 3efb f53d 3669 cc3d 2545 6a3d 2796 15bc
00000380: 0e8e 383e 3494 80bc 583e ce3d 5200 e73c
00000390: 99a6 583c 8d97 0d3b 708a 0bbe 157f 56bc
000003a0: 3860 7a3c ae62 27bc 8543 3f3d 7ed7 3e3e
000003b0: 4139 3bbd 2b08 743d 4a11 81bd 4920 c3bd
000003c0: f5f8 d83d fad7 283b df05 213e 7e16 febd
000003d0: de3e 3fbc 9778 5fbd af9b 36bc 75f4 23bd
000003e0: 1aca b13d bf60 153d aac6 a4bd 981b d93d
000003f0: 7ec1 693d a7a4 ac3d 8d13 5b3d b811 913d
-0.024614774 -0.06696739 0.12968126 -0.03647599 -0.05532247 0.028582968 -0.0020866094 -0.0731585
0.072196886 0.03380391 -0.05327509 -0.10055513 0.122671284 -0.055496003 -0.06339066 0.11873408
0.05878502 0.010489774 -0.034274094 -0.07417063 0.12185215 0.022203863 0.040410064 -0.05665954
-0.075162 0.12099305 0.013848893 0.06490808 0.09503027 0.122588865 0.05883654 0.065296955
0.017454628 -0.038382098 0.0034884904 0.14207448 0.009395899 0.016612696 -0.06352557 -0.020046605
-0.070628956 0.08675082 0.019462327 0.102737546 -0.11798354 0.069449425 0.0944613 0.03683612
-0.016406327 0.15759887 0.12734759 0.022796357 0.0288911 -0.05119175 -0.054151513 0.15934843
-0.035221193 0.099797465 0.014745453 0.06716402 -0.043266617 0.0121222045 -0.03434215 0.104353875
-0.08673101 -0.0047741067 0.16126543 0.06388745 0.05830783 -0.03098619 -0.054258373 -0.004438984
-0.06793371 0.09220761 0.023612076 0.094381884 -0.0203235 0.10904785 -0.014644837 -0.15351981
0.017777955 0.06631863 -0.017287126 0.012723889 0.12270366 -0.05711327 -0.069253616 -0.07339233
-0.05968374 0.07851317 0.068398155 -0.118007325 -0.06322138 -0.064703725 0.12381886 0.18512505
-0.024590269 -0.24481389 -0.020498477 -0.05051527 -0.10563398 -0.14613153 0.10822137 -0.01609946
0.06393118 -0.21890534 0.10850566 -0.19719964 0.090991676 0.07802975 0.072695486 0.0034405508
-0.068604656 -0.03599206 0.06046197 0.006745693 -0.19086477 -0.011300224 0.008393171 -0.059395824
0.120918624 0.114762306 0.04853177 0.08029946 0.01243746 -0.05528545 0.17119244 0.039375827
0.031387325 0.094558075 -0.11548275 -0.08423071 -0.018358793 0.14089112 -0.02178242 0.046060108
-0.07416833 -0.08052551 0.010700897 -0.10585252 0.14155874 0.035924938 -0.0294293 -0.088055044
0.07600685 0.11216356 -0.014101054 -0.01943011 0.15820365 0.057384748 -0.014913386 0.011320833
0.1997994 0.025184182 0.15033196 -0.014953687 0.120673716 0.03436083 -0.07755937 0.0643208
0.08425996 0.15012024 0.01527781 0.0073761675 0.16589195 -0.07717758 -0.11234316 -0.06734538
-0.03803774 -0.062126298 0.12007184 0.023650214 -0.10778251 0.024575453 -0.03865694 -0.047334284
-0.08232212 -0.05444467 0.056698654 -0.039398335 -0.078579985 0.16993992 -0.119837135 0.2285924
-0.0702413 0.079752095 0.10152272 0.0062292162 0.12056891 -0.13033335 0.022991005 -0.103936546
-0.009408138 -0.051952 0.02362095 0.06718015 0.08569894 0.016755663 0.039167773 0.25210235
0.13686858 -0.07946273 -0.13806899 -0.04977585 -0.08998293 -0.09279385 -0.08386146 0.06400248
-0.12298577 0.050690684 -0.043128792 -0.040270492 0.10995948 -0.10472549 -0.11952748 0.002151669
-0.22800797 0.09076429 0.10106143 0.09151468 0.12010811 0.09981005 0.057194848 -0.009130037
0.1802294 -0.015695669 0.10070485 0.028198395 0.013223314 0.0021605224 -0.13627028 -0.013091822
0.015281729 -0.010216398 0.04669525 0.18636891 -0.0457089 0.059578102 -0.06302126 -0.09527642
0.1059436 0.0025763498 0.15724896 -0.12406634 -0.011672704 -0.054558363 -0.011145516 -0.040028054
0.08681126 0.036469217 -0.08045705 0.10600966 0.057069294 0.084298424 0.053485442 0.07083458

encoder.feature_extract.mlps.0.linears.0.bias f4 [128]
00000000: e912 85bb de73 473a b943 1abb 0e6a bf3b
00000010: 561f 64ba aef7 813b b98d 893b 6587 b339
00000020: 95aa 4abb aebb 00bc fa44 87ba ffd6 c2ba
00000030: 8b31 6139 ab86 8dbb bbff 7cbb b633 0ebc
00000040: 8ed9 94bb d42e caba 7ff6 6abb 9282 243b
00000050: 40bb b23b 27bc 0ebb 6a5a 023c 9b78 9cbb
00000060: efe0 b23b 2fc3 01ba afe3 3b3b fbb1 81bb
00000070: e878 0bbb 927c 54bb b74f 0fbc e5e7 2e3a
00000080: efb3 3cbc a3c8 eb3b 2305 ebb9 0b4e 75bb
00000090: 9304 e8ba e3a5 da39 4633 2cbb d02d 2dbb
000000a0: f761 df3b 9f74 a73a 8121 e1bb 87d1 47ba
000000b0: b323 2a3b b1bd ce3b 3758 d63a 67f0 833b
000000c0: ca52 0a3c d52c c8bb cb0c a23b 4e9f 92bb
000000d0: 7c2d a93a 8f54 84bb b50c 4fbb 31a1 0ebb
000000e0: 6923 5fbb 609f df3b 6c54 05bb 728a 0d3c
000000f0: 751b 96ba 7604 813a 7d44 903b 60cc 84bb
00000100: d80c 9abb 610b f23b ec1d 2f3a 8954 aeba
00000110: 27b6 1d3b 187c 1abc bfed 513b 22ec 97bb
00000120: 89f1 a7bb 8a60 c7bb 0877 b83a 0c8f f53b
00000130: 0286 213b df7e b93b 41b1 d8ba ee38 a53b
00000140: b41a 6d3a 21aa f7bb 4d04 1c3b a45e 1c3b
00000150: 514e b4bb d2a7 98bb 26f0 243b 8969 14bb
00000160: 6e6d 9d3b fc93 d73a e158 5ebb dd6c a5ba
00000170: 6bd1 a9b9 a258 eebb 2052 033b 7da2 e73b
00000180: a88b afbb ec06 fb3b 4a81 f8b9 82ea 113c
00000190: 4a5d fa3a 1b1c 5b3b 5f50 4abb 5eeb 0fba
000001a0: 0b83 e0bb 3f3f 45ba af06 d0ba 7572 153b
000001b0: e968 e5bb e72c 373b b4ed a439 d2a2 e53b
000001c0: 0c82 88bb 320a 823b 6c9b 3f3b e85b 99bb
000001d0: 8994 5db9 2997 7f3b 1b7c ae3b 4df5 803b
000001e0: 903c f33b 680b 343b 1beb 9dbb 3f64 46bb
000001f0: 1bad 1c3b e8c1 83bb 76ad a5ba 1643 fe3a
-0.004061092 0.0007608513 -0.00235389 0.0058415 -0.0008702179 0.0039662933 0.004197803 0.00034242417
-0.0030924429 -0.007857246 -0.0010320239 -0.0014865099 0.00021476128 -0.004319032 -0.0038604576 -0.008679321
-0.004542536 -0.0015425333 -0.003585249 0.002510224 0.005454451 -0.0021779628 0.007956127 -0.0047751195
0.005458943 -0.0004950044 0.0028669646 -0.0039579845 -0.0021281783 -0.0032422883 -0.008747033 0.0006672128
-0.011517509 0.0071955486 -0.0004482652 -0.003743055 -0.0017701559 0.00041703795 -0.0026275679 -0.0026425011
0.0068170982 0.0012775845 -0.006870449 -0.00076224696 0.002596122 0.006309234 0.0016353194 0.004026461
0.00844259 -0.00610886 0.0049453727 -0.004474557 0.0012907232 -0.0040384005 -0.0031593267 -0.0021763558
-0.0034048206 0.006824419 -0.0020344509 0.008638965 -0.0011452275 0.0009843248 0.0044026957 -0.0040526837
-0.004701238 0.0073866104 0.0006680179 -0.001330034 0.002406487 -0.009429 0.0032032577 -0.0046363035
-0.005125229 -0.0060845064 0.001407356 0.007493859 0.0024646525 0.005660876 -0.0016532318 0.005042187
0.00090448116 -0.0075581227 0.0023806274 0.002386012 -0.0055025 -0.0046586776 0.0025167554 -0.0022645912
0.004804305 0.0016447301 -0.0033927488 -0.0012620945 -0.0003239022 -0.0072737494 0.0020037964 0.0070689307
-0.0053572245 0.0076607373 -0.00047398574 0.008906009 0.0019101289 0.00334335 -0.0030870659 -0.00054900895
-0.006851559 -0.0007524378 -0.0015871132 0.0022803817 -0.0070010317 0.0027950348 0.0003145762 0.007007935
-0.0041658934 0.0039685005 0.0029236926 -0.0046801455 -0.00021131536 0.003900001 0.005324853 0.003935492
0.007422991 0.002747262 -0.0048192865 -0.0030272154 0.002390689 -0.004020918 -0.0012640196 0.0019398655

encoder.feature_extract.mlps.0.linears.1.weight f4 [128, 128]
00000000: 523d 963d bd0b 7fbd 607f 443d 3b13 f6bb
00000010: dae2 973d 4a90 d0bb c339 c7bd 22df 9abd
00000020: 3fb5 353e 2d43 713c 0fe4 c9bd deab 61bd
00000030: d943 2f3b 9905 143c 5379 263d 6b91 5f3e
00000040: 739f c3bc 83af eb3c d206 a1bc 7ef0 67bd
00000050: 1a38 f9bd e539 c2bd 52c6 99bd 834e 793d
00000060: c507 e33d 1b4a 2dbd 71b0 65bd 48b2 fb3c
00000070: 12b5 acbd 5919 04be 2f17 f9bd 0448 593e
00000080: aac3 3ebd d710 8ebd 3ba8 043d a6db 5ebd
00000090: 02f0 0abc b683 38be 7fc2 1cbe 0a56 333d
000000a0: ac6a 943d 4ab0 fcbd e67b 6fbe 5056 b4bd
000000b0: 7c17 0fbe 93ab 31bd 105f e63d ddcb 7abd
000000c0: 34b7 1fbe f291 2dbe 8512 f73d e5e1 2a3d
000000d0: d4c8 c3bd 17af 77bd 4087 723c c84b abbc
000000e0: a9a4 903d a8c9 9e3d 2eb3 153d dbc9 9abc
000000f0: 2f8f ec3d d8f4 133e 66be e6bd b01f e339
00000100: 2af0 9f3c dfd6 14bc 49f1 edbd 9749 813e
00000110: 7c49 04bd af5e 1b3b 1d93 b93d bb92 683d
00000120: 29e3 8ebc d05f b23b 834d dd3a a2b9 e73c
00000130: 77d8 753c f358 ba3c 6c28 eb3d c115 6d3d
00000140: 42a5 03bd 355c 90bd e07b f63c ea1d 3cbc
00000150: 86f8 3a3d d0aa 23bc 7c1b 2aba e3c2 10be
00000160: c642 943d e438 cb3c 6a23 e63c 02f7 9e3d
00000170: 2def dc3d 238d 11be 4da9 a63c 2e7c 33bd
00000180: 0b6a e5bb 401a 133d 9ef5 b5bc b85d 86bd
00000190: c093 27bd 4355 27be a338 37be 5a5e 29bd
000001a0: 18ad 04bc 3ca8 1c3d 5578 d43c 5f61 073d
000001b0: df5e ec3d a8c4 88bd 1476 093b a1d1 4e3d
000001c0: 0bfc dd3c 9a96 f5bc 863a 80bd 57bd 10be
000001d0: 24c0 933d c5a4 d63d 70f5 933a 9cf0 6cbd
000001e0: ec7d 63bd 78bf c53d 6ce0 20be 70cc 2c3c
000001f0: 6e06 93bd 6ea6 d9bd 8c5e 1abe 7dbc 0fbd
00000200: 3625 e3bb 194d 68bd e5df 0ebc 95b8 51bd
00000210: cea4 103d 5754 09bd 5d63 5abd 3744 7cbd
00000220: ffb0 763c f4a3 e1bd f4c6 4ebc 11f8 19be
00000230: d658 4ebe 509f 89bb 64ec b13d 3c27 88bd
00000240: 45fb 5fbd 5448 143e ba87 803d f94f eb3d
00000250: e455 aabc 618c 20bc 934f b6bd 7948 98bd
00000260: 1a4b 503e 084b a53d 6fb0 4c3c 2887 053d
00000270: de5e d9bd 677e 673d 5bbd c53d 0eba e3bd
00000280: 16b3 83bc d1d2 e1bd 5453 abba 8422 88bd
00000290: 5b6e 123e 3012 ae3c c198 0a3e cde8 99bc
000002a0: 56b8 1b3d aac5 ac3c 513f 4d3d 3c82 0e3e
000002b0: 2eff dcbd 51d5 9d3d d13b a13d f135 203c
000002c0: 9227 2b3e 2b16 803c 1b0b c03d 807d b2bd
000002d0: e187 8a3c 1db8 2f3e a68a fc3d 8f10 2cbb
000002e0: 3a99 263d 1539 fe3d 0943 473c 1237 2bbd
000002f0: a60d cebb 2f45 10bc ff43 083e bb79 933d
00000300: b8dc babd b1e7 f4bd 89fd 5fbd ffe8 393d
00000310: 3423 933d c6d0 9d3d 8f46 d5bd cd24 a4bc
00000320: 1882 02ba dd8f e93d 61ad dcbd 2940 dcbd
00000330: 93d8 e1bd b660 febd 70d5 88bc 4645 babb
00000340: 1b7c fdbd 00b7 cabc 4a81 60be e167 753d
00000350: 7329 8c3d 90b2 903d 369e f23c c948 183e
00000360: cfec 8c3d 7b6a 9a3c 1361 da3d 85cc 06be
00000370: 5ffd 19bc de95 973d 522a 9dbc 36e9 10bd
00000380: 5a05 6e3d b711 223e 0527 2fbe 716b 1bbd
00000390: 9d52 853d eb7f acbd 2022 4f3d 2b2f 2e3b
000003a0: ff4a 013d 3979 c63d 2fb4 62bd 4ffb 343d
000003b0: 094b 473d 35a9 45be 0d65 1ebb fbf8 68bd
000003c0: 7b58 34be b10c a23d 145c 27bd 4904 01bd
000003d0: 164b 253e 2182 5d3d 0bab c8bb f6b9 78bb
000003e0: ed25 0a3d 6eb1 b73c a10d 6e3d fdc7 9abd
000003f0: cec9 aebd cfa0 a73d 9c0e 57be 6fc0 1fbc
0.07335915 -0.062267054 0.047973037 -0.0075096167 0.074163154 -0.006364857 -0.09727814 -0.075620905
0.17744921 0.014725489 -0.09857952 -0.055095546 0.0026743321 0.009034538 0.040643048 0.21832816
-0.023879742 0.028770214 -0.019656572 -0.056625836 -0.12168904 -0.09483699 -0.0750853 0.06086589
0.11085466 -0.042307 -0.05607647 0.03072466 -0.08432974 -0.12900294 -0.12162625 0.21218878
-0.04657332 -0.06936806 0.032387 -0.05440869 -0.008480074 -0.18018994 -0.1530857 0.043783225
0.072469085 -0.12338312 -0.23387107 -0.08805525 -0.13973802 -0.043376517 0.112486005 -0.061229575
-0.1559723 -0.16950205 0.12064079 0.041719336 -0.09559789 -0.060469713 0.014802754 -0.020910159
0.070626564 0.077533066 0.036547832 -0.01889508 0.115507476 0.14448869 -0.11266784 0.00043320423
0.019523699 -0.009084432 -0.11618287 0.25251457 -0.032296643 0.002370756 0.09061263 0.056780558
-0.017442303 0.0054435506 0.0016884062 0.028286759 0.0150052225 0.022747492 0.11482319 0.057882074
-0.032140024 -0.07048837 0.030088365 -0.011481741 0.045647167 -0.009989455 -0.0006489081 -0.14136843
0.072392985 0.024807401 0.028093059 0.07761957 0.10787807 -0.14213996 0.0203444 -0.0438196
-0.0070011667 0.035913706 -0.022211846 -0.06560844 -0.04091239 -0.16341119 -0.17892699 -0.041349746
-0.008097909 0.03824638 0.025936285 0.033051845 0.11541533 -0.06678134 0.002097492 0.050492886
0.027097723 -0.029979039 -0.062611625 -0.14134727 0.07214382 0.10480646 0.0011288356 -0.05784665
-0.05554001 0.096556604 -0.1571061 0.010546789 -0.07178961 -0.10627447 -0.1507513 -0.035091866
-0.006931926 -0.05671415 -0.008720373 -0.05120142 0.03531342 -0.0335277 -0.053317416 -0.061588492
0.015056848 -0.110176 -0.012620676 -0.15036036 -0.20151076 -0.0041998997 0.08687666 -0.06648108
-0.05468299 0.14480716 0.06275888 0.11489863 -0.020792909 -0.009799094 -0.08901896 -0.07435698
0.20341149 0.08070952 0.012493237 0.0325996 -0.106137976 0.05651703 0.09655257 -0.111194715
-0.016076606 -0.11026538 -0.0013071098 -0.06647208 0.1429991 0.021248907 0.13534833 -0.018787766
0.038017593 0.021090347 0.05010921 0.13916868 -0.10790859 0.077067025 0.07872737 0.009778486
0.16714314 0.01563557 0.09377118 -0.087153435 0.016910495 0.17160077 0.123311326 -0.0026254987
0.040673472 0.12413231 0.0121619785 -0.041800566 -0.006288248 -0.008805557 0.13307188 0.072009526
-0.0912413 -0.11958254 -0.05468515 0.045388218 0.07184449 0.07705836 -0.104138486 -0.02003708
-0.0004978492 0.11404393 -0.10775257 -0.10754425 -0.110276364 -0.1242079 -0.016703337 -0.0056845276
-0.12377187 -0.024745464 -0.2192432 0.05991352 0.06843843 0.07065308 0.029616456 0.14871515
0.06881105 0.018849602 0.10663047 -0.13163956 -0.009398787 0.07401632 -0.019185219 -0.035378657
0.058110572 0.1582707 -0.17104729 -0.03794426 0.06509898 -0.08422836 0.050569654 0.0026578407
0.031565662 0.0969109 -0.055347618 0.04418498 0.048655543 -0.19302829 -0.0024169118 -0.05687807
-0.17611878 0.07912577 -0.040859297 -0.031498227 0.16141924 0.05407918 -0.0061239055 -0.0037952638
0.033727575 0.022423472 0.058118466 -0.07557676 -0.08534585 0.08184969 -0.21001667 -0.00975047

encoder.feature_extract.mlps.0.linears.1.bias f4 [128]
00000000: feb7 35bb 2c23 93ba ee2a 4bbb 88c2 da3a
00000010: 84ec 99bb 682e 57ba 57f2 113a e3a6 37bb
00000020: 6bcf 37bb 9de5 8d3b fde0 8d3a d46b 6cbb
00000030: df08 aabb 48ac f53a f29a aabb 13c9 a0bb
00000040: 5a37 883a c391 213a 3e82 113b 31cf 9b3b
00000050: ce44 17ba 95fc 4dba 5edc 24ba 3864 bbba
00000060: c5c5 8c3a 5085 043a 578e cabb 1059 88bb
00000070: aad8 4f3a 3bc4 c63a da6e e13a 91e5 e5b9
00000080: a689 b23b a501 9dba 9338 a73a 8d5a e6bb
00000090: ba13 fe3a 285b 88bb 91d2 3cbb 00bd ed3a
000000a0: e099 4d3a cfc6 ce3b ebbb 6935 3607 893b
000000b0: 50b7 3c39 6273 df3b 842f 4abb f011 a4ba
000000c0: be64 4039 6f79 1b3b cb87 173b 1bab 3c3a
000000d0: bd6f 2d3b 2a16 d23a 94f1 5fbb a343 30ba
000000e0: b7a2 b1ba 3ef9 b4bb a48b 8dbb 3b44 84bb
000000f0: ca09 b6ba c6b9 69bb b0df 18bb e976 99bb
00000100: 1530 7739 5dd5 53bb a04c 103b f4d8 81ba
00000110: 7c9b 20bb 6592 10bb fb4f 003b 6cb4 a2bb
00000120: bc2e 093a 2112 813a c5fd 6f39 16de 973b
00000130: c08e 8b3b fb26 343b e689 3d3a 4bcf 8dba
00000140: 27c6 f13a 53af 943a cb14 703b 2cc9 c6bb
00000150: e357 7d3a 5ee1 b93b 8385 943b 322b acb9
00000160: fe8a 3b3b 2e55 0d3b 1d63 e83a 0921 44bb
00000170: e394 23b9 77ae afba 8ab4 20b8 723e 523a
00000180: 15b2 02b9 f62c 21ba 4b00 12bb d6cf a9bb
00000190: b0a0 383b 56f5 b6bb c547 743b 9399 07bb
000001a0: 767f edbb 560e 5c3b 8ebc 063b 1597 0f3b
000001b0: 643e ae3b 9ccd 7c3a ba8f 8e3b 9162 f637
000001c0: 9428 b3b9 076d 8d39 1c82 16bb 18a9 8abb
000001d0: 5c70 313a a2d3 76bb 0f7f 6c3b 257c 253a
000001e0: 9144 553a 1537 ac3a ad9a e7b9 e732 d6bb
000001f0: 2d61 8cba 006d f5ba 0cc3 83b8 5737 afba
-0.0027728076 -0.0011225692 -0.003100093 0.0016690055 -0.0046973843 -0.0008208514 0.00055674225 -0.0028023056
-0.0028047215 0.0043303506 0.0010824498 -0.0036075013 -0.005189046 0.001874336 -0.005206459 -0.0049067824
0.0010392473 0.0006163383 0.0022202875 0.0047549237 -0.00057704456 -0.0007857767 -0.0006288941 -0.0014296835
0.0010740092 0.00050552655 -0.006181519 -0.0041610077 0.0007928709 0.0015164682 0.0017199174 -0.00043849324
0.005448538 -0.001197864 0.0012757949 -0.0070298375 0.0019384541 -0.0041612573 -0.002881203 0.0018137991
0.00078430586 0.006310321 8.707272e-07 0.004181768 0.00017997366 0.0068191746 -0.0030851075 -0.0012517553
0.00018348076 0.0023723503 0.002312171 0.00071971276 0.0026464306 0.0016028334 -0.0034171091 -0.0006723946
-0.0013552521 -0.005522876 -0.004319625 -0.004036454 -0.0013888415 -0.0035663708 -0.0023326688 -0.0046833646
0.00023573668 -0.003232322 0.0022018328 -0.0009906576 -0.0024506738 -0.0022059914 0.0019578922 -0.0049653556
0.0005233099 0.0009847322 0.00022887353 0.004634629 0.0042589605 0.0027489054 0.00072303263 -0.0010819224
0.0018445895 0.0011343755 0.0036633487 -0.006066462 0.000966428 0.005672618 0.0045325174 -0.0003283858
0.0028616781 0.0021565664 0.0017729733 -0.0029926917 -0.00015600356 -0.0013403435 -3.8315113e-05 0.00080201693
-0.00012464107 -0.00061483623 -0.0022278007 -0.0051822467 0.002817195 -0.0055834455 0.0037274223 -0.0020690903
-0.0072478605 0.003357788 0.0020559165 0.002191012 0.005317496 0.00096436753 0.0043506296 2.9371384e-05
-0.00034171774 0.00026974847 -0.0022965735 -0.0042315833 0.0006768757 -0.0037662764 0.0036086475 0.00063127495
0.00081355224 0.0013138974 -0.00044174996 -0.0065368298 -0.0010710113 -0.0018724501 -6.282897e-05 -0.0013367933

encoder.feature_extract.mlps.0.linears.2.weight f4 [128, 128]
00000000: b994 d93c 4f28 0b3e 5b04 10be d3a5 703d
00000010: f748 40bd c75b 11bd fa93 95bd a144 bcbc
00000020: 3bf7 08bd 1cd1 40be d1d3 c53d 7851 9c3d
00000030: 9c86 cdbd 5673 65be 0b88 e2bc 2425 8fbc
00000040: 47a5 2cbe d3d7 a73b 31ef 86bd 3e72 033d
00000050: ca17 003e 0558 053e 71c0 9e3c 91d1 acbd
00000060: 4b22 dd3d e803 ed3d 6f6b 303e 0b13 7cbd
00000070: 8d09 76bc 0c86 8a3d ba17 ef3d 26be 43bd
00000080: a2e9 88bd dbfb cb3d 5785 1abd 9403 2a3b
00000090: 0736 5ebd f77b 1e3d dc48 0dbe d02c a43d
000000a0: 0e0c 503b 7f9d 243e b251 9ebc 41dc 66bd
000000b0: d899 f3bd 7c2a 0ebe 2582 c23d 6caa 9b3b
000000c0: 0303 013e d7ab e9bc 9c82 e2bd 5790 a03c
000000d0: 5e94 9dbc b633 093e 5f20 c93d d1c9 fbbd
000000e0: a537 97bc 81a3 4cbd 92cd e53d 96cc 70bd
000000f0: f90b c4bd 362d 12be a172 f43d 44d2 bcbc
00000100: 9584 203e f343 18bc 6ae5 023e c1ab f23c
00000110: a1c7 13bd faaa 20bd cea1 83ba 5097 e3bd
00000120: 8e2b 67bd 5ba2 39bd eab9 82bd ae5b be3c
00000130: d6ee 09bd 5f79 563d 732d f6bd 8550 92bd
00000140: e051 21be c01d d73c 3c05 923d 52e9 c6bb
00000150: 3c73 b33d eed5 2b3d 7de9 983d 0709 e5bc
00000160: aa2f 18bd 71e6 04be 3639 6d3c e61e 123c
00000170: 5dde a53d 0e5b f73c b638 dabd 4c0f c4bc
00000180: cef9 bf3d fdf7 43bc 2b5a 2d3e f347 033e
00000190: 87ef 113e d3a0 02be 0e1e 24be 2495 cd3d
000001a0: 37d3 183d e961 16bd 1006 8839 5e72 1b3c
000001b0: 15be a13d c149 d439 4a33 3a3d a7cb b5bd
000001c0: 1236 a1bd e6c8 13be 265d ca3d 75eb 9fbc
000001d0: 8de4 48bc 861e 403d 6afc abbd 53c8 803d
000001e0: 3f64 093e f74e 85bd c552 9fbd 2b76 c0bd
000001f0: 4d12 a13c 47a6 c1bc fe09 dc3d eeb9 03be
00000200: 10dd c63c 8e04 14bd fabb b03c 6974 b1bd
00000210: c31a f23c 2fca f23d e57d 3bbd 0c4a c23d
00000220: 0085 ecbd 8967 34bd 71eb dfbd 0a38 aebd
00000230: f2c7 633d 38d1 5bbc 5865 cf3c b1f9 ca3c
00000240: 09d3 51bd c78d eebd 0969 9fbd 06cb b03c
00000250: b80f 303d b795 783d 45b7 f5bc daf4 aa3d
00000260: 550e d73c 9ae3 9f3d be6e 7bba f35a 22bd
00000270: d577 99bd 9601 1e3e 0714 f1bc 494c b03d
00000280: 9855 4f38 cfbb 6ebb eee7 ac3b 2d76 3e3e
00000290: 21fe 30be 0c1e 8cbe 1304 f7bd f9bd 46bd
000002a0: 8548 933d e23d 283d 7540 753e 44b7 58bd
000002b0: 3cef 6e3d fa7f 5a3d 9402 e2bb 4dd7 393b
000002c0: cc22 113e 6a74 cabd 8a61 a93d 82d5 3bbd
000002d0: 0c73 9fbd 2d91 88bb b085 29be 0763 873d
000002e0: 0c82 06bd 3245 f6bd 6b55 a13d d552 41bd
000002f0: c866 cc3c b392 3c3d 10d7 a5bd af24 01be
00000300: eb7f 8c3c 4e07 8dbd 4871 d5bd eacf 80bd
00000310: c6ee 84bd cb88 2cbd 9eaa 273d d894 2ebd
00000320: 6aa0 d03d 84c1 1b3e 7712 82bc 3dc8 a9bd
00000330: ca9b d1bd c370 273e 8112 663c b1cd 10be
00000340: 628c 34be 8801 89bc 4853 bb3c 6c96 c8bc
00000350: 3da7 833d d056 483e a1f8 63bd 8fe3 e03c
00000360: ee7a b33d b3a0 40bd 625e 903c 6e15 81bd
00000370: 382b e9bd c874 a23d a4bd 1c3e 02ea 76bd
00000380: d8b7 233e 5a70 c5bd 5fd5 1f3d 1b94 16bd
00000390: c1c2 aebd 9f17 55bd a20e f93d 838f 33bb
000003a0: 99ff 3cbd 4e38 353e 5edc 4a3e 05f2 31bc
000003b0: d939 fa3c 2115 053e 9195 8a3d db09 6abc
000003c0: 5d48 58bb 9e10 03be d7ab 40bd f1ba 813d
000003d0: f2e7 a73b eb37 07be 01a3 6fbd d925 9dbb
000003e0: cb8a e7bb 9619 a03c 5150 d33d 532b 1e3d
000003f0: 3a93 223d 9736 a83d 12bf 57bd d599 06bd
0.026560174 0.13589595 -0.14064161 0.058751892 -0.046944585 -0.035487916 -0.07303615 -0.022981944
-0.033438902 -0.18829769 0.096595414 0.076327264 -0.1003544 -0.22407278 -0.027652761 -0.017473765
-0.16859923 0.005122164 -0.06588591 0.03209137 0.12509075 0.13021858 0.019378873 -0.08438409
0.107975565 0.11573011 0.17228483 -0.0615416 -0.0150169255 0.06763849 0.11674447 -0.04778876
-0.06685187 0.09960147 -0.03772482 0.0025942074 -0.054250743 0.03869244 -0.13797325 0.0801636
0.0031745466 0.16075705 -0.019326065 -0.056362394 -0.11894578 -0.13883394 0.09497479 0.0047505405
0.12598805 -0.028524322 -0.11060068 0.019600077 -0.019235786 0.13398632 0.098206274 -0.12294353
-0.01845915 -0.049960617 0.1122085 -0.05878886 -0.09572596 -0.14275059 0.11935926 -0.023049481
0.15675576 -0.009293544 0.12782827 0.029622914 -0.036079053 -0.039225556 -0.0010042728 -0.11112845
-0.05643802 -0.04532085 -0.063831165 0.023237076 -0.033675037 0.052361842 -0.120203875 -0.07144264
-0.15753889 0.026259303 0.07129905 -0.0060702944 0.087622136 0.041952066 0.07466409 -0.027958406
-0.03715483 -0.12978531 0.014478972 0.0089185 0.08099053 0.030194785 -0.10655348 -0.023933075
0.09373818 -0.0119609805 0.16928928 0.12820415 0.14251529 -0.12756662 -0.1602709 0.10038212
0.037310805 -0.03671447 0.00025944458 0.0094877165 0.078975834 0.00040490742 0.04545907 -0.08876734
-0.07871641 -0.14432105 0.09881048 -0.019521454 -0.012261522 0.04690411 -0.083977535 0.06288209
0.13417147 -0.06509202 -0.07779459 -0.09397539 0.019662047 -0.023638858 0.10744093 -0.12863895
0.024275333 -0.036137156 0.02157401 -0.086647816 0.029553777 0.1185497 -0.04577436 0.094867796
-0.11548805 -0.04404405 -0.10933579 -0.08506782 0.055610605 -0.013416581 0.02531688 0.024777265
-0.05122665 -0.11648136 -0.07783706 0.021581184 0.04298374 0.060689654 -0.029994616 0.08347483
0.026251951 0.078070834 -0.0009591392 -0.039637517 -0.07493559 0.15430292 -0.029428495 0.086083
4.943236e-05 -0.003642786 0.0052766716 0.18599768 -0.17284442 -0.27366674 -0.12061324 -0.048521016
0.071915664 0.04107464 0.2395037 -0.05290915 0.05833362 0.053344704 -0.00689728 0.002835709
0.1417343 -0.098854855 0.08270557 -0.045857914 -0.07785615 -0.004167697 -0.16554904 0.06610685
-0.032838866 -0.12024917 0.0787762 -0.047198135 0.024951354 0.04603834 -0.080976605 -0.1261165
0.01715084 -0.06886159 -0.10421997 -0.062896565 -0.06490855 -0.042122643 0.040934198 -0.042622417
0.101868466 0.15210539 -0.015877945 -0.082901455 -0.102347925 0.16351609 0.014042498 -0.14140965
-0.17631677 -0.016724363 0.02286686 -0.02448579 0.064283825 0.19564366 -0.055657033 0.027452258
0.08763681 -0.047028255 0.01762313 -0.063029155 -0.113851964 0.079324305 0.15306717 -0.06028176
0.159881 -0.0964057 0.039021846 -0.036762338 -0.0853324 -0.05202448 0.12160994 -0.0027398772
-0.046142194 0.1769726 0.19810626 -0.010860925 0.030545162 0.12996341 0.06766809 -0.014284576
-0.0033002116 -0.12799308 -0.04703888 0.06334484 0.0051240856 -0.13204925 -0.058505062 -0.0047957716
-0.007066106 0.01954345 0.103180535 0.038615536 0.039691187 0.08213537 -0.052672453 -0.03286155

encoder.feature_extract.mlps.0.linears.2.bias f4 [128]
00000000: 617b ae3a bca5 92ba 9eb8 3939 ec04 a03a
00000010: 5b34 6abb 5423 7d39 a757 20bb dee5 9f3a
00000020: 2a2b b3ba bf65 ef3a a6ec 33bb 0f4b 40bb
00000030: c2f1 82bb 1bb7 583a 6819 5cbb c9b6 8aba
00000040: 8e57 093a 4dc8 f5ba 51a2 c0ba 25be bf3a
00000050: 64af 1bbb 5872 3bbb 52cd b0b9 e814 1cbb
00000060: 3a78 3ab8 3b43 993b adfa 4e39 3379 3fba
00000070: 7dd7 a9b9 b5da 37ba 76ca d538 5643 d53a
00000080: 76a5 5aba 0e0f 643a 8073 983b eda1 0aba
00000090: 8dca e2ba 0e3c 0e38 c302 84b9 f687 89b9
000000a0: 03fc d93a b61b c6ba 72fe 533a 0432 b9b8
000000b0: 67ad 45bb 43b6 d3b8 5e7f 8e3b 27e0 7d3a
000000c0: 5162 583b aded 573a b57e 3539 0c5d deb9
000000d0: 4f94 493a 949f a5ba 40a7 453b b79b a838
000000e0: 088c 533b 8f0d 78ba 9679 15b9 3eed deba
000000f0: 0a90 50bb 615e 5e3b 19a2 fb39 51af 883a
00000100: 0321 7839 46ec 8e39 fa2d 323b 3d21 95bb
00000110: 56cb 78bb 6fc1 6dbb 34ce 93ba cb7e 0c3b
00000120: a309 c1bb 96fd 273b af9d 273b 3186 b83a
00000130: 18a1 37ba 7632 0fbb 57dc fe39 3b01 b039
00000140: f64e f5ba efbc 2fb9 3134 7d39 10d0 8f3a
00000150: 6e04 193a 88cd 4c3a 437e 6538 a51b 4abb
00000160: c6a2 8a3b 737a 21ba 3d6b 52bb f47b 90bb
00000170: d6ca 0eba 07e5 3cba 1dd3 83bb e60e ae3a
00000180: 5cfb 37ba fd50 d8ba d796 463b 90d6 98b8
00000190: cc6b 3aba 8c5e 49bb d82e f5ba 11a7 313b
000001a0: df8a 3aba 148a 013b 5766 043a 7c28 e7ba
000001b0: 67cb 97bb c2ef a53a 67e6 8939 cbab b8ba
000001c0: 416f 4039 e924 ab3a e58b b83a a2c4 cd3a
000001d0: aac9 e4ba 098e fa3a 8f68 a93a 1121 18ba
000001e0: 77c2 ba3a c97b d3b9 ace9 05bb 1880 ea3a
000001f0: 7acf 48ba 498a f839 2779 25bb 93b3 ecb8
0.0013311916 -0.0011188309 0.0001771175 0.0012208498 -0.0035736773 0.00024141121 -0.0024466307 0.0012199243
-0.001366948 0.0018264576 -0.0027454286 -0.0029341613 -0.003996105 0.0008267031 -0.003358448 -0.0010583039
0.0005239182 -0.0018751711 -0.0014696812 0.0014628811 -0.0023755664 -0.002860209 -0.00033722311 -0.0023816172
-4.4457825e-05 0.004677204 0.00019739075 -0.0007304132 -0.00032394743 -0.0007013486 0.00010194343 0.0016270678
-0.00083406956 0.0008699753 0.0046524405 -0.0005288411 -0.0017302796 3.391137e-05 -0.0002517906 -0.00026231975
0.0016630891 -0.001511446 0.00080869265 -8.8308036e-05 -0.003016317 -0.00010095213 0.0043486794 0.00096845854
0.0033017586 0.00082370156 0.00017308707 -0.00042412465 0.0007689641 -0.0012636059 0.0030159503 8.0398684e-05
0.003227951 -0.00094624696 -0.00014255042 -0.001700796 -0.0031824135 0.0033930766 0.00047995223 0.0010428225
0.00023663421 0.00027260388 0.0027188049 -0.0045510815 -0.0037962995 -0.0036278625 -0.0011276663 0.002143788
-0.0058910414 0.0025633327 0.0025576164 0.0014078078 -0.0007004901 -0.0021850145 0.0004861082 0.00033570253
-0.0018715549 -0.00016759684 0.00024147403 0.0010972042 0.0005837147 0.0007812609 5.4715445e-05 -0.0030839231
0.00423083 -0.0006159909 -0.0032107376 -0.0044093076 -0.0005447095 -0.00072057586 -0.0040229694 0.0013279587
-0.00070183515 -0.0016503629 0.003030231 -7.28789e-05 -0.00071114 -0.003072652 -0.0018705977 0.0027107636
-0.00071160303 0.001976614 0.000505065 -0.0017635967 -0.0046324017 0.0012659954 0.0002630234 -0.0014089284
0.00018351992 0.0013057265 0.0014079778 0.001569886 -0.001745512 0.0019115816 0.0012924838 -0.0005803267
0.0014248629 -0.00040337283 -0.0020433469 0.0017890958 -0.0007660311 0.00047405277 -0.0025249214 -0.00011286805

encoder.feature_extract.mlps.0.batch_norms.0.weight f4 [128]
00000000: 6bcf 7f3f 5662 803f f7c4 7e3f 08ca 7f3f
00000010: 07bd 7e3f 6128 803f bc14 7d3f 0937 7f3f
00000020: eac1 7e3f 6f2b 803f dc22 803f a13c 7e3f
00000030: ddb8 7f3f 5be1 803f 39c4 7e3f 8df1 7f3f
00000040: 7e93 7f3f 0b91 803f 23c1 7f3f 6b3a 7f3f
00000050: 4e78 7f3f 1f63 803f 593a 803f bf54 7f3f
00000060: acf6 7f3f fde3 803f 0acc 7f3f a721 803f
00000070: 44e0 7e3f 00ac 803f 76a8 7f3f 3cda 7e3f
00000080: 9d5f 803f 4133 7f3f 8a83 7f3f 9e0d 803f
00000090: 119e 7f3f 1fd9 7e3f a6c7 7f3f 5634 803f
000000a0: 7573 803f 664e 7f3f 65c4 7f3f 89d6 803f
000000b0: d32b 7f3f f0d7 803f 7f75 803f f7fa 7f3f
000000c0: 0bae 803f 9a66 803f 0802 7e3f e794 7f3f
000000d0: ef7d 803f bc44 803f a51d 7f3f 0502 803f
000000e0: b3d8 803f da18 813f 9fac 803f 6190 803f
000000f0: 02a5 803f 579f 803f 454a 803f c8dd 7e3f
00000100: f137 813f 9b3d 7f3f cc3b 803f 607a 803f
00000110: bbdd 803f c3c6 7d3f c03e 813f 20aa 7e3f
00000120: a3da 7e3f 4a6e 803f 3a81 7f3f 6301 803f
00000130: 1c03 7f3f 0d5f 803f 9cc5 7e3f 9cc6 7e3f
00000140: 3769 803f ed90 7f3f ea70 803f 5a33 7f3f
00000150: 6584 7f3f 01ff 7f3f 2810 803f b18f 7f3f
00000160: 422e 803f 8484 7e3f 4836 7f3f bae0 7f3f
00000170: 2fbe 7f3f 239e 7e3f ea6b 803f 5e6b 803f
00000180: b1a6 803f 3f6c 7f3f 2467 803f 2480 7f3f
00000190: 2443 803f 29a5 7f3f 5add 7f3f e2b7 7f3f
000001a0: 7cc2 803f 2dd3 803f 6f15 813f a5ad 7f3f
000001b0: a341 7f3f f352 803f b278 803f a625 803f
000001c0: 76b8 7f3f 564f 803f 86c0 7e3f b0a3 7f3f
000001d0: 0d59 803f f13e 803f 40c6 803f cf0e 803f
000001e0: 4cce 803f 0ba2 7e3f e827 813f c1d7 7e3f
000001f0: 0f15 803f c699 7e3f 553d 803f b744 7e3f
0.9992587 1.003001 0.99519295 0.9991765 0.9950718 1.0012323 0.98859763 0.9969335
0.9951464 1.0013255 1.0010638 0.9931126 0.99891454 1.0068773 0.9951816 0.9997795
0.9983443 1.0044264 0.9990408 0.99698514 0.99792945 1.0030249 1.0017806 0.9973869
0.99985766 1.0069577 0.99920714 1.001027 0.9956095 1.005249 0.99866426 0.9955175
1.0029179 0.9968758 0.9981009 1.0004156 0.99850565 0.9955005 0.99914014 1.0015972
1.0035235 0.99729 0.9990905 1.0065471 0.99676245 1.0065899 1.0035857 0.99992317
1.0053114 1.0031312 0.9922185 0.9983658 1.0038432 1.0020976 0.9965461 1.0000616
1.0066131 1.0085709 1.005268 1.0044061 1.0050356 1.0048627 1.0022665 0.9955716
1.0095197 0.9970338 1.0018249 1.0037346 1.0067667 0.9913141 1.0097275 0.9947834
0.99552363 1.0033658 0.9980656 1.0000423 0.9961412 1.0029007 0.9952028 0.99521804
1.0032109 0.99830514 1.0034459 0.9968773 0.99811393 0.9999848 1.000493 0.9982863
1.0014117 0.9942095 0.996922 0.9995228 0.9989957 0.9946005 1.0032933 1.0032766
1.005087 0.99774545 1.0031476 0.998049 1.002049 0.9986139 0.9994713 0.9988996
1.0059352 1.0064446 1.0084666 0.99874336 0.9970953 1.0025314 1.0036833 1.0011489
0.9989084 1.0024211 0.9951252 0.9985914 1.0027176 1.0019208 1.0060501 1.0004519
1.0062957 0.9946601 1.0090303 0.99547964 1.0006427 0.9945339 1.0018717 0.993236

encoder.feature_extract.mlps.0.batch_norms.0.bias f4 [128]
00000000: 0990 5c3b c7f4 ffb8 f500 13bc 33fa c2bb
00000010: a049 2ebb 5199 183b 10cd 31bc d5bf bcbb
00000020: ba71 e0ba c30e 2fbb ebd8 9bbb 5eb4 c3ba
00000030: c76a 9cb8 02ee a53b b10f eeba 56a4 323b
00000040: bce1 333a d61d d03b 4183 b0bb 3e9f 7bbb
00000050: acad 7d3b 9952 513a cc46 42bb c95d 95bb
00000060: f62d 033c a453 07bb 8bd5 ccbb 3f42 c3bb
00000070: dd19 9abb db62 1b3c bb71 923b 0fa8 02bc
00000080: cee5 0f3c b4b3 67bb 8e52 1e3a 2899 5bbb
00000090: c9dc ddbb d25b 85bb a80b 06bc f614 423a
000000a0: 5d69 ec39 2519 76bb 5596 943a 185f 7abb
000000b0: 8ab9 433b cc96 073c cbbc f33b 9dd7 b0bb
000000c0: f1d9 453b 70fe af3b 7c59 b3bb 77e0 ab3a
000000d0: 9b43 b0ba a044 243b 829a e4bb 4a3b a9bb
000000e0: c661 b73b 4bc4 943a e00e e93b 3874 a3bb
000000f0: de07 753b f336 043c a036 2b3b c0c0 a3bb
00000100: ae67 2fbb 43fc c5ba d785 b63b d97c 61bb
00000110: cf6f 503c 3d71 4cbb 8e2e eb3b f7f8 02bc
00000120: 9141 c6bb bd60 973b 6006 c13a 8bdb 02bc
00000130: b2f2 c2ba 76dd a53b 843d 77bb 4bd8 043b
00000140: 7042 343b 1fba 373b 0c2a 4a3b 1e21 c1bb
00000150: 63b0 6bbb 620e 553b 5bd5 853b 0949 a839
00000160: fce6 203b b4d4 47bc 26b0 b6bb f687 6dbb
00000170: 1205 06bc d1f7 2dbc b899 6a3b 9406 54bb
00000180: e659 8bbb 41e4 e1bb 90e5 91b9 1fe3 a2bb
00000190: 675a 6d3a 334b b03a 24d5 c1bb f741 6abb
000001a0: e613 393c 1547 fbbb 27c7 ac3b 1534 5539
000001b0: 1746 2abb 7379 993a e2b9 723b 2035 923a
000001c0: 68bd 3738 f95c 7eba e621 15bc e600 cd3b
000001d0: a8ef 653b c81f efba 1ec1 a13b f1d0 aaba
000001e0: 4754 14bb 2df2 ccbb 56aa d63b 84c3 fdba
000001f0: 4349 e3ba f22f f8b9 0097 b039 7ea1 c9bb
0.0033655188 -0.00012204941 -0.008972396 -0.005950236 -0.0026594177 0.0023284743 -0.010852113 -0.005760173
-0.0017123737 -0.002671168 -0.0047560832 -0.0014931073 -7.4585485e-05 0.005063773 -0.0018162635 0.0027258596
0.0006861945 0.006351213 -0.0053867404 -0.0038394476 0.0038708253 0.00079850253 -0.002964425 -0.004558299
0.008006563 -0.002064922 -0.0062510422 -0.005958825 -0.00470279 0.009484018 0.004469124 -0.007974639
0.008782817 -0.0035354914 0.0006039523 -0.0033508036 -0.0067707044 -0.0040697837 -0.00818149 0.0007403636
0.0004509193 -0.0037551608 0.0011336306 -0.0038203653 0.0029865229 0.008275699 0.0074382774 -0.005396797
0.0030189718 0.0053709075 -0.005473314 0.001311316 -0.0013447882 0.0025065318 -0.0069764266 -0.0051645385
0.0055963723 0.0011350004 0.007112369 -0.0049882196 0.0037388722 0.008069742 0.0026125088 -0.004997343
-0.0026764679 -0.0015105087 0.005570154 -0.003440669 0.01272197 -0.0031195425 0.0071771806 -0.007993928
-0.0060502966 0.0046196864 0.0014726631 -0.007986913 -0.0014873354 0.0050618006 -0.0037725875 0.0020270522
0.002750542 0.002803452 0.0030847816 -0.0058938405 -0.003596329 0.0032509794 0.004084272 0.00032097872
0.002455174 -0.0121967085 -0.0055751977 -0.003624437 -0.00817992 -0.010618166 0.003579719 -0.0032352554
-0.00425266 -0.006893665 -0.00027827593 -0.0049709226 0.00090543035 0.0013450145 -0.005915301 -0.0035744885
0.011296248 -0.0076683857 0.0052727642 0.00020332665 -0.0025981718 0.0011709168 0.0037037064 0.0011154748
4.3807e-05 -0.0009703185 -0.00910232 0.0062562106 0.0035085473 -0.0018243724 0.0049363514 -0.001303224
-0.002263324 -0.0062544555 0.0065510673 -0.0019360636 -0.0017340559 -0.00047337968 0.0003368184 -0.0061532846

encoder.feature_extract.mlps.0.batch_norms.0.running_mean f4 [128]
00000000: 1e70 99bd 57cc c2ba 8d89 363c 1ba6 85bd
00000010: 6d47 4d3d c554 dabd 6b8a 94bc 2a3d ca3d
00000020: 560f b43c dd76 b4bd 6881 523d 8c33 3cbd
00000030: 464c c83d 7314 7d3d 11f2 0d3e d8ea 8d3d
00000040: f302 18bd b1b0 0b3e 53af 723c 5729 07bd
00000050: a0ba 913d 90ab d03d ba1d 383d 0764 603d
00000060: 66fe 1c3e 0bd4 5c3d eb91 20bd a331 0b3e
00000070: f575 ae3d e9b5 853d eac7 04bc 34a5 bd3d
00000080: e686 1cbd b9f9 e03d ce7b 7ebc 00cc b2bc
00000090: aa0d 8f3d 828b c73d f767 c73d f33b 1ebe
000000a0: 6f2a 9a3d 6066 163c 530c fcbc 8caa b6bd
000000b0: d879 813d 3f87 b8bd 4973 9dbd 8755 5b3e
000000c0: ef8b 6fbe 1314 76bd 09cb 26be 9077 f63b
000000d0: 1c3a 46be eabd 2abe f824 c33d 760e a13c
000000e0: e8a1 63bd fe7f eb3c 47f8 7bbd 77b9 3ebd
000000f0: d4c1 0f3e 170f ba3d b442 3bbd 2bb6 9e3d
00000100: 0a6b c13d c866 d3bd 7509 073e a9ad 193d
00000110: 5edd c0bd 0ce6 debd 6743 973d e9ca c6bd
00000120: 35b4 fa3d c3c6 e8bc cdb4 c63d 07d9 6f3c
00000130: afe5 9e3d a53b f23c 60ba 7e3d 64ec 413d
00000140: 8b2c 2b3e cb5c 613b 2c84 f4bc 24af babd
00000150: 98e0 99bd d27d 473d f433 93ba f9c7 6cbd
00000160: e59d 8cbd 57e5 b3bc 6be7 0f3e 073a 413e
00000170: 43c5 703d 7a5d c93c a0b0 bebd f3ee b2bd
00000180: 9f19 6dbd 09a8 a03d c69e 193d 5c3a 863e
00000190: 6184 23bd 0975 a3bd 3681 ecbd f037 233d
000001a0: 3707 313c 3a46 4fbd 1bde 98bd 2819 d6bc
000001b0: e38f b83c 3e0f ef3d c134 023e 727a 503c
000001c0: e0c4 d93c f5b7 683d 4393 083c 8ebc 54bd
000001d0: b566 c8bb 8033 483e f6a3 513d 710a d5bd
000001e0: c7f2 163d fda1 9dbd a519 77bd b10d 36bd
000001f0: 9b45 743d 604c 9f3d f4ae c13d 5ac4 ab3d
-0.07492088 -0.0014861923 0.011141193 -0.06525823 0.050116945 -0.106607 -0.01813241 0.09874947
0.021979969 -0.08811734 0.051392943 -0.045947596 0.09780173 0.06178708 0.13861872 0.069295585
-0.037112188 0.13641621 0.014812308 -0.03299841 0.07115674 0.10188973 0.044950224 0.054782894
0.1533142 0.053913157 -0.03920166 0.13593154 0.08518592 0.06528837 -0.008104304 0.092600256
-0.038214587 0.10985131 -0.015532447 -0.02182579 0.06985028 0.09743406 0.097366266 -0.15452556
0.07527625 0.009179682 -0.030767595 -0.08919248 0.06322068 -0.09010171 -0.076880045 0.21419345
-0.23393224 -0.060077738 -0.1628839 0.007521577 -0.19358104 -0.16674009 0.095285356 0.019660216
-0.055574328 0.028747555 -0.061516073 -0.04656359 0.14038783 0.090849094 -0.04571791 0.077495895
0.09444244 -0.10322338 0.13187201 0.03751913 -0.094172224 -0.10883722 0.07385903 -0.09706671
0.12241403 -0.02841509 0.09702454 0.014639146 0.077586524 0.029569456 0.06218946 0.04734458
0.1671621 0.0034387584 -0.02984818 -0.09115437 -0.07513541 0.048703976 -0.0011230693 -0.057807896
-0.068660535 -0.021959944 0.14053123 0.18869792 0.058781873 0.024580706 -0.09311032 -0.08736982
-0.057885762 0.0784455 0.037504934 0.262164 -0.03992117 -0.07981307 -0.115480825 0.039848268
0.010804943 -0.050604083 -0.07464238 -0.026135042 0.022529548 0.11672829 0.12715437 0.012724506
0.026583135 0.05681606 0.008335891 -0.051937632 -0.0061157593 0.19550896 0.051181756 -0.10402382
0.036852624 -0.076969124 -0.06032719 -0.04444665 0.059636693 0.07778239 0.09457198 0.083870605

encoder.feature_extract.mlps.0.batch_norms.0.running_var f4 [128]
00000000: 3735 e838 4fa8 033a e3bc fc38 fd8d 1b39
00000010: 33da df38 3b25 8539 e7e9 0f3a a331 233a
00000020: 68a2 9338 b3f2 0e39 d028 9e39 e086 3039
00000030: 4136 383a 3e69 e038 4187 dc39 1571 0839
00000040: b517 7d38 91f3 123a 326f ea36 a9cf a738
00000050: 709c e339 abc3 8d39 2c8d 1c3a c2f8 3a39
00000060: 183f 453a 76f1 ac39 bbdd f938 7f47 753a
00000070: fdc1 c239 90d0 ef38 5975 6a38 fd7b d039
00000080: fd78 2b39 de58 083a 5fce 0e39 72c9 8338
00000090: 2efb ee39 5dce 6a39 fd38 c939 9f0a 253a
000000a0: a7b7 e638 3337 8037 f42f 123a b809 3239
000000b0: aa50 b139 dd5e 283a fe2f 0e39 6d49 6d3a
000000c0: 4613 d13a 0639 8438 97dc 173a db1a 9f39
000000d0: d6cf dd3a 3eaf e43a cbc8 7339 8f31 f238
000000e0: 2bc4 cf38 3121 a138 30e1 4e3a 04b1 e638
000000f0: 119d ee39 e6c3 2d39 38ac d538 2705 1a3a
00000100: bbda 6739 e43d ac39 13c0 203a 557d b938
00000110: 4a8d 5239 e0b3 b139 cb86 d139 6f6d 4939
00000120: bfd6 ae39 13e2 2b37 7272 023a abbf 4337
00000130: 6d27 5a3a 075f 123a fb85 9739 603c b339
00000140: ee9d 153a db73 a136 668e 853a 0128 9239
00000150: bb6f d038 4dcd 9839 a397 ab39 cb17 8738
00000160: 85c4 2439 b7f5 2339 2a3d 9c3a 54cc 153b
00000170: dedc cc39 11dc 6939 9cb3 8e3a 094e bc39
00000180: c86a 9138 90b6 e938 e988 1b39 0e81 d83a
00000190: 559c 503a 11a3 c639 8a48 9139 413e c239
000001a0: c0d1 093a 3e93 6e38 6493 4e3a ad1f ac39
000001b0: 0414 e93a 758f 9e39 8a6c ce39 12b6 b338
000001c0: 68f3 4f3a a72d 5339 cdcd 7036 8624 ce39
000001d0: e432 3837 bcbd 643a 7a69 4d39 a16e 7a39
000001e0: 62d1 8239 91d3 af3a 924b 9e38 9cbc 2738
000001f0: 42f9 1e39 4052 213a db6d 4539 6b7c 1139
0.00011072534 0.00050223334 0.00012051479 0.00014834847 0.000106741114 0.00025395476 0.0005489871 0.0006225353
7.039757e-05 0.00013632588 0.00030166516 0.00016834913 0.00070271274 0.00010700755 0.00042062442 0.00013012097
6.034198e-05 0.0005605752 6.9866883e-06 8.00186e-05 0.0004341337 0.000270394 0.0005971964 0.00017831012
0.00075243553 0.000329863 0.00011914546 0.0009356662 0.00037147096 0.00011435256 5.5899236e-05 0.0003976523
0.00016352902 0.00052012305 0.00013619055 6.284089e-05 0.0004558204 0.00022392855 0.00038380167 0.0006295833
0.000110014626 1.5284493e-05 0.00055766036 0.00016979023 0.0003382017 0.0006422827 0.00013560054 0.0009051774
0.0015951179 6.304872e-05 0.00057930633 0.00030346852 0.0016922902 0.0017447246 0.00023249087 0.0001154869
9.907068e-05 7.6832606e-05 0.0007891832 0.000110002264 0.0004551192 0.00016571544 0.0001018871 0.00058754015
0.0002211136 0.0003285251 0.0006132137 8.844832e-05 0.00020079795 0.00033894088 0.00039964015 0.00019209621
0.00033347865 1.0245031e-05 0.000497616 1.1667532e-05 0.0008321915 0.0005583618 0.00028900788 0.00034186523
0.0005707432 4.8116613e-06 0.0010189533 0.00027877095 9.939024e-05 0.0002914466 0.0003272864 6.4417334e-05
0.00015713468 0.00015636427 0.0011920084 0.0022857385 0.0003907447 0.00022302593 0.0010887268 0.00035916295
6.934028e-05 0.00011144311 0.00014832955 0.0016517953 0.00079578656 0.00037886997 0.000277106 0.00037048946
0.00052573904 5.688075e-05 0.0007880239 0.00032829997 0.0017782454 0.00030242992 0.0003937225 8.5692984e-05
0.00079326937 0.00020139535 3.5882579e-06 0.00039318594 1.09791035e-05 0.00087257824 0.00019589617 0.0002388307
0.00024951535 0.0013414492 7.548103e-05 3.999156e-05 0.0001516091 0.0006153919 0.00018828308 0.00013874627

encoder.feature_extract.mlps.0.batch_norms.1.weight f4 [128]
00000000: 010b 803f 70df 7e3f 5264 803f 6c83 7f3f
00000010: ed1f 803f 0deb 7e3f 895f 803f 8c6a 803f
00000020: 6f75 803f a05c 7f3f 2ab4 7e3f 47ee 803f
00000030: b251 7e3f 6aad 803f c1f8 7d3f 596e 803f
00000040: 0f91 803f e200 7e3f 2831 803f d685 7f3f
00000050: 2ec4 803f 8da6 803f 7cf2 7e3f 8073 803f
00000060: 4e15 813f 404f 803f e8ef 7d3f a375 7f3f
00000070: 352f 803f 9947 7e3f 1695 7e3f a9c4 803f
00000080: a290 803f 54ed 7e3f 2a15 803f a66a 7e3f
00000090: 74c2 7f3f 68ad 7f3f bb7f 803f 8964 7f3f
000000a0: 4458 803f 0fe2 803f c92b 803f 15ad 7f3f
000000b0: 5934 7f3f c9c1 803f 7783 803f 9ab1 803f
000000c0: bcce 7e3f c550 7f3f 08d9 7f3f 2e3f 803f
000000d0: 068e 803f d27c 7e3f fd5e 803f c696 7e3f
000000e0: fb28 803f cd4f 803f 435f 803f c40d 7e3f
000000f0: b510 813f cfc9 7f3f 3fed 7f3f 6e6b 803f
00000100: 4fe1 7f3f 2187 803f f259 7f3f 933f 803f
00000110: 593d 7e3f f08a 7f3f 9949 7f3f 3356 7f3f
00000120: 99c1 7f3f ea69 7f3f d950 7f3f 1a98 7f3f
00000130: 225d 803f 117a 7e3f 2802 7f3f 7f91 7f3f
00000140: 6beb 7e3f 04fb 803f f730 803f abc7 803f
00000150: c5f9 7f3f d7d8 7f3f 2756 803f da7a 803f
00000160: 89af 7e3f a06f 7d3f 2cd3 7e3f c184 803f
00000170: 409a 7f3f 7d8b 7e3f 5e90 803f ee06 803f
00000180: ab91 7e3f 88e9 803f 462a 803f a91a 803f
00000190: ef76 803f aff8 7d3f 1c57 7e3f 31ae 803f
000001a0: d7c2 803f 583a 7f3f aaac 7d3f 8a6d 7f3f
000001b0: e28f 803f cada 7f3f c3ba 7e3f 2d16 803f
000001c0: d074 803f 0383 7f3f 8568 7e3f 17e2 803f
000001d0: 814b 813f 872b 803f 23f8 7f3f 9fb9 803f
000001e0: 27de 7e3f 658b 7f3f 6c70 803f 31d0 803f
000001f0: e83d 803f e99a 803f ecf7 7e3f 9266 803f
1.0003358 0.9955969 1.0030615 0.9980991 1.0009743 0.9957741 1.0029155 1.0032516
1.0035838 0.9975071 0.9949366 1.0072716 0.9934341 1.0052922 0.99207693 1.0033675
1.0044268 0.992201 1.0015001 0.9981359 1.0059869 1.0050827 0.9958875 1.0035248
1.0084627 1.0024185 0.9919419 0.99788874 1.0014406 0.99328 0.9944624 1.0060016
1.0044138 0.99580884 1.0006459 0.9938148 0.99906087 0.9987397 1.003898 0.9976278
1.0026937 1.0068988 1.0013362 0.9987348 0.9968925 1.0059139 1.004012 1.00542
0.995342 0.9973262 0.9994054 1.0019281 1.0043342 0.9940921 1.0028988 0.9944881
1.0012506 1.0024353 1.0029072 0.99239755 1.0083224 0.9991731 0.99971384 1.0032785
0.9995317 1.0041238 0.9974662 1.0019401 0.9931236 0.99821377 0.99721676 0.99740905
0.9990478 0.9977099 0.9973274 0.99841464 1.0028422 0.9940501 0.99612665 0.99831384
0.9957797 1.0076604 1.0014943 1.0060934 0.99990493 0.99940246 1.0026292 1.0037491
0.99486595 0.9899845 0.9954097 1.0040513 0.9984474 0.9943159 1.0044057 1.0002115
0.9944102 1.0071268 1.0012901 1.0008136 1.0036296 0.99207586 0.9935167 1.0053159
1.005946 0.996984 0.9909159 0.9977652 1.004391 0.9994322 0.99503726 1.0006768
1.0035648 0.99809283 0.99378234 1.0068997 1.0101167 1.0013283 0.99988 1.0056647
0.9955773 0.99822074 1.0034308 1.0063535 1.0018892 1.0047275 0.9959705 1.0031302
