DRL coding/saved_network/FJSP_J15M15/100_39/policy_mch.pth (torch, 274615 bytes, 14 tensors)

bn.weight f4 [128]
000000 af a6 7e 3f 41 ae 7f 3f 2e fe 7f 3f 89 30 80 3f
       0.9947309 0.99875265 0.9999722 1.0014812
000010 3c 91 80 3f 63 07 80 3f 79 7c 7f 3f a6 74 80 3f
       1.0044322 1.0002254 0.99799305 1.0035598
000020 ee 37 7f 3f a0 21 80 3f 22 3e 7f 3f ca 09 80 3f
       0.99694717 1.0010262 0.9970418 1.0002987
000030 52 06 80 3f 67 db 7f 3f 71 c7 7f 3f 27 e3 7f 3f
       1.0001929 0.99944156 0.999137 0.9995598
000040 13 3b 80 3f aa 98 7f 3f cb 2e 80 3f 68 66 7f 3f
       1.0018028 0.9984232 1.001428 0.99765635
000050 f0 11 80 3f 0f c7 80 3f 81 f5 7f 3f bc 57 7f 3f
       1.0005474 1.0060748 0.99983984 0.9974325
000060 15 08 7f 3f bd 1e 80 3f 56 e0 80 3f 5a ad 80 3f
       0.9962171 1.000938 1.0068462 1.0052903
000070 11 69 7e 3f 95 fe 7f 3f 12 8a 80 3f de 4c 80 3f
       0.9937907 0.99997836 1.0042136 1.0023458
000080 2c ab 7e 3f 1f 87 7f 3f 5f 95 7e 3f a5 dd 80 3f
       0.9947994 0.99815553 0.9944667 1.006764
000090 c7 42 7f 3f 57 21 7f 3f b1 14 7f 3f cb c6 7e 3f
       0.9971127 0.9966025 0.9964095 0.99522084
0000a0 fc 76 80 3f d9 dc 7e 3f e1 96 7f 3f 43 44 80 3f
       1.0036311 0.99555737 0.998396 1.0020832
0000b0 9e 5c 7f 3f 76 17 80 3f 44 d3 7f 3f 84 9c 7f 3f
       0.997507 1.000716 0.9993174 0.998482
0000c0 ea 3b 7e 3f 10 6b 80 3f 81 78 80 3f 15 6a 7f 3f
       0.9931017 1.0032673 1.0036775 0.99771243
0000d0 78 e8 7f 3f 83 70 80 3f 9d c7 7e 3f dc be 7e 3f
       0.99964094 1.0034336 0.99523336 0.9950998
0000e0 9e 60 80 3f 78 1d 81 3f f6 07 80 3f 16 53 80 3f
       1.0029485 1.0087118 1.000243 1.0025356
0000f0 8e eb 7e 3f f0 02 80 3f 5f 23 7f 3f c0 96 7f 3f
       0.9957818 1.0000896 0.99663347 0.998394
000100 bb 2d 7f 3f 61 23 81 3f 87 15 80 3f 71 44 7f 3f
       0.99679154 1.0088922 1.000657 0.9971381
000110 37 d6 7e 3f 36 77 7f 3f 17 d7 80 3f 3b fd 7e 3f
       0.99545616 0.99791276 1.006564 0.9960515
000120 e0 3a 80 3f ae b1 80 3f e5 52 7f 3f b8 1e 7e 3f
       1.0017967 1.0054224 0.9973586 0.99265623
000130 e2 c3 80 3f 79 cf 80 3f d9 d6 80 3f 6b 19 7f 3f
       1.0059779 1.0063316 1.0065566 0.9964816
000140 69 ac 7f 3f 31 03 80 3f 9e 79 80 3f 96 4d 7f 3f
       0.9987245 1.0000974 1.0037115 0.9972776
000150 00 ab 80 3f 04 d4 80 3f 80 cc 7f 3f c7 e1 7d 3f
       1.0052185 1.0064702 0.9992142 0.99172634
000160 2c 9d 7f 3f 94 99 80 3f ba b5 80 3f be 9b 80 3f
       0.998492 1.0046868 1.0055459 1.0047529
000170 8c 84 7e 3f ff e4 7e 3f b9 08 80 3f 5d d6 80 3f
       0.99421 0.9956817 1.0002662 1.0065418
000180 8b db 7f 3f b7 99 80 3f b8 76 7f 3f 6b 55 80 3f
       0.9994437 1.004691 0.99790525 1.0026067
000190 55 1a 80 3f bd 64 80 3f 5f f0 7f 3f 42 d8 7e 3f
       1.0008036 1.0030743 0.9997615 0.99548733
0001a0 aa 1d 80 3f c2 56 80 3f 7a 48 80 3f 24 18 80 3f
       1.0009053 1.0026476 1.0022118 1.0007367
0001b0 9f 67 80 3f ab b1 80 3f 0c f0 80 3f a9 6f 80 3f
       1.0031623 1.005422 1.0073256 1.0034076
0001c0 59 6e 80 3f 94 31 7e 3f 36 33 80 3f cb 4c 80 3f
       1.0033675 0.992944 1.0015628 1.0023435
0001d0 86 59 80 3f 36 03 7e 3f c1 91 80 3f 82 2e 7f 3f
       1.002732 0.9922365 1.004448 0.9968034
0001e0 37 99 7f 3f 3f 1a 80 3f 9a 48 80 3f fc 70 7f 3f
       0.9984316 1.000801 1.0022156 0.99781775
0001f0 90 19 7f 3f 07 e7 80 3f 82 bf 80 3f 6e 5b 80 3f
       0.9964838 1.0070504 1.0058444 1.0027902

bn.bias f4 [128]
000000 d3 ca ce 3b bb 0e e8 bb 7f 1e de bb 68 a2 0e 3c
       0.0063107996 -0.007081834 -0.0067785378 0.008705713
000010 7b bc a0 b9 7e 90 23 3c b1 70 c1 3b 1e 2c 58 ba
       -0.00030658007 0.00998318 0.0059033264 -0.000824632
000020 fa 00 9b 3b 7b 72 c4 3b c1 48 c9 3b 6d b7 8c ba
       0.004730341 0.0059950924 0.006142706 -0.0010735817
000030 dc 4c ad 3b a7 f6 8b 3b 99 b9 ff 39 8e 55 df bb
       0.0052887034 0.0042713466 0.0004877567 -0.006815619
000040 4c 91 2f 3b 22 19 4a bb fd fd a4 bb b8 c2 da 39
       0.0026789485 -0.0030837734 -0.0050351606 0.00041725277
000050 7a a9 d9 bb df fe 3e 39 1b ce ed 39 87 69 dd ba
       -0.0066425176 0.00018214759 0.00045357723 -0.0016892412
000060 e5 7d 03 3c c8 ce 93 ba 47 d1 c8 bb 35 9c 93 3b
       0.008025621 -0.0011276836 -0.0061284634 0.0045047053
000070 b9 75 fe bb 6c 9e eb 3b d8 31 24 ba fd 3b b9 ba
       -0.0077654985 0.007190516 -0.0006263531 -0.0014132258
000080 d1 5d e2 3b 62 a9 b8 b9 a0 2d 0a bc bd 4f 21 3a
       0.0069081564 -0.00035221415 -0.008433729 0.00061535445
000090 2a a8 e2 3b 03 e2 bc 3b 74 45 8a bb 8f b5 14 3c
       0.0069170194 0.0057642474 -0.0042197052 0.00907649
0000a0 78 a4 da bb 7c b4 c4 3a ea 32 0b bc ae c1 3b 3b
       -0.0066724382 0.0015007402 -0.008496026 0.0028649378
0000b0 f9 fa 76 3b 6e 13 c2 ba f0 c8 fa 3b 07 be d1 bb
       0.0037686212 -0.0014806816 0.007653348 -0.006400827
0000c0 98 cb ab 3a be 54 ea bb cb c8 c2 ba 8c 0f cb ba
       0.001310694 -0.0071512153 -0.0014860866 -0.0015492304
0000d0 3b a8 fe 3b b5 de a9 b9 35 87 38 bb 37 2f 13 bb
       0.0077715195 -0.00032400122 -0.0028156762 -0.0022458562
0000e0 46 a2 ce 38 e3 ac e7 3b 4d b8 5d 3b 22 6b b9 3a
       9.853071e-05 0.0070701702 0.0033831776 0.0014146308
0000f0 11 93 ae bb b5 2b 06 3b 1c 5f 8b ba 34 5f f7 ba
       -0.0053275903 0.0020472829 -0.0010633203 -0.0018872977
000100 9d 69 cc 3b 6e dd d5 bb 43 d7 69 bb 2f 06 14 3b
       0.006238176 -0.0065266406 -0.0035681284 0.0022586694
000110 63 cf d6 bb 4a 37 a6 3b 96 bc 2a ba 24 c7 73 3b
       -0.006555484 0.005072509 -0.0006513087 0.0037197554
000120 07 b4 c0 3b 7c 65 0b 3b 6c b9 80 ba 1b 5f bc 3a
       0.005880836 0.0021270206 -0.0009820885 0.0014371605
000130 8c 76 5c 3b 72 c0 e5 ba 60 fc b3 bb c9 f2 ab 3b
       0.0033639995 -0.0017528667 -0.005492732 0.005247448
000140 25 b4 64 3b 3d e6 15 3c e6 ab 8a bb 4f 91 6e bb
       0.0034897414 0.009149131 -0.0042319177 -0.0036402529
000150 b5 28 06 bc 18 54 1c 3a a7 42 e0 3a 6f 75 d9 3b
       -0.008188416 0.00059634587 0.0017109708 0.0066363136
000160 bc 0a f6 3b 67 32 be ba 73 7e 7a bb 75 e6 f4 3b
       0.007508604 -0.0014510871 -0.0038222342 0.0074737617
000170 44 60 ee 3b 29 2f 4a bb bc 1c 72 3b 86 c8 fd 3a
       0.0072746594 -0.0030850864 0.0036943397 0.0019362129
000180 78 fd 2e bb 59 66 a1 bb 9f f2 54 3b 3f 32 ab 3b
       -0.0026701372 -0.004925531 0.0032493246 0.0052244957
000190 15 07 d5 bb 95 5d 01 bc 2f 58 b2 bb 86 3d c3 bb
       -0.0065010884 -0.007895847 -0.005442641 -0.005958262
0001a0 11 e8 f7 bb 74 4f 08 3c 96 38 25 3b 12 2f c5 bb
       -0.0075655063 0.008319724 0.002521073 -0.006017574
0001b0 57 99 17 bb 6f cb 27 39 23 e5 0b bc ca 02 dc bb
       -0.002313217 0.00016002146 -0.008538517 -0.0067141997
0001c0 d6 2a f2 bb d1 86 c9 3b eb 79 ad bb 32 99 99 bb
       -0.0073903603 0.0061501046 -0.005294075 -0.0046874518
0001d0 50 9b fb 3b a3 48 01 bc f6 50 52 3b b4 5b 66 3b
       0.007678427 -0.007890853 0.0032091714 0.0035149874
0001e0 7b 24 03 3c 1d d0 52 b9 07 f6 08 3c 07 63 07 bc
       0.008004303 -0.00020104689 0.008359439 -0.008263356
0001f0 b5 90 d2 ba 65 11 e5 3b d3 01 00 bb 0e e9 b1 3b
       -0.0016064855 0.006990599 -0.0019532337 0.0054293936

bn.running_mean f4 [128]
000000 ee 01 73 3c 69 98 11 3d 70 40 f9 bc 7a 09 4e bd
       0.014832003 0.03554574 -0.030426234 -0.050302006
000010 09 e9 5b 3d 95 5c 00 3c 09 ec b5 bc bd 19 a1 bc
       0.053689037 0.007834573 -0.022207277 -0.019665593
000020 20 2b 13 3d 1d 71 bd bc 18 a8 31 bd 7b 6b a4 bc
       0.0359298 -0.023125226 -0.043373197 -0.020070782
000030 d0 9e c5 3c 49 d3 fd 3b 20 1e 19 3d c1 0b 2f 3c
       0.02412358 0.0077461344 0.037382245 0.010683955
000040 81 79 04 bd c6 49 0f 3c 1b de c6 3b f6 a6 ad bc
       -0.032342438 0.008745616 0.0060689575 -0.021197777
000050 3f 15 e4 3c ee e9 e3 3b f1 66 64 3d f3 bf 63 3c
       0.027842162 0.006955377 0.055762235 0.013900745
000060 43 1b 4f 3c 20 c7 c4 3c dd a6 cf bb 4e 10 21 3c
       0.012640777 0.024020731 -0.0063370303 0.0098305475
000070 e8 a9 54 3a f1 4a 50 bb 5b 43 e5 3c 4e 75 3b 3d
       0.0008112476 -0.003178295 0.02798622 0.045766167
000080 08 7a ad 3c 01 4d d8 bc 83 55 26 3d 14 ca f9 bc
       0.021176353 -0.026403906 0.040608894 -0.030491866
000090 22 86 e5 3c f8 ab 6f bc 3f 2e c8 3a b6 52 b5 3b
       0.028018061 -0.014628403 0.0015272571 0.0055335416
0000a0 ec 4e 16 3c 3e b7 bf bb 6a eb 4d bc 68 cf 12 bd
       0.00917409 -0.0058507016 -0.012568334 -0.03584233
0000b0 b8 b2 45 3d 15 b4 f9 bb 3f 22 8b bd 06 31 18 bd
       0.048266143 -0.0076203444 -0.06793641 -0.037156127
0000c0 38 cd 8b 3c 49 c6 96 bc 66 13 1d bd cf f7 1d bc
       0.01706563 -0.018405097 -0.038348578 -0.009641602
0000d0 09 dd 90 bc 8c 9a 63 3b 82 91 67 3c d8 7f eb bb
       -0.017683523 0.0034729568 0.014133813 -0.007186871
0000e0 ab fa 9c 3b 15 b3 73 bd c7 41 62 bc 0b 15 0b bd
       0.004790624 -0.059496958 -0.013809628 -0.033955615
0000f0 05 4d ff bc 7f 0b d0 3c 9c a0 06 bd 88 5e ac 3c
       -0.031164655 0.025396107 -0.032868013 0.02104117
000100 d6 a0 1b bd d8 66 6c 3c 63 3f 61 bd 4a 7c ae 3b
       -0.037995182 0.014428817 -0.05499209 0.005324875
000110 bc aa f2 3c b7 53 f5 3b 3d dd 28 bb 70 14 1b 3c
       0.029622428 0.007486786 -0.0025766634 0.009465322
000120 7b be aa 3c 31 7f e6 bd 46 58 fc 3c b9 bf 93 3d
       0.020842781 -0.112547286 0.03080381 0.072143026
000130 f4 72 89 3d 3c 00 3d bb 99 7d 90 3c 4a 21 83 3c
       0.06711379 -0.002883925 0.017638015 0.016007084
000140 ad 88 0a 3d 9a 0e 16 bd 7f f1 2f bd 1e 35 c4 bc
       0.03382175 -0.03663502 -0.042954918 -0.02395111
000150 77 4b 94 bc b8 3f cb bc 8d ca 2f 3d 94 2b e3 bb
       -0.01810239 -0.024810657 0.042917777 -0.006932685
000160 f2 69 c7 bd c6 89 9c bd ad bb 67 3c 4d 67 d1 bc
       -0.09737004 -0.07643466 0.0141438665 -0.025561953
000170 61 c4 56 3d 8a 4c a8 3c 93 6d 00 bc ca 79 25 3d
       0.052433375 0.02054431 -0.0078386245 0.04039935
000180 3b 36 50 3d 6d 36 fe ba 27 ac 3d bd f8 ec 92 3c
       0.05083297 -0.0019394882 -0.046306755 0.017935261
000190 71 02 3f 3d 67 ec 4c bc c2 cf 3e 3c 9a 82 b8 3c
       0.046633188 -0.012507535 0.011646213 0.022523213
0001a0 08 a4 a8 3c 16 9e 7d bd bb 9b de 3d d4 40 13 3c
       0.020586029 -0.06191834 0.10869547 0.008987624
0001b0 0f b0 cc 3c b3 48 c8 3c e2 de 49 3b 5e ec 6c 3c
       0.024986295 0.024448728 0.0030803015 0.014460651
0001c0 df 23 ef 3c 42 47 13 bd 24 55 29 3b 8a 9f 55 bd
       0.02919191 -0.03595663 0.0025838101 -0.0521541
0001d0 80 01 5f 3c 1d 02 27 3d c8 53 11 3d c8 e7 5e 3c
       0.0136111975 0.0407735 0.03548029 0.013605066
0001e0 60 cc 2d 3d ca 57 0f bd 27 74 8a 3c 42 1a c1 3c
       0.042431235 -0.03499583 0.016901089 0.023572091
0001f0 a8 f8 dc 3b fe d2 3a 3b 23 a4 25 3d 06 20 02 bd
       0.0067435093 0.0028507109 0.040439736 -0.03176882

bn.running_var f4 [128]
000000 64 cc 92 38 e7 d0 35 3a 4f 6b 21 3a 5c 50 a2 3a
       6.999893e-05 0.0006935731 0.0006157653 0.0012383568
000010 17 9b cf 3a 33 82 af 37 5c bb c7 39 9e 59 dd 38
       0.0015839067 2.0922254e-05 0.0003809583 0.00010554794
000020 c9 85 00 3a e9 36 87 39 69 19 99 3a 35 20 67 39
       0.0004902748 0.00025790118 0.0011680546 0.00022041875
000030 0d eb bd 39 59 d8 a3 38 ed 50 2f 3a e6 9e 74 38
       0.00036224016 7.8127436e-05 0.0006687779 5.832212e-05
000040 34 c7 e0 39 ba 57 76 37 46 e5 05 37 d1 5b 53 39
       0.00042873027 1.4683168e-05 7.9808e-06 0.00020156732
000050 b4 09 b4 39 e3 6e 6c 37 94 02 ef 3a 1c e4 31 39
       0.00034339505 1.4092514e-05 0.0018235021 0.00016965013
000060 a0 d7 9a 38 f8 5f 89 39 c3 25 93 38 74 da df 38
       7.3834555e-05 0.0002620218 7.01654e-05 0.00010674159
000070 79 53 ed 37 42 3d a2 37 0d 1f b2 39 e2 cc 84 3a
       2.8291472e-05 1.934043e-05 0.0003397394 0.0010131861
000080 35 aa 0b 39 df 0e c2 39 04 24 6b 3a bb f8 89 39
       0.0001331948 0.00037013643 0.00089699053 0.00026315995
000090 b2 40 fd 39 39 d3 10 39 95 e7 55 36 98 37 88 37
       0.00048304122 0.00013811597 3.1874272e-06 1.6238351e-05
0000a0 19 be 0b 38 2c 63 79 38 c5 9d fa 37 6c 99 ae 39
       3.3317225e-05 5.9458587e-05 2.987579e-05 0.00033302174
0000b0 9e 88 cc 3a 6f 07 12 37 c8 42 ed 3a 15 da 22 3a
       0.001560468 8.704009e-06 0.0018101567 0.00062123063
0000c0 08 51 86 39 95 ec 8c 39 5f 5d 6e 3a c8 d3 2c 37
       0.00025618845 0.00026879148 0.0009092893 1.0301308e-05
0000d0 15 13 20 39 3b e2 83 38 7e ce e2 38 95 82 c9 36
       0.00015265898 6.2887055e-05 0.00010814982 6.0054685e-06
0000e0 96 30 2d 37 14 f4 ca 3a af 1e 89 38 00 c3 08 3a
       1.0322916e-05 0.0015484118 6.538384e-05 0.00052170455
0000f0 01 a8 ee 39 81 a0 fc 39 40 2d 02 3a 7c 4f 54 39
       0.0004552007 0.0004818477 0.0004965849 0.00020247506
000100 e5 bd 5d 3a 52 84 94 38 12 6b b3 3a de b5 96 37
       0.00084587774 7.0818365e-05 0.0013688526 1.7966082e-05
000110 7a ef d0 39 ff 75 9e 38 37 61 26 38 b5 07 84 37
       0.00039851276 7.5560056e-05 3.9668023e-05 1.5739215e-05
000120 9e 76 ad 39 ce ea c3 3b 17 5e 04 3a 54 94 51 3b
       0.00033085508 0.0059789186 0.0005049421 0.003197928
000130 99 e0 e9 3a 93 2f 9b 37 26 34 3d 38 ac 4e 03 39
       0.0017843425 1.8499593e-05 4.510968e-05 0.00012522441
000140 ec 2e 31 3a 64 7b 10 3a d4 20 8c 3a 4f 18 3a 39
       0.0006759006 0.00055115507 0.0010690936 0.00017747398
000150 f7 18 65 39 dc 30 3c 39 0a 19 2f 3a 39 fc 77 38
       0.00021848442 0.00017947279 0.00066794513 5.912429e-05
000160 0c 2c a1 3b a2 6b 4e 3b 25 a7 5b 38 c7 32 81 39
       0.004918581 0.003149726 5.2369334e-05 0.0002464263
000170 5b eb e8 3a ea 31 1d 3a 7e a5 d7 37 80 75 25 3a
       0.0017770337 0.00059965125 2.570706e-05 0.00063117594
000180 82 83 a2 3a 1d 6c e1 35 8c b5 93 3a b2 8b 5b 39
       0.0012398812 1.6795271e-06 0.0011269315 0.00020937508
000190 80 50 60 3a bd e6 39 39 88 29 c8 38 0e 72 f6 38
       0.00085569173 0.00017728932 9.544479e-05 0.000117514384
0001a0 5c 9d 2f 39 8a 0d 1b 3b 0e e0 be 3b df 42 5d 37
       0.00016747921 0.0023659193 0.0058250492 1.3188196e-05
0001b0 f9 08 60 39 d5 47 54 39 4a 38 91 35 ce d4 a8 38
       0.00021365647 0.00020244655 1.0819724e-06 8.050502e-05
0001c0 99 de 86 39 91 e0 3f 3a 29 22 8e 35 9f b6 a5 3a
       0.0002572432 0.0007319535 1.0589766e-06 0.0012642926
0001d0 ed 2a b7 39 e4 96 91 3a 27 61 fe 39 e8 52 30 38
       0.00034936462 0.0011107591 0.0004851904 4.2038882e-05
0001e0 97 f4 5a 3a 37 cc 00 3a 1a 9a 6e 39 8e 04 cb 39
       0.0008352487 0.0004913243 0.00022754856 0.0003872257
0001f0 39 69 95 37 bf 50 80 37 a5 4a 89 3a 6f 7b a8 39
       1.7811182e-05 1.529639e-05 0.0010474516 0.00032135422

bn1.weight f4 [128]
000000 00 00 80 3f 00 00 80 3f 00 00 80 3f 00 00 80 3f
       1.0 1.0 1.0 1.0
000010 00 00 80 3f 00 00 80 3f 00 00 80 3f 00 00 80 3f
       1.0 1.0 1.0 1.0
000020 00 00 80 3f 00 00 80 3f 00 00 80 3f 00 00 80 3f
       1.0 1.0 1.0 1.0
000030 00 00 80 3f 00 00 80 3f 00 00 80 3f 00 00 80 3f
       1.0 1.0 1.0 1.0
000040 00 00 80 3f 00 00 80 3f 00 00 80 3f 00 00 80 3f
       1.0 1.0 1.0 1.0
000050 00 00 80 3f 00 00 80 3f 00 00 80 3f 00 00 80 3f
       1.0 1.0 1.0 1.0
000060 00 00 80 3f 00 00 80 3f 00 00 80 3f 00 00 80 3f
       1.0 1.0 1.0 1.0
000070 00 00 80 3f 00 00 80 3f 00 00 80 3f 00 00 80 3f
       1.0 1.0 1.0 1.0
000080 00 00 80 3f 00 00 80 3f 00 00 80 3f 00 00 80 3f
       1.0 1.0 1.0 1.0
000090 00 00 80 3f 00 00 80 3f 00 00 80 3f 00 00 80 3f
       1.0 1.0 1.0 1.0
0000a0 00 00 80 3f 00 00 80 3f 00 00 80 3f 00 00 80 3f
       1.0 1.0 1.0 1.0
0000b0 00 00 80 3f 00 00 80 3f 00 00 80 3f 00 00 80 3f
       1.0 1.0 1.0 1.0
0000c0 00 00 80 3f 00 00 80 3f 00 00 80 3f 00 00 80 3f
       1.0 1.0 1.0 1.0
0000d0 00 00 80 3f 00 00 80 3f 00 00 80 3f 00 00 80 3f
       1.0 1.0 1.0 1.0
0000e0 00 00 80 3f 00 00 80 3f 00 00 80 3f 00 00 80 3f
       1.0 1.0 1.0 1.0
0000f0 00 00 80 3f 00 00 80 3f 00 00 80 3f 00 00 80 3f
       1.0 1.0 1.0 1.0
000100 00 00 80 3f 00 00 80 3f 00 00 80 3f 00 00 80 3f
       1.0 1.0 1.0 1.0
000110 00 00 80 3f 00 00 80 3f 00 00 80 3f 00 00 80 3f
       1.0 1.0 1.0 1.0
000120 00 00 80 3f 00 00 80 3f 00 00 80 3f 00 00 80 3f
       1.0 1.0 1.0 1.0
000130 00 00 80 3f 00 00 80 3f 00 00 80 3f 00 00 80 3f
       1.0 1.0 1.0 1.0
000140 00 00 80 3f 00 00 80 3f 00 00 80 3f 00 00 80 3f
       1.0 1.0 1.0 1.0
000150 00 00 80 3f 00 00 80 3f 00 00 80 3f 00 00 80 3f
       1.0 1.0 1.0 1.0
000160 00 00 80 3f 00 00 80 3f 00 00 80 3f 00 00 80 3f
       1.0 1.0 1.0 1.0
000170 00 00 80 3f 00 00 80 3f 00 00 80 3f 00 00 80 3f
       1.0 1.0 1.0 1.0
000180 00 00 80 3f 00 00 80 3f 00 00 80 3f 00 00 80 3f
       1.0 1.0 1.0 1.0
000190 00 00 80 3f 00 00 80 3f 00 00 80 3f 00 00 80 3f
       1.0 1.0 1.0 1.0
0001a0 00 00 80 3f 00 00 80 3f 00 00 80 3f 00 00 80 3f
       1.0 1.0 1.0 1.0
0001b0 00 00 80 3f 00 00 80 3f 00 00 80 3f 00 00 80 3f
       1.0 1.0 1.0 1.0
0001c0 00 00 80 3f 00 00 80 3f 00 00 80 3f 00 00 80 3f
       1.0 1.0 1.0 1.0
0001d0 00 00 80 3f 00 00 80 3f 00 00 80 3f 00 00 80 3f
       1.0 1.0 1.0 1.0
0001e0 00 00 80 3f 00 00 80 3f 00 00 80 3f 00 00 80 3f
       1.0 1.0 1.0 1.0
0001f0 00 00 80 3f 00 00 80 3f 00 00 80 3f 00 00 80 3f
       1.0 1.0 1.0 1.0

bn1.bias f4 [128]
000000 00 00 00 00 00 00 00 00 00 00 00 00 00 00 00 00
       0.0 0.0 0.0 0.0
000010 00 00 00 00 00 00 00 00 00 00 00 00 00 00 00 00
       0.0 0.0 0.0 0.0
000020 00 00 00 00 00 00 00 00 00 00 00 00 00 00 00 00
       0.0 0.0 0.0 0.0
000030 00 00 00 00 00 00 00 00 00 00 00 00 00 00 00 00
       0.0 0.0 0.0 0.0
000040 00 00 00 00 00 00 00 00 00 00 00 00 00 00 00 00
       0.0 0.0 0.0 0.0
000050 00 00 00 00 00 00 00 00 00 00 00 00 00 00 00 00
       0.0 0.0 0.0 0.0
000060 00 00 00 00 00 00 00 00 00 00 00 00 00 00 00 00
       0.0 0.0 0.0 0.0
000070 00 00 00 00 00 00 00 00 00 00 00 00 00 00 00 00
       0.0 0.0 0.0 0.0
000080 00 00 00 00 00 00 00 00 00 00 00 00 00 00 00 00
       0.0 0.0 0.0 0.0
000090 00 00 00 00 00 00 00 00 00 00 00 00 00 00 00 00
       0.0 0.0 0.0 0.0
0000a0 00 00 00 00 00 00 00 00 00 00 00 00 00 00 00 00
       0.0 0.0 0.0 0.0
0000b0 00 00 00 00 00 00 00 00 00 00 00 00 00 00 00 00
       0.0 0.0 0.0 0.0
0000c0 00 00 00 00 00 00 00 00 00 00 00 00 00 00 00 00
       0.0 0.0 0.0 0.0
0000d0 00 00 00 00 00 00 00 00 00 00 00 00 00 00 00 00
       0.0 0.0 0.0 0.0
0000e0 00 00 00 00 00 00 00 00 00 00 00 00 00 00 00 00
       0.0 0.0 0.0 0.0
0000f0 00 00 00 00 00 00 00 00 00 00 00 00 00 00 00 00
       0.0 0.0 0.0 0.0
000100 00 00 00 00 00 00 00 00 00 00 00 00 00 00 00 00
       0.0 0.0 0.0 0.0
000110 00 00 00 00 00 00 00 00 00 00 00 00 00 00 00 00
       0.0 0.0 0.0 0.0
000120 00 00 00 00 00 00 00 00 00 00 00 00 00 00 00 00
       0.0 0.0 0.0 0.0
000130 00 00 00 00 00 00 00 00 00 00 00 00 00 00 00 00
       0.0 0.0 0.0 0.0
000140 00 00 00 00 00 00 00 00 00 00 00 00 00 00 00 00
       0.0 0.0 0.0 0.0
000150 00 00 00 00 00 00 00 00 00 00 00 00 00 00 00 00
       0.0 0.0 0.0 0.0
000160 00 00 00 00 00 00 00 00 00 00 00 00 00 00 00 00
       0.0 0.0 0.0 0.0
000170 00 00 00 00 00 00 00 00 00 00 00 00 00 00 00 00
       0.0 0.0 0.0 0.0
000180 00 00 00 00 00 00 00 00 00 00 00 00 00 00 00 00
       0.0 0.0 0.0 0.0
000190 00 00 00 00 00 00 00 00 00 00 00 00 00 00 00 00
       0.0 0.0 0.0 0.0
0001a0 00 00 00 00 00 00 00 00 00 00 00 00 00 00 00 00
       0.0 0.0 0.0 0.0
0001b0 00 00 00 00 00 00 00 00 00 00 00 00 00 00 00 00
       0.0 0.0 0.0 0.0
0001c0 00 00 00 00 00 00 00 00 00 00 00 00 00 00 00 00
       0.0 0.0 0.0 0.0
0001d0 00 00 00 00 00 00 00 00 00 00 00 00 00 00 00 00
       0.0 0.0 0.0 0.0
0001e0 00 00 00 00 00 00 00 00 00 00 00 00 00 00 00 00
       0.0 0.0 0.0 0.0
0001f0 00 00 00 00 00 00 00 00 00 00 00 00 00 00 00 00
       0.0 0.0 0.0 0.0

bn1.running_mean f4 [128]
000000 00 00 00 00 00 00 00 00 00 00 00 00 00 00 00 00
       0.0 0.0 0.0 0.0
000010 00 00 00 00 00 00 00 00 00 00 00 00 00 00 00 00
       0.0 0.0 0.0 0.0
000020 00 00 00 00 00 00 00 00 00 00 00 00 00 00 00 00
       0.0 0.0 0.0 0.0
000030 00 00 00 00 00 00 00 00 00 00 00 00 00 00 00 00
       0.0 0.0 0.0 0.0
000040 00 00 00 00 00 00 00 00 00 00 00 00 00 00 00 00
       0.0 0.0 0.0 0.0
000050 00 00 00 00 00 00 00 00 00 00 00 00 00 00 00 00
       0.0 0.0 0.0 0.0
000060 00 00 00 00 00 00 00 00 00 00 00 00 00 00 00 00
       0.0 0.0 0.0 0.0
000070 00 00 00 00 00 00 00 00 00 00 00 00 00 00 00 00
       0.0 0.0 0.0 0.0
000080 00 00 00 00 00 00 00 00 00 00 00 00 00 00 00 00
       0.0 0.0 0.0 0.0
000090 00 00 00 00 00 00 00 00 00 00 00 00 00 00 00 00
       0.0 0.0 0.0 0.0
0000a0 00 00 00 00 00 00 00 00 00 00 00 00 00 00 00 00
       0.0 0.0 0.0 0.0
0000b0 00 00 00 00 00 00 00 00 00 00 00 00 00 00 00 00
       0.0 0.0 0.0 0.0
0000c0 00 00 00 00 00 00 00 00 00 00 00 00 00 00 00 00
       0.0 0.0 0.0 0.0
0000d0 00 00 00 00 00 00 00 00 00 00 00 00 00 00 00 00
       0.0 0.0 0.0 0.0
0000e0 00 00 00 00 00 00 00 00 00 00 00 00 00 00 00 00
       0.0 0.0 0.0 0.0
0000f0 00 00 00 00 00 00 00 00 00 00 00 00 00 00 00 00
       0.0 0.0 0.0 0.0
000100 00 00 00 00 00 00 00 00 00 00 00 00 00 00 00 00
       0.0 0.0 0.0 0.0
000110 00 00 00 00 00 00 00 00 00 00 00 00 00 00 00 00
       0.0 0.0 0.0 0.0
000120 00 00 00 00 00 00 00 00 00 00 00 00 00 00 00 00
       0.0 0.0 0.0 0.0
000130 00 00 00 00 00 00 00 00 00 00 00 00 00 00 00 00
       0.0 0.0 0.0 0.0
000140 00 00 00 00 00 00 00 00 00 00 00 00 00 00 00 00
       0.0 0.0 0.0 0.0
000150 00 00 00 00 00 00 00 00 00 00 00 00 00 00 00 00
       0.0 0.0 0.0 0.0
000160 00 00 00 00 00 00 00 00 00 00 00 00 00 00 00 00
       0.0 0.0 0.0 0.0
000170 00 00 00 00 00 00 00 00 00 00 00 00 00 00 00 00
       0.0 0.0 0.0 0.0
000180 00 00 00 00 00 00 00 00 00 00 00 00 00 00 00 00
       0.0 0.0 0.0 0.0
000190 00 00 00 00 00 00 00 00 00 00 00 00 00 00 00 00
       0.0 0.0 0.0 0.0
0001a0 00 00 00 00 00 00 00 00 00 00 00 00 00 00 00 00
       0.0 0.0 0.0 0.0
0001b0 00 00 00 00 00 00 00 00 00 00 00 00 00 00 00 00
       0.0 0.0 0.0 0.0
0001c0 00 00 00 00 00 00 00 00 00 00 00 00 00 00 00 00
       0.0 0.0 0.0 0.0
0001d0 00 00 00 00 00 00 00 00 00 00 00 00 00 00 00 00
       0.0 0.0 0.0 0.0
0001e0 00 00 00 00 00 00 00 00 00 00 00 00 00 00 00 00
       0.0 0.0 0.0 0.0
0001f0 00 00 00 00 00 00 00 00 00 00 00 00 00 00 00 00
       0.0 0.0 0.0 0.0

bn1.running_var f4 [128]
000000 00 00 80 3f 00 00 80 3f 00 00 80 3f 00 00 80 3f
       1.0 1.0 1.0 1.0
000010 00 00 80 3f 00 00 80 3f 00 00 80 3f 00 00 80 3f
       1.0 1.0 1.0 1.0
000020 00 00 80 3f 00 00 80 3f 00 00 80 3f 00 00 80 3f
       1.0 1.0 1.0 1.0
000030 00 00 80 3f 00 00 80 3f 00 00 80 3f 00 00 80 3f
       1.0 1.0 1.0 1.0
000040 00 00 80 3f 00 00 80 3f 00 00 80 3f 00 00 80 3f
       1.0 1.0 1.0 1.0
000050 00 00 80 3f 00 00 80 3f 00 00 80 3f 00 00 80 3f
       1.0 1.0 1.0 1.0
000060 00 00 80 3f 00 00 80 3f 00 00 80 3f 00 00 80 3f
       1.0 1.0 1.0 1.0
000070 00 00 80 3f 00 00 80 3f 00 00 80 3f 00 00 80 3f
       1.0 1.0 1.0 1.0
000080 00 00 80 3f 00 00 80 3f 00 00 80 3f 00 00 80 3f
       1.0 1.0 1.0 1.0
000090 00 00 80 3f 00 00 80 3f 00 00 80 3f 00 00 80 3f
       1.0 1.0 1.0 1.0
0000a0 00 00 80 3f 00 00 80 3f 00 00 80 3f 00 00 80 3f
       1.0 1.0 1.0 1.0
0000b0 00 00 80 3f 00 00 80 3f 00 00 80 3f 00 00 80 3f
       1.0 1.0 1.0 1.0
0000c0 00 00 80 3f 00 00 80 3f 00 00 80 3f 00 00 80 3f
       1.0 1.0 1.0 1.0
0000d0 00 00 80 3f 00 00 80 3f 00 00 80 3f 00 00 80 3f
       1.0 1.0 1.0 1.0
0000e0 00 00 80 3f 00 00 80 3f 00 00 80 3f 00 00 80 3f
       1.0 1.0 1.0 1.0
0000f0 00 00 80 3f 00 00 80 3f 00 00 80 3f 00 00 80 3f
       1.0 1.0 1.0 1.0
000100 00 00 80 3f 00 00 80 3f 00 00 80 3f 00 00 80 3f
       1.0 1.0 1.0 1.0
000110 00 00 80 3f 00 00 80 3f 00 00 80 3f 00 00 80 3f
       1.0 1.0 1.0 1.0
000120 00 00 80 3f 00 00 80 3f 00 00 80 3f 00 00 80 3f
       1.0 1.0 1.0 1.0
000130 00 00 80 3f 00 00 80 3f 00 00 80 3f 00 00 80 3f
       1.0 1.0 1.0 1.0
000140 00 00 80 3f 00 00 80 3f 00 00 80 3f 00 00 80 3f
       1.0 1.0 1.0 1.0
000150 00 00 80 3f 00 00 80 3f 00 00 80 3f 00 00 80 3f
       1.0 1.0 1.0 1.0
000160 00 00 80 3f 00 00 80 3f 00 00 80 3f 00 00 80 3f
       1.0 1.0 1.0 1.0
000170 00 00 80 3f 00 00 80 3f 00 00 80 3f 00 00 80 3f
       1.0 1.0 1.0 1.0
000180 00 00 80 3f 00 00 80 3f 00 00 80 3f 00 00 80 3f
       1.0 1.0 1.0 1.0
000190 00 00 80 3f 00 00 80 3f 00 00 80 3f 00 00 80 3f
       1.0 1.0 1.0 1.0
0001a0 00 00 80 3f 00 00 80 3f 00 00 80 3f 00 00 80 3f
       1.0 1.0 1.0 1.0
0001b0 00 00 80 3f 00 00 80 3f 00 00 80 3f 00 00 80 3f
       1.0 1.0 1.0 1.0
0001c0 00 00 80 3f 00 00 80 3f 00 00 80 3f 00 00 80 3f
       1.0 1.0 1.0 1.0
0001d0 00 00 80 3f 00 00 80 3f 00 00 80 3f 00 00 80 3f
       1.0 1.0 1.0 1.0
0001e0 00 00 80 3f 00 00 80 3f 00 00 80 3f 00 00 80 3f
       1.0 1.0 1.0 1.0
0001f0 00 00 80 3f 00 00 80 3f 00 00 80 3f 00 00 80 3f
       1.0 1.0 1.0 1.0

fc2.weight f4 [128, 2]
000000 ec fd f8 3c 7e 7d 80 3d 20 b9 c4 3d 82 bf be bc
       0.030394517 0.06273936 0.09605622 -0.023284677
000010 98 b0 b8 bd 3d bc a2 3d ee a2 03 be 7c d2 b8 bc
       -0.090180576 0.0794606 -0.12855121 -0.022561304
000020 cd a9 14 3e 06 2a 12 bd 49 c4 88 3c a2 09 eb 3c
       0.14517899 -0.035684608 0.016695159 0.028691117
000030 13 d1 90 bd 7e dc c0 3d c4 d9 17 bd aa 86 dc bd
       -0.07071128 0.094170555 -0.03707291 -0.10767873
000040 f3 a0 a5 3d c6 38 c9 3d 65 85 70 bd 4a 02 5e bc
       0.08087339 0.09825282 -0.058720965 -0.01355035
000050 95 c3 fe bd f8 1a a8 3d a8 02 5e bd ca ca 4c 3c
       -0.12439648 0.08208269 -0.054201752 0.012499521
000060 c7 dc 8d 3d 65 a6 3d bd 45 bc 00 3d 9c df ab bd
       0.069268756 -0.046301264 0.031429548 -0.083922595
000070 d6 7b c1 3d 42 5e c9 3c 0d 16 e4 3c 15 53 c7 39
       0.09447448 0.024581078 0.027842546 0.0003801814
000080 18 f5 9a bd dd 04 89 bd ff 4a 5a 3c ec b8 93 3d
       -0.07566279 -0.06690381 0.0133235445 0.072130054
000090 50 e2 23 3c 9c 88 35 3d f6 6c 54 bd bf da d9 bc
       0.010002688 0.044319734 -0.051861726 -0.026593564
0000a0 88 bf 8a 3d 66 4a 1c 3d 9a 8d aa bb f3 64 33 3e
       0.06774813 0.03815689 -0.0052048685 0.17518978
0000b0 71 50 1f 3e 99 cd 95 bd 11 96 40 3d ee d1 a2 bd
       0.1555803 -0.07314605 0.047018114 -0.07950197
0000c0 48 ab 00 3d 4c 0e 4b 3c 4b 70 72 3d 9a ee e0 3c
       0.031413347 0.012393545 0.059189122 0.027457524
0000d0 bb a9 f1 bc a7 54 c6 3d 4c 5f 17 3d b9 fc ac bd
       -0.02949988 0.09684115 0.036956117 -0.084466405
0000e0 a2 15 8e 3c 03 ef e8 bd 1b f5 7c bc a9 89 5a 3d
       0.0173443 -0.11373713 -0.015439297 0.05335394
0000f0 e9 0c 8a 3d 49 d3 32 3d 3d 2a ee 3d 59 35 d1 3c
       0.06740744 0.04365853 0.1162915 0.025538133
000100 38 6e 2b 3d 26 e0 cf 3d d7 cc 8f bd f1 a9 0e 3c
       0.04185316 0.10150175 -0.07021492 0.008707509
000110 94 d2 df 3d 61 fb bb bc 30 39 70 bd d0 d3 21 be
       0.109288365 -0.022947015 -0.05864829 -0.15803456
000120 d1 f9 a3 3d 9d 63 4e bd c6 05 2f bd 44 96 09 3d
       0.08006633 -0.050387967 -0.042730115 0.03359057
000130 ae 83 92 bb dc 60 82 3d b9 7e 71 3c 26 4d ec ba
       -0.004471264 0.06366131 0.014739686 -0.0018028363
000140 e2 1a ad 3c 56 96 b2 3c 29 6c de bc 14 fa b5 3d
       0.021130983 0.021800201 -0.027151184 0.08885589
000150 67 ce 9a bc 5a 43 d7 bd 96 35 86 bd 1a 08 58 be
       -0.018897248 -0.10510893 -0.065531895 -0.2109684
000160 44 01 13 3e c0 b3 04 be 4f b7 1b bc e6 b0 a0 bd
       0.14355952 -0.12959194 -0.009504153 -0.07846241
000170 28 1f 1f be bf ce 2a be c4 99 ba bd 30 c4 3a bd
       -0.15539229 -0.1668043 -0.0911136 -0.045597255
000180 e9 61 6c 3d 1a d0 c8 bd d2 e3 72 bd 7a 69 ab 3d
       0.057710562 -0.09805317 -0.059299298 0.083697274
000190 1e d4 e0 bd 58 47 91 3d b7 38 e4 bb ac c5 0b be
       -0.10977958 0.07093686 -0.0069647687 -0.13649625
0001a0 80 fb 38 bd 37 ed 08 bc 3e a7 dc 3c 69 f3 08 be
       -0.045161724 -0.008357338 0.026935216 -0.13374104
0001b0 83 a7 1b 3d ed 41 f0 bb 97 2d cc bb ae ba c0 bd
       0.03800155 -0.0073320777 -0.0062310207 -0.09410606
0001c0 1d dd c2 bb cb cf 0d 3e 18 44 13 be ab f0 b4 bd
       -0.005946769 0.13848798 -0.14381444 -0.08834966
0001d0 33 68 f1 bc bb 54 4c bd f7 fd aa bd b8 ae 23 bd
       -0.029468631 -0.049885493 -0.08349221 -0.039961547
0001e0 5c 9b 9f bd b5 d7 d9 bc 97 e3 a2 3d d0 48 c9 bd
       -0.07793304 -0.026592115 0.079535656 -0.09828341
0001f0 dd ba a6 bd f0 10 0b bd 21 f3 54 3d 06 50 ba 3c
       -0.0814111 -0.0339517 0.05198968 0.022743236
000200 a9 1f d9 bd 5f af 4a 3d 0b 89 fb 3c 9e 12 59 3d
       -0.10601742 0.049483653 0.030704996 0.05299627
000210 9e 6f 0a be e5 2a 84 bd 07 2b 7c 3c 66 eb 37 bc
       -0.13519141 -0.06453494 0.015391118 -0.011225557
000220 d3 6d 95 3d 51 9f 0a 3d 53 65 fd 3c a8 8b ad bd
       0.07296338 0.033843342 0.030932104 -0.08473903
000230 a4 a8 95 3c 99 3b 3f be 3f e1 03 bb 93 2f 4d 3e
       0.01826889 -0.18675078 -0.002012327 0.2003768
000240 57 e9 86 3d ea 55 ae bd b6 a4 90 be e5 7a b5 bd
       0.06587475 -0.085124806 -0.28250664 -0.08861331
000250 1d f2 a7 3d d7 a1 31 bc 4c de 52 3e 8d d0 03 be
       0.08200476 -0.010841808 0.20592612 -0.12872525
000260 79 07 1e 3e 49 b6 22 3e 07 93 75 bc 9f 7c 65 3d
       0.15432538 0.15889849 -0.014988667 0.05602705
000270 5e bf ad 3c 06 35 3f 3e af 75 27 3d 35 94 f2 3b
       0.021209415 0.1867257 0.040883716 0.0074029216
000280 81 15 c2 3d a9 10 40 bd df aa af bd 27 ce 99 bd
       0.09476758 -0.04689089 -0.08577513 -0.075100236
000290 18 0e f4 bd 1b 8d 51 3d 4c 52 46 bd 23 bd da bd
       -0.11916751 0.05115996 -0.04841833 -0.10680606
0002a0 2c 15 5c bd e5 55 43 3d 9e c7 46 bd ae 31 fb bd
       -0.05373113 0.047689337 -0.048530214 -0.12265335
0002b0 55 19 c1 3d 63 a3 09 3e fc 84 e0 bc 72 8b 8e 3d
       0.0942866 0.13441233 -0.027407162 0.06960191
0002c0 e5 11 83 be 97 8a 28 3c f5 ac 51 be 75 b6 15 3d
       -0.2559959 0.010286949 -0.20476134 0.036550958
0002d0 2f 80 d5 3c 93 32 a8 3d 79 d9 6a bd e4 5a 92 bd
       0.0260621 0.08212771 -0.057336304 -0.07146242
0002e0 94 00 1d 3e ac 08 f8 bd 60 18 b2 3d 51 3e 7e be
       0.15332252 -0.12111029 0.086960554 -0.2482846
0002f0 d3 23 98 bc ca 6b 72 bc 4e f9 bb 3d ff 40 d5 3d
       -0.01857177 -0.014796207 0.091784105 0.10412788
000300 47 b9 03 3e c8 e8 03 3d b4 e1 1a 3b fe 29 65 bd
       0.12863646 0.03220442 0.0023633065 -0.05594825
000310 d6 02 fb bd 92 62 2e 3c 77 72 57 3d fc 31 2f bd
       -0.122564 0.010643618 0.052599397 -0.04277228
000320 10 de da 3d 5c c2 e7 3d ad 13 43 bd 0f b3 e4 3d
       0.10686886 0.11316368 -0.047626186 0.11166965
000330 71 46 11 3d 23 55 19 bd ff d6 1d 3d 83 36 1c 3e
       0.03546757 -0.03743471 0.038535114 0.1525517
000340 9b ae 41 3d c4 86 49 3d 13 58 35 be 94 fe e7 3d
       0.047285657 0.04920079 -0.17709379 0.11327854
000350 fb bd 8e 3e 5f d6 28 3d 51 68 46 3c c3 e7 af 3d
       0.2787932 0.041220065 0.012109832 0.08589127
000360 dd 38 5a 3d 4d 69 b9 3d ea 61 54 3d 32 c5 b9 3d
       0.053276885 0.09053288 0.05185119 0.09070815
000370 f7 48 a2 3a c5 9b 52 3d 2d 59 06 3d 35 0d 1b 3d
       0.0012381364 0.051418085 0.03279989 0.037854392
000380 0e 39 6e 3d f6 5d 0b 3e d2 fe c9 bd 81 43 0d 3d
       0.05815988 0.13610062 -0.09863056 0.034488205
000390 28 9c 60 3b 7d cb cf 3c 0b 09 05 be 2e 7f 46 bd
       0.0034272764 0.025365585 -0.12991731 -0.04846113
0003a0 56 8f 86 3d 2e 77 66 be bf 08 f8 3d 15 fa dd bd
       0.06570308 -0.22506401 0.12111043 -0.10838715
0003b0 c2 c8 a4 3d 77 6f bd 3d 77 09 bd 3c 20 ef c0 3d
       0.08046104 0.09249776 0.023075802 0.094206095
0003c0 c9 38 d8 3d 4d 8b 24 3d 84 d7 a5 bd d5 d0 a1 bd
       0.10557706 0.04017191 -0.08097747 -0.0790116
0003d0 ca 96 5f 3d 2c d2 9e bd 20 5f 92 3d ef 04 96 bd
       0.054587163 -0.07754931 0.0714705 -0.0732516
0003e0 0a 55 7e 3c ed f4 87 3c 39 b5 60 3c a8 df 40 bd
       0.015523205 0.016596282 0.013715082 -0.047088295
0003f0 d9 1c f1 3d 82 6f b7 bd 5d 73 85 bd 4d 6c 09 be
       0.117730804 -0.08956815 -0.065161444 -0.1342022

actor.linears.0.weight f4 [128, 384]
000000 4e d9 05 bd 8b a2 fb bc 8a 64 0e bc 98 3b 9c bd
       -0.03267794 -0.030717155 -0.008690963 -0.07628554
000010 18 8d 7b bb e3 24 c8 3c fd e9 f7 3c ab 6e 01 3d
       -0.003838366 0.024431651 0.030262941 0.03159968
000020 c2 bc 36 bc ae 80 22 bc 05 d6 cc bb 8e c3 1f 3c
       -0.011153402 -0.009918375 -0.006251099 0.009751214
000030 2d b1 2b bd 86 07 22 bc 6b 3e 22 bd bf cf 30 bd
       -0.041917015 -0.009889489 -0.039610308 -0.043166872
000040 86 e0 9a bb 82 e1 c4 3d ae 41 67 bd ba 7c a7 bd
       -0.0047264723 0.09613325 -0.05645912 -0.081780866
000050 c2 07 21 3c fe 2c 53 3b 51 b6 04 bd b8 73 14 bd
       0.00982851 0.0032222862 -0.032400433 -0.03624317
000060 15 b4 98 3d 6a 86 ab 3d 73 02 7d bd a0 42 c5 bb
       0.07456223 0.08375247 -0.061769914 -0.006019905
000070 fe 62 6e 3d e5 7e 58 3b 1f 26 4a 3c 0f ac ce bd
       0.058199875 0.003303462 0.01233819 -0.10091411
000080 6f a0 21 bc c4 28 03 3d 67 f7 20 bd 18 d1 1b 3c
       -0.0098649105 0.0320213 -0.03929844 0.009510301
000090 03 7f 2b bd 21 8d 4f bd cd 5c a4 3c 5a d6 16 3d
       -0.041869175 -0.0506717 0.020063782 0.036825515
0000a0 d2 56 db bc f1 58 f5 bb 2c ff 20 3d 9a db 81 3b
       -0.026774798 -0.0074874093 0.03930585 0.003962946
0000b0 29 76 ec bd 83 2b a9 bc 60 45 de 3c d6 d7 6b bc
       -0.11545975 -0.02065063 0.02713269 -0.014394721
0000c0 18 94 1b bd e8 fe 31 3d f9 37 1a bd 71 ae d5 bd
       -0.03798303 0.04345599 -0.037651036 -0.10433663
0000d0 6b f5 0d 3c cf cd ed bc c7 fa c2 ba 20 c1 28 3d
       0.008664469 -0.029028801 -0.0014875763 0.041199803
0000e0 4f ac 07 bd f5 23 80 3d 22 22 a1 3c ec e6 43 3d
       -0.03312331 0.06256858 0.019669596 0.047827646
0000f0 42 50 2d bd 51 19 59 3d bf 1b 54 bc a8 b2 75 3c
       -0.042312868 0.05300266 -0.012946068 0.014996208
000100 3b 0c b7 3c 8c 32 0b 3e ee 9e 70 3d a7 d1 68 bd
       0.0223447 0.13593501 0.058745317 -0.056840565
000110 12 f7 95 bd 3e 73 17 bb 23 4a ae 3c 01 1d 9e 3b
       -0.073225155 -0.0023109461 0.021275586 0.004825235
000120 2a f7 52 bd 0b 77 96 bc d0 0d d7 3c 20 f8 ac 3d
       -0.051505245 -0.018367311 0.026251704 0.084457636
000130 c0 14 85 bd 57 b5 e5 3a f8 9c 06 3a ea 02 c6 bb
       -0.064980984 0.0017525357 0.00051350845 -0.006042828
000140 31 e1 66 bc 63 2d 71 bd 34 91 80 3c ce 92 15 bd
       -0.014091776 -0.058881175 0.015694238 -0.036516957
000150 1f d4 b8 bd 34 90 a7 bc 9e 42 82 bd 6d f3 23 bd
       -0.09024834 -0.020454504 -0.063603625 -0.04002707
000160 0c 99 02 bd 5e 25 7f bc 54 fb 32 3d 84 99 fc 3b
       -0.031884238 -0.015572874 0.043696716 0.00770873
000170 00 fd 0f be c7 c9 8c bd 97 7e 4e bc b0 7c 2a bb
       -0.14061356 -0.068744235 -0.012603424 -0.002601426
000180 e2 1f 8e 3c dc 39 a0 3d 87 6f 87 3c 35 e9 c0 bc
       0.017349187 0.07823536 0.016532673 -0.023548702
000190 6b 27 d1 bc 3b 7e 2a be b5 5a 33 bd 73 d3 00 bc
       -0.025531491 -0.16649716 -0.043787677 -0.007862913
0001a0 0e 1d ee 3c d8 41 61 3c 31 96 d6 3d 44 50 b5 bd
       0.029066589 0.0137486085 0.104778655 -0.088532
0001b0 a6 62 d1 bc 5e 84 1b 3c c7 80 88 bd b4 2f cf bd
       -0.025559735 0.009492008 -0.06665187 -0.101165205
0001c0 14 b4 7a 3a da ab e5 3c 19 09 62 bd 40 86 79 3d
       0.0009563577 0.028036047 -0.055184457 0.060919046
0001d0 f4 4c 28 bc 0b 78 3d 3d 02 9d 05 3c ca 64 aa 3c
       -0.010272253 0.04625706 0.008155109 0.020800013
0001e0 49 d3 98 3c 60 41 a4 bd 3a f0 a4 3d a9 41 e5 bd
       0.018655436 -0.08020282 0.08053632 -0.11194164
0001f0 58 ae a7 3c cc 5b bc 3b 36 15 20 3d fc 20 87 3c
       0.020468876 0.0057482477 0.03908273 0.01649522
000200 5c a2 4e bd 21 9a c1 bd ff 08 94 3d 58 ed 1a 3d
       -0.050447807 -0.09453226 0.07228278 0.037824005
000210 f1 98 0f bd c5 a9 41 bd 8c 8a 25 3d 28 5a f3 3c
       -0.035057966 -0.047281045 0.04041533 0.029706076
000220 e5 b6 3a 3d 8e 06 44 bc fc 01 66 bd ec f0 80 bb
       0.045584578 -0.011964453 -0.056154236 -0.00393497
000230 1b 0d f4 3b 06 c0 91 3d 73 f5 74 bd 5e a4 7d 3b
       0.0074478514 0.07116704 -0.05980439 0.0038702707
000240 ee 7f 05 3d 94 d5 71 bd e7 ff 33 bd 17 37 4e bd
       0.032592706 -0.059041575 -0.04394522 -0.050345507
000250 a0 ec 4d bd 21 a6 25 bd e9 b8 24 bd f3 ce f5 bd
       -0.05027449 -0.040441636 -0.040215407 -0.12002363
000260 07 b9 91 3c fe 91 85 bd 90 25 8f ba 63 a4 81 bd
       0.017788423 -0.065219864 -0.0010921229 -0.063301824
000270 76 27 c2 bc 85 9b a7 3d e9 0c d6 3d 20 b0 5c bd
       -0.023700457 0.0818396 0.10451681 -0.053878903
000280 9f bb 63 3d e0 69 c8 bc d5 78 55 3b 48 d9 66 bd
       0.05559885 -0.024464548 0.0032573242 -0.05635956
000290 57 10 05 bd 77 03 29 3d 75 fe 89 3b 92 97 49 bd
       -0.032486286 0.04126307 0.004211242 -0.049216814
0002a0 3b 89 c0 3a 40 bf 0c bc 1d 5b b2 3a 59 1d 45 3d
       0.0014689335 -0.008590519 0.0013607476 0.04812369
0002b0 52 9e 9f 3c 4f cd d0 3d bc 13 c1 3b 60 62 bd 3c
       0.019484673 0.101954095 0.005892245 0.023118198
0002c0 31 cb 65 3d 0f 2c d4 3b 34 d6 03 3d ad 67 12 3c
       0.05610198 0.0064749788 0.032186702 0.008935851
0002d0 af 8f ba bd 0e 1f 5b bd 66 62 6a bc 2e d1 a2 bd
       -0.09109437 -0.053496413 -0.014305687 -0.07950054
0002e0 2f 80 f6 3c 1b 6e 68 bd 26 c1 55 3d a0 45 cf bd
       0.03009042 -0.05674563 0.052186154 -0.10120702
0002f0 4f 31 a1 3c 73 a1 cb 3d b8 f2 b2 3c e2 b3 44 bd
       0.019676832 0.09942903 0.021844253 -0.048023112
000300 ad 33 32 bd 04 57 2e 3d a5 7d df bd 47 33 0b bd
       -0.043506313 0.042563453 -0.10912637 -0.03398445
000310 4c 75 12 bd c0 65 22 bd 25 5a 86 3c 59 ff a7 bd
       -0.035756394 -0.039647818 0.016400406 -0.082030006
000320 d7 02 06 bc 8d 7c e0 bc a3 65 26 3d 64 a2 6c bd
       -0.008179388 -0.02740314 0.040624272 -0.057772055
000330 a0 34 16 bd b6 0e 00 3d 7f 4f 05 3d 45 c5 40 3c
       -0.03667128 0.03126403 0.032546517 0.011765783
000340 4f 37 d4 bc 7c bc 02 ba 50 64 76 3c 4c c9 6e 3c
       -0.02590528 -0.0004987193 0.015038565 0.01457436
000350 b5 d8 ab 3d d0 ec 98 bd f8 74 93 3d 2a 60 13 3d
       0.08390943 -0.074670434 0.072000444 0.03598038
000360 01 87 05 bd b2 19 22 bd 61 34 30 3d 8f 01 1b bd
       -0.032599453 -0.039575286 0.043018702 -0.037843283
000370 48 41 44 3d 3c a4 eb 3b e1 92 cb bd 64 23 cd bc
       0.04791382 0.007191209 -0.09940124 -0.02504129
000380 8d 93 0a 3d d9 f2 b5 bc 51 6e 15 bc 1a 08 20 3e
       0.03383212 -0.022210525 -0.00912054 0.1562809
000390 8b 01 aa 3c 41 a5 8e bd 46 d2 80 3c 93 95 94 3b
       0.020752689 -0.069651134 0.015725266 0.004534432
0003a0 e4 3e 59 3d 22 3a a8 bb c0 b0 e2 bb 08 1e 11 bd
       0.053038493 -0.005133883 -0.006918043 -0.03542903
0003b0 e1 54 7d 3d ef 90 8f 3d 97 bf 04 bb cb 70 f0 bc
       0.061848525 0.07010066 -0.0020255798 -0.029350659
0003c0 05 83 59 bd 70 6d a0 3b 48 d8 5f 3c 5b 2f 26 bd
       -0.053103466 0.0048958585 0.013662405 -0.040572505
0003d0 88 ec fb bb 79 52 88 3d e5 34 91 3d f7 03 59 bd
       -0.007688109 0.066563554 0.07090167 -0.052982297
0003e0 b7 17 2b 3d a9 87 09 bd 04 3b 98 bd d0 79 22 3c
       0.041770663 -0.03357664 -0.07433131 0.009916738
0003f0 d9 d8 9b bc e7 50 22 bd b5 77 3f bd cc ee d2 3c
       -0.0190243 -0.039627936 -0.04674502 0.025748633

actor.linears.0.bias f4 [128]
000000 90 23 e2 3b 0f c3 26 ba 50 ed 0b 3c 8c 51 f5 3b
       0.006901212 -0.00063614635 0.008540466 0.007486528
000010 5a 7a d1 bb 26 13 fa 3b 93 07 5a 3b ce 76 94 bb
       -0.0063927593 0.007631677 0.0033268675 -0.004530764
000020 d1 16 fe 3b 85 b1 13 3a a9 cc 08 3a ac 19 3c bb
       0.007754185 0.00056340575 0.0005218485 -0.0028701825
000030 81 8a 2c bb 29 bd 46 3b 8c ef 67 bb ed e2 de 3b
       -0.0026327672 0.003032515 -0.0035390584 0.006801954
000040 8b 7b d4 3b 1b 56 3f bb e0 bc 46 3a 7f d6 cd b8
       0.006484454 -0.002919561 0.0007581245 -9.815115e-05
000050 70 61 99 3b 30 90 25 bb 7c 8d 0a bc 1a 25 ce 3b
       0.004680805 -0.0025262944 -0.008456584 0.006291044
000060 71 b7 85 bb c3 57 88 3b 42 ff f5 bb f9 3f 3c bb
       -0.004080706 0.0041608526 -0.0075072357 -0.0028724654
000070 6d a2 f8 b8 74 95 21 3b ec 0a e1 bb cb 5f fe 3b
       -0.00011855816 0.0024655731 -0.006867757 0.0077628843
000080 a5 c8 f7 ba 17 7b 78 3b 5c 1a d0 3b 27 05 3a bb
       -0.0018904401 0.0037915164 0.0063507985 -0.0028384419
000090 dd f3 2c bb db af ee bb 2a 35 54 3b bc 87 e9 3a
       -0.002639047 -0.007284147 0.003238032 0.0017816941
0000a0 c2 27 bb 3a ac ce d4 39 c3 2d 63 bb f8 11 d4 3b
       0.0014278817 0.00040589774 -0.0034664727 0.0064718686
0000b0 14 6b 95 3a 05 48 ea 3b 2e 2b a2 3b 8f 56 2b ba
       0.001139971 0.0071496987 0.004948995 -0.00065360306
0000c0 d1 a5 81 3b d9 9d 09 3c 04 32 f3 bb 0f 97 ea 3b
       0.0039565344 0.00839945 -0.007421734 0.007159121
0000d0 b3 f9 bb 3a d7 aa 85 b9 ef 56 00 bc 2d 64 f5 bb
       0.0014341384 -0.00025495022 -0.007833227 -0.0074887485
0000e0 44 af ad bb 78 c9 5f bb 4e af 82 bb a4 00 88 39
       -0.0053004343 -0.0034147184 -0.003988183 0.0002594042
0000f0 5c ec 78 bb f0 e1 94 3b 01 54 cb 3a 6b ab e8 3b
       -0.0037982678 0.0045435354 0.0015512706 0.0071005127
000100 6c 75 e7 3a ba 6e dd bb 58 be ce ba e9 1e 04 3c
       0.0017658896 -0.0067575844 -0.001577328 0.00806401
000110 84 f8 14 bb cf 5f f1 bb 54 a2 de 3a 68 c7 f4 bb
       -0.0022731135 -0.0073661576 0.0016985633 -0.00747006
000120 51 03 ed bb f1 55 eb bb ec f8 19 bc b5 63 87 bb
       -0.0072330614 -0.007181876 -0.0093977265 -0.004131759
000130 f3 cf fa 3b 01 44 32 bb 2b e2 68 ba 1b 15 34 3b
       0.007654184 -0.0027201178 -0.00088837993 0.00274784
000140 75 f4 97 3b 6b 24 c7 ba 4d fe ca 3b 93 4a 04 3b
       0.004637296 -0.0015193349 0.006194866 0.0020186051
000150 2b ea e7 bb 9a db 85 bb 2f 44 eb bb 55 66 07 3c
       -0.0070774755 -0.0040850164 -0.007179759 0.008264144
000160 20 b9 c0 bb 98 8c c4 3a 28 84 e1 3b 79 de 43 3b
       -0.0058814436 0.0014995513 0.0068822093 0.0029887243
000170 c8 1c e8 bb 15 44 00 3c 2c 12 2e bb f8 c0 fe bb
       -0.007083509 0.007828732 -0.0026561124 -0.0077744685
000180 d0 d4 d7 ba 31 d0 d4 3b 39 ff 81 bb 4d 0b cc b9
       -0.0016466621 0.006494545 -0.0039671925 -0.00038918332
000190 7b e0 bb 3a a3 d8 2b 3b ba b4 61 ba 92 97 d0 bb
       0.0014333868 0.0026221655 -0.0008609999 -0.006365725
0001a0 54 f2 57 3b 81 7d 0e 3b 8b de 6f 3b e6 e0 2d 3a
       0.0032950835 0.0021742287 0.0036601152 0.0006632939
0001b0 91 5d d2 3b 59 82 d4 39 25 fe f9 ba 88 92 15 bb
       0.0064198454 0.00040532908 -0.0019072933 -0.0022822935
0001c0 b4 cd a9 bb 14 b1 b9 b9 56 fa 97 ba 2e 7f 36 bb
       -0.0051819924 -0.00035417883 -0.0011594992 -0.00278468
0001d0 96 a8 e5 bb 39 d0 12 bc 94 e1 79 bb 6e 96 59 39
       -0.0070086224 -0.008960777 -0.003812884 0.00020750772
0001e0 05 c4 3a 3b d5 31 fe bb 2d 91 98 3b 16 e8 f0 bb
       0.0028498184 -0.0077574053 0.004655978 -0.0073518855
0001f0 4c 65 bc bb 52 8e 97 39 2a 9c cf bb 26 be d8 ba
       -0.00574938 0.00028907 -0.006335755 -0.0016536161

actor.linears.1.weight f4 [128, 128]
000000 2f 19 cf 3d c2 04 32 be fe 47 04 be 0c 65 db 3d
       0.10112225 -0.17384627 -0.12918088 0.107126325
000010 57 05 85 bc cc 38 98 3d 9f 0b ec 3d 16 da 0d 3e
       -0.016237898 0.07432708 0.11525654 0.13852724
000020 9d 01 1a 3d d9 fd a5 3d 65 50 0c be 41 a8 23 be
       0.037599195 0.08105058 -0.13702543 -0.15982153
000030 42 04 6d 3d fa 20 c6 3d 25 02 2c be 60 1b 91 bd
       0.05786539 0.096742585 -0.16797693 -0.070852995
000040 e3 39 bf bc 74 84 a6 3c f5 16 9d bb 22 d5 bd bc
       -0.023343032 0.02032683 -0.0047939965 -0.023172919
000050 03 e1 1e 3e 81 5a fe 3c 9b 37 11 be eb ce 9c 3d
       0.15515523 0.031049015 -0.14181368 0.07656654
000060 85 c4 87 3c c6 da 93 b9 6f 21 88 bd 37 fc 38 3a
       0.0165732 -0.00028201024 -0.06647002 0.0007056626
000070 8b 4a c7 bc 7e 29 9f 3b db fd e7 bd fc 75 b6 3d
       -0.024327537 0.004857241 -0.11327716 0.089092225
000080 27 b7 18 be 96 79 72 3e 77 2e cd 3c 86 c5 8f bb
       -0.14913617 0.23679194 0.02504657 -0.0043875603
000090 07 40 0f 3e 3a aa 04 3d 51 f0 e9 3d 74 7d b8 3d
       0.13989268 0.032388903 0.1142279 0.09008303
0000a0 c5 15 e2 3d 8b 79 de 3c a7 e1 b7 bd c3 2b a4 bc
       0.110393085 0.027157566 -0.08978587 -0.020040398
0000b0 bd bf b0 bd e2 9f 98 bd b6 0a 2d 3d 1f fb 92 bc
       -0.08630321 -0.0745237 0.042246543 -0.01794201
0000c0 e3 59 85 3c 9d 5b 13 3e 9d fe 1f be 55 55 61 bc
       0.016278213 0.14390416 -0.15624471 -0.013753255
0000d0 0f 2b df b8 fd c2 3f bd ed 93 1c 3e ac 3f 37 3e
       -0.00010641489 -0.046816815 0.15290804 0.17895383
0000e0 19 13 d9 ba be 0e 35 3e 6d de 61 bc df a3 88 3d
       -0.0016561478 0.17681405 -0.013785941 0.06671881
0000f0 d5 4d c7 3d d7 8b 7a bb e1 22 39 3d 1c ce 33 bd
       0.09731642 -0.0038230324 0.04519928 -0.043897733
000100 23 75 65 3c 10 ff 90 3d b4 13 9e bd 08 e5 79 bc
       0.014004978 0.07079899 -0.07718602 -0.015252359
000110 e1 2e 56 be 1e 52 c9 3c 02 a0 53 3d f4 5e 2f bd
       -0.2091632 0.02457529 0.051666267 -0.042815164
000120 4a c4 76 bc 87 81 2d bc f6 f1 27 bd 99 ec 2e bd
       -0.015061447 -0.010589964 -0.041002236 -0.042706106
000130 81 80 81 3c 1d 60 38 3b 3a d1 72 bd 0c 18 03 3a
       0.015808346 0.002813346 -0.059281565 0.00050008367
000140 d6 44 92 bd 6b 1e 6b bb 78 fd 50 3d 4a e4 f4 3d
       -0.07142036 -0.0035876285 0.051022977 0.11957605
000150 75 00 e9 bd dd 16 2a be 18 b4 b3 3d 86 20 a1 3d
       -0.1137704 -0.16610284 0.087745845 0.078675315
000160 19 59 cf bd 1f 1a 53 3d 78 48 c0 3d e7 ce 4f be
       -0.10124416 0.051538583 0.09388822 -0.2029377
000170 d5 27 20 bc ae a5 0f 3e 0a b5 00 3e 02 99 1a bc
       -0.009775122 0.14028046 0.12569061 -0.009435894
000180 c6 69 92 bd 3a 03 10 3d 30 68 48 bd 25 a5 8e bb
       -0.07149081 0.035159327 -0.048927486 -0.004353183
000190 61 4c c2 3c b8 6e c4 3d cf e8 3c bd 97 53 20 bd
       0.02371806 0.095914304 -0.04612046 -0.039142217
0001a0 05 8f 0b be b1 d5 73 bd f3 4c 4d bd ad c4 d6 bd
       -0.13628776 -0.059529964 -0.050122213 -0.10486732
0001b0 20 d4 ea 3d 1d 58 86 bc f7 f3 9e 3c 05 9a 22 bd
       0.11466241 -0.016399438 0.01940344 -0.039697666
0001c0 f9 a6 34 3d 55 80 44 3d ec 78 1c bd 9f 13 fa 3d
       0.04410455 0.04797395 -0.038201258 0.12210774
0001d0 ab 03 2e 3c be 0f f6 bd 29 d6 90 bd f3 d2 0d be
       0.010620992 -0.12014721 -0.07072098 -0.13850002
0001e0 0e 90 3f 3d 39 74 3a bd 19 22 c1 bd e9 9e a5 3c
       0.04676824 -0.045520995 -0.09430332 0.020217376
0001f0 ae cf e2 3d 13 6c 07 3e d4 dc 0b bd f6 9a 1d 3b
       0.11074768 0.13224821 -0.034146145 0.0024048663
000200 fe 35 1a 3e 22 cd c1 bd 0f 37 d6 3c ec 3b 96 3d
       0.15059659 -0.09462954 0.0261493 0.07335648
000210 7f fa 02 bd 65 ea 4e bd bd b0 be 3d 23 a7 36 3d
       -0.031977173 -0.050516505 0.09311054 0.044592988
000220 d0 53 78 3d 1d ea 0f be f1 48 b6 bd 70 f5 ec 3d
       0.060626805 -0.14054151 -0.08900631 0.11570251
000230 1c ad d6 3d 30 0d f2 bc 56 90 c1 bd 83 1a fe bd
       0.10482237 -0.029547304 -0.09451358 -0.124074005
000240 80 a4 c2 3d c7 47 b6 3d 41 49 a5 3c e4 6c 0d 3e
       0.09504032 0.08900409 0.020176532 0.1381107
000250 58 49 cc bc 0c 93 fc bd ac 30 83 bd 81 dc 3e bd
       -0.024937317 -0.123327345 -0.06405768 -0.046597008
000260 cb cd 03 3d 94 4b c8 bd 9a bf e6 bd 1e 1b ac bd
       0.03217868 -0.097800404 -0.11267014 -0.0840361
000270 79 53 a4 3b 9b 8a 21 3e ee c2 c7 3c 7a 03 41 3d
       0.0050148335 0.1577553 0.024384942 0.047122456
000280 fa 83 0f be 72 15 1b 3d 81 f6 93 bc 4b 49 3f be
       -0.14015189 0.03786225 -0.018061878 -0.18680303
000290 70 21 36 3d cc f9 8e bd f5 d7 61 3d cd 45 e9 bd
       0.044465482 -0.06981239 0.055137593 -0.113902666
0002a0 56 79 a1 bd a9 a2 d4 3d fa a3 02 3e 0d 9a c4 bd
       -0.07884471 0.103825875 0.12757865 -0.09599695
0002b0 e0 86 95 3d d3 72 ee 3d aa 97 ce bd d0 b7 a4 bd
       0.07301116 0.11642995 -0.100875214 -0.08042872
0002c0 13 b2 86 bd 05 bc b1 bc 3c 4d 67 bd 5e bf 2c 3e
       -0.06576934 -0.0216961 -0.05647014 0.16869876
0002d0 75 69 d6 bd ed f1 21 3d c9 3e 08 3e 81 b9 d8 bd
       -0.10469333 0.03953736 0.133052 -0.10582257
0002e0 58 1f 08 3e 34 50 0f 3c 1b 00 8c bc bc f6 82 bc
       0.13293207 0.008747149 -0.017089894 -0.015986793
0002f0 60 83 a8 bd 9f 30 c2 3d 81 24 81 bc b5 93 23 bd
       -0.08228183 0.0948193 -0.015764477 -0.039935786
000300 c6 5e 92 3d ae 10 6a 3d e4 6e 72 3d 3c 3e 28 bc
       0.07146983 0.057144813 0.059187785 -0.010268744
000310 ed d3 77 3c 5d 5c 59 3d 00 b2 3c bc df 0d 01 be
       0.015126211 0.0530666 -0.011517048 -0.12602948
000320 64 c8 ab bd f4 00 d4 3d bd db 1d 3e 06 d2 d9 3c
       -0.08387831 0.10351744 0.15415855 0.026589405
000330 12 72 91 3d 2d 91 7a 3d 95 ff dc bd db 98 d3 bd
       0.07101835 0.061173607 -0.10790936 -0.10331889
000340 00 65 79 bb e9 11 ae 3d 38 65 0f 3e 4c 68 33 be
       -0.0038054585 0.0849951 0.14003456 -0.17520255
000350 b8 b6 04 bd 62 3f ed 3d 40 82 af bc d2 f9 3c bc
       -0.032400817 0.11584355 -0.021424413 -0.011534171
000360 ea 3d 59 3d fb 6c 29 3e 2f 28 d9 3d 76 17 ea 3c
       0.05303756 0.16545479 0.106033675 0.02857564
000370 e0 ed 30 3d 89 3f 3c 3e e6 89 07 bd 04 b1 97 3d
       0.043195605 0.18383612 -0.033090495 0.0740681
000380 42 24 b7 3d a5 4f ba bd ad d5 11 bd 9b 6b a6 bd
       0.089424625 -0.09097222 -0.035604168 -0.08125993
000390 55 4d d6 39 dd e7 20 be d5 7b bf bc 18 a7 62 3d
       0.00040874878 -0.15713449 -0.023374477 0.055335134
0003a0 22 18 17 3e 22 e3 c1 bd 92 c9 9c bd 88 58 44 bc
       0.147553 -0.0946715 -0.07655634 -0.011983998
0003b0 cc 7a 35 3e 97 c7 7e 39 c3 32 88 3d d3 29 a3 3d
       0.17722625 0.0002429768 0.06650307 0.07966962
0003c0 76 47 a6 3d a5 c9 8f bd 17 b3 26 3d 55 ed 13 3d
       0.08119099 -0.070208825 0.040698137 0.03611501
0003d0 75 7a 6d bb 03 2d b6 3d 74 13 62 3d 90 87 72 3c
       -0.003623632 0.08895304 0.055194333 0.014802828
0003e0 10 d9 ea 3d e8 e6 27 3e aa c1 94 3d b0 c3 99 bd
       0.11467183 0.16396677 0.07263501 -0.075080276
0003f0 bb 60 9c bd a2 81 05 bd ba 7c b8 3c 3b 8d 1f 3d
       -0.076356374 -0.03259433 0.022520412 0.038953047
