DRL coding/saved_network/FJSP_J15M15/100_39/policy_job.pth (torch, 648359 bytes, 53 tensors)

_input f4 [128]
0.84885633 0.8318431 0.36162302 -0.7516638 -0.5183198 -0.12816164 0.033267703 -0.32574156
-0.99142027 -0.6384957 -0.7191886 -0.7843059 -0.012268261 0.99469507 0.5139111 -0.88093144
-0.348669 -0.29813305 0.3568943 -0.6617087 0.8556743 -0.6436864 -0.7280575 -0.6780272
0.8420458 0.8766549 -0.7965094 -0.5403775 0.47746003 -0.13984074 -0.99505496 0.49657574
-0.117654145 0.9632555 0.340607 0.62922275 0.6697504 -0.12555815 -0.9202866 0.6584228
0.60069644 -0.35875723 0.7156776 0.08115726 -0.30410406 -0.7588385 -0.0746462 -0.0049324627
0.71399015 0.63996595 0.34066898 0.100683145 -0.90729725 -0.862053 0.95166385 -0.71447134
0.31526452 0.2010644 0.31034032 0.29088196 0.15498346 -0.61261195 0.32389632 0.17398053
-0.8194705 0.2030268 0.26354146 -0.75636715 0.61427236 0.26837775 0.85900503 0.1600145
-0.45255613 -0.034589265 0.6701497 0.073021725 -0.36775634 0.6027648 0.9692264 0.046766274
0.73387736 -0.5772894 0.53163147 0.024271177 -0.35057515 0.11564166 -0.3816729 0.275614
0.38964078 0.39842102 0.16458313 -0.20451234 0.70920044 -0.45344165 -0.8672479 -0.20406559
-0.71077305 -0.818985 -0.35976243 -0.13522682 -0.5103403 0.5125982 0.19749479 0.45428428
-0.49521014 0.6617117 -0.21284297 -0.03004072 -0.9888576 -0.9574083 -0.51279384 -0.02540368
0.38431165 -0.5662738 -0.92906207 0.62674856 0.96580917 0.77664226 0.34084135 0.7407872
0.16606246 -0.0048528486 0.9134765 0.36039063 -0.17324935 0.8342197 0.36304423 0.25453672
00000000: a64e 593f abf3 543f a726 b93e 0a6d 40bf
00000010: 9bb0 04bf ce3c 03be b743 083d 99c7 a6be
00000020: b8cd 7dbf 7474 23bf be1c 38bf 45c8 48bf
00000030: d100 49bc 56a4 7e3f ae8f 033f b984 61bf
00000040: be84 b2be e5a4 98be daba b63e be65 29bf
00000050: 790d 5b3f a2c8 24bf fa61 3abf 3193 2dbf
00000060: 5090 573f 756c 603f 0ae8 4bbf 2e56 0abf
00000070: a475 f43e 6932 0fbe ecbb 7ebf 2d3f fe3e
00000080: a8f4 f0bd ea97 763f 0a64 ae3e be14 213f
00000090: c374 2b3f 5192 00be e797 6bbf 668e 283f
000000a0: 3ec7 193f 07af b7be a636 373f c735 a63d
000000b0: 87b3 9bbe 3d43 42bf 1be0 98bd 7fa0 a1bb
000000c0: 0fc8 363f cfd4 233f 2a6c ae3e f732 ce3d
000000d0: a244 68bf 81af 5cbf 3ea0 733f 98e7 36bf
000000e0: 5a6a a13e d3e3 4d3e ede4 9e3e 7bee 943e
000000f0: fcb3 1e3e 23d4 1cbf bdd5 a53e f427 323e
00000100: d2c8 51bf 42e6 4f3e e8ee 863e 47a1 41bf
00000110: f440 1d3f cf68 893e c1e7 5b3f d7da 233e
00000120: 70b5 e7be 79ad 0dbd ee8e 2b3f 6a8c 953d
00000130: 8f4a bcbe cb4e 1a3f 391f 783f fe8d 3f3d
00000140: 63df 3b3f 3dc9 13bf 0019 083f 59d4 c63c
00000150: 967e b3be 89d5 ec3d a16a c3be 471d 8d3e
00000160: ff7e c73e d7fd cb3e 7b88 283e af6b 51be
00000170: 298e 353f 8129 e8be f503 5ebf 92f6 50be
00000180: 39f5 35bf 00a9 51bf c832 b8be e678 0abe
00000190: a9a5 02bf a339 033f 133c 4a3e f397 e83e
000001a0: 2f8c fdbe f065 293f 82f3 59be f517 f6bc
000001b0: c625 7dbf b618 75bf 7546 03bf 611b d0bc
000001c0: 7fc4 c43e 52f7 10bf 03d7 6dbf 9872 203f
000001d0: 453f 773f 07d2 463f c282 ae3e 3ba4 3d3f
000001e0: 470c 2a3e a504 9fbb 99d9 693f 1f85 b83e
000001f0: 4768 31be 6c8f 553f efe0 b93e a352 823e

bn.weight f4 [2]
1.0 1.0
00000000: 0000 803f 0000 803f

bn.bias f4 [2]
0.0 0.0
00000000: 0000 0000 0000 0000

bn.running_mean f4 [2]
0.0 0.0
00000000: 0000 0000 0000 0000

bn.running_var f4 [2]
1.0 1.0
00000000: 0000 803f 0000 803f

encoder.feature_extract.mlps.0.linears.0.weight f4 [128, 2]
-0.024714561 -0.06678224 0.12989731 -0.03612825 -0.055600435 0.028336287 -0.0021629438 -0.07291786
0.07151094 0.0342827 -0.05279669 -0.100944676 0.12262742 -0.055827968 -0.06286498 0.118909076
0.05885248 0.010099736 -0.034430414 -0.07435267 0.12256168 0.0217134 0.040659726 -0.056935504
-0.07545791 0.12075761 0.013460936 0.06466665 0.09531457 0.122321494 0.058598045 0.065766074
0.017350791 -0.038153574 0.0032370982 0.14252536 0.009181416 0.016445227 -0.06343964 -0.01996164
-0.07084068 0.08643566 0.019668275 0.10181352 -0.11810062 0.069374785 0.09374622 0.037388768
-0.016883882 0.15747485 0.12726538 0.022847809 0.028699094 -0.051271826 -0.05409645 0.15898906
-0.035220504 0.099508874 0.01448306 0.06720129 -0.043952815 0.011837488 -0.03440995 0.10385964
-0.08604518 -0.004908647 0.16106832 0.064153455 0.058446467 -0.030534409 -0.05440129 -0.0046416773
-0.068422824 0.09165961 0.023598224 0.09434207 -0.020098047 0.10828538 -0.014972667 -0.15296167
0.01822551 0.06583312 -0.017218318 0.012361009 0.12337304 -0.05589175 -0.06978576 -0.07235439
-0.059802134 0.07862553 0.069031835 -0.117405064 -0.0635549 -0.06436883 0.12391256 0.18490714
-0.025068166 -0.2439361 -0.020791832 -0.050183028 -0.10504381 -0.14703122 0.10862798 -0.015747752
0.06443014 -0.21797128 0.10849183 -0.19730748 0.09097806 0.077877626 0.0723462 0.0037558072
-0.06853829 -0.036028687 0.06090832 0.0062217494 -0.19056454 -0.011351828 0.008738876 -0.05937311
0.12066181 0.11496993 0.048992462 0.07998049 0.012640131 -0.055869363 0.1715605 0.03896582
0.031409405 0.093551606 -0.11604445 -0.083600864 -0.018309943 0.14078762 -0.022198439 0.04601368
-0.0740467 -0.080848895 0.011177549 -0.106060594 0.1419283 0.035535462 -0.029389707 -0.08866756
0.07591935 0.111545496 -0.0144804865 -0.018443432 0.15853906 0.05694644 -0.014971739 0.01198436
0.19942325 0.025558298 0.15047933 -0.014444032 0.12084935 0.03398691 -0.077474326 0.06468606
0.083839044 0.15004466 0.015074326 0.008367328 0.16553393 -0.07761411 -0.11234269 -0.06737755
-0.038313422 -0.061638147 0.11972185 0.023990564 -0.10793416 0.024458311 -0.038903743 -0.047302235
-0.08249128 -0.05439329 0.05664811 -0.04001522 -0.07909154 0.1696835 -0.120744824 0.22758202
-0.06969949 0.08033782 0.1023222 0.006380126 0.12095484 -0.12970968 0.02333236 -0.10351696
-0.009215901 -0.05220912 0.023331262 0.066599004 0.08579382 0.016618455 0.03930055 0.252057
0.13751172 -0.07835721 -0.13819233 -0.04961435 -0.090842985 -0.09174897 -0.083395995 0.06438531
-0.122461 0.0509809 -0.043576475 -0.039585393 0.10971633 -0.10496562 -0.11982135 0.0020594136
-0.22792836 0.09086752 0.10140559 0.09123656 0.120083414 0.099958 0.057013173 -0.009341037
0.18041159 -0.015389677 0.10097322 0.028184073 0.01276881 0.002829677 -0.13603204 -0.013677559
0.015137144 -0.009556362 0.04683123 0.18578875 -0.04566673 0.05958255 -0.06288758 -0.09508721
0.10626922 0.0019394973 0.15736265 -0.12398052 -0.011871926 -0.05479272 -0.011258698 -0.039788567
0.08735075 0.035722952 -0.080235764 0.10630205 0.05721563 0.08383777 0.053735763 0.07052525
00000000: 3176 cabc 21c5 88bd cd03 053e 37fb 13bd
00000010: 48bd 63bd 8021 e83c 2dc0 0dbb f555 95bd
00000020: 5474 923d 046c 0c3d 5841 58bd 15bc cebd
00000030: 1624 fb3d deab 64bd 5bbf 80bd 9a86 f33d
00000040: 4c0f 713d 5d79 253c e806 0dbd 3646 98bd
00000050: 9e01 fb3d 4de0 b13c d08a 263d 3435 69bd
00000060: ad89 9abd c44f f73d 428b 5c3c f36f 843d
00000070: 4934 c33d b183 fa3d 8104 703d 5db0 863d
00000080: 3f23 8e3c ec46 1cbd 7f25 543b 2bf2 113e
00000090: a66d 163c 24b8 863c a4ec 81bd 9886 a3bc
000000a0: eb14 91bd 2e05 b13d 5d1f a13c 9b83 d03d
000000b0: bdde f1bd 5e14 8e3d 05fe bf3d f724 193d
000000c0: 1150 8abc 1641 213e db51 023e 542b bb3c
000000d0: 5d1a eb3c 6802 52bd 3d94 5dbd 07ce 223e
000000e0: 6043 10bd 4fcb cb3d 5b4a 6d3c d4a0 893d
000000f0: de07 34bd 06f2 413c 73f1 0cbd 5db4 d43d
00000100: 7538 b0bd b7d8 a0bb 18ef 243e e362 833d
00000110: 9065 6f3d 4c23 fabc e3d3 5ebd 3619 98bb
00000120: 4421 8cbd 09b8 bb3d 1051 c13c 6a36 c13d
00000130: a9a4 a4bc bac4 dd3d eb4f 75bc fca1 1cbe
00000140: aa4d 953c 84d3 863d 6e0d 8dbc d485 4a3c
00000150: 01ab fc3d bfee 64bd d6eb 8ebd 8a2e 94bd
00000160: 15f3 74bd 6c06 a13d 9060 8d3d 1172 f0bd
00000170: 1229 82bd ced3 83bd dec5 fd3d 4c58 3d3e
00000180: c15b cdbc 63ca 79be a253 aabc b88c 4dbd
00000190: 3621 d7bd 5a8f 16be 5978 de3d 6e01 81bc
000001a0: f3f3 833d dd33 5fbe f730 de3d f90a 4abe
000001b0: b552 ba3d 4e7e 9f3d 3f2a 943d fd23 763b
000001c0: ce5d 8cbd d192 13bd 017b 793d d1df cb3b
000001d0: 5a23 43be 05fd 39bc 812d 0f3c 3831 73bd
000001e0: 8a1d f73d 5b75 eb3d 52ac 483d d0cc a33d
000001f0: 8d18 4f3c 46d7 64bd 8ead 2f3e a09a 1f3d
00000200: 26a7 003d fc97 bf3d b6a8 edbd ee36 abbd
00000210: bcfe 95bc a12a 103e 80d9 b5bc d778 3c3d
00000220: cca5 97bd 1b94 a5bd 0a22 373c 4c36 d9bd
00000230: a755 113e a28d 113d afc2 f0bc 5697 b5bd
00000240: 9b7b 9b3d f771 e43d 903f 6dbc ae16 97bc
00000250: 1058 223e ac40 693d 064c 75bc 0d5a 443c
00000260: 9c35 4c3e a35f d13c 4117 1a3e a9a6 6cbc
00000270: dd7f f73d dc35 0b3d dcaa 9ebd 207a 843d
00000280: ceb3 ab3d 4fa5 193e 4efa 763c 1e17 093c
00000290: ba81 293e 26f4 9ebd ed13 e6bd 3efd 89bd
000002a0: 89ee 1cbd 4878 7cbd bb30 f53d dc87 c43c
000002b0: 960c ddbd cc5c c83c 8859 1fbd fdbf 41bd
000002c0: 30f1 a8bd 80cb 5ebd d907 683d 00e7 23bd
000002d0: bffa a1bd 83c1 2d3e 1049 f7bd 430b 693e
000002e0: 9bbe 8ebd 2888 a43d 4d8e d13d 6010 d13b
000002f0: 2cb7 f73d 9dd2 04be 8123 bf3c b300 d4bd
00000300: 4afe 16bc 3bd9 55bd 3421 bf3c 0f65 883d
00000310: acb4 af3d 6d23 883c 9df9 203d 9d0d 813e
00000320: dfcf 0c3e bf79 a0bd 4a82 0dbe 6b38 4bbd
00000330: e30b babd e2e6 bbbd 85cb aabd 72dc 833d
00000340: d5cc fabd 59d1 503d 3f7d 32bd 4b24 22bd
00000350: f5b2 e03d 37f8 d6bd e564 f5bd 3af7 063b
00000360: 0d66 69be c018 ba3d bcad cf3d 3cda ba3d
00000370: 4bee f53d c8b6 cc3d a586 693d 260b 19bc
00000380: d1bd 383e fc24 7cbc 0ccb ce3d 49e2 e63c
00000390: 4534 513c 1a72 393b fc4b 0bbe d717 60bc
000003a0: c901 783c 4a92 1cbc 1bd2 3f3d 683f 3e3e
000003b0: 090d 3bbd d50c 743d 34cb 80bd 15bd c2bd
000003c0: ada3 d93d bb36 fe3a ad23 213e 80e9 fdbd
000003d0: 7782 42bc 556e 60bd 6776 38bc 56f9 22bd
000003e0: f3e4 b23d 3b52 123d a652 a4bd e4b4 d93d
000003f0: f05a 6a3d 23b3 ab3d 081a 5c3d 8b6f 903d

encoder.feature_extract.mlps.0.linears.0.bias f4 [128]
-0.004222171 0.00046548506 -0.0025254842 0.005638686 -0.00059992383 0.004106346 0.004186076 -0.00010245413
-0.003088853 -0.0077482113 -0.00061429746 -0.0017442312 0.00013855135 -0.004690068 -0.0037004403 -0.008875938
-0.004386224 -0.0007986815 -0.0035085916 0.0027533735 0.005179074 -0.0025977003 0.0077536455 -0.005152631
0.0050840885 -0.00045730275 0.002147246 -0.00429542 -0.002231644 -0.0030591323 -0.008209294 0.00039625977
-0.011029615 0.0067241765 -0.00113129 -0.0042914334 -0.0019334194 0.00067440694 -0.0027022278 -0.0028191067
0.0067121857 0.0015561782 -0.0068597645 -0.0009540137 0.0029354014 0.006411985 0.0013499457 0.004240968
0.007871612 -0.006263003 0.004758553 -0.0044723856 0.0017427894 -0.0038694069 -0.003219805 -0.0019923623
-0.0028464983 0.006920111 -0.0022489121 0.008240598 -0.0011320915 0.0013674529 0.0043740156 -0.004198165
-0.004303645 0.007846801 0.00021303174 -0.0012651109 0.0015342569 -0.009700514 0.0026007115 -0.0051097437
-0.0051951143 -0.0061509046 0.0019293842 0.0074801105 0.0023763026 0.006388329 -0.0021851414 0.0043249
0.00069345295 -0.007608169 0.0025567196 0.0022378704 -0.0060670916 -0.004804294 0.0029387088 -0.003042247
0.0048892107 0.0006474982 -0.0032612414 -0.0014233785 -0.00054219726 -0.007578257 0.0017412985 0.0071190447
-0.0057833116 0.008267806 -0.00035347766 0.008647604 0.002280131 0.0025219198 -0.0033700934 -0.0014671489
-0.006670179 -0.0012168658 -0.0013366544 0.0015365237 -0.0064883404 0.0025537002 -0.0002902175 0.007007411
-0.0036468194 0.003804084 0.0028784235 -0.0043321373 0.00027631217 0.005114355 0.005782998 0.0037456092
0.0073461146 0.0018052496 -0.0046011717 -0.0028054162 0.002114349 -0.0042066616 -0.001043516 0.001033169
00000000: 235a 8abb 590c f439 9882 25bb bac4 b83b
00000010: 3544 1dba 878e 863b 5a2b 893b a4dc d6b8
00000020: 5b6e 4abb b5e4 fdbb ce08 21ba b09e e4ba
00000030: 1848 1139 24af 99bb 1683 72bb 626c 11bc
00000040: 50ba 8fbb 9c5e 51ba 66f0 65bb f171 343b
00000050: 39b5 a93b 2e3e 2abb 4b12 fe3b 67d7 a8bb
00000060: 6d98 a63b 23c2 efb9 cfb8 0c3b 98c0 8cbb
00000070: c640 12bb b97b 48bb 4680 06bc 16c1 cf39
00000080: 8fb5 34bc 7b56 dc3b cb47 94ba 279f 8cbb
00000090: ca6a fdba afca 303a dc17 31bb c3c0 38bb
000000a0: e5f1 db3b adf8 cb3a e0c7 e0bb c716 7aba
000000b0: dd5f 403b a11b d23b a9f0 b03a d1f7 8a3b
000000c0: eff7 003c e139 cdbb a3ed 9b3b 178d 92bb
000000d0: 4f6e e43a e095 7dbb 5d03 53bb 4b92 02bb
000000e0: 518c 3abb 19c2 e23b 7c62 13bb 9303 073c
000000f0: b062 94ba 1b3c b33a e753 8f3b c390 89bb
00000100: 9705 8dbb de8f 003c 4661 5f39 14d2 a5ba
00000110: 1e19 c93a e8ee 1ebc b370 2a3b a36f a7bb
00000120: c73b aabb 878d c9bb 64e3 fc3a b71b f53b
00000130: bebb 1b3b 3055 d13b 9734 0fbb e4b7 8d3b
00000140: d7c8 353a f34d f9bb a38e 273b 3ca9 123b
00000150: 74ce c6bb 576d 9dbb 5a97 403b 6f60 47bb
00000160: ac35 a03b debc 293a 8dba 55bb a890 baba
00000170: 3e22 0eba 0753 f8bb 483c e43a e046 e93b
00000180: ef81 bdbb b175 073c f852 b9b9 aeae 0d3c
00000190: 406e 153b cb46 253b c9dc 5cbb 594d c0ba
000001a0: 8491 dabb 3e7f 9fba ae32 afba 2e65 c93a
000001b0: 259c d4bb fb5b 273b 5528 98b9 6d9e e53b
000001c0: 7aff 6ebb f04d 793b efa3 3c3b 9af4 8dbb
000001d0: fedd 9039 5296 a73b 4e7f bd3b e578 753b
000001e0: adb7 f03b 209e ec3a 6dc5 96bb 13db 37bb
000001f0: e490 0a3b 09d8 89bb 96c6 88ba 666b 873a

encoder.feature_extract.mlps.0.linears.1.weight f4 [128, 128]
0.07395891 -0.063175626 0.047718678 -0.006949537 0.073297925 -0.005829929 -0.098096356 -0.07596951
0.17624654 0.01529367 -0.099807814 -0.055614933 0.002333296 0.008675548 0.040164437 0.2178069
-0.02432551 0.02841528 -0.020061556 -0.05643617 -0.122014485 -0.09518981 -0.075352386 0.059910446
0.11049215 -0.04352657 -0.0565996 0.030363245 -0.08468677 -0.12936331 -0.12178946 0.21183027
-0.046380773 -0.070335284 0.031600326 -0.054242324 -0.008810986 -0.18054718 -0.15344699 0.04441506
0.072104305 -0.12366832 -0.23468578 -0.08759292 -0.14006682 -0.043807458 0.11296965 -0.061668873
-0.15537576 -0.16877033 0.121120885 0.04074119 -0.09579532 -0.060856808 0.0141959805 -0.02197153
0.070931606 0.07632867 0.036737423 -0.018989982 0.11493048 0.1440521 -0.112943135 -0.00071892334
0.019154543 -0.008703173 -0.11654511 0.25216904 -0.031753935 0.0024274918 0.089483775 0.057359222
-0.017887028 0.0060247537 0.00068266835 0.028011443 0.0137761235 0.021753125 0.113739364 0.057583228
-0.032551385 -0.07119927 0.029277641 -0.01115406 0.046200115 -0.011193273 -0.0007798962 -0.1408248
0.07277103 0.02410474 0.027737841 0.077268176 0.107557446 -0.14322002 0.019789485 -0.04401768
-0.0063406704 0.035541568 -0.023413477 -0.06594557 -0.041671176 -0.16319264 -0.17844851 -0.04164316
-0.008328303 0.03872599 0.025335226 0.03314651 0.11519417 -0.06737724 0.0014666469 0.049548905
0.026095903 -0.031066647 -0.06379321 -0.14120603 0.07142782 0.104457736 0.00080217014 -0.05733103
-0.056585014 0.09590435 -0.15635958 0.011210496 -0.07273535 -0.10660462 -0.15120365 -0.035564303
-0.0068924 -0.0564212 -0.008682821 -0.051503576 0.035373237 -0.03341195 -0.05312114 -0.061521117
0.0153502 -0.11007654 -0.012341621 -0.15045626 -0.20147853 -0.0042255973 0.08698276 -0.066364884
-0.054708973 0.14480388 0.0628155 0.114852875 -0.020693315 -0.009822538 -0.08898553 -0.07429529
0.20344114 0.080987856 0.012387776 0.032661095 -0.10605602 0.056495067 0.0965956 -0.11112112
-0.01607353 -0.11020268 -0.001160982 -0.066464305 0.14304383 0.021229276 0.13538402 -0.019059638
0.038001 0.021057323 0.05028846 0.13937853 -0.10783911 0.07695807 0.078943506 0.009862874
0.16689618 0.015751105 0.09394363 -0.08686914 0.016740773 0.17150149 0.12341904 -0.0022949828
0.04070126 0.12452283 0.012164801 -0.04204088 -0.006177379 -0.008734846 0.13284852 0.07218964
-0.09124765 -0.11945995 -0.054654475 0.045487564 0.07205861 0.07674761 -0.10399296 -0.0200604
-0.0004053277 0.114441454 -0.10768826 -0.10757799 -0.10992145 -0.12395033 -0.016601497 -0.0056641605
-0.12372366 -0.024714364 -0.21908668 0.059981853 0.06864129 0.07089866 0.02966216 0.14897598
0.06891009 0.018864954 0.10669844 -0.13158281 -0.009293954 0.07433773 -0.019191924 -0.035620723
0.057982933 0.15827054 -0.17079203 -0.037974786 0.06517115 -0.08426765 0.050765537 0.0026689689
0.031626802 0.0971234 -0.05540811 0.04417561 0.048714574 -0.19291994 -0.0023137499 -0.056544833
-0.17586479 0.07923281 -0.04047129 -0.03147452 0.16159739 0.05404997 -0.0060390085 -0.00360984
0.034009054 0.022363696 0.05803592 -0.07557003 -0.08528479 0.0819033 -0.20992233 -0.009639626
00000000: c577 973d 3962 81bd a974 433d f1b8 e3bb
00000010: 391d 963d fd08 bfbb bee6 c8bd e795 9bbd
00000020: f979 343e 4d92 7a3c 0a68 ccbd 7ccc 63bd
00000030: 36ea 183b e323 0e3c 7783 243d c608 5f3e
00000040: 4b46 c7bc 29c7 e83c 2258 a4bc 9d29 67bd
00000050: bbe2 f9bd e0f2 c2bd 5a52 9abd a864 753d
00000060: b549 e23d eb48 32bd fbd4 67bd 57bc f83c
00000070: 4270 adbd d177 04be c16c f9bd 09ea 583e
00000080: c4f9 3dbd f20b 90bd 586f 013d 332d 5ebd
00000090: f45b 10bc 5ce1 38be 3521 1dbe 91ec 353d
000000a0: 6cab 933d d145 fdbd 7851 70be eb63 b3bd
000000b0: ad6d 0fbe 736f 33bd a25c e73d 8098 7cbd
000000c0: d31a 1fbe 21d2 2cbe 3a0e f83d 3ce0 263d
000000d0: 5630 c4bd fd44 79bd 4296 683c a3fd b3bc
000000e0: 9744 913d 3552 9c3d fb79 163d e190 9bbc
000000f0: ac60 eb3d 6582 133e bb4e e7bd 2176 3cba
00000100: fde9 9c3c c197 0ebc 34af eebd 4d1c 813e
00000110: 6a10 02bd 8e16 1f3b 4543 b73d 81f1 6a3d
00000120: d187 92bc 4c6b c53b 19f5 323a 4178 e53c
00000130: 40b5 613c 9c33 b23c 2ff0 e83d 64dc 6b3d
00000140: 9a54 05bd ecd0 91bd aad7 ef3c 85bf 36bc
00000150: 553c 3d3d fd63 37bc f371 4cba 6034 10be
00000160: fa08 953d 4e77 c53c 783a e33c c73e 9e3d
00000170: 1447 dc3d 45a8 12be 8f1d a23c e24b 34bd
00000180: 66c5 cfbb 0994 113d 9fcd bfbc 790e 87bd
00000190: 65af 2abd f91b 27be 35bb 36be 0592 2abd
000001a0: 6f73 08bc 259f 1e3d d28b cf3c a3c4 073d
000001b0: ecea eb3d 14fd 89bd 813c c03a cbf3 4a3d
000001c0: 13c7 d53c 7b7f febc 04a6 82bd 5098 10be
000001d0: c048 923d f0ed d53d ba48 523a f1d3 6abd
000001e0: b0c5 67bd 8069 c43d ba1c 20be 3aac 373c
000001f0: 45f6 94bd 8653 dabd 21d5 1abe e0ab 11bd
00000200: a4d9 e1bb eb19 67bd 6442 0ebc 6af5 52bd
00000210: 87e3 103d f8da 08bd 8d95 59bd 91fd 7bbd
00000220: 687f 7b3c cf6f e1bd 8334 4abc 3511 1abe
00000230: 6350 4ebe e176 8abb 0424 b23d 50ea 87bd
00000240: 8416 60bd 7847 143e 6aa5 803d fc37 eb3d
00000250: 0785 a9bc b6ee 20bc 0c3e b6bd 2128 98bd
00000260: e052 503e f6dc a53d 19f6 4a3c a4c7 053d
00000270: e633 d9bd 5f67 673d ead3 c53d 7893 e3bd
00000280: a3ac 83bc f1b1 e1bd 172c 98ba 701e 88bd
00000290: 157a 123e 05e9 ad3c 1ca2 0a3e f522 9cbc
000002a0: f0a6 1b3d 6880 ac3c 46fb 4d3d 3fb9 0e3e
000002b0: c0da dcbd 319c 9d3d 22ad a13d e497 213c
000002c0: d5e6 2a3e 7608 813c 8565 c03d 73e8 b1bd
000002d0: f223 893c 169e 2f3e 1fc3 fc3d 6c67 16bb
000002e0: 5db6 263d d305 ff3d e04e 473c 0f33 2cbd
000002f0: 9c6b cabb 991c 0fbc 7109 083e 29d8 933d
00000300: 0ce0 babd 6ba7 f4bd 5fdd 5fbd 2b51 3a3d
00000310: 7793 933d da2d 9d3d 43fa d4bd b555 a4bc
00000320: 2a82 d4b9 4860 ea3d aa8b dcbd d951 dcbd
00000330: 7f1e e1bd acd9 fdbd ddff 87bc 6c9a b9bb
00000340: d562 fdbd c775 cabc 4258 60be 88af 753d
00000350: ce93 8c3d 5133 913d 0ffe f23c 298d 183e
00000360: bc20 8d3d ad8a 9a3c b684 da3d a5bd 06be
00000370: ab45 18bc 613e 983d 6238 9dbc 09e7 11bd
00000380: 837f 6d3d ac11 223e 1be4 2ebe 738b 1bbd
00000390: 7478 853d 8594 acbd 86ef 4f3d dee9 2e3b
000003a0: 1b8b 013d a2e8 c63d 9df3 62bd 7cf1 343d
000003b0: ef88 473d ce8c 45be 48a2 17bb 8e9b 67bd
000003c0: e615 34be d044 a23d 39c5 25bd 6deb 00bd
000003d0: c979 253e 8063 5d3d e0e2 c5bb 1193 6cbb
000003e0: 144d 0b3d 1234 b73c 13b7 6d3d 76c4 9abd
000003f0: cba9 aebd ebbc a73d e1f5 56be 86ef 1dbc

encoder.feature_extract.mlps.0.linears.1.bias f4 [128]
-0.0027767702 -0.0011969811 -0.002850862 0.001947704 -0.004393799 -0.0010489523 0.00063472433 -0.0029792322
-0.0024681017 0.004135823 0.0010591524 -0.0026490933 -0.005084165 0.0018697991 -0.0045554186 -0.004087367
0.00096453284 0.00052158925 0.0022229794 0.004176653 -0.0005867186 -0.0011805852 -0.00090331346 -0.0013047062
0.0010024324 0.00034738024 -0.005448379 -0.0038204878 0.0010679383 0.0011123108 0.0011888702 -0.00048282108
0.005380244 -0.001526918 0.0014453353 -0.007042901 0.0020269125 -0.004139101 -0.003699 0.0016930504
9.274229e-05 0.0060143904 4.5487945e-05 0.0040334053 0.00019933857 0.0067920727 -0.0035098863 -0.0011205032
0.00016617548 0.002586906 0.0021144708 0.0007677236 0.0018623482 0.001278693 -0.0033178478 -0.0006916078
-0.0012943735 -0.005590094 -0.004570269 -0.004135581 -0.0015932621 -0.0035220133 -0.0017266264 -0.0045880293
5.9066955e-05 -0.0031498577 0.0021076151 -0.0009624005 -0.0026428879 -0.0021037154 0.0018770713 -0.005090284
3.6405105e-05 0.0007773979 0.00013040805 0.0047987667 0.0042654853 0.0024678942 0.00048534657 -0.001053724
0.0016740672 0.0010831609 0.0034144018 -0.0056862533 0.0007312162 0.0059154844 0.004177054 0.00021068825
0.0030900342 0.002084479 0.0016997732 -0.002808337 -0.00025101667 -0.0012611109 -4.6654914e-05 0.00050612056
8.457658e-05 -0.0006948375 -0.0022634899 -0.00429627 0.0027394365 -0.0053050118 0.0035892362 -0.0020092947
-0.0070610004 0.0032430447 0.002348769 0.0025091243 0.004960071 0.0012512098 0.0039970586 -0.00015747276
8.893469e-05 0.00021302837 -0.0021104666 -0.0042838515 0.00057722366 -0.0035123054 0.0035838962 0.00038892252
0.0007125228 0.0015346793 -0.00043778395 -0.0059641907 -0.00093703216 -0.0019346103 6.67519e-06 -0.0011052978
00000000: 79fa 35bb 05e4 9cba 87d5 3abb 1a4a ff3a
00000010: dcf9 8fbb 007d 89ba a163 263a 393f 43bb
00000020: e0bf 21bb cc85 873b 42d3 8a3a 699c 2dbb
00000030: 1199 a6bb 0c14 f53a 9f45 95bb 52ef 85bb
00000040: b4d8 7c3a 43bb 083a 68af 113b 4edc 883b
00000050: 05ce 19ba debd 9aba 57cc 6cba ad02 abba
00000060: 0d64 833a 9620 b639 5188 b2bb 2661 7abb
00000070: 10fa 8b3a f5ca 913a ddd3 9b3a 2623 fdb9
00000080: c24c b03b de22 c8ba 6871 bd3a 23c8 e6bb
00000090: f3d5 043b 4ca1 87bb ec6a 72bb 58e9 dd3a
000000a0: a37e c238 5d14 c53b 4fca 3e38 a82a 843b
000000b0: 8a05 5139 0990 de3b 1f06 66bb d9dd 92ba
000000c0: 643f 2e39 1589 293b ef92 0a3b 0f41 493a
000000d0: 091a f43a d199 a73a 4070 59bb 044d 35ba
000000e0: f8a7 a9ba 1b2d b7bb 32c2 95bb c583 87bb
000000f0: 01d5 d0ba 94d1 66bb f84f e2ba 2e57 96bb
00000100: a9be 7738 d86d 4ebb ea1f 0a3b 9b49 7cba
00000110: 4d34 2dbb 7dde 09bb 1008 f63a 66cc a6bb
00000120: afb1 1838 4aca 4b3a 25be 0839 f93e 9d3b
00000130: 7cc5 8b3b 65bc 213b 1d76 fe39 1c1d 8aba
00000140: 606c db3a d9f8 8d3a 28c4 5f3b c053 babb
00000150: 17af 3f3a aed6 c13b abdf 883b 32ec 5c39
00000160: 2c82 4a3b c19b 083b edca de3a 140c 38bb
00000170: e39a 83b9 dc4b a5ba 55af 43b8 2dad 043a
00000180: b55e b138 c125 36ba 0f57 14bb bac7 8cbb
00000190: 1e88 333b aad5 adbb 6439 6b3b 5fae 03bb
000001a0: f75f e7bb 4389 543b ceed 193b 1f70 243b
000001b0: 1788 a23b a2ff a33a c2f9 823b 461f 25b9
000001c0: 7382 ba38 5e60 5f39 c14f 0abb 8d5f 8cbb
000001d0: d350 173a b52e 66bb cddf 6a3b 4ce8 cb39
000001e0: 98c8 3a3a 4b27 c93a 5e86 e5b9 426f c3bb
000001f0: 2aa3 75ba c092 fdba 72fb df36 a4df 90ba

encoder.feature_extract.mlps.0.linears.2.weight f4 [128, 128]
0.027581567 0.13557844 -0.14040217 0.05862756 -0.047318134 -0.0354723 -0.07338923 -0.023384698
-0.0340407 -0.18842797 0.09570473 0.07640419 -0.10036004 -0.22356264 -0.02673923 -0.017085651
-0.1689625 0.0045721536 -0.06609987 0.031777173 0.1245074 0.12994495 0.018913273 -0.0852869
0.10740675 0.116108835 0.17170021 -0.06199139 -0.015672935 0.06845647 0.11625513 -0.04807826
-0.066804364 0.10034445 -0.038425352 0.0019299969 -0.054371916 0.03894798 -0.13858409 0.07987751
0.0026978385 0.16084638 -0.019527415 -0.056619752 -0.1192002 -0.13834324 0.094651006 0.0041734627
0.12563375 -0.028894385 -0.110561766 0.019128364 -0.0192741 0.13298672 0.0976618 -0.12333632
-0.018619448 -0.050040197 0.11224148 -0.059689693 -0.09586263 -0.14293718 0.11928667 -0.02327229
0.15696765 -0.009649335 0.1273234 0.029114617 -0.036238678 -0.039707396 -0.00068303687 -0.111215256
-0.057078358 -0.044747524 -0.064231716 0.02349499 -0.033897474 0.052007318 -0.11962844 -0.07198748
-0.15800959 0.02611407 0.07036537 -0.0060454602 0.08747014 0.041600615 0.075182855 -0.028968986
-0.03693636 -0.13005741 0.014130842 0.008314994 0.080780834 0.029633941 -0.10699905 -0.024556378
0.093782164 -0.012463884 0.16913626 0.12852027 0.14284363 -0.12793705 -0.16009533 0.100204915
0.03684433 -0.035669282 8.6681015e-05 0.009299233 0.078963585 -0.00025836672 0.045287665 -0.08947857
-0.078752905 -0.14462209 0.09826758 -0.020593798 -0.012238785 0.047008097 -0.08461388 0.062270615
0.13397464 -0.0657776 -0.07831546 -0.09438028 0.019599726 -0.024431149 0.10840264 -0.12731126
0.02460863 -0.036426194 0.021920146 -0.086554214 0.029578617 0.118464015 -0.045894798 0.09471982
-0.115038775 -0.04422168 -0.10918132 -0.08513478 0.055367257 -0.012405751 0.02524888 0.025420643
-0.051608063 -0.11623399 -0.07754981 0.021622358 0.04288058 0.060737662 -0.03039906 0.08316668
0.026058106 0.078327216 -0.0011010807 -0.039844096 -0.0750661 0.15429796 -0.029670812 0.08568711
1.225442e-08 -0.0034573225 0.004915191 0.1853124 -0.17283775 -0.2731536 -0.12084825 -0.04858292
0.07168588 0.04130719 0.23944627 -0.053149384 0.05873109 0.053959705 -0.0073102294 0.0024973517
0.14200464 -0.09860491 0.08245552 -0.04568156 -0.07802696 -0.004495558 -0.16536778 0.06599556
-0.0320486 -0.12002311 0.07938278 -0.04729792 0.025664 0.04589624 -0.081078194 -0.1262241
0.01756627 -0.06900116 -0.104466245 -0.06299089 -0.06513869 -0.042329457 0.040968377 -0.042720146
0.101621725 0.15210259 -0.015870554 -0.082833335 -0.10259143 0.16371639 0.014211104 -0.14144956
-0.1763727 -0.01695748 0.022673335 -0.024814753 0.06444684 0.19584833 -0.055336554 0.027533583
0.08780256 -0.047358926 0.017973378 -0.06305031 -0.11347355 0.07889161 0.15316351 -0.060058817
0.15990253 -0.096225314 0.038914464 -0.036500763 -0.08530227 -0.05226597 0.12175941 -0.0026738916
-0.04646136 0.17693122 0.19818415 -0.010632643 0.031198377 0.12996523 0.06734419 -0.014443672
-0.0034939977 -0.12825996 -0.047497682 0.06319447 0.0055618845 -0.13190205 -0.05870635 -0.004514785
-0.007184085 0.01992754 0.10298903 0.038251493 0.03992087 0.08236432 -0.052324023 -0.032494076
00000000: bdf2 e13c 13d5 0a3e 96c5 0fbe 7423 703d
00000010: a9d0 41bd 674b 11bd 184d 96bd 4491 bfbc
00000020: 436e 0bbd 43f3 40be d700 c43d cd79 9c3d
00000030: 9189 cdbd 9bed 64be 3b0c dbbc 35f7 8bbc
00000040: 8104 2dbe 01d2 953b 5e5f 87bd c828 023d
00000050: bcfd fe3d 4a10 053e 02f0 9a3c e6aa aebd
00000060: 12f8 db3d 78ca ed3d 2ed2 2f3e afea 7dbd
00000070: 8764 80bc e832 8c3d 2b17 ee3d b6ed 44bd
00000080: bad0 88bd 6481 cd3d e763 1dbd f3f7 fc3a
00000090: 16b5 5ebd eb87 1f3d fde8 0dbe d296 a33d
000000a0: 38ce 303b eab4 243e f5f7 9fbc 1dea 67bd
000000b0: 3c1f f4bd daa9 0dbe 63d8 c13d 8bc1 883b
000000c0: 22a6 003e ebb3 ecbc 356e e2bd 16b3 9c3c
000000d0: b8e4 9dbc ac2d 083e e902 c83d c197 fcbd
000000e0: d087 98bc f3f6 4cbd dcde e53d 2e7d 74bd
000000f0: a053 c4bd 205e 12be 924c f43d 88a5 bebc
00000100: 21bc 203e 3f18 1ebc 1161 023e c781 ee3c
00000110: 026f 14bd 39a4 22bd d40d 33ba d3c4 e3bd
00000120: ffca 69bd 2e49 37bd eb8b 83bd 9178 c03c
00000130: 14d8 0abd a005 553d c1ff f4bd 2c6e 93bd
00000140: 44cd 21be 2ded d53c b81b 903d ff18 c6bb
00000150: 8b23 b33d 6865 2a3d 78f9 993d 5e50 edbc
00000160: 954a 17bd c52d 05be 0c85 673c 9d3b 083c
00000170: 6c70 a53d e1c2 f23c 5122 dbbd 752a c9bc
00000180: dd10 c03d 5235 4cbc 0e32 2d3e d19a 033e
00000190: 9a45 123e ee01 03be 08f0 23be 3c38 cd3d
000001a0: 15ea 163d f419 12bd 84c8 b538 cf5b 183c
000001b0: a9b7 a13d 6575 87b9 8f7f 393d 8a40 b7bd
000001c0: 3449 a1bd d017 14be 8340 c93d 53b4 a8bc
000001d0: 2f85 48bc 908b 403d 0b4a adbd 790f 7f3d
000001e0: a630 093e 68b6 86bd db63 a0bd 734a c1bd
000001f0: 9b8f a03c d523 c8bc 3402 de3d e25d 02be
00000200: 0a98 c93c a233 15bd e191 b33c 5643 b1bd
00000210: db4e f23c 439d f23d 2ffc 3bbd 77fc c13d
00000220: 7399 ebbd cb21 35bd 759a dfbd 255b aebd
00000230: c7c8 623d 7e41 4bbc bdd6 ce3c f43e d03c
00000240: fa62 53bd 160c eebd 6fd2 9ebd 5f21 b13c
00000250: 8ca3 2f3d 0ec8 783d 7307 f9bc 4b53 aa3d
00000260: cf77 d53c 056a a03d 2352 90ba 9033 23bd
00000270: 41bc 99bd 4900 1e3e 3410 f3bc b97c af3d
00000280: 8287 5232 3f94 62bb 9c0f a13b 89c2 3d3e
00000290: 61fc 30be cada 8bbe 4a7f f7bd e2fe 46bd
000002a0: 0cd0 923d ba31 293d 6731 753e 2bb3 59bd
000002b0: 0390 703d da04 5d3d a68a efbb 9caa 233b
000002c0: aa69 113e 5ff1 c9bd 71de a83d 961c 3bbd
000002d0: 99cc 9fbd 794f 93bb 2c56 29be ae28 873d
000002e0: 6545 03bd adce f5bd 7093 a23d 77bb 41bd
000002f0: 4f3d d23c b2fd 3b3d 530c a6bd e440 01be
00000300: 23e7 8f3c 7b50 8dbd 66f2 d5bd 5e01 81bd
00000310: 6f67 85bd a761 2dbd 75ce 273d 52fb 2ebd
00000320: 0d1f d03d c8c0 1b3e f702 82bc 86a4 a9bd
00000330: 751b d2bd 45a5 273e b1d5 683c 27d8 10be
00000340: 0c9b 34be 6aea 8abc 6ebd b93c 4f48 cbbc
00000350: b4fc 833d 778c 483e 95a8 62bd 1c8e e13c
00000360: d4d1 b33d 6ffb 41bd e83c 933c 8520 81bd
00000370: d264 e8bd ed91 a13d e5d6 1c3e 3c00 76bd
00000380: 7dbd 233e c711 c5bd c664 1f3d d381 15bd
00000390: f5b2 aebd d714 56bd ff5c f93d 753c 2fbb
000003a0: 444e 3ebd 752d 353e c9f0 4a3e 8934 2ebc
000003b0: bd93 ff3c 9b15 053e c0eb 893d 27a5 6cbc
000003c0: 8efb 64bb 9456 03be ee8c 42bd 1a6c 813d
000003d0: 7840 b63b 5511 07be 1276 70bd c3f0 93bb
000003e0: 7968 ebbb 153f a33c eaeb d23d 99ad 1c3d
000003f0: 1184 233d a0ae a83d b751 56bd 8218 05bd

encoder.feature_extract.mlps.0.linears.2.bias f4 [128]
0.0015087858 -0.0010853902 0.00044219397 0.0009667131 -0.0035238587 0.000274058 -0.0027217343 0.0011489328
-0.0013170152 0.0021627962 -0.0027308683 -0.0028783586 -0.0038006953 0.0008192143 -0.0034057058 -0.0009723486
0.00052706344 -0.001889375 -0.0014692104 0.0011999244 -0.0023950886 -0.0028037708 -0.0003116647 -0.0025308013
4.7531783e-05 0.0045403414 0.0002520967 -0.00073217985 -0.00042438466 -0.00083194795 0.00029173578 0.0013259987
-0.0009333147 0.0010163407 0.0046344753 -0.0004064363 -0.0016153434 1.0129244e-05 0.00010889068 -0.00035680845
0.0016796392 -0.0015127431 0.00078876707 -0.00011870879 -0.0032422862 -0.00018011911 0.004232719 0.0009479038
0.0032201882 0.00082691596 0.00037076842 -0.00048345485 0.0008689896 -0.0011675799 0.0029464187 4.5124925e-05
0.0034549606 -0.00090341363 -5.4440497e-05 -0.0015206418 -0.0031898727 0.0033742276 0.0006304569 0.0010353128
0.00034177818 0.00038705906 0.0027939174 -0.004143235 -0.0036651657 -0.00404517 -0.0011790376 0.0022283858
-0.0057111545 0.0025780837 0.0026195962 0.001373509 -0.00070198503 -0.0021184452 0.000488609 0.000302053
-0.0018111612 -0.0002624833 0.00021546645 0.0011673439 0.0005536159 0.0013503676 -0.00020433136 -0.002688289
0.0039644497 -0.0005394485 -0.0034046925 -0.0048245005 -0.0005476969 -0.00051014195 -0.004006511 0.0012696788
-0.0007015124 -0.0017570457 0.002892564 -4.0283e-05 -0.0006728006 -0.0029403663 -0.0018702322 0.002853246
-0.00044066558 0.001936514 0.0008095429 -0.0015808492 -0.004490986 0.0012769201 0.00023578247 -0.001352508
7.46169e-05 0.0012645448 0.0013118868 0.0015673694 -0.0016949305 0.0015349026 0.00090358284 -0.0006005316
0.0015270546 -0.0002447144 -0.0022908184 0.0017444445 -0.000702938 0.0004979875 -0.002476241 -7.481594e-05
00000000: 73c2 c53a a743 8eba 45d6 e739 056b 7d3a
00000010: 8af0 66bb 71af 8f39 205f 32bb ca97 963a
00000020: b29f acba b3bd 0d3b 5ef8 32bb d8a2 3cbb
00000030: 1615 79bb 8bc0 563a 4332 5fbb 36e5 7eba
00000040: a12a 0a3a e8a4 f7ba 8592 c0ba c846 9d3a
00000050: ebf6 1cbb 78bf 37bb ee66 a3b9 cddb 25bb
00000060: dd5c 4738 25c7 943b d92b 8439 c2ef 3fba
00000070: f27f deb9 1517 5aba 1df4 9839 22cd ad3a
00000080: b0a9 74ba bc36 853a ccdc 973b f516 d5b9
00000090: eeb9 d3ba c6f0 2937 3d5c e438 0512 bbb9
000000a0: 5727 dc3a 3c47 c6ba 43c5 4e3a 4cf3 f8b8
000000b0: 897c 54bb 5bde 3cb9 9fb2 8a3b bf7c 783a
000000c0: cb09 533b 64c5 583a b263 c239 3678 fdb9
000000d0: e8cc 633a 7b09 99ba b418 413b 8544 3d38
000000e0: 9f6c 623b 10d3 6cba 0a57 64b8 4650 c7ba
000000f0: 2f0d 51bb 2522 5d3b 3f45 253a 55b3 873a
00000100: b130 b339 30ee ca39 281a 373b f9c3 87bb
00000110: 4733 70bb 588d 84bb f089 9aba 1c0a 123b
00000120: a324 bbbb 11f5 283b 88ad 2b3b 5007 b43a
00000130: 6b05 38ba 9dd5 0abb ff15 003a de5c 9e39
00000140: 7c64 edba ea9d 89b9 d6ee 6139 9001 993a
00000150: 8920 113a d1fe b03a c841 56b9 012e 30bb
00000160: 37e8 813b c769 0dba 4321 5fbb d816 9ebb
00000170: 5193 0fba 0cbb 05ba 0d49 83bb 5a6b a63a
00000180: b3e5 37ba ac4c e6ba 2c91 3d3b 8bf5 28b8
00000190: e25e 30ba 29b3 40bb 9422 f5ba 86fd 3a3b
000001a0: 2209 e7b9 a1d2 fd3a 8137 543a 7f34 cfba
000001b0: 1f29 93bb 545e a73a 603c 7739 a346 b1ba
000001c0: a57b 9c38 15bf a53a 9ef3 ab3a 3170 cd3a
000001d0: 6e28 deba c92e c93a 6bde 6c3a fe6c 1dba
000001e0: 7327 c83a 034d 80b9 8e21 16bb d8a5 e43a
000001f0: 5f45 38ba 608b 023a 6e48 22bb 80e6 9cb8

encoder.feature_extract.mlps.0.batch_norms.0.weight f4 [128]
0.9989629 1.003094 0.9956043 0.99886364 0.9947892 1.000932 0.9889745 0.9971313
0.9948749 1.0015059 1.0017766 0.99338645 0.9990324 1.0071231 0.9954465 0.99981445
0.9979472 1.0054104 0.9987164 0.9967602 0.9979525 1.0030235 1.0020412 0.9972271
0.9998345 1.0066862 0.9988758 1.0006697 0.9961023 1.0053273 0.9993065 0.9960886
1.0023965 0.99720794 0.99817765 1.0006742 0.9976327 0.9957557 0.9988108 1.0021391
1.0031157 0.9969312 0.998961 1.0064191 0.9973546 1.0072973 1.0034707 0.9996549
1.0053536 1.003367 0.99200064 0.998914 1.003424 1.0020123 0.996603 0.9997785
1.0066028 1.0089195 1.0047305 1.0050193 1.0048935 1.0046458 1.0029869 0.99517804
1.0088847 0.9972084 1.0027851 1.0039867 1.006896 0.99126405 1.0095885 0.99477875
0.9949006 1.0030037 0.9975765 1.0005533 0.9958761 1.0027404 0.9942477 0.9958903
1.0029231 0.99900424 1.0031731 0.9968364 0.9983545 1.0000561 1.0005468 0.9984195
1.0014313 0.9945817 0.9975546 0.9989576 0.99899423 0.9953219 1.0031692 1.0036225
1.0052145 0.9978359 1.0032252 0.99782336 1.0016189 0.9983786 0.9998025 0.9983684
1.005024 1.006737 1.008099 0.9990572 0.9975382 1.0021713 1.0038146 1.0009592
0.9988397 1.0030549 0.9951139 0.9985656 1.0024194 1.0010602 1.0063579 1.0001942
1.0065355 0.9947417 1.0094728 0.9950772 1.0001308 0.99475175 1.0019906 0.9932902
00000000: 08bc 7f3f 6265 803f ecdf 7e3f 87b5 7f3f
00000010: 81aa 7e3f 8a1e 803f 6f2d 7d3f ff43 7f3f
00000020: 1fb0 7e3f 5831 803f 373a 803f 934e 7e3f
00000030: 96c0 7f3f 69e9 803f 95d5 7e3f d7f3 7f3f
00000040: 7879 7f3f 4ab1 803f e1ab 7f3f ad2b 7f3f
00000050: d179 7f3f 1363 803f e342 803f 464a 7f3f
00000060: 27f5 7f3f 18db 803f 53b6 7f3f f215 803f
00000070: 8f00 7f3f 91ae 803f 8dd2 7f3f aaff 7e3f
00000080: 874e 803f 0549 7f3f 9288 7f3f 1816 803f
00000090: db64 7f3f d8e9 7e3f 11b2 7f3f 1846 803f
000000a0: 1866 803f e236 7f3f e8bb 7f3f 57d2 803f
000000b0: a252 7f3f 1eef 803f ba71 803f 62e9 7f3f
000000c0: 6daf 803f 546e 803f c1f3 7d3f d4b8 7f3f
000000d0: 3370 803f f041 803f 6021 7f3f 7cf1 7f3f
000000e0: 5cd8 803f 4624 813f 029b 803f 79a4 803f
000000f0: 5aa0 803f 3c98 803f e061 803f fdc3 7e3f
00000100: 2223 813f 0d49 7f3f 435b 803f a382 803f
00000110: f8e1 803f 7bc3 7d3f 323a 813f d2a9 7e3f
00000120: ceb1 7e3f 6d62 803f 2c61 7f3f 2112 803f
00000130: bcf1 7e3f cc59 803f 0487 7e3f abf2 7e3f
00000140: c95f 803f bebe 7f3f fa67 803f ac30 7f3f
00000150: 2994 7f3f d701 803f eb11 803f 6c98 7f3f
00000160: e72e 803f e89c 7e3f bd5f 7f3f afbb 7f3f
00000170: 16be 7f3f 6bcd 7e3f d967 803f b476 803f
00000180: deaa 803f 2c72 7f3f af69 803f 5a71 7f3f
00000190: 0c35 803f bd95 7f3f 0ef3 7f3f 1295 7f3f
000001a0: a0a4 803f c2dc 803f 6309 813f 36c2 7f3f
000001b0: aa5e 7f3f 2647 803f ff7c 803f 6e1f 803f
000001c0: f5b3 7f3f 1a64 803f c9bf 7e3f ffa1 7f3f
000001d0: 474f 803f be22 803f 56d0 803f 5d06 803f
000001e0: 28d6 803f 64a7 7e3f 6836 813f 61bd 7e3f
000001f0: 4904 803f 0da8 7e3f 3a41 803f 4448 7e3f

encoder.feature_extract.mlps.0.batch_norms.0.bias f4 [128]
0.0033571569 0.00022009795 -0.008525692 -0.0063015195 -0.0035424442 0.0023814344 -0.010788545 -0.005989764
-0.0021888178 -0.0028661564 -0.0039088307 -0.0013577119 -1.928742e-05 0.0050974684 -0.0016033644 0.002493126
0.000111703244 0.0058468143 -0.004861285 -0.0043462296 0.003746565 0.0005129283 -0.0029879163 -0.0047290092
0.008429841 -0.0012279093 -0.006402592 -0.006244476 -0.0046420083 0.0092474 0.0052966624 -0.0076809493
0.008371858 -0.0037566882 0.000559113 -0.0031869 -0.006268889 -0.0038900159 -0.007896175 0.00044383408
0.0010745717 -0.0035544045 0.0007166147 -0.0037692226 0.0029251734 0.008422829 0.0071491604 -0.005229599
0.0031510945 0.0054346775 -0.0051460876 0.0015365635 -0.00089186453 0.0021020125 -0.006787143 -0.0052749915
0.005612366 0.0017059897 0.006779924 -0.0049764775 0.0032631464 0.00801858 0.0030888433 -0.005084714
-0.0022029318 -0.00072085724 0.0049814703 -0.0031549297 0.012306856 -0.0032732922 0.0077536954 -0.007872236
-0.006006094 0.004120598 0.00067500543 -0.007932062 -0.0013698678 0.005018304 -0.004659962 0.0019089285
0.0028471365 0.0030797971 0.0029049586 -0.0060515255 -0.0036356305 0.0030524198 0.0043116724 0.00064243004
0.0023736795 -0.0106062135 -0.005082844 -0.0029585543 -0.008594151 -0.009691596 0.0037205238 -0.002829086
-0.0039548143 -0.0068270913 -0.00026434558 -0.0051552774 0.00021677892 0.0006253443 -0.0057168435 -0.00372552
0.010078247 -0.006694348 0.004847331 0.0005498254 -0.002620862 0.0015111313 0.0036644335 0.0013746361
-0.0003602156 -0.00045742298 -0.008581171 0.005564629 0.0027624404 -0.0018149635 0.005233379 -0.0016843234
-0.0020460011 -0.006502709 0.0062473477 -0.0024621964 -0.0015584653 -0.00011991964 0.0004967996 -0.006503721
00000000: bf03 5c3b 18ca 6639 58af 0bbc fa7c cebb
00000010: 5a28 68bb d711 1c3b 70c2 30bc c845 c4bb
00000020: 4572 0fbb 20d6 3bbb a615 80bb 40f5 b1ba
00000030: 6bcb a1b7 aa08 a73b fb27 d2ba b763 233b
00000040: 3942 ea38 a296 bf3b 6a4b 9fbb d16a 8ebb
00000050: ee88 753b 0976 063a ebd0 43bb cef5 9abb
00000060: 511d 0a3c cdf1 a0ba d6cc d1bb 769e ccbb
00000070: fd1b 98bb 6882 173c a08f ad3b 79b0 fbbb
00000080: 1e2a 093c c532 76bb 7091 123a 4fdb 50bb
00000090: 416b cdbb a3ef 7ebb f55e 01bc 67b2 e839
000000a0: a5d8 8c3a 03f1 68bb 33db 3b3a 1005 77bb
000000b0: 44b4 3f3b e8ff 093c 8143 ea3b 0e5d abbb
000000c0: 9882 4e3b 6115 b23b 83a0 a8bb 8466 c93a
000000d0: 04cc 69ba ebc1 093b af66 debb d6d9 acbb
000000e0: f0e7 b73b 849b df3a 202a de3b b811 a3bb
000000f0: 83da 553b 5d60 033c 316e 4a3b ac9d a6bb
00000100: 105f 10bb e9f7 3cba 9a3b a33b f0c2 4ebb
00000110: b2a2 493c bb84 56bb b612 fe3b 8dfa 00bc
00000120: c5ce c4bb 1506 873b d9f2 303a 7bf5 01bc
00000130: 238d b3ba 9670 a43b 98b2 98bb 0335 fa3a
00000140: 0697 3a3b 6cd6 493b 1e61 3e3b e04b c6bb
00000150: c243 6ebb 1b0b 483b ee48 8d3b c068 283a
00000160: bc8f 1b3b afc5 2dbc fc8d a6bb 4ee4 41bb
00000170: 7bce 0cbc 80c9 1ebc 08d4 733b 3068 39bb
00000180: 6397 81bb cbb5 dfbb dd97 8ab9 9aed a8bb
00000190: 264f 6339 25ee 233a 5c54 bbbb db27 74bb
000001a0: 3b1f 253c 435c dbbb 5cd6 9e3b 2822 103a
000001b0: c5c2 2bbb 2711 c63a fe26 703b 222d b43a
000001c0: 52db bcb9 46d2 efb9 0a98 0cbc 7e57 b63b
000001d0: 0f0a 353b 12e4 edba c47c ab3b 84c4 dcba
000001e0: 3416 06bb ad14 d5bb 8db6 cc3b cd5c 21bb
000001f0: 6b45 ccba 5e7d fbb8 a83b 023a 2a1d d5bb

encoder.feature_extract.mlps.0.batch_norms.0.running_mean f4 [128]
-0.07612164 0.004236889 0.0083252955 -0.06557473 0.053860392 -0.109081864 -0.013280654 0.09610664
0.024156228 -0.089851476 0.056912422 -0.044649623 0.09433533 0.061785933 0.14282289 0.07212709
-0.036076173 0.13795996 0.015143347 -0.035360456 0.06753966 0.10147291 0.039616525 0.058916748
0.15222505 0.0595038 -0.03897233 0.13318342 0.08344941 0.066163324 -0.009865603 0.09048412
-0.041290015 0.11660667 -0.01322244 -0.024996877 0.06620988 0.0988309 0.095874615 -0.15511174
0.075682394 0.008310195 -0.023993608 -0.091534466 0.061092854 -0.08644371 -0.07976268 0.2198184
-0.2353782 -0.0609656 -0.16861777 0.012671497 -0.18965249 -0.16230112 0.09910549 0.023196477
-0.05801134 0.031024007 -0.069945656 -0.04660002 0.14587536 0.09329048 -0.045896247 0.08452135
0.09547895 -0.10745673 0.1307783 0.036581684 -0.09859202 -0.108875334 0.07920747 -0.09970252
0.12511952 -0.028202338 0.10423415 0.014601785 0.08644224 0.037349623 0.066590145 0.04378656
0.17063716 0.0050288625 -0.023142457 -0.096414484 -0.07702184 0.054049827 -0.0056027323 -0.06033194
-0.07222969 -0.0213094 0.13716309 0.18247336 0.056345765 0.029041931 -0.08752411 -0.08594185
-0.05898715 0.0795544 0.04121075 0.26378295 -0.032408867 -0.08661683 -0.119054675 0.035870764
0.0061896024 -0.052431043 -0.07011174 -0.03208264 0.013533052 0.1208571 0.13203214 0.014880935
0.035352424 0.061084986 0.009436603 -0.058026176 -0.004405195 0.19874047 0.049791377 -0.1068203
0.040806744 -0.07120985 -0.06113098 -0.044690873 0.06258298 0.07458018 0.09698459 0.085064024
00000000: aae5 9bbd 9ad5 8a3b d266 083c 0b4c 86bd
00000010: b79c 5c3d 5066 dfbd 1a97 59bc 8fd3 c43d
00000020: 48e3 c53c 0d04 b8bd 001d 693d 86e2 36bd
00000030: e232 c13d 3f13 7d3d 2a40 123e 5eb7 933d
00000040: 9cc4 13bd 6045 0d3e cd1b 783c 20d6 10bd
00000050: 3c52 8a3d 07d1 cf3d f044 223d b052 713d
00000060: e2e0 1b3e 42ba 733d 73a1 1fbd 3c61 083e
00000070: 86e7 aa3d a380 873d 57a3 21bc bd4f b93d
00000080: b81f 29bd 7acf ee3d efa2 58bc 40c6 ccbc
00000090: 0c99 873d db67 ca3d e959 c43d 9dd5 1ebe
000000a0: 5fff 9a3d 7c27 083c 3e8e c4bc 6c76 bbbd
000000b0: 803c 7a3d 6609 b1bd 9e5a a3bd 1318 613e
000000c0: fc06 71be 11b7 79bd 23aa 2cbe 1c9c 4f3c
000000d0: 4334 42be 4432 26be d2f7 ca3d 8a06 be3c
000000e0: 4d9d 6dbd 0f26 fe3c ab3f 8fbd aadf 3ebd
000000f0: 5a60 153e 140f bf3d b4fd 3bbd 8819 ad3d
00000100: 788a c33d 4612 dcbd bfea 053e add6 153d
00000110: 9dea c9bd 08fa debd 8737 a23d d630 ccbd
00000120: 551f 003e 9708 e7bc b778 d53d 533c 6f3c
00000130: a108 b13d ebfb 183d 6a60 883d 8959 333d
00000140: 82bb 2e3e 28c9 a43b 4095 bdbc f574 c5bd
00000150: a0bd 9dbd 5a63 5d3d 2097 b7bb a01e 77bd
00000160: 29ed 93bd 0d91 aebc 7b74 0c3e 4cda 3a3e
00000170: d1ca 663d 58e9 ed3c d73f b3bd 4802 b0bd
00000180: 839c 71bd 6bed a23d 9acc 283d 8f0e 873e
00000190: 29bf 04bd 2a64 b1bd f0d2 f3bd 39ed 123d
000001a0: 26d2 ca3b efc1 56bd be96 8fbd 1669 03bd
000001b0: bcb9 5d3c ed83 f73d 6f33 073e 2acf 733c
000001c0: b4cd 103d 4034 7a3d fb9b 1a3c dbac 6dbd
000001d0: 7459 90bb 9f82 4b3e 0bf2 4b3d 9ac4 dabd
000001e0: f924 273d 78d6 91bd 7a64 7abd c70d 37bd
000001f0: 812b 803d 7ebd 983d db9f c63d 0c36 ae3d

encoder.feature_extract.mlps.0.batch_norms.0.running_var f4 [128]
0.00010416639 0.00067140174 0.00015132676 0.00013509805 0.00015025005 0.0002532786 0.0006997413 0.0006361396
0.00010417999 0.00013311047 0.0004511003 0.00018166653 0.0007349612 9.7539356e-05 0.0004620122 0.00015066357
5.9966547e-05 0.0005178241 6.890151e-06 0.0001174406 0.00047274597 0.00024259729 0.0007338196 0.00025545925
0.0007012561 0.0004859718 0.0001226831 0.00091155525 0.00036302625 0.00010506984 7.638127e-05 0.00038523303
0.00023326972 0.00075556524 0.00016908604 9.210837e-05 0.00048869086 0.000206098 0.00035741957 0.00056926196
0.000100127065 1.7552196e-05 0.000706455 0.00019841043 0.00036529198 0.00066550757 0.00016104129 0.00095061644
0.0014442304 5.946471e-05 0.00062587095 0.00042283957 0.0016300315 0.0017974182 0.00029193185 0.00016542527
0.00013989669 0.00011472065 0.0011439674 0.00010360205 0.00055293774 0.00016938163 9.939157e-05 0.0008699043
0.00020273647 0.00043547715 0.00057242595 9.031564e-05 0.0002342343 0.00031782067 0.00059301656 0.00018252355
0.00034875408 1.0542552e-05 0.00073109224 1.4472918e-05 0.001213414 0.0007835936 0.00042735305 0.000398486
0.00057301036 6.808756e-06 0.0012915214 0.00038493975 0.0001012051 0.00042666733 0.00044478202 7.230223e-05
0.00021307594 0.00018904642 0.0012035263 0.0023354262 0.00043114254 0.00033009602 0.0012082902 0.0003408455
6.421585e-05 0.0001028518 0.00021981295 0.0015055722 0.0009782974 0.0005551981 0.00032844167 0.00043522625
0.0006732633 6.965826e-05 0.00089484034 0.0004719524 0.00229641 0.00037511167 0.000500327 0.00011808505
0.001117687 0.00029867465 4.762277e-06 0.00057135866 1.2523968e-05 0.00079986785 0.00021131332 0.00024929535
0.00036416374 0.0015734985 6.99153e-05 3.6621703e-05 0.00022245214 0.00066344586 0.00019745361 0.0001508659
00000000: e873 da38 0201 303a 78ad 1e39 1ba9 0d39
00000010: 718c 1d39 7aca 8439 d86e 373a 9bc2 263a
00000020: 357b da38 9293 0b39 a881 ec39 bd7d 3e39
00000030: 69aa 403a 0b8e cc38 3a3a f239 72fb 1d39
00000040: 9784 7b38 96be 073a f231 e736 714a f638
00000050: e4da f739 b761 7e39 cd5d 403a 29ef 8539
00000060: 80d4 373a 08ca fe39 7ea4 0039 70f5 6e3a
00000070: 8f54 be39 f158 dc38 e22e a038 1af9 c939
00000080: dd99 7439 2011 463a b04c 3139 4e2a c138
00000090: 7d1b 003a 031c 5839 0b64 bb39 863a 153a
000000a0: 4ffb d138 0e3d 9337 6431 393a 650c 5039
000000b0: a984 bf39 7575 2e3a 31dd 2839 ca32 793a
000000c0: 554c bd3a bf69 7938 7d11 243a 91b0 dd39
000000d0: c8a6 d53a 5997 eb3a 6e0e 9939 0276 2d39
000000e0: 3bb1 1239 2e96 f038 2df1 953a ed44 d938
000000f0: 06f3 103a 099c 3139 7170 d038 4a0a 643a
00000100: a895 5439 c150 e439 db0e 163a d767 bd38
00000110: cb9c 7539 2ba1 a639 ab74 1b3a cb63 3f39
00000120: fbd8 b639 ebdf 3037 c5a6 3f3a b6d0 7237
00000130: 6b0b 9f3a 146a 4d3a 5b0e e039 e3eb d039
00000140: 1336 163a c576 e436 4448 a93a bdd1 c939
00000150: 133e d438 52b2 df39 a231 e939 f7a0 9738
00000160: 236d 5f39 c33a 4639 a4bf 9d3a f30d 193b
00000170: f90a e239 bd10 ad39 7e5f 9e3a 82b3 b239
00000180: 9fab 8638 24b2 d738 977d 6639 9f56 c53a
00000190: 373a 803a b78a 113a b232 ac39 142f e439
000001a0: ef7d 303a 7e15 9238 b893 6a3a 6170 f739
000001b0: 5e7f 163b a3aa c439 6028 033a 6ea4 f738
000001c0: 5a7f 923a 6f97 9c39 a6cb 9f36 3bc7 153a
000001d0: 081e 5237 39ae 513a fd93 5d39 dbb3 8239
000001e0: 3bed be39 d93d ce3a 7e9f 9238 419a 1938
000001f0: 0b42 6939 19eb 2d3a 8d0b 4f39 c231 1e39

encoder.feature_extract.mlps.0.batch_norms.1.weight f4 [128]
0.99975806 0.99568814 1.0040045 0.99852425 1.0009458 0.99531835 1.0031939 1.0034258
1.0035914 0.99725956 0.9953068 1.0069644 0.9938081 1.0051967 0.9934912 1.00344
1.0038552 0.991514 1.0020324 0.9980084 1.0058402 1.0055587 0.9956681 1.0038952
1.0086392 1.002012 0.9932394 0.99838626 1.0011294 0.9931041 0.9945886 1.0059873
1.0034997 0.99621916 1.0013539 0.99384195 0.99889916 0.99977535 1.0040658 0.997731
1.0024773 1.0064471 1.0014229 0.99869984 0.99669796 1.0052215 1.0038085 1.0044208
0.99519384 0.996911 1.0001439 1.0019325 1.0044112 0.9935396 1.0021982 0.99452454
1.0015318 1.0029353 1.0020865 0.9927355 1.0084488 0.9987021 0.9992302 1.0031533
0.99934787 1.0046496 0.9979967 1.0019641 0.9935486 0.998434 0.9969327 0.9974899
0.9987916 0.9969232 0.9969135 0.99791884 1.0030197 0.9939627 0.9959977 0.9985495
0.99621123 1.0081295 1.0017128 1.0064821 1.0005761 0.99975884 1.0016806 1.0029997
0.99445313 0.9897785 0.9952065 1.003699 0.99804896 0.99377924 1.0039383 1.000299
0.99424624 1.0064878 1.0003195 1.0011547 1.0035199 0.9918731 0.9938649 1.0058033
1.0060766 0.9974905 0.9913537 0.9968649 1.0041994 0.9999259 0.9947854 1.0011775
1.0036505 0.9975481 0.9940065 1.0072539 1.0103132 1.001349 1.0000261 1.0053555
0.99513936 0.99880093 1.00318 1.0059369 1.0011514 1.0050135 0.9956302 1.0035051
00000000: 25f0 7f3f 6be5 7e3f 3883 803f 499f 7f3f
00000010: fe1e 803f 2fcd 7e3f a868 803f 4270 803f
00000020: af75 803f 674c 7f3f 6dcc 7e3f 36e4 803f
00000030: 356a 7e3f 49aa 803f 7055 7e3f b970 803f
00000040: 547e 803f ddd3 7d3f 9942 803f 7a7d 7f3f
00000050: 5fbf 803f 26b6 803f 1be4 7e3f a37f 803f
00000060: 171b 813f ee41 803f f044 7e3f 3e96 7f3f
00000070: 0225 803f 123c 7e3f 5c9d 7e3f 31c4 803f
00000080: ae72 803f 3808 7f3f 5d2c 803f 6d6c 7e3f
00000090: dbb7 7f3f 47f1 7f3f 3a85 803f 4c6b 7f3f
000000a0: 2d51 803f 42d3 803f a02e 803f cbaa 7f3f
000000b0: 9927 7f3f 19ab 803f cc7c 803f dc90 803f
000000c0: 06c5 7e3f 8f35 7f3f b704 803f 533f 803f
000000d0: 8c90 803f 9c58 7e3f 0848 803f 2999 7e3f
000000e0: 3232 803f 2f60 803f 5f44 803f ea23 7e3f
000000f0: da14 813f f1aa 7f3f 8dcd 7f3f 5467 803f
00000100: 43d5 7f3f 5c98 803f b67c 7f3f 5c40 803f
00000110: 3359 7e3f 5f99 7f3f fb36 7f3f 805b 7f3f
00000120: ceb0 7f3f 5c36 7f3f b935 7f3f 9c77 7f3f
00000130: f362 803f 5774 7e3f b5f9 7e3f f1a0 7f3f
00000140: b307 7f3f 630a 813f 2038 803f 68d4 803f
00000150: e112 803f 32f0 7f3f 1237 803f 4b62 803f
00000160: 7b94 7e3f 2062 7d3f dac5 7e3f 3579 803f
00000170: 2380 7f3f 5168 7e3f 0d81 803f cc09 803f
00000180: ec86 7e3f 98d4 803f 780a 803f d625 803f
00000190: 5773 803f 65eb 7d3f ee6d 7e3f 2abe 803f
000001a0: 1ec7 803f 8a5b 7f3f 5bc9 7d3f 8a32 7f3f
000001b0: 9b89 803f 25fb 7f3f 42aa 7e3f 9626 803f
000001c0: 9f77 803f 505f 7f3f 3677 7e3f b2ed 803f
000001d0: f151 813f 342c 803f db00 803f 7daf 803f
000001e0: 74c1 7e3f 6bb1 7f3f 3468 803f 8ac2 803f
000001f0: bb25 803f 48a4 803f 9fe1 7e3f db72 803f
