DRL coding/saved_network/FJSP_J15M15/100_79/policy_mch.pth (torch, 274615 bytes, 14 tensors)

bn.weight f4 [128]
0.99466974 0.9981772 0.999346 1.0020204 1.0042604 1.0006541 0.99835765 1.0044225
0.9969246 1.0019482 0.99670964 1.0009717 0.99961424 0.9987821 0.9986409 0.9986815
1.0023915 0.99886596 1.0021292 0.9972638 1.001488 1.0063145 0.99930143 0.99804336
0.99643344 1.0015 1.0068291 1.0057482 0.99454474 0.99945724 1.0050845 1.0026629
0.995183 0.99792445 0.99490273 1.0077355 0.9978547 0.99629885 0.99713624 0.9958589
1.0042231 0.9950556 0.998256 1.0029793 0.9964611 1.0012462 0.9991267 0.9987834
0.9934523 1.0026449 1.0041801 0.9980711 1.0003209 1.0026394 0.99616534 0.9952882
1.0032274 1.0086364 1.0008234 1.0031468 0.99524695 0.9992324 0.99651086 0.9983357
0.997232 1.0096486 1.0002679 0.99681026 0.99563885 0.9974821 1.0065011 0.9959619
1.001155 1.0051645 0.99745643 0.99213326 1.0063761 1.0061206 1.0068518 0.99642974
0.99938977 0.99968404 1.0030746 0.99791765 1.0044712 1.0072821 0.99897265 0.9926963
0.9976064 1.0051363 1.0062132 1.0057232 0.9935056 0.99628055 1.0008708 1.0066483
0.9988865 1.0048429 0.9983952 1.0029548 1.0009077 1.0025718 1.0003544 0.996446
1.0016626 1.0025775 1.0015687 1.0011483 1.0041689 1.0060186 1.0074118 1.0041226
1.0041523 0.99263614 1.0017902 1.0016714 1.00227 0.99161553 1.0050464 0.99729055
0.99770457 1.0014576 1.0015452 0.99815667 0.9969068 1.0074337 1.0058537 1.0035912
00000000: ada2 7e3f 8a88 7f3f 24d5 7f3f 3442 803f
00000010: 9b8b 803f 6f15 803f 5e94 7f3f eb90 803f
00000020: 7336 7f3f d73f 803f 5d28 7f3f d71f 803f
00000030: b8e6 7f3f 2fb0 7f3f eea6 7f3f 97a9 7f3f
00000040: 5d4e 803f aeb5 7f3f c545 803f ae4c 7f3f
00000050: c230 803f eace 803f 38d2 7f3f c57f 7f3f
00000060: 4316 7f3f 2731 803f c7df 803f 5bbc 803f
00000070: 7c9a 7e3f 6edc 7f3f 9ca6 803f 4257 803f
00000080: 50c4 7e3f fa77 7f3f f2b1 7e3f 7afd 803f
00000090: 6873 7f3f 710d 7f3f 5244 7f3f 9cf0 7e3f
000000a0: 628a 803f f7bb 7e3f b58d 7f3f a061 803f
000000b0: 1318 7f3f d628 803f c4c6 7f3f 45b0 7f3f
000000c0: e452 7e3f ab56 803f f988 803f 9681 7f3f
000000d0: 840a 803f 7d56 803f b104 7f3f 35cb 7e3f
000000e0: c169 803f ff1a 813f fb1a 803f 1d67 803f
000000f0: 81c8 7e3f b2cd 7f3f 561b 7f3f ee92 7f3f
00000100: 994a 7f3f 2a3c 813f c708 803f f52e 7f3f
00000110: 30e2 7e3f fd5a 7f3f 07d5 803f 5cf7 7e3f
00000120: d925 803f 3ba9 803f 4e59 7f3f 72fc 7d3f
00000130: efd0 803f 8fc8 803f 85e0 803f 0516 7f3f
00000140: 02d8 7f3f 4beb 7f3f c064 803f 8877 7f3f
00000150: 8392 803f 9fee 803f acbc 7f3f 5821 7e3f
00000160: 2263 7f3f 4ea8 803f 98cb 803f 8abb 803f
00000170: 6256 7e3f 3e0c 7f3f 891c 803f dad9 803f
00000180: 07b7 7f3f b19e 803f d496 7f3f d360 803f
00000190: be1d 803f 4654 803f 9d0b 803f 1617 7f3f
000001a0: 7b36 803f 7654 803f 6733 803f a125 803f
000001b0: 9b88 803f 38c5 803f dff2 803f 1787 803f
000001c0: 1088 803f 671d 7e3f a93a 803f c536 803f
000001d0: 624a 803f 84da 7d3f 5ca5 803f 6f4e 7f3f
000001e0: 9169 7f3f c32f 803f a232 803f 3287 7f3f
000001f0: 4935 7f3f 96f3 803f d0bf 803f ad75 803f

bn.bias f4 [128]
0.006102754 -0.006314469 -0.007170295 0.007999532 0.0006293948 0.0094841225 0.0053053335 -0.0018951637
0.005603153 0.0051835235 0.00558467 -0.0019538507 0.005257386 0.0039877566 0.0012825604 -0.006029114
0.0027589325 -0.0026855075 -0.0057110465 -0.0003211141 -0.0062319455 -0.00014721396 0.0013885134 -0.0018681809
0.008059956 -0.00036846535 -0.0059779934 0.0055264416 -0.007525403 0.006322838 0.0002821293 -0.00029305095
0.006952061 -0.0012047805 -0.007469742 -0.00013530944 0.007459048 0.005342207 -0.00421753 0.009836683
-0.0064046225 0.0022208362 -0.009022199 0.00308965 0.0032086526 -0.00096522877 0.00703606 -0.0074139815
0.0013681196 -0.0066769845 -0.0023532743 -0.001669612 0.006953582 -0.0012623777 -0.0020676262 -0.001372212
-0.00026771234 0.0069764634 0.0037578435 0.00076751725 -0.0044204947 0.0024448985 -0.00040899846 -0.002812696
0.0057537053 -0.005882618 -0.0041118246 0.0033591236 -0.005891352 0.0047159214 -0.00088871364 0.004525991
0.0051699155 0.0016226363 -0.00019438416 0.00084828207 0.004406977 -0.002514047 -0.005144702 0.0047765444
0.0046304716 0.008385802 -0.005222687 -0.0046621854 -0.0076977657 0.00048767801 0.0025631674 0.0056605292
0.006758905 -0.002404021 -0.0030159603 0.0067995125 0.007767532 -0.0031681648 0.004491668 0.0028850944
-0.0020763692 -0.0053952276 0.0039403704 0.006285784 -0.005765132 -0.007163822 -0.0059370873 -0.005253038
-0.007571179 0.0079312045 0.003439119 -0.005472662 -0.0015190389 0.0010309498 -0.008797459 -0.005994512
-0.006675834 0.006173713 -0.0051002963 -0.0050672395 0.0073715677 -0.007324975 0.00417744 0.004428687
0.0075740106 0.0003704263 0.008912404 -0.007878663 -0.001188353 0.0074568847 -0.001007306 0.0049106493
00000000: 9cf9 c73b 9be9 cebb cbf4 eabb 7810 033c
00000010: f8fd 243a 4b63 1b3c 5dd8 ad3b 2467 f8ba
00000020: a79a b73b 8cda a93b 9cff b63b 2d0c 00bb
00000030: 2646 ac3b baab 823b 961b a83a e08f c5bb
00000040: 35cf 343b 57ff 2fbb bb23 bbbb 345b a8b9
00000050: 5935 ccbb 725d 1ab9 c7fe b53a c0dd f4ba
00000060: e80d 043c 952e c1b9 0be3 c3bb 2717 b53b
00000070: a897 f6bb cf2f cf3b c1ea 9339 a2a4 99b9
00000080: 1dce e33b bae9 9dba bdc4 f4bb dae1 0db9
00000090: 086b f43b ae0d af3b 3533 8abb 0a2a 213c
000000a0: dedd d1bb 738b 113b d8d1 13bc ba7b 4a3b
000000b0: 4248 523b 6807 7dba c08e e63b fcf0 f2bb
000000c0: 7a52 b33a 9bca dabb 6439 1abb e2d6 daba
000000d0: e0da e33b 5e76 a5ba 0381 07bb cbdb b3ba
000000e0: be5b 8cb9 d19a e43b 2746 763b 3633 493a
000000f0: ccd9 90bb 973a 203b d86e d6b9 3555 38bb
00000100: 9489 bc3b fac2 c0bb 7cbc 86bb be24 5c3b
00000110: 3e0c c1bb 0488 9a3b 90f8 68ba c44e 943b
00000120: 6568 a93b a4ae d43a 9ad3 4bb9 3f5f 5e3a
00000130: 6768 903b b6c2 24bb e394 a8bb 8f84 9c3b
00000140: 36bb 973b 9a64 093c 1323 abbb 3fc5 98bb
00000150: 8a3d fcbb 09af ff39 d0fa 273b f67b b93b
00000160: ce79 dd3b c88c 1dbb 6ba7 45bb 72ce de3b
00000170: c886 fe3b fca0 4fbb d82e 933b da13 3d3b
00000180: b213 08bb 73ca b0bb 391e 813b faf8 cd3b
00000190: 6fe9 bcbb 7fbe eabb e68b c2bb ad21 acbb
000001a0: a717 f8bb e2f1 013c d862 613b 0454 b3bb
000001b0: 7d1a c7ba ef20 873a 3823 10bc 9c6d c4bb
000001c0: f4c0 dabb dc4c ca3b 6320 a7bb 160b a6bb
000001d0: 318d f13b 5806 f0bb e8e2 883b 851e 913b
000001e0: 682f f83b c735 c239 5505 123c 8215 01bc
000001f0: 83c2 9bba e258 f43b 9507 84ba 83e9 a03b

bn.running_mean f4 [128]
0.013791326 0.032400765 -0.027427468 -0.04648852 0.049044535 0.007552719 -0.020199383 -0.0188122
0.03367494 -0.021643814 -0.03939673 -0.018645763 0.02179756 0.0063822665 0.03429673 0.009482078
-0.030177657 0.008745419 0.0060607195 -0.019398155 0.025976596 0.007175375 0.050718695 0.0126216635
0.011692611 0.022446724 -0.0052728266 0.008442963 0.00035651398 -0.002555155 0.026221521 0.042346444
0.020195995 -0.024134994 0.03735405 -0.028920988 0.025819892 -0.013176337 0.001821374 0.0053444915
0.008834165 -0.0047898362 -0.012340356 -0.033973217 0.043628402 -0.0075276736 -0.06322691 -0.0345585
0.015033593 -0.01630659 -0.03485505 -0.009437804 -0.016511891 0.0023219727 0.013320106 -0.0070692883
0.005089113 -0.05517912 -0.013098047 -0.031584926 -0.02854103 0.022674344 -0.03020405 0.019341195
-0.03488476 0.013865023 -0.050664335 0.0046443306 0.027509427 0.0065597645 -0.0030443233 0.009600064
0.018605007 -0.103765495 0.02827184 0.06574866 0.06256931 -0.0021621536 0.01727401 0.014738193
0.03111349 -0.033942994 -0.03906928 -0.022770522 -0.01629707 -0.02361385 0.040010262 -0.0061852867
-0.089111775 -0.069897786 0.0136799775 -0.024063151 0.047524806 0.017850162 -0.00758496 0.037853353
0.04668963 -0.0021283661 -0.042692192 0.016235175 0.04360447 -0.010821497 0.010589138 0.021594541
0.019340493 -0.056357555 0.09991487 0.008942724 0.023635026 0.023118528 0.0032249019 0.013733284
0.027567456 -0.0327337 0.0025189312 -0.04807055 0.011484308 0.036833696 0.03324557 0.01330115
0.038898136 -0.03262754 0.015154658 0.02149118 0.006674063 0.0022933204 0.036678426 -0.029944075
00000000: 04f5 613c aab6 043d 92af e0bc bf6a 3ebd
00000010: ece2 483d cd7c f73b 2d79 a5bc 0b1c 9abc
00000020: bcee 093d 5e4e b1bc 775e 21bd 00bf 98bc
00000030: cc90 b23c 5522 d13b ba7a 0c3d b85a 1b3c
00000040: 2237 f7bc f248 0f3c 0099 c63b e1e8 9ebc
00000050: dfcc d43c 681f eb3b 68be 4f3d 18cb 4e3c
00000060: 5d92 3f3c 31e2 b73c adc7 acbb 5a54 0a3c
00000070: 7fea ba39 6374 27bb 84ce d63c 7773 2d3d
00000080: 1272 a53c c0b6 c5bc 8f00 193d b5eb ecbc
00000090: 3d84 d33c 90e1 57bc 2cbb ee3a d820 af3b
000000a0: 2cbd 103c 0ff4 9cbb 342f 4abc 8027 0bbd
000000b0: b2b3 323d b4aa f6bb 1c7d 81bd 378d 0dbd
000000c0: 764f 763c 6695 85bc 2bc4 0ebd 05a1 1abc
000000d0: f243 87bc 3d2c 183b 933c 5a3c 7da5 e7bb
000000e0: 93c2 a63b 8003 62bd 3199 56bc 325f 01bd
000000f0: e1ce e9bc 8cbf b93c 7c6e f7bc 6d71 9e3c
00000100: 52e3 0ebd 1f2a 633c 6885 4fbd 782f 983b
00000110: 735b e13c 4bf3 d63b 4583 47bb 9649 1d3c
00000120: 8769 983c 0183 d4bd 599a e73c 3ca7 863d
00000130: 5724 803d ebb2 0dbb 3a82 8d3c 7678 713c
00000140: b8e1 fe3c cf07 0bbd 1c07 20bd 3f89 babc
00000150: 6f81 85bc d571 c1bc cde1 233d f2ad cabb
00000160: 3c80 b6bd 9226 8fbd fc21 603c 1620 c5bc
00000170: 5fa9 423d 813a 923c 428b f8bb 1e0c 1b3d
00000180: a03d 3f3d 0f7c 0bbb 02de 2ebd a1ff 843c
00000190: 9a9a 323d a64c 31bc 107e 2d3c 09e7 b03c
000001a0: f46f 9e3c 2ed7 66bd 2ba0 cc3d 8184 123c
000001b0: 3e9e c13c 1163 bd3c e058 533b 9101 613c
000001c0: 25d5 e13c c613 06bd a714 253b a0e5 44bd
000001d0: ae28 3c3c eede 163d 822c 083d 11ed 593c
000001e0: a753 1f3d 75a4 05bd 3e4b 783c 450e b03c
000001f0: 19b2 da3b 884b 163b 1e3c 163d 474d f5bc

bn.running_var f4 [128]
2.4628525e-05 0.00023896432 0.00021428775 0.00043246368 0.000547761 7.939741e-06 0.00013760156 4.100672e-05
0.00017473128 9.244706e-05 0.00040675225 7.873832e-05 0.00012512626 2.8052324e-05 0.00022969926 1.8994237e-05
0.00015095003 7.2769794e-06 3.698526e-06 6.853197e-05 0.0001214058 1.4058174e-05 0.0006312645 6.256443e-05
2.5830806e-05 9.3236944e-05 2.701794e-05 3.85904e-05 1.4274538e-05 7.2992825e-06 0.000121310186 0.0003544923
5.044969e-05 0.00012768502 0.00031404765 9.919272e-05 0.00017220622 4.775839e-05 2.3108437e-06 6.330101e-06
1.2594542e-05 2.2536731e-05 1.4290584e-05 0.00012778587 0.00054529094 4.961475e-06 0.0006339651 0.00021855351
9.086827e-05 9.41546e-05 0.00031695733 8.898176e-06 5.441568e-05 2.6495236e-05 3.9697778e-05 4.6461373e-06
9.303007e-06 0.00054009905 2.3901815e-05 0.00018348648 0.00015493768 0.00016858008 0.00016990879 6.9156136e-05
0.00029774802 2.6967491e-05 0.00047165513 5.8637797e-06 0.00013985358 2.8826313e-05 2.481258e-05 1.724336e-05
0.000116090625 0.0020694954 0.00017566152 0.0011169885 0.0006276134 6.9820167e-06 2.6070593e-05 4.3315493e-05
0.00023908254 0.00019141518 0.00036968125 6.6420056e-05 7.558216e-05 6.790925e-05 0.00023516882 2.2867238e-05
0.0016937326 0.0010886069 2.1144902e-05 8.8654306e-05 0.00062063284 0.00022998547 9.812317e-06 0.0002247739
0.0004267348 1.4980122e-06 0.00039401764 7.321374e-05 0.00030311727 6.475003e-05 3.411507e-05 4.8064605e-05
5.988567e-05 0.0008259021 0.002012066 7.1458203e-06 7.810496e-05 7.404863e-05 1.1714719e-06 2.954364e-05
9.479755e-05 0.00025246435 5.5757494e-07 0.00043737015 0.0001378119 0.0003877735 0.00017276697 1.827324e-05
0.0002852791 0.00017262064 8.067764e-05 0.00013811937 7.2058688e-06 5.8736605e-06 0.00036588084 0.0001171283
00000000: 5b99 ce37 7f92 7a39 6eb2 6039 4bbc e239
00000010: 9e97 0f3a ee34 0537 2349 1039 a1fe 2b38
00000020: 1238 3739 23e0 c138 5d41 d539 5020 a538
00000030: 5334 0339 e851 eb37 6ddb 7039 d055 9f37
00000040: 5748 1e39 c72c f436 3134 7836 d2b8 8f38
00000050: 3e9b fe38 66db 6b37 727b 253a 0635 8338
00000060: 3caf d837 3488 c338 96a4 e237 20dc 2138
00000070: ad7c 6f37 5cec f436 e967 fe38 27db b939
00000080: f199 5338 30e3 0539 c3a6 a439 b005 d038
00000090: 4192 3439 2e50 4838 fe13 1b36 2767 d436
000000a0: 254d 5337 430d bd37 97c1 6f37 42fe 0539
000000b0: dbf1 0e3a bf7a a636 ad30 263a 832b 6539
000000c0: 8890 be38 de74 c538 4b2d a639 6049 1537
000000d0: 643c 6438 1642 de37 2a81 2638 04e6 9b36
000000e0: 1c14 1c37 6f95 0d3a c280 c837 4766 4039
000000f0: c476 2239 dfc4 3039 8b29 3239 eb07 9138
00000100: 101b 9c39 3f38 e237 7b48 f739 7cc1 c436
00000110: a9a5 1239 09d0 f137 9c24 d037 d5a5 9037
00000120: ae75 f338 5fa0 073b c831 3839 ea67 923a
00000130: 6c86 243a 1147 ea36 2cb2 da37 a8ad 3538
00000140: 3bb2 7a39 9fb6 4839 c7d1 c139 ff4a 8b38
00000150: dd81 9e38 806a 8e38 a697 7639 05d3 bf37
00000160: 3c00 de3a 96af 8e3a 5560 b137 ebeb b938
00000170: f7b1 223a 4128 7139 959f 2437 49b1 6b39
00000180: 60bb df39 4f0f c935 2794 ce39 548a 9938
00000190: b6eb 9e39 68ca 8738 c716 0f38 fa98 4938
000001a0: c02d 7b38 5a81 583a dedc 033b 21c6 ef36
000001b0: 48cc a338 8e4a 9b38 783b 9d35 7cd4 f737
000001c0: 0cce c638 315d 8439 42ac 1535 d44e e539
000001d0: 9a81 1039 144e cb39 c828 3539 7c49 9937
000001e0: 8391 9539 8001 3539 7a31 a938 23d4 1039
000001f0: f1c9 f136 5c16 c536 b2d3 bf39 c7a2 f538

bn1.weight f4 [128]
1.0 1.0 1.0 1.0 1.0 1.0 1.0 1.0
1.0 1.0 1.0 1.0 1.0 1.0 1.0 1.0
1.0 1.0 1.0 1.0 1.0 1.0 1.0 1.0
1.0 1.0 1.0 1.0 1.0 1.0 1.0 1.0
1.0 1.0 1.0 1.0 1.0 1.0 1.0 1.0
1.0 1.0 1.0 1.0 1.0 1.0 1.0 1.0
1.0 1.0 1.0 1.0 1.0 1.0 1.0 1.0
1.0 1.0 1.0 1.0 1.0 1.0 1.0 1.0
1.0 1.0 1.0 1.0 1.0 1.0 1.0 1.0
1.0 1.0 1.0 1.0 1.0 1.0 1.0 1.0
1.0 1.0 1.0 1.0 1.0 1.0 1.0 1.0
1.0 1.0 1.0 1.0 1.0 1.0 1.0 1.0
1.0 1.0 1.0 1.0 1.0 1.0 1.0 1.0
1.0 1.0 1.0 1.0 1.0 1.0 1.0 1.0
1.0 1.0 1.0 1.0 1.0 1.0 1.0 1.0
1.0 1.0 1.0 1.0 1.0 1.0 1.0 1.0
00000000: 0000 803f 0000 803f 0000 803f 0000 803f
00000010: 0000 803f 0000 803f 0000 803f 0000 803f
00000020: 0000 803f 0000 803f 0000 803f 0000 803f
00000030: 0000 803f 0000 803f 0000 803f 0000 803f
00000040: 0000 803f 0000 803f 0000 803f 0000 803f
00000050: 0000 803f 0000 803f 0000 803f 0000 803f
00000060: 0000 803f 0000 803f 0000 803f 0000 803f
00000070: 0000 803f 0000 803f 0000 803f 0000 803f
00000080: 0000 803f 0000 803f 0000 803f 0000 803f
00000090: 0000 803f 0000 803f 0000 803f 0000 803f
000000a0: 0000 803f 0000 803f 0000 803f 0000 803f
000000b0: 0000 803f 0000 803f 0000 803f 0000 803f
000000c0: 0000 803f 0000 803f 0000 803f 0000 803f
000000d0: 0000 803f 0000 803f 0000 803f 0000 803f
000000e0: 0000 803f 0000 803f 0000 803f 0000 803f
000000f0: 0000 803f 0000 803f 0000 803f 0000 803f
00000100: 0000 803f 0000 803f 0000 803f 0000 803f
00000110: 0000 803f 0000 803f 0000 803f 0000 803f
00000120: 0000 803f 0000 803f 0000 803f 0000 803f
00000130: 0000 803f 0000 803f 0000 803f 0000 803f
00000140: 0000 803f 0000 803f 0000 803f 0000 803f
00000150: 0000 803f 0000 803f 0000 803f 0000 803f
00000160: 0000 803f 0000 803f 0000 803f 0000 803f
00000170: 0000 803f 0000 803f 0000 803f 0000 803f
00000180: 0000 803f 0000 803f 0000 803f 0000 803f
00000190: 0000 803f 0000 803f 0000 803f 0000 803f
000001a0: 0000 803f 0000 803f 0000 803f 0000 803f
000001b0: 0000 803f 0000 803f 0000 803f 0000 803f
000001c0: 0000 803f 0000 803f 0000 803f 0000 803f
000001d0: 0000 803f 0000 803f 0000 803f 0000 803f
000001e0: 0000 803f 0000 803f 0000 803f 0000 803f
000001f0: 0000 803f 0000 803f 0000 803f 0000 803f

bn1.bias f4 [128]
0.0 0.0 0.0 0.0 0.0 0.0 0.0 0.0
0.0 0.0 0.0 0.0 0.0 0.0 0.0 0.0
0.0 0.0 0.0 0.0 0.0 0.0 0.0 0.0
0.0 0.0 0.0 0.0 0.0 0.0 0.0 0.0
0.0 0.0 0.0 0.0 0.0 0.0 0.0 0.0
0.0 0.0 0.0 0.0 0.0 0.0 0.0 0.0
0.0 0.0 0.0 0.0 0.0 0.0 0.0 0.0
0.0 0.0 0.0 0.0 0.0 0.0 0.0 0.0
0.0 0.0 0.0 0.0 0.0 0.0 0.0 0.0
0.0 0.0 0.0 0.0 0.0 0.0 0.0 0.0
0.0 0.0 0.0 0.0 0.0 0.0 0.0 0.0
0.0 0.0 0.0 0.0 0.0 0.0 0.0 0.0
0.0 0.0 0.0 0.0 0.0 0.0 0.0 0.0
0.0 0.0 0.0 0.0 0.0 0.0 0.0 0.0
0.0 0.0 0.0 0.0 0.0 0.0 0.0 0.0
0.0 0.0 0.0 0.0 0.0 0.0 0.0 0.0
00000000: 0000 0000 0000 0000 0000 0000 0000 0000
00000010: 0000 0000 0000 0000 0000 0000 0000 0000
00000020: 0000 0000 0000 0000 0000 0000 0000 0000
00000030: 0000 0000 0000 0000 0000 0000 0000 0000
00000040: 0000 0000 0000 0000 0000 0000 0000 0000
00000050: 0000 0000 0000 0000 0000 0000 0000 0000
00000060: 0000 0000 0000 0000 0000 0000 0000 0000
00000070: 0000 0000 0000 0000 0000 0000 0000 0000
00000080: 0000 0000 0000 0000 0000 0000 0000 0000
00000090: 0000 0000 0000 0000 0000 0000 0000 0000
000000a0: 0000 0000 0000 0000 0000 0000 0000 0000
000000b0: 0000 0000 0000 0000 0000 0000 0000 0000
000000c0: 0000 0000 0000 0000 0000 0000 0000 0000
000000d0: 0000 0000 0000 0000 0000 0000 0000 0000
000000e0: 0000 0000 0000 0000 0000 0000 0000 0000
000000f0: 0000 0000 0000 0000 0000 0000 0000 0000
00000100: 0000 0000 0000 0000 0000 0000 0000 0000
00000110: 0000 0000 0000 0000 0000 0000 0000 0000
00000120: 0000 0000 0000 0000 0000 0000 0000 0000
00000130: 0000 0000 0000 0000 0000 0000 0000 0000
00000140: 0000 0000 0000 0000 0000 0000 0000 0000
00000150: 0000 0000 0000 0000 0000 0000 0000 0000
00000160: 0000 0000 0000 0000 0000 0000 0000 0000
00000170: 0000 0000 0000 0000 0000 0000 0000 0000
00000180: 0000 0000 0000 0000 0000 0000 0000 0000
00000190: 0000 0000 0000 0000 0000 0000 0000 0000
000001a0: 0000 0000 0000 0000 0000 0000 0000 0000
000001b0: 0000 0000 0000 0000 0000 0000 0000 0000
000001c0: 0000 0000 0000 0000 0000 0000 0000 0000
000001d0: 0000 0000 0000 0000 0000 0000 0000 0000
000001e0: 0000 0000 0000 0000 0000 0000 0000 0000
000001f0: 0000 0000 0000 0000 0000 0000 0000 0000

bn1.running_mean f4 [128]
0.0 0.0 0.0 0.0 0.0 0.0 0.0 0.0
0.0 0.0 0.0 0.0 0.0 0.0 0.0 0.0
0.0 0.0 0.0 0.0 0.0 0.0 0.0 0.0
0.0 0.0 0.0 0.0 0.0 0.0 0.0 0.0
0.0 0.0 0.0 0.0 0.0 0.0 0.0 0.0
0.0 0.0 0.0 0.0 0.0 0.0 0.0 0.0
0.0 0.0 0.0 0.0 0.0 0.0 0.0 0.0
0.0 0.0 0.0 0.0 0.0 0.0 0.0 0.0
0.0 0.0 0.0 0.0 0.0 0.0 0.0 0.0
0.0 0.0 0.0 0.0 0.0 0.0 0.0 0.0
0.0 0.0 0.0 0.0 0.0 0.0 0.0 0.0
0.0 0.0 0.0 0.0 0.0 0.0 0.0 0.0
0.0 0.0 0.0 0.0 0.0 0.0 0.0 0.0
0.0 0.0 0.0 0.0 0.0 0.0 0.0 0.0
0.0 0.0 0.0 0.0 0.0 0.0 0.0 0.0
0.0 0.0 0.0 0.0 0.0 0.0 0.0 0.0
00000000: 0000 0000 0000 0000 0000 0000 0000 0000
00000010: 0000 0000 0000 0000 0000 0000 0000 0000
00000020: 0000 0000 0000 0000 0000 0000 0000 0000
00000030: 0000 0000 0000 0000 0000 0000 0000 0000
00000040: 0000 0000 0000 0000 0000 0000 0000 0000
00000050: 0000 0000 0000 0000 0000 0000 0000 0000
00000060: 0000 0000 0000 0000 0000 0000 0000 0000
00000070: 0000 0000 0000 0000 0000 0000 0000 0000
00000080: 0000 0000 0000 0000 0000 0000 0000 0000
00000090: 0000 0000 0000 0000 0000 0000 0000 0000
000000a0: 0000 0000 0000 0000 0000 0000 0000 0000
000000b0: 0000 0000 0000 0000 0000 0000 0000 0000
000000c0: 0000 0000 0000 0000 0000 0000 0000 0000
000000d0: 0000 0000 0000 0000 0000 0000 0000 0000
000000e0: 0000 0000 0000 0000 0000 0000 0000 0000
000000f0: 0000 0000 0000 0000 0000 0000 0000 0000
00000100: 0000 0000 0000 0000 0000 0000 0000 0000
00000110: 0000 0000 0000 0000 0000 0000 0000 0000
00000120: 0000 0000 0000 0000 0000 0000 0000 0000
00000130: 0000 0000 0000 0000 0000 0000 0000 0000
00000140: 0000 0000 0000 0000 0000 0000 0000 0000
00000150: 0000 0000 0000 0000 0000 0000 0000 0000
00000160: 0000 0000 0000 0000 0000 0000 0000 0000
00000170: 0000 0000 0000 0000 0000 0000 0000 0000
00000180: 0000 0000 0000 0000 0000 0000 0000 0000
00000190: 0000 0000 0000 0000 0000 0000 0000 0000
000001a0: 0000 0000 0000 0000 0000 0000 0000 0000
000001b0: 0000 0000 0000 0000 0000 0000 0000 0000
000001c0: 0000 0000 0000 0000 0000 0000 0000 0000
000001d0: 0000 0000 0000 0000 0000 0000 0000 0000
000001e0: 0000 0000 0000 0000 0000 0000 0000 0000
000001f0: 0000 0000 0000 0000 0000 0000 0000 0000

bn1.running_var f4 [128]
1.0 1.0 1.0 1.0 1.0 1.0 1.0 1.0
1.0 1.0 1.0 1.0 1.0 1.0 1.0 1.0
1.0 1.0 1.0 1.0 1.0 1.0 1.0 1.0
1.0 1.0 1.0 1.0 1.0 1.0 1.0 1.0
1.0 1.0 1.0 1.0 1.0 1.0 1.0 1.0
1.0 1.0 1.0 1.0 1.0 1.0 1.0 1.0
1.0 1.0 1.0 1.0 1.0 1.0 1.0 1.0
1.0 1.0 1.0 1.0 1.0 1.0 1.0 1.0
1.0 1.0 1.0 1.0 1.0 1.0 1.0 1.0
1.0 1.0 1.0 1.0 1.0 1.0 1.0 1.0
1.0 1.0 1.0 1.0 1.0 1.0 1.0 1.0
1.0 1.0 1.0 1.0 1.0 1.0 1.0 1.0
1.0 1.0 1.0 1.0 1.0 1.0 1.0 1.0
1.0 1.0 1.0 1.0 1.0 1.0 1.0 1.0
1.0 1.0 1.0 1.0 1.0 1.0 1.0 1.0
1.0 1.0 1.0 1.0 1.0 1.0 1.0 1.0
00000000: 0000 803f 0000 803f 0000 803f 0000 803f
00000010: 0000 803f 0000 803f 0000 803f 0000 803f
00000020: 0000 803f 0000 803f 0000 803f 0000 803f
00000030: 0000 803f 0000 803f 0000 803f 0000 803f
00000040: 0000 803f 0000 803f 0000 803f 0000 803f
00000050: 0000 803f 0000 803f 0000 803f 0000 803f
00000060: 0000 803f 0000 803f 0000 803f 0000 803f
00000070: 0000 803f 0000 803f 0000 803f 0000 803f
00000080: 0000 803f 0000 803f 0000 803f 0000 803f
00000090: 0000 803f 0000 803f 0000 803f 0000 803f
000000a0: 0000 803f 0000 803f 0000 803f 0000 803f
000000b0: 0000 803f 0000 803f 0000 803f 0000 803f
000000c0: 0000 803f 0000 803f 0000 803f 0000 803f
000000d0: 0000 803f 0000 803f 0000 803f 0000 803f
000000e0: 0000 803f 0000 803f 0000 803f 0000 803f
000000f0: 0000 803f 0000 803f 0000 803f 0000 803f
00000100: 0000 803f 0000 803f 0000 803f 0000 803f
00000110: 0000 803f 0000 803f 0000 803f 0000 803f
00000120: 0000 803f 0000 803f 0000 803f 0000 803f
00000130: 0000 803f 0000 803f 0000 803f 0000 803f
00000140: 0000 803f 0000 803f 0000 803f 0000 803f
00000150: 0000 803f 0000 803f 0000 803f 0000 803f
00000160: 0000 803f 0000 803f 0000 803f 0000 803f
00000170: 0000 803f 0000 803f 0000 803f 0000 803f
00000180: 0000 803f 0000 803f 0000 803f 0000 803f
00000190: 0000 803f 0000 803f 0000 803f 0000 803f
000001a0: 0000 803f 0000 803f 0000 803f 0000 803f
000001b0: 0000 803f 0000 803f 0000 803f 0000 803f
000001c0: 0000 803f 0000 803f 0000 803f 0000 803f
000001d0: 0000 803f 0000 803f 0000 803f 0000 803f
000001e0: 0000 803f 0000 803f 0000 803f 0000 803f
000001f0: 0000 803f 0000 803f 0000 803f 0000 803f

fc2.weight f4 [128, 2]
0.03014241 0.062859006 0.09557491 -0.023847409 -0.08956247 0.080141395 -0.12900032 -0.022120561
0.14470144 -0.036300108 0.017278008 0.029132871 -0.07102839 0.09406836 -0.0380287 -0.10715111
0.08166599 0.09761273 -0.059659984 -0.013101549 -0.12394647 0.082542494 -0.0548732 0.012823949
0.06872805 -0.046717815 0.030377679 -0.08474375 0.09404378 0.024113981 0.027001498 -0.00029881918
-0.07614454 -0.06701165 0.014503666 0.07184724 0.010799732 0.04463585 -0.051376574 -0.026176987
0.06838607 0.037985872 -0.0049314513 0.17552091 0.15488672 -0.073850796 0.047388673 -0.079591595
0.03154727 0.011810621 0.05992967 0.026985424 -0.029025849 0.09722192 0.03631109 -0.08525105
0.017508712 -0.11421954 -0.014928196 0.053084526 0.06834381 0.043085463 0.116810635 0.024948474
0.04280631 0.10130396 -0.06994748 0.009144135 0.10961164 -0.023491114 -0.059484184 -0.15761615
0.08071391 -0.050447695 -0.042362984 0.033913806 -0.004124716 0.06447326 0.015575238 -0.0025780047
0.021980347 0.021810146 -0.02648356 0.0891582 -0.020026943 -0.104354866 -0.06621412 -0.21052235
0.1428301 -0.12996444 -0.009995605 -0.07910231 -0.15577321 -0.16632628 -0.09175058 -0.045113537
0.057001233 -0.09874324 -0.058551766 0.08440026 -0.10943685 0.071502 -0.007096539 -0.13672574
-0.045765083 -0.00825633 0.025953105 -0.13409008 0.03898662 -0.007624717 -0.0064988737 -0.09423091
-0.00557599 0.13889019 -0.1442101 -0.08791786 -0.029978143 -0.050399143 -0.08408083 -0.039749436
-0.07725554 -0.027052686 0.0787565 -0.09890545 -0.08091674 -0.034508232 0.05162887 0.023426462
-0.10639237 0.04978982 0.03186119 0.052441258 -0.13479723 -0.064213306 0.014849142 -0.01140707
0.07340092 0.033411123 0.030870229 -0.08458789 0.01829748 -0.18668152 -0.0016088338 0.20026931
0.0652582 -0.085561074 -0.28232542 -0.08826382 0.08203195 -0.011402386 0.20555164 -0.12867495
0.15506963 0.15829636 -0.014294161 0.05645994 0.022246294 0.18616587 0.040835798 0.0074909492
0.09529909 -0.047219504 -0.085738115 -0.07464608 -0.11859557 0.051933598 -0.049416915 -0.106211945
-0.053197615 0.047459107 -0.04951249 -0.12218018 0.09444344 0.1338581 -0.027738586 0.07030657
-0.25495756 0.010817067 -0.20414001 0.037284866 0.027113708 0.0816681 -0.05815446 -0.07117704
0.15273236 -0.12179844 0.086680286 -0.24874806 -0.019436082 -0.014837294 0.09270658 0.103407346
0.12818207 0.03176325 0.0020582972 -0.056219503 -0.12293673 0.010586906 0.052422423 -0.043345965
0.107737705 0.11257184 -0.04696226 0.112154126 0.03559903 -0.037999105 0.03941193 0.15237038
0.047902003 0.04917149 -0.1766885 0.1137798 0.27822313 0.040847413 0.013073729 0.085616454
0.054198407 0.09014423 0.052719362 0.09019424 0.0017459106 0.05146235 0.033614688 0.03770203
0.058771525 0.13591276 -0.098112255 0.034869395 0.0034424944 0.025821099 -0.1297966 -0.047736194
0.065207124 -0.22542931 0.120457195 -0.10886592 0.08126905 0.09191771 0.024326857 0.0935001
0.10483433 0.040016208 -0.08136623 -0.07908824 0.054241717 -0.07713822 0.07170553 -0.07333393
0.01662745 0.016326118 0.013390624 -0.047605768 0.11732873 -0.090255365 -0.06582043 -0.1338949
00000000: 37ed f63c 39bc 803d c7bc c33d a45b c3bc
00000010: 876c b7bd 2c21 a43d a918 04be 2e36 b5bc
00000020: 9d2c 143e 6caf 14bd 9c8a 8d3c 0fa8 ee3c
00000030: 5577 91bd eaa6 c03d fbc3 1bbd 0b72 dbbd
00000040: 8040 a73d 2fe9 c73d 075e 74bd e1a7 56bc
00000050: a6d7 fdbd 0a0c a93d b8c2 60bd 8a1b 523c
00000060: 4bc1 8c3d 2e5b 3fbd 9cda f83c 228e adbd
00000070: 069a c03d af8a c53c 3f32 dd3c d5aa 9cb9
00000080: abf1 9bbd 673d 89bd c9a0 6d3c a524 933d
00000090: 5cf1 303c 15d4 363d 3e70 52bd 1f71 d6bc
000000a0: ff0d 8c3d 1397 1b3d 0398 a1bb c1bb 333e
000000b0: a09a 1e3e 163f 97bd a01a 423d eb00 a3bd
000000c0: b637 013d 5681 413c d078 753d 8910 dd3c
000000d0: 9ec7 edbc 491c c73d f0ba 143d 1a98 aebd
000000e0: 6e6e 8f3c efeb e9bd 6495 74bc 296f 593d
000000f0: d7f7 8b3d 627a 303d 6a3a ef3d be60 cc3c
00000100: ab55 2f3d 7378 cf3d a040 8fbd 48d1 153c
00000110: 117c e03d 7070 c0bc b0a5 73bd 2166 21be
00000120: 564d a53d 3ea2 4ebd cf84 2dbd 34e9 0a3d
00000130: a028 87bb 8e0a 843d 482f 7f3c bef3 28bb
00000140: 2110 b43c 31ab b23c 0df4 d8bc 9398 b63d
00000150: 8b0f a4bc 01b8 d5bd 459b 87bd 2c93 57be
00000160: 0e42 123e 6615 05be 9bc4 23bc 6400 a2bd
00000170: 0383 1fbe 7051 2abe bae7 bbbd f9c8 38bd
00000180: 207a 693d e539 cabd fad3 6fbd 0bda ac3d
00000190: 6d20 e0bd a46f 923d 158a e8bb d501 0cbe
000001a0: 2b74 3bbd 8f45 07bc 9b9b d43c e94e 09be
000001b0: 6fb0 1f3d c3d8 f9bb 81f4 d4bb 23fc c0bd
000001c0: cbb6 b6bb 3b39 0e3e d0ab 13be 470e b4bd
000001d0: b994 f5bc 556f 4ebd 9232 acbd 4ed0 22bd
000001e0: 2738 9ebd 989d ddbc 164b a13d f18e cabd
000001f0: adb7 a5bd 8158 0dbd cb78 533d dae8 bf3c
00000200: 3ee4 d9bd 69f0 4b3d e180 023d a5cc 563d
00000210: 4908 0abe 4482 83bd d149 733c b8e4 3abc
00000220: 3953 963d 1ada 083d 90e3 fc3c 6a3c adbd
00000230: 99e4 953c 7129 3fbe 81df d2ba 6613 4d3e
00000240: 17a6 853d a53a afbd f58c 90be a9c3 b4bd
00000250: 5e00 a83d 13d1 3abc 217c 523e 5ec3 03be
00000260: 93ca 1e3e 7118 223e 0f32 6abc 8a42 673d
00000270: dc3d b63c 44a2 3e3e 7043 273d a376 f53b
00000280: 2b2c c33d 3d69 41bd 7797 afbd 0be0 98bd
00000290: 3ce2 f2bd 53b8 543d 6469 4abd a685 d9bd
000002a0: bee5 59bd 7b64 423d 9ccd 4abd 9a39 fabd
000002b0: 906b c13d 1912 093e 083c e3bc e4fc 8f3d
000002c0: cc89 82be 113a 313c 140a 51be 04b8 183d
000002d0: 911d de3c 9b41 a73d 5f33 6ebd 45c5 91bd
000002e0: df65 1c3e 7671 f9bd 6f85 b13d d0b7 7ebe
000002f0: 6b38 9fbc 1f18 73bc f3dc bd3d 3bc7 d33d
00000300: 2942 033e 2e1a 023d 7fe4 063b 6c46 66bd
00000310: 41c6 fbbd b474 2d3c e5b8 563d 8a8b 31bd
00000320: 96a5 dc3d 118c e63d 805b 40bd 10b1 e53d
00000330: 4ad0 113d f3a4 1bbd 676e 213d fb06 1c3e
00000340: e434 443d 0b68 493d d5ed 34be 6205 e93d
00000350: 4373 8e3e 9e4f 273d 3233 563c ae57 af3d
00000360: 26ff 5d3d 8a9d b83d 42f0 573d c2b7 b83d
00000370: 0ad7 e43a 2fca 523d 8eaf 093d 726d 1a3d
00000380: 69ba 703d b72c 0b3e 14ef c8bd 36d3 0e3d
00000390: 799b 613b c586 d33c 66e9 04be 0787 43bd
000003a0: 508b 853d f1d6 66be 43b2 f63d 18f5 debd
000003b0: 6370 a63d 5a3f bc3d 1e49 c73c fb7c bf3d
000003c0: 62b3 d63d 09e8 233d 57a3 a6bd 04f9 a1bd
000003d0: 902c 5e3d a5fa 9dbd 59da 923d 1930 96bd
000003e0: 4a36 883c 5abe 853c 5964 5b3c 44fe 42bd
000003f0: 0c4a f03d ced7 b8bd ddcc 86bd bf1b 09be

actor.linears.0.weight f4 [128, 384]
-0.03285636 -0.031366117 -0.008033367 -0.07565055 -0.0044955853 0.024295388 0.030902812 0.03168392
-0.0116248615 -0.0093535185 -0.0056062546 0.010350461 -0.042568073 -0.010488763 -0.040242236 -0.043649964
-0.004214866 0.09629544 -0.05629999 -0.081256844 0.009285687 0.0034775808 -0.033048213 -0.036867075
0.07412145 0.08319683 -0.061176088 -0.0066422448 0.057756756 0.003836076 0.011802814 -0.10155078
-0.010029756 0.032647718 -0.039939757 0.009658929 -0.042503558 -0.050063815 0.020271344 0.036436092
-0.027064295 -0.006908385 0.039165493 0.0040359576 -0.116108805 -0.020889873 0.027699143 -0.013803391
-0.03862531 0.04410671 -0.036992546 -0.104550205 0.009200851 -0.029590765 -0.0020202175 0.041019075
-0.03273634 0.06319064 0.019897532 0.048409354 -0.04171432 0.05234881 -0.012364757 0.01448069
0.022982815 0.13569556 0.059370477 -0.0572771 -0.07378759 -0.0028970425 0.020788934 0.0050467993
-0.052154724 -0.01773589 0.025615085 0.083815955 -0.065557465 0.002283532 0.0007755556 -0.0065696184
-0.014733155 -0.058341775 0.016355395 -0.03630327 -0.089621276 -0.020294802 -0.06404836 -0.03944937
-0.03125976 -0.014930748 0.043676298 0.008116342 -0.14126264 -0.06939133 -0.012336207 -0.0031025645
0.016699474 0.0779625 0.017171938 -0.024169745 -0.02606002 -0.16586195 -0.044380054 -0.0078300685
0.028655175 0.014400506 0.10414753 -0.08832314 -0.025872162 0.009187313 -0.06631538 -0.101506926
0.0007543998 0.028675603 -0.054957666 0.061554167 -0.010906739 0.045604963 0.0076758675 0.020858128
0.018022235 -0.079696506 0.079910316 -0.1125793 0.020222917 0.0052139414 0.038421873 0.016761247
-0.050379954 -0.09486226 0.07273933 0.03795527 -0.035466336 -0.047288503 0.040747732 0.029586146
0.045632612 -0.011848121 -0.055752173 -0.003581568 0.006998188 0.07084747 -0.059965245 0.0037704443
0.032549106 -0.05883324 -0.043698695 -0.05027922 -0.050271694 -0.04015868 -0.04066586 -0.12033815
0.017579637 -0.06529873 -0.0007730294 -0.06363219 -0.023946282 0.082086146 0.10449459 -0.05404385
0.055677786 -0.024127172 0.0029432834 -0.056475725 -0.032944754 0.041571043 0.0045377766 -0.049662575
0.0016040363 -0.008311759 0.0012335179 0.047999665 0.01902817 0.10175092 0.0057849456 0.023220591
0.055760697 0.0068728183 0.032634195 0.008716383 -0.091002725 -0.053769656 -0.014566751 -0.07972159
0.030387027 -0.056781743 0.05206703 -0.10114815 0.01983884 0.099036716 0.021939846 -0.048094682
-0.043130476 0.042708166 -0.10905817 -0.034367748 -0.035780963 -0.039969325 0.016119426 -0.081770934
-0.008581355 -0.027318258 0.040288426 -0.058243662 -0.036618583 0.03158485 0.03273262 0.011509029
-0.026347041 -0.00058835605 0.015504332 0.014483615 0.08435463 -0.07478674 0.0720817 0.036230985
-0.032320514 -0.039171107 0.04317875 -0.03795295 0.04743005 0.006908517 -0.099474534 -0.024982924
0.033698708 -0.022464002 -0.008813446 0.15586028 0.020850563 -0.06930727 0.015440304 0.0046890746
0.053133637 -0.0047173453 -0.0071276464 -0.035196345 0.0619525 0.070193864 -0.0016722814 -0.029239679
-0.05296127 0.005249279 0.013983613 -0.04045123 -0.007992486 0.06617769 0.07094886 -0.052847955
0.041618574 -0.033618584 -0.07473297 0.009585791 -0.018933661 -0.040008437 -0.04717303 0.025620518
00000000: 6494 06bd c279 00bd 629e 03bc adee 9abd
00000010: b44f 93bb 1f07 c73c e527 fd3c 00c7 013d
00000020: 3476 3ebc 803f 19bc acb4 b7bb fb94 293c
00000030: dc5b 2ebd 10d9 2bbc 0bd5 24bd 4eca 32bd
00000040: dc1c 8abb 8b36 c53d d19a 66bd fd69 a6bd
00000050: fe22 183c 20e8 633b 905d 07bd ee01 17bd
00000060: fdcc 973d 1963 aa3d c793 7abd 30a7 d9bb
00000070: 5992 6c3d ad66 7b3b 9760 413c dbf9 cfbd
00000080: d953 24bc 9db9 053d df97 23bd 7c40 1e3c
00000090: 3618 2ebd b70f 4dbd 1710 a63c 033e 153d
000000a0: f1b5 ddbc bc5f e2bb ff6b 203d 1140 843b
000000b0: 74ca edbd 3d21 abbc 50e9 e23c 9e27 62bc
000000c0: 9335 1ebd 3da9 343d 7f85 17bd 6b1e d6bd
000000d0: 2bbf 163c 5568 f2bc a065 04bb 9e03 283d
000000e0: 8a16 06bd 186a 813d 2600 a33c e348 463d
000000f0: a3dc 2abd b56b 563d 8d95 4abc 6a40 6d3c
00000100: 7546 bc3c c7f3 0a3e 752e 733d 649b 6abd
00000110: f31d 97bd 4fdc 3dbb 8e4d aa3c 9f5f a53b
00000120: 31a0 55bd db4a 91bc bad6 d13c b3a7 ab3d
00000130: fe42 86bd 4fa7 153b a84e 4b3a f445 d7bb
00000140: 5563 71bc c9f7 6ebd c0fb 853c bdb2 14bd
00000150: 5c8b b7bd 4941 a6bc c92b 83bd aa95 21bd
00000160: 3c0a 00bd 19a0 74bc ebe5 323d 68fa 043c
00000170: 27a7 10be 0b1d 8ebd cd1d 4abc 6554 4bbb
00000180: 56cd 883c ceaa 9f3d 2aac 8c3c a1ff c5bc
00000190: d37b d5bc b7d7 29be dcc7 35bd b049 00bc
000001a0: 42be ea3c 1af0 6b3c 4d4b d53d c3e2 b4bd
000001b0: dbf1 d3bc 6286 163c 5cd0 87bd dde2 cfbd
000001c0: eac2 453a 19e9 ea3c 4a1b 61bd 3920 7c3d
000001d0: 2eb2 32bc 45cc 3a3d d885 fb3b aade aa3c
000001e0: 5ea3 933c ec37 a3bd 05a8 a33d fa8f e6bd
000001f0: 88aa a53c b6d9 aa3b 4160 1d3d e24e 893c
00000200: 365b 4ebd 2547 c2bd 5cf8 943d fc76 1b3d
00000210: 2645 11bd 97b1 41bd 18e7 263d a55e f23c
00000220: 43e9 3a3d 9f1e 42bc 645c 64bd bdb8 6abb
00000230: 0e51 e53b 7a18 913d 1e9e 75bd 8f19 773b
00000240: 3652 053d 20fb 70bd 67fd 32bd 95f1 4dbd
00000250: b1e9 4dbd 6e7d 24bd 3f91 26bd d973 f6bd
00000260: 2c03 903c 57bb 85bd 20a5 4aba 9851 82bd
00000270: fe2a c4bc c81c a83d 4201 d63d 165d 5dbd
00000280: 640e 643d 59a6 c5bc 1ae4 403b 1753 67bd
00000290: 14f1 06bd 6646 2a3d a1b1 943b fc6a 4bbd
000002a0: 873e d23a 0b2e 08bc fead a13a 4c9b 443d
000002b0: f7e0 9b3c c962 d03d a48f bd3b 1c39 be3c
000002c0: 5465 643d 6135 e13b 6fab 053d 29cf 0e3c
000002d0: a35f babd 923d 5cbd 62a9 6ebc 1345 a3bd
000002e0: 37ee f83c f993 68bd 3d44 553d c326 cfbd
000002f0: 1085 a23c c3d3 ca3d 31bb b33c eefe 44bd
00000300: 95a9 30bd c2ee 2e3d e459 dfbd 32c5 0cbd
00000310: 0f8f 12bd e0b6 23bd e30c 843c 8577 a7bd
00000320: d098 0cbc 8aca dfbc 7a05 253d e890 6ebd
00000330: 5efd 15bd 1e5f 013d a412 063d 5e90 3c3c
00000340: c0d5 d7bc e83b 1aba e205 7e3c af4c 6d3c
00000350: 1fc2 ac3d ca29 99bd 929f 933d f166 143d
00000360: 8462 04bd e271 20bd 33dc 303d 8d74 1bbd
00000370: 0346 423d d760 e23b 4eb9 cbbd fda8 ccbc
00000380: a807 0a3d 6d06 b8bc 4666 10bc d699 1f3e
00000390: cdce aa3c f8f0 8dbd 54f9 7c3c cfa6 993b
000003a0: a8a2 593d f693 9abb 088f e9bb 0b2a 10bd
000003b0: e8c1 7d3d cdc1 8f3d 7430 dbba 0d88 efbc
000003c0: ebed 58bd 2502 ac3b 861b 653c 30b0 25bd
000003d0: eaf2 02bc 2b88 873d a34d 913d 1977 58bd
000003e0: 3d78 2a3d a4b3 09bd 990d 99bd b90d 1d3c
000003f0: c41a 9bbc e3df 23bd 8238 41bd 1fe2 d13c

actor.linears.0.bias f4 [128]
0.006073932 -0.0011296332 0.008260613 0.0070864386 -0.005824342 0.0069535486 0.0032118713 -0.0046420335
0.007718092 -0.0003523322 0.0013280392 -0.0022604482 -0.0031068355 0.0038580403 -0.0029233503 0.006669194
0.0059538195 -0.0036637725 0.0015560105 -0.0008389418 0.0038697245 -0.002044991 -0.007878061 0.005483052
-0.004647788 0.004142884 -0.0077458187 -0.0035604835 -0.00033245792 0.0032960598 -0.0070647 0.0070733107
-0.0026459144 0.0027155252 0.005647412 -0.0037014652 -0.002224008 -0.0073595876 0.003096046 0.0010542136
0.0006693902 0.000986757 -0.0037221215 0.0059316736 0.00038405927 0.0065933256 0.004879411 -0.0013460743
0.003931176 0.007912616 -0.006770181 0.00777563 0.00088446884 0.00050771947 -0.0077227363 -0.006829403
-0.004821551 -0.00418256 -0.0049535558 -0.00064300396 -0.00426032 0.003479941 0.0023532303 0.006412414
0.0027855884 -0.007162895 -0.0023615498 0.008585492 -0.0030281919 -0.007125801 0.0025898556 -0.0067915255
-0.0072905547 -0.006225045 -0.00937743 -0.0036091658 0.0070498143 -0.003593594 -0.001913582 0.0020272706
0.004130153 -0.00086614455 0.006644635 0.0022454986 -0.0063020005 -0.004970479 -0.006429829 0.007872556
-0.0057248552 0.00083317945 0.007045845 0.003416611 -0.006529297 0.007743386 -0.0026892184 -0.00714766
-0.002558128 0.0058726976 -0.003923911 0.00040803882 0.001929815 0.0033399956 -0.0015011999 -0.005826126
0.002638195 0.0019187197 0.0028273258 0.0014626228 0.0058709625 -0.00054307276 -0.0018211775 -0.00292799
-0.0058721844 -0.0012853948 -8.603717e-05 -0.002966943 -0.007048686 -0.008322184 -0.004187651 0.0010702101
0.0027238901 -0.0077542826 0.0055096117 -0.0074979533 -0.005446544 0.00054530095 -0.00598239 -0.0018898766
00000000: d607 c73b 3310 94ba 8657 073c 5b35 e83b
00000010: 1fda bebb 98da e33b 427e 523b 331c 98bb
00000020: 0ce8 fc3b 3ab9 b8b9 9a11 ae3a 0724 14bb
00000030: 0d9c 4bbb 2dd7 7c3b ae95 3fbb 4189 da3b
00000040: 4218 c33b e71b 70bb 0cf3 cb3a 6eec 5bba
00000050: 349b 7d3b 4105 06bb fc12 01bc 2dab b33b
00000060: 794c 98bb 08c1 873b a3d0 fdbb 0057 69bb
00000070: bf4d aeb9 b502 583b 007f e7bb 3bc7 e73b
00000080: 1467 2dbb f4f6 313b ed0d b93b 4894 72bb
00000090: aac0 11bb b228 f1bb 08e7 4a3b 8a2d 8a3a
000000a0: 047a 2f3a 1256 813a d6ee 73bb 7c5e c23b
000000b0: 905b c939 d30c d83b 77e3 9f3b c26e b0ba
000000c0: 18d1 803b eba3 013c 65d8 ddbb b6ca fe3b
000000d0: b3db 673a 7a18 053a 020f fdbb 2fc9 dfbb
000000e0: 1afe 9dbb db0d 89bb 7051 a2bb 448f 28ba
000000f0: 289a 8bbb b90f 643b a738 1a3b 3a1f d23b
00000100: 6b8e 363b b8b6 eabb 3bc4 1abb 2aaa 0c3c
00000110: a174 46bb 8d7f e9bb 91ba 293b 728b debb
00000120: 9be5 eebb 76fb cbbb cba3 19bc c187 6cbb
00000130: 2102 e73b 8182 6bbb 28d1 faba f5db 043b
00000140: 3c56 873b fa0d 63ba 3dbb d93b 3729 133b
00000150: 0381 cebb 66df a2bb 51b1 d2bb e5fb 003c
00000160: 9197 bbbb ba69 5a3a d5e0 e63b 39e9 5f3b
00000170: b7f3 d5bb 3bbc fd3b 993d 30bb eb36 eabb
00000180: 44a6 27bb c26f c03b 2794 80bb 0bee d539
00000190: d9f1 fc3a d4e3 5a3b e9c3 c4ba 16e9 bebb
000001a0: 91e5 2c3b 8d7d fb3a a84a 393b 7ab5 bf3a
000001b0: 3461 c03b ff5c 0eba 94b4 eeba 85e3 3fbb
000001c0: 746b c0bb b17a a8ba db6e b4b8 0b71 42bb
000001d0: aaf8 e6bb c559 08bc 9038 89bb 4b46 8c3a
000001e0: 4b83 323b a317 febb f989 b43b 64b1 f5bb
000001f0: ec78 b2bb 87f2 0e3a ed07 c4bb bcb5 f7ba

actor.linears.1.weight f4 [128, 128]
0.10139782 -0.17394288 -0.12853384 0.10655162 -0.016294075 0.073772915 0.11592237 0.1393585
0.036872495 0.080995455 -0.13774832 -0.1607714 0.0587108 0.09652478 -0.16722383 -0.07166726
-0.022640482 0.021174626 -0.0054655396 -0.022525428 0.15594551 0.030525723 -0.14230737 0.07699763
0.017120734 0.00020412882 -0.066945516 0.001561139 -0.023541389 0.003821689 -0.11388707 0.08946631
-0.1483498 0.23688342 0.025243653 -0.0036840546 0.13911368 0.032837868 0.11352672 0.090857625
0.11118033 0.026422994 -0.08911079 -0.019475918 -0.08566533 -0.07392288 0.04271943 -0.017248297
0.015607656 0.144398 -0.1565338 -0.014655402 0.00022412685 -0.0473932 0.15246513 0.17906976
-0.0018098442 0.17746103 -0.013086116 0.066860065 0.09758277 -0.0033464748 0.044588044 -0.04350475
0.013380314 0.07151694 -0.07646801 -0.016010167 -0.20851362 0.023831768 0.050987322 -0.04256724
-0.014358399 -0.010663671 -0.041589823 -0.04315819 0.016167462 0.0035348693 -0.058574755 0.0011748732
-0.07244516 -0.0042177415 0.050297078 0.12045043 -0.11440035 -0.1654404 0.0876553 0.077978685
-0.1007353 0.05151527 0.09370275 -0.20334353 -0.009712345 0.13957886 0.12624674 -0.009647005
-0.0712895 0.03557222 -0.048149318 -0.0050132405 0.02282799 0.09523702 -0.045067836 -0.039895408
-0.13606885 -0.05916621 -0.050056998 -0.10560437 0.11546542 -0.015673049 0.019095642 -0.03901704
0.044812087 0.04875663 -0.038883913 0.122147806 0.010719912 -0.12052375 -0.070148915 -0.13928464
0.046274792 -0.04497524 -0.09493196 0.020842869 0.110234186 0.13160694 -0.033860918 0.0028946484
0.15103006 -0.094562665 0.0267588 0.073783174 -0.03241802 -0.049751062 0.09340829 0.04462861
0.060409527 -0.1403537 -0.08932977 0.11496151 0.104935244 -0.030176727 -0.09503171 -0.124059774
0.095612146 0.089232706 0.019673206 0.13872874 -0.024199167 -0.123507656 -0.06471738 -0.045907218
0.032551423 -0.09740508 -0.113150954 -0.08349977 0.005548241 0.1570546 0.023910316 0.047793996
-0.1395676 0.038439482 -0.017389739 -0.18634239 0.044376142 -0.06987368 0.05520907 -0.113424204
-0.078301296 0.103675015 0.1277292 -0.0955063 0.07340562 0.116961986 -0.10062319 -0.079929866
-0.06561879 -0.021141628 -0.057141636 0.168897 -0.10407985 0.039296504 0.13240284 -0.106750764
0.1328603 0.009076255 -0.016593836 -0.015472822 -0.08189145 0.09535172 -0.016278194 -0.039303888
0.07122922 0.0575857 0.05964315 -0.010434157 0.015538631 0.052415326 -0.012085829 -0.12663683
-0.08363906 0.10284134 0.15367745 0.025995927 0.07161721 0.06179997 -0.10747928 -0.102591306
-0.0036599364 0.0844186 0.13985226 -0.17471457 -0.03310854 0.11631949 -0.022082124 -0.011248965
0.053194903 0.1659147 0.10633534 0.028573079 0.042737238 0.18366133 -0.032635875 0.073574156
0.09020729 -0.09032161 -0.035631444 -0.08166008 8.947999e-05 -0.15770414 -0.022650069 0.05462251
0.14800204 -0.094438866 -0.07598332 -0.0122377975 0.17779051 0.00077509973 0.0659324 0.07980833
0.08180619 -0.06949816 0.040173106 0.03580188 -0.0042677545 0.088382974 0.055288415 0.014172934
0.115154624 0.16408013 0.07212533 -0.07469322 -0.076823466 -0.03319266 0.02197361 0.03909261
00000000: a9a9 cf3d 151e 32be 609e 03be bc37 da3d
00000010: 277b 85bc 4116 973d b568 ed3d ffb3 0e3e
00000020: 9d07 173d f2e0 a53d e50d 0dbe 42a1 24be
00000030: bc7a 703d c9ae c53d b93c 2bbe 49c6 92bd
00000040: 8878 b9bc 6976 ad3c 4518 b3bb 3f87 b8bc
00000050: 2eb0 1f3e 1511 fa3c 06b9 11be efb0 9d3d
00000060: c840 8c3c 6a0b 5639 bb1a 89bd 229f cc3a
00000070: dfd9 c0bc 4d75 7a3b a03d e9bd 1d3a b73d
00000080: 03e9 17be 9191 723e c7cb ce3c 2e70 71bb
00000090: d173 0e3e 0081 063d b280 e83d 9013 ba3d
000000a0: 83b2 e33d 0975 d83c b87f b6bd f68b 9fbc
000000b0: 4e71 afbd e164 97bd 92fa 2e3d 4d4c 8dbc
000000c0: 41b7 7f3c 12dd 133e 654a 20be 361d 70bc
000000d0: 9803 6b39 5f1f 42bd d21f 1c3e 105e 373e
000000e0: 4b38 edba 58b8 353e 2667 56bc eeed 883d
000000f0: 7ad9 c73d 8850 5bbb f4a1 363d 0932 32bd
00000100: 1b39 5b3c 7977 923d 439b 9cbd c127 83bc
00000110: 9884 55be d73a c33c 15d8 503d fc5a 2ebd
00000120: 7e3f 6bbc aeb6 2ebc 175a 2abd a4c6 30bd
00000130: a071 843c 44a9 673b 15ec 6fbd 34fe 993a
00000140: 215e 94bd fb34 8abb 4f04 4e3d b7ae f63d
00000150: bb4a eabd 3569 29be 9f84 b33d 4ab3 9f3d
00000160: 4f4e cebd ad01 533d 3ae7 bf3d 4939 50be
00000170: 8720 1fbc c3ed 0e3e d346 013e 790e 1ebc
00000180: 3b00 92bd 2db4 113d 3838 45bd 1c46 a4bb
00000190: c401 bb3c a00b c33d 0d99 38bd 5e69 23bd
000001a0: a255 0bbe 4558 72bd 9108 4dbd 1b47 d8bd
000001b0: 2279 ec3d c464 80bc 776e 9c3c 55d0 1fbd
000001c0: e18c 373d 08b5 473d bd44 1fbd a128 fa3d
000001d0: 92a2 2f3c 28d5 f6bd 3caa 8fbd a2a0 0ebe
000001e0: a38a 3d3d f537 38bd b06b c2bd aabe aa3c
000001f0: 76c2 e13d f8c3 063e bfb1 0abd 24b4 3d3b
00000200: a0a7 1a3e 12aa c1bd 4535 db3c a21b 973d
00000210: c2c8 04bd c5c7 4bbd d84c bf3d 7dcc 363d
00000220: fb6f 773d e1b8 0fbe 87f2 b6bd f170 eb3d
00000230: 4ae8 d63d 2f35 f7bc fc9f c2bd 0d13 febd
00000240: 4dd0 c33d a3bf b63d b429 a13c e80e 0e3e
00000250: 553d c6bc 95f1 fcbd 8c8a 84bd 3509 3cbd
00000260: a454 053d 517c c7bd b0bb e7bd ed01 abbd
00000270: 05ce b53b ecd2 203e 91df c33c a3c3 433d
00000280: cfea 0ebe b872 1d3d ed74 8ebc 8ad0 3ebe
00000290: c2c3 353d ef19 8fbd e822 623d f34a e8bd
000002a0: 6e5c a0bd 9153 d43d 72cb 023e cf98 c3bd
000002b0: b055 963d c489 ef3d 8813 cebd 45b2 a3bd
000002c0: 2563 86bd 3531 adbc 590d 6abd 56f3 2c3e
000002d0: d127 d5bd 5ff5 203d 9c94 073e 25a0 dabd
000002e0: 880c 083e 93b4 143c ccef 87bc b881 7dbc
000002f0: b4b6 a7bd c347 c33d d959 85bc 1dfd 20bd
00000300: a0e0 913d fcde 6b3d 604c 743d 07f4 2abc
00000310: be95 7e3c 74b1 563d a403 46bc 16ad 01be
00000320: f54a abbd 7b9e d23d 9f5d 1d3e 69f5 d43c
00000330: 0bac 923d f721 7d3d 191e dcbd 641b d2bd
00000340: 8bdb 6fbb a9e3 ac3d 6e35 0f3e 60e8 32be
00000350: d29c 07bd ea38 ee3d 92e5 b4bc 944d 38bc
00000360: e6e2 593d 8be5 293e 58c6 d93d 1712 ea3c
00000370: 3e0d 2f3d b711 3c3e 32ad 05bd 0cae 963d
00000380: 9abe b83d 89fa b8bd 47f2 11bd 663d a7bd
00000390: 34a7 bb38 327d 21be a38c b9bc dabb 5f3d
000003a0: d98d 173e 2a69 c1bd 259d 9bbd 0b81 48bc
000003b0: b70e 363e 1030 4b3a 9107 873d 8d72 a33d
000003c0: 018a a73d 0d55 8ebd 8e8c 243d fea4 123d
000003d0: 85d8 8bbb 2202 b53d 1b76 623d 9835 683c
000003e0: 30d6 eb3d 9f04 283e 72b6 933d c2f8 98bd
000003f0: 9f55 9dbd 07f5 07bd 0002 b43c 931f 203d

actor.linears.1.bias f4 [128]
0.0053720013 0.0037992282 0.002481242 -0.0012248348 -0.0014936667 4.4389122e-05 -0.00869992 0.0042875158
0.0009713285 -0.002074298 -0.00079399 0.002194742 -0.0028613524 0.0073323753 0.0050548604 -0.0034001835
-0.005514564 -0.003304939 0.007529234 -0.0024594297 -0.0034427934 0.004034852 -0.0059893494 0.008107187
-0.00079918344 -0.003189619 -0.001612943 0.006909082 -0.0042798184 -0.006553864 0.00032222876 -0.006113098
-0.00050240435 0.00088129815 -0.00083767215 0.005969676 -0.002479654 -0.006880301 -0.006213017 -0.0024415865
0.0069117164 0.0054551107 0.0060917437 -0.0021912386 0.0029406366 0.0036110084 -0.00795032 0.0008208418
-0.0066679576 0.008122727 0.0019672455 0.004037596 -0.004633553 -0.0067358594 -0.0068539316 0.0023751862
0.004291883 0.003512769 -0.0060489317 -0.0020726074 -0.00900046 0.005211559 -0.0018143543 -0.0034934727
0.009071554 0.0061372714 0.0043867254 -0.0038038555 0.008026944 -0.0072104502 -0.0036549882 -0.007037529
0.0073588146 0.0056705377 0.0031939803 -0.0027162468 -0.004366119 0.0013284627 0.005540079 -0.0015841586
-0.008149226 -0.00062360783 -0.0032699192 -0.008029081 -0.0037045765 0.0068393927 0.00087185664 0.004738114
-0.004698665 0.0072199735 -0.0048793233 0.0054253107 0.0059176954 -0.005251887 -0.00063592126 0.0046879356
0.0058827326 -0.0002861571 -0.0032691357 -0.0019281406 -0.0055157617 0.0022367486 -0.0073300726 -0.007752853
0.00056172063 -0.0012000289 0.00095863093 0.001407389 0.0026158206 0.004820468 -0.0032743441 0.002704297
0.0063105947 -0.0077652265 0.0063451272 0.00050749717 -0.0041804137 0.0015175996 0.00088995765 0.0021731034
-0.007255926 -0.0076041073 0.0015761999 0.009859669 0.006439927 0.004508604 0.007369079 0.0030442432
00000000: 9d07 b03b 79fc 783b 559c 223b a38a a0ba
00000010: 23c7 c3ba 752e 3a38 1c8a 0ebc 4a7e 8c3b
00000020: c1a0 7e3a f2f0 07bb c423 50ba a9d5 0f3b
00000030: 8785 3bbb 6c44 f03b 3ea3 a53b 9dd5 5ebb
00000040: 84b3 b4bb ad97 58bb cbb7 f63b 622e 21bb
00000050: 7da0 61bb cb36 843b 4e42 c4bb 02d4 043c
00000060: 4b80 51ba ed08 51bb 6369 d3ba 9565 e23b
00000070: b83d 8cbb ccc1 d6bb d0f0 a839 6250 c8bb
00000080: c9b3 03ba eb06 673a 3a97 5bba 469d c33b
00000090: b181 22bb 2674 e1bb 9096 cbbb 0603 20bb
000000a0: ae7b e23b c9c0 b23b 409d c73b e29a 0fbb
000000b0: b2b7 403b aba6 6c3b 0f42 02bc c32d 573a
000000c0: e27e dabb 3015 053c e7ec 003b cf4d 843b
000000d0: 0fd5 97bb 7cb8 dcbb f296 e0bb 03a9 1b3b
000000e0: eda2 8c3b 7c36 663b 1e36 c6bb 95d4 07bb
000000f0: aa76 13bc bac5 aa3b a1cf edba bff2 64bb
00000100: dba0 143c 2a1b c93b 85be 8f3b 1b4a 79bb
00000110: 7183 033c a445 ecbb 8788 6fbb 129b e6bb
00000120: 3622 f13b ebcf b93b 1952 513b 0f03 32bb
00000130: a911 8fbb d01f ae3a 8d89 b53b 8ba3 cfba
00000140: 5584 05bc 9d79 23ba 244c 56bb 688c 03bc
00000150: 7bc8 72bb fc1c e03b 4f8d 643a 2e42 9b3b
00000160: 42f7 99bb 8795 ec3b bbe2 9fbb cec6 b13b
00000170: 3ae9 c13b 0518 acbb f4b3 26ba 419d 993b
00000180: f0c3 c03b 5b07 96b9 ff3e 56bb aab9 fcba
00000190: 90bd b4bb 6a96 123b 1b31 f0bb a50b febb
000001a0: 6f40 133a 4a4a 9dba a24c 7b3a 2378 b83a
000001b0: 306e 2b3b 04f5 9d3b 6196 56bb 933a 313b
000001c0: 1bc9 ce3b 7173 febb c9ea cf3b 8f09 053a
000001d0: dafb 88bb 31ea c63a 0c4c 693a a06a 0e3b
000001e0: 1ec3 edbb e02b f9bb 7e98 ce3a 738a 213c
000001f0: 0606 d33b e9bc 933b 5178 f13b ed81 473b

actor.linears.2.weight f4 [1, 128]
0.12645921 0.10249811 0.09903447 -0.1566879 -0.031092586 0.11889262 -0.03902847 -0.042510256
0.09699643 -0.016021417 -0.09122208 -0.038632885 -0.14343333 0.0574355 0.11573292 -0.03269374
0.020644717 -0.09704312 -0.06500112 0.14251086 -0.06359955 0.015814774 -0.0066363607 -0.03406657
0.0400798 0.0021389285 0.10061945 -0.098560706 -0.07613462 -0.033024777 0.04391697 0.26385817
-0.020001704 -0.040573314 0.08978631 0.09800445 -0.068822764 0.114684716 -0.04881611 0.13495314
0.061861504 0.016240763 0.00011943401 -0.03754632 -0.0037354033 0.054803003 -0.05418863 0.016605383
-0.089154616 -0.09044376 -0.1409865 0.08153261 0.12609614 -0.08679587 0.16672447 0.0098278215
-0.110873036 0.10450536 -0.0059625767 0.108983204 -0.06193504 0.04880639 0.04942153 -0.10813164
-0.014150851 0.01360496 0.018669877 -0.06470668 0.031857625 -0.07093505 -0.11059185 -0.007380038
0.13449158 0.05097384 0.13073172 0.08404461 -0.091554224 0.08815378 -0.005391493 -0.04409066
-0.06042859 0.015660156 -0.016077051 -0.07414996 -0.091806196 0.26893565 0.098524086 0.015394447
-0.02159171 0.11623036 -0.10052567 0.0075608226 0.15141334 -0.008204556 -0.04723141 0.044454247
-0.06726072 0.048603024 -0.12076138 -0.04633704 -0.0122971255 0.12976885 -0.01906909 -0.09524477
0.08218941 -0.094780445 0.025779013 0.013286976 -0.027073136 0.050649464 -0.1593015 0.13626733
0.027451891 -0.1307921 -0.09635681 -0.19057116 -0.021187123 0.16632605 -0.02052074 0.13747689
-0.06388588 0.1076361 0.0028542383 0.08768298 0.08502002 0.016955592 0.026404595 -0.02379542
00000000: 867e 013e 87ea d13d 96d2 ca3d cb72 20be
00000010: e1b5 febc f97d f33d 51dc 1fbd 3c1f 2ebd
00000020: 10a6 c63d 593f 83bc a4d2 babd 843d 1ebd
00000030: 30e0 12be 7d41 6b3d 6205 ed3d dfe9 05bd
00000040: 1c1f a93c 8bbe c6bd 4f1f 85bd 5eee 113e
00000050: 7b40 82bd fc8d 813c d475 d9bb 6389 0bbd
00000060: b72a 243d 442d 0c3b 9211 ce3d 32da c9bd
00000070: 78ec 9bbd fd44 07bd 48e2 333d 6b18 873e
00000080: 9dda a3bc 3430 26bd e3e1 b73d 8fb6 c83d
00000090: f3f2 8cbd d2df ea3d 67f3 47bd 2831 0a3e
000000a0: 7d62 7d3d 590b 853c a578 fa38 2cca 19bd
000000b0: abcd 74bb 1d79 603d e6f4 5dbd 0308 883c
000000c0: b296 b6bd 943a b9bd c45e 10be 92fa a63d
000000d0: 591f 013e 08c2 b1bd d2b9 2a3e df04 213c
000000e0: 6711 e3bd e806 d63d b861 c3bb 9632 df3d
000000f0: 99af 7dbd 36e9 473d 3b6e 4a3d 1f74 ddbd
00000100: f9d8 67bc 57e7 5e3c 92f1 983c f084 84bd
00000110: 247d 023d 6546 91bd fb7d e2bd 3fd4 f1bb
00000120: 29b8 093e f2c9 503d 89de 053e 951f ac3d
00000130: c880 bbbd f889 b43d 1fab b0bb 6898 34bd
00000140: f883 77bd ba49 803c 05b4 83bc efdb 97bd
00000150: e304 bcbd efb1 893e ffc6 c93d fe38 7c3c
00000160: 19e1 b0bc 2f0a ee3d 67e0 cdbd c7c0 f73b
00000170: 190c 1b3e 676c 06bc b975 41bd a815 363d
00000180: fdbf 89bd f713 473d be51 f7bd e8cb 3dbd
00000190: e279 49bc 20e2 043e c836 9cbc b10f c3bd
000001a0: ec52 a83d 401c c2bd 822e d33c 9eb1 593c
000001b0: 7bc8 ddbc d075 4f3d ef1f 23be aa89 0b3e
000001c0: cae2 e03c 5dee 05be b856 c5bd 1625 43be
000001d0: 9e90 adbc 6051 2a3e 1c1b a8bc bec6 0c3e
000001e0: 9ad6 82bd 5170 dc3d 2c0e 3b3b 2293 b33d
000001f0: fa1e ae3d 74e6 8a3c 734e d83c 9dee c2bc
