DRL coding/saved_network/FJSP_J15M15/100_79/policy_job.pth (torch, 648359 bytes, 53 tensors)

_input f4 [128]
000000 b2 40 59 3f 46 18 55 3f 05 17 b9 3e d9 7a 40 bf
       0.8486434 0.83240163 0.36150375 -0.7518745
000010 fc c1 04 bf 20 88 03 be d7 20 07 3d 7c d9 a6 be
       -0.51858497 -0.12844896 0.032990303 -0.32587802
000020 03 9e 7d bf 3e 5e 23 bf 97 0c 38 bf 3e 01 49 bf
       -0.9906923 -0.6381568 -0.7189421 -0.7851752
000030 20 f4 3d bc 06 a0 7e 3f d8 82 03 3f 02 70 61 bf
       -0.0115938485 0.99462926 0.51371527 -0.88061535
000040 f9 71 b2 be 46 e0 98 be 58 0c b7 3e 6e 5b 29 bf
       -0.3485258 -0.29858607 0.35751605 -0.66155136
000050 a7 de 5a 3f 7d ad 24 bf 4c 4e 3a bf a1 9d 2d bf
       0.8549599 -0.6432722 -0.7277572 -0.6781865
000060 79 ad 57 3f 78 5f 60 3f 66 ea 4b bf 41 62 0a bf
       0.84249073 0.87645674 -0.7965454 -0.54056174
000070 27 51 f4 3e a4 1a 0f be d8 e3 7e bf 66 f4 fd 3e
       0.47718164 -0.13975006 -0.9956641 0.49600524
000080 c8 61 f1 bd 45 9e 76 3f 0c 1d ae 3e dc fc 20 3f
       -0.117862284 0.9633525 0.34006536 0.6288583
000090 93 5b 2b 3f f4 49 00 be 95 83 6b bf 24 92 28 3f
       0.66936606 -0.12528211 -0.91997653 0.6584799
0000a0 de e7 19 3f 91 ed b7 be 36 28 37 3f 3d 8d a6 3d
       0.60119426 -0.35923436 0.7154573 0.08132408
0000b0 ff 5d 9b be 7f 39 42 bf 01 af 98 bd a4 c3 b1 bb
       -0.3034515 -0.7586898 -0.07455254 -0.0054249335
0000c0 82 b3 36 3f c7 e5 23 3f 5b 7d ae 3e d4 a0 ce 3d
       0.7136766 0.6402249 0.34080014 0.10089269
0000d0 80 50 68 bf 22 a0 5c bf 2b 93 73 3f d9 ba 36 bf
       -0.90747833 -0.86181843 0.95146435 -0.71378857
0000e0 b1 5c a1 3e 5c 0b 4e 3e ff bd 9e 3e 2b 0f 95 3e
       0.3151603 0.20121521 0.3100433 0.29113135
0000f0 cf 1c 1e 3e 3a cb 1c bf fd 02 a6 3e e0 ad 31 3e
       0.15440677 -0.612476 0.32424155 0.17351484
000100 38 d9 51 bf 7e e8 4f 3e a5 5e 87 3e 19 99 41 bf
       -0.81972075 0.20303532 0.26439396 -0.75624233
000110 33 50 1d 3f 46 7b 89 3e 0d d2 5b 3f 5f b1 23 3e
       0.614505 0.26851863 0.8586739 0.1598563
000120 09 c9 e7 be 56 92 0e bd 4d 7a 2b 3f c1 bd 94 3d
       -0.45270565 -0.034807526 0.6698349 0.07262755
000130 e5 38 bc be d0 5c 1a 3f c2 1f 78 3f e2 3e 40 3d
       -0.36762157 0.6029787 0.9692346 0.04693497
000140 84 f4 3b 3f a0 e1 13 bf 8d 21 08 3f 62 22 c1 3c
       0.73419976 -0.5776615 0.53176194 0.023575965
000150 a8 36 b3 be 68 4a ed 3d c4 38 c3 be 0b 1e 8d 3e
       -0.35002637 0.115864575 -0.38129246 0.27561983
000160 e0 55 c7 3e b1 e1 cb 3e 8f cb 28 3e db f9 50 be
       0.38932705 0.39820626 0.16483901 -0.20407812
000170 8e ae 35 3f 39 04 e8 be 6c 08 5e bf 4a 93 51 be
       0.70969474 -0.45315722 -0.867316 -0.20466343
000180 11 fd 35 bf f6 97 51 bf 22 f4 b7 be 4b 09 0b be
       -0.71089274 -0.818725 -0.35928446 -0.13577764
000190 9a b0 02 bf c2 42 03 3f 9e 08 4a 3e 6f 99 e8 3e
       -0.5105072 0.5127374 0.1972985 0.4542956
0001a0 11 76 fd be c6 79 29 3f 78 ac 59 be 4b f2 f7 bc
       -0.4950414 0.66201437 -0.21257198 -0.030266901
0001b0 0b 42 7d bf b2 19 75 bf cb 3e 03 bf e1 c7 d5 bc
       -0.989289 -0.9574233 -0.5126769 -0.026096286
0001c0 a3 ff c4 3e 62 12 11 bf c9 d4 6d bf 73 8e 20 3f
       0.38476285 -0.56668675 -0.9290281 0.6271736
0001d0 94 56 77 3f 0a d2 46 3f e7 6b ae 3e 8c c3 3d 3f
       0.9661648 0.77664244 0.34066698 0.74126506
0001e0 28 98 2a 3e 11 eb ae bb 93 e2 69 3f aa 4b b8 3e
       0.16659606 -0.0053380807 0.9136135 0.35995227
0001f0 77 44 31 be 84 67 55 3f dd db b9 3e 5d 4e 82 3e
       -0.17311274 0.8336108 0.36300555 0.2545041

bn.weight f4 [2]
000000 00 00 80 3f 00 00 80 3f
       1.0 1.0

bn.bias f4 [2]
000000 00 00 00 00 00 00 00 00
       0.0 0.0

bn.running_mean f4 [2]
000000 00 00 00 00 00 00 00 00
       0.0 0.0

bn.running_var f4 [2]
000000 00 00 80 3f 00 00 80 3f
       1.0 1.0

encoder.feature_extract.mlps.0.linears.0.weight f4 [128, 2]
000000 92 35 cc bc 2b a8 88 bd 35 ed 04 3e d0 bd 14 bd
       -0.024927888 -0.066727005 0.12981112 -0.03631383
000010 af 6e 62 bd c5 67 e9 3c f9 78 fc ba 73 f6 95 bd
       -0.055281337 0.028491864 -0.0019262127 -0.07322397
000020 21 fd 93 3d 45 64 0a 3d 67 35 5a bd 80 d0 cd bd
       0.07226015 0.03378703 -0.053273585 -0.10049534
000030 3c 48 fb 3d eb ee 62 bd 91 52 81 bd 64 d1 f3 3d
       0.12269637 -0.05540363 -0.063145764 0.119051725
000040 96 fd 70 3d 4b e7 26 3c b1 ed 0b bd f7 d9 97 bd
       0.05883559 0.0101869805 -0.034162227 -0.0741462
000050 ea 4c f9 3d 7b 38 b7 3c c7 bc 25 3d 82 5f 67 bd
       0.12172873 0.0223658 0.040463235 -0.056487568
000060 be 36 9a bd 47 92 f7 3d a5 ca 64 3c 12 dc 84 3d
       -0.075299725 0.12088447 0.01396433 0.064872876
000070 53 91 c2 3d 4b 36 fb 3d ce 05 71 3d 7c c7 85 3d
       0.09500375 0.12266215 0.058843426 0.06532189
000080 22 f6 8f 3c 3b 41 1d bd e2 60 72 3b ae 7d 11 3e
       0.01757342 -0.038392287 0.0036984016 0.14208099
000090 dd e9 1c 3c 0a 78 86 3c 3b 38 82 bd 9c 6a a2 bc
       0.009577242 0.016414661 -0.06358381 -0.019826226
0000a0 0b 0b 91 bd f7 20 b1 3d 53 ac 9e 3c e5 78 d2 3d
       -0.070821844 0.08648866 0.01936928 0.10276965
0000b0 92 1b f2 bd 0f 9a 8d 3d 5a 46 c1 3d 3c 6a 17 3d
       -0.11821665 0.0691415 0.094372466 0.036966547
0000c0 81 07 88 bc 7f 23 21 3e 50 cd 02 3e 5f b6 b7 3c
       -0.01660514 0.15736197 0.12773633 0.022425829
0000d0 24 ca ec 3c 12 ef 51 bd 17 56 5e bd c6 45 23 3e
       0.028904982 -0.051253386 -0.05428132 0.15944585
0000e0 fc f5 11 bd bf 6e cc 3d 6a 32 71 3c 8f 87 89 3d
       -0.03563498 0.09982061 0.014721492 0.06715309
0000f0 5d 57 31 bd 2d 64 45 3c 22 2f 0d bd 87 14 d5 3d
       -0.043296207 0.01204781 -0.034468777 0.10404306
000100 e6 16 b2 bd 55 d5 97 bb 45 37 25 3e ed ad 82 3d
       -0.08695774 -0.0046335855 0.16134365 0.0638083
000110 4e 2e 6f 3d 77 0b ff bc 9e 75 5e bd 93 41 91 bb
       0.05839377 -0.031133397 -0.054311387 -0.004432866
000120 f7 b5 8a bd d0 42 bd 3d 7d 0b c2 3c 21 b9 c1 3d
       -0.06772988 0.09241259 0.023687119 0.09459139
000130 6e 9f a6 bc 5b 1b e0 3d 2b 0d 6f bc 23 09 1d be
       -0.020339694 0.10942718 -0.014590542 -0.15335517
000140 56 fe 92 3c d2 c3 87 3d 95 e6 8d bc fe a8 4c 3c
       0.017943542 0.06629147 -0.017321864 0.012491463
000150 af 06 fb 3d 55 d4 6a bd f3 47 8e bd 17 3c 96 bd
       0.12257134 -0.0573314 -0.06947317 -0.0733568
000160 b5 85 74 bd 57 98 a0 3d bf ba 8b 3d c3 b6 f1 bd
       -0.059697825 0.078415565 0.06822728 -0.11802437
000170 a3 90 81 bd 68 94 84 bd 86 44 fe 3d 0c 30 3d 3e
       -0.063264154 -0.06473619 0.124154136 0.1847536
000180 25 bc ca bc 73 e5 7a be 9a 1b a7 bc 39 b8 4d bd
       -0.024747917 -0.2450159 -0.020398904 -0.050224517
000190 30 d4 d7 bd fe de 15 be 2e f9 dd 3d 20 f8 82 bc
       -0.105385184 -0.14635846 0.10838543 -0.015987456
0001a0 04 3d 83 3d 1b 20 60 be ad 1f de 3d 86 23 4a be
       0.06408122 -0.21887247 0.108458854 -0.19740114
0001b0 32 cb ba 3d 83 98 9f 3d 10 f2 94 3d 4e af 58 3b
       0.09120788 0.07792761 0.07272732 0.0033063474
0001c0 8d da 8c bd 42 2d 12 bd a0 f1 77 3d 7b 46 e0 3b
       -0.06877623 -0.035687692 0.060533166 0.0068443394
0001d0 63 9d 43 be 67 5f 34 bc d1 91 09 3c 6e d3 72 bd
       -0.19103007 -0.011009074 0.008396582 -0.059283666
0001e0 c6 7d f7 3d 25 15 eb 3d 41 2f 47 3d f3 0e a4 3d
       0.12084536 0.114786424 0.04862905 0.08010664
0001f0 d1 b4 46 3c d9 45 63 bd a8 f1 2e 3e c7 94 22 3d
       0.012128071 -0.055486534 0.17084372 0.039692666
000200 61 53 00 3d a7 cc c1 3d da 45 ec bd 1b c3 ac bd
       0.031329516 0.094628625 -0.11536761 -0.08435651
000210 97 0c 96 bc 45 75 10 3e ad 8c af bc 13 7f 3c 3d
       -0.01831655 0.14107235 -0.021429384 0.046019625
000220 a5 8e 97 bd b1 45 a5 bd d6 45 30 3c 7d 79 d8 bd
       -0.07400254 -0.08069933 0.010758838 -0.10570047
000230 12 06 11 3e 4c 40 13 3d 44 bd ef bc e8 13 b4 bd
       0.14162472 0.03594999 -0.029265054 -0.08792859
000240 22 5b 9c 3d 62 90 e5 3d 07 a6 69 bc d6 23 9f bc
       0.0763457 0.112091795 -0.014260775 -0.019426268
000250 9a e7 21 3e cb 76 6b 3d a4 53 75 bc a3 53 39 3c
       0.15811005 0.057486337 -0.014973555 0.011311444
000260 e7 94 4c 3e 68 03 ce 3c d1 ce 19 3e 2b 85 77 bc
       0.19978677 0.025148109 0.150203 -0.015107433
000270 42 93 f6 3d 15 d3 0d 3d a1 a3 9e bd 54 bb 83 3d
       0.12039806 0.03462513 -0.077460535 0.064322144
000280 66 0a ad 3d 4b a9 19 3e 80 08 7e 3c 2d b9 e9 3b
       0.08449249 0.15005986 0.015504956 0.0071326704
000290 eb c3 29 3e 68 30 9e bd 70 31 e6 bd 2a bf 89 bd
       0.16578643 -0.077240765 -0.11239898 -0.06725915
0002a0 a8 07 1c bd b0 42 7f bd 24 9b f6 3d 68 ac be 3c
       -0.03809324 -0.062319458 0.120413095 0.02327557
0002b0 68 e9 dc bd ea 0f c8 3c 30 bf 1e bd 2b f4 40 bd
       -0.10786706 0.02442165 -0.03875655 -0.047107857
0002c0 59 52 a8 bd 04 53 5f bd cf e9 68 3d bd 29 21 bd
       -0.082188316 -0.05452253 0.056863602 -0.039346445
0002d0 20 f0 a0 bd 4b dc 2d 3e 8c 84 f5 bd 1a 08 6a 3e
       -0.078583 0.16978566 -0.11988172 0.22854653
0002e0 42 60 90 bd 68 ee a2 3d f3 cd cf 3d 1f 0a c7 3b
       -0.0704961 0.07955629 0.101467036 0.0060742046
0002f0 85 78 f6 3d 5b bb 05 be 7c 6f bd 3c 0a 91 d4 bd
       0.12034706 -0.13059752 0.023124449 -0.103792265
000300 d5 68 19 bc 77 df 55 bd ff 21 c3 3c 4b ac 89 3d
       -0.009363373 -0.052215066 0.023819922 0.067223154
000310 9a 7a b0 3d 93 0a 87 3c 61 c7 1f 3d b5 00 81 3e
       0.086171344 0.016484534 0.039008502 0.25195852
000320 a3 e7 0b 3e 88 67 a3 bd ba 78 0d be 9c 74 4b bd
       0.13662581 -0.079787314 -0.13815585 -0.049671754
000330 15 34 b8 bd de 68 be bd 80 a5 ab bd ee c1 82 3d
       -0.08994309 -0.092973456 -0.08381176 0.063846454
000340 ce 3e fc bd 34 9e 4e 3d c0 ca 31 bd db 51 24 bd
       -0.123166665 0.050443843 -0.043406248 -0.040117126
000350 9f 2e e1 3d e7 b9 d6 bd 70 6e f4 bd 37 85 09 3b
       0.109952204 -0.10484677 -0.11935127 0.0020983943
000360 9d 50 69 be c8 33 ba 3d e6 2b cf 3d 49 1e bb 3d
       -0.22784658 0.09091908 0.10115795 0.09136636
000370 cd 09 f6 3d fc 44 cc 3d 93 19 6a 3d b6 4d 1a bc
       0.12013588 0.09974095 0.057153296 -0.009417942
000380 4b 74 38 3e fb 8d 82 bc ff 61 ce 3d 02 ff e6 3c
       0.18013112 -0.015936842 0.10077285 0.02819777
000390 03 a7 59 3c 31 c3 09 3b a7 af 0b be 68 21 54 bc
       0.013284448 0.0021020884 -0.13641225 -0.012947418
0003a0 49 db 78 3c 04 19 2b bc a9 b7 3d 3d 13 02 3f 3e
       0.015189 -0.010442976 0.04631773 0.18653135
0003b0 de 72 3a bd 5b 50 75 3d 82 9f 81 bd 70 b3 c2 bd
       -0.045519702 0.059891086 -0.06329252 -0.09506881
0003c0 8e ca d8 3d 6c e7 3f 3b f6 13 21 3e 36 e0 fd bd
       0.10585509 0.0029282225 0.1573027 -0.123962805
0003d0 d8 d0 3e bc 1d 44 60 bd 66 81 35 bc d1 39 24 bd
       -0.011646472 -0.054752458 -0.011078214 -0.0400942
0003e0 98 af b1 3d ef 1f 15 3d 44 33 a4 bd f6 b7 d9 3d
       0.0867607 0.036407407 -0.08017591 0.10630791
0003f0 f1 ca 69 3d 4c a8 ac 3d ff f1 5a 3d bb 7c 91 3d
       0.057078306 0.084305376 0.05345344 0.071038686

encoder.feature_extract.mlps.0.linears.0.bias f4 [128]
000000 29 80 83 bb 4e 56 c7 3a d2 04 23 bb 17 d4 bc 3b
       -0.0040130806 0.0015208216 -0.00248747 0.0057625878
000010 c9 d9 ac ba 3e 08 7f 3b e1 09 83 3b 18 24 95 39
       -0.0013187464 0.0038914825 0.0039989804 0.00028446387
000020 93 90 42 bb b8 7d 00 bc 84 ec 4b ba ae ec c1 ba
       -0.0029688224 -0.007842474 -0.0007779079 -0.0014795267
000030 7e 9c 5a 39 e0 98 89 bb 52 06 89 bb c9 6f 0f bc
       0.00020848398 -0.0041991323 -0.0041816616 -0.008754679
000040 5d b4 96 bb 3d 5c d0 ba d2 17 6c bb 1e 4d 30 3b
       -0.0045991377 -0.001589663 -0.003602494 0.0026901434
000050 54 29 b6 3b d2 be 18 bb ae 75 05 3c 25 fc 99 bb
       0.005559126 -0.0023307097 0.008145733 -0.0046992474
000060 dc a0 b3 3b 75 7f ef b9 ce ae 3a 3b 3c 8e 7c bb
       0.0054818224 -0.00045680595 0.002848554 -0.0038536927
000070 57 06 18 bb 48 d0 64 bb 77 c4 10 bc 7e 4e 5d 3a
       -0.0023197138 -0.0034914184 -0.008835903 0.0008442177
000080 d1 c2 3a bc 2b 48 eb 3b d5 f7 64 b9 fc 91 75 bb
       -0.011398987 0.007180234 -0.00021836099 -0.0037471047
000090 14 a1 d6 ba 25 55 86 b8 21 2c 2d bb c9 05 35 bb
       -0.0016374909 -6.405477e-05 -0.0026424008 -0.0027621856
0000a0 d2 92 ea 3b e9 ba aa 3a 73 23 de bb 18 c0 0f ba
       0.0071586156 0.0013025674 -0.006779128 -0.0005483641
0000b0 0b e4 18 3b 81 61 c7 3b bc cb e0 3a d1 4b 81 3b
       0.0023329284 0.0060846214 0.0017150561 0.0039458056
0000c0 7e 49 06 3c d0 e2 c3 bb 4c 29 a5 3b e4 06 92 bb
       0.008196233 -0.005977966 0.0050403234 -0.004456388
0000d0 24 cb 9f 3a 03 aa 88 bb 64 5e 51 bb ef b4 19 bb
       0.0012191278 -0.0041706576 -0.003194713 -0.0023453792
0000e0 13 3a 6d bb d0 42 d1 3b 1d b6 07 bb 30 59 0e 3c
       -0.0036197945 0.0063861385 -0.0020707913 0.008688256
0000f0 6d 63 9c ba c0 91 5f 3a b3 eb 8f 3b fd df 84 bb
       -0.0011931487 0.00085284933 0.004392111 -0.004055022
000100 b9 48 98 bb 70 13 ea 3b e8 22 56 3a 1b 0c 9d ba
       -0.004647341 0.0071434304 0.00081686536 -0.0011981757
000110 d2 c8 27 3b ac 6c 1d bc 1c 68 4e 3b d7 f2 98 bb
       0.0025601876 -0.009608429 0.003149516 -0.0046676206
000120 b8 24 a5 bb fc 0d c3 bb ec fb db 3a ea 96 f3 3b
       -0.0050397776 -0.005952595 0.0016783453 0.007433762
000130 02 99 29 3b 33 17 af 3b 1f b9 e5 ba fb 62 a6 3b
       0.0025878553 0.0053433417 -0.0017526484 0.0050777174
000140 02 89 9a 3a d4 08 ff bb f8 cc 1e 3b 44 1b 1f 3b
       0.0011790099 -0.007783035 0.0024231058 0.0024277726
000150 44 89 ae bb ac 9e 8e bb f0 3b 0d 3b 44 40 14 bb
       -0.005326422 -0.0043524113 0.0021550618 -0.0022621313
000160 84 a0 98 3b fc 9d e5 3a cd 03 64 bb 13 4e 8d ba
       0.004657807 0.0017518396 -0.0034792305 -0.0010780714
000170 fb e3 a9 b9 e9 94 ec bb 61 db 00 3b 8b e0 e9 3b
       -0.0003240405 -0.0072199 0.001966201 0.0071373633
000180 8b e6 a8 bb 75 8b f4 3b 2e 8c 80 b9 f0 bf 12 3c
       -0.005154436 0.0074629136 -0.00024518505 0.008956894
000190 b6 b9 ea 3a c7 2c 5d 3b da 3e 47 bb 9d e0 85 b9
       0.0017908129 0.0033748613 -0.0030402453 -0.00025535087
0001a0 58 fd dd bb f0 47 40 ba 5a ba ce ba 3d 79 39 3b
       -0.0067745857 -0.0007334938 -0.001577209 0.0028301023
0001b0 69 64 da bb a9 dd 40 3b 34 37 8f 39 e9 15 e5 3b
       -0.006664802 0.0029428995 0.00027316215 0.0069911373
0001c0 ca ac 90 bb 39 73 83 3b 56 61 55 3b 2e 01 a0 bb
       -0.0044151293 0.0040115383 0.0032559237 -0.004882953
0001d0 84 2e b5 b9 ea e4 7e 3b ed 60 ac 3b a2 c9 78 3b
       -0.00034557667 0.0038893768 0.005260578 0.003796198
0001e0 ae 0f f3 3b cd 35 44 3b ed d5 a5 bb 62 c9 49 bb
       0.0074176406 0.0029939294 -0.0050609023 -0.00307902
0001f0 ee d9 2a 3b 02 4b 84 bb aa fc a2 ba 0b 49 08 3b
       0.0026069838 -0.004037262 -0.0012434919 0.002079549

encoder.feature_extract.mlps.0.linears.1.weight f4 [128, 128]
000000 71 4d 96 3d c7 04 7f bd 14 c2 44 3d 2c 70 f5 bb
       0.073389895 -0.062260415 0.04803665 -0.0074901786
000010 26 ff 97 3d 94 5d cf bb 69 39 c7 bd 86 ae 9a bd
       0.074217126 -0.006328294 -0.09727747 -0.07552819
000020 1f b7 35 3e 94 c6 71 3c 9e dc c9 bd c2 b8 61 bd
       0.17745636 0.014756817 -0.098565325 -0.05510784
000030 7c 5d 35 3b 7a 19 15 3c 7a ae 26 3d f1 9f 5f 3e
       0.002767413 0.009100312 0.040693738 0.21838357
000040 76 98 c3 bc d0 47 ec 3c a3 af a0 bc 21 0a 68 bd
       -0.02387641 0.028842837 -0.019615 -0.056650285
000050 2d 09 f9 bd ed 18 c2 bd 85 9d 99 bd d7 80 79 3d
       -0.12159953 -0.094774105 -0.075007476 0.060913887
000060 2d 34 e3 3d 13 3a 2d bd 7a ba 65 bd d7 77 fc 3c
       0.11093936 -0.042291712 -0.05608604 0.030818863
000070 95 86 ac bd 2d 08 04 be 6c 08 f9 bd 52 5f 59 3e
       -0.08424107 -0.12893744 -0.121598095 0.21227768
000080 47 f0 3e bd 66 f5 8d bd f8 ac 04 3d a5 02 5f bd
       -0.046615865 -0.06931572 0.03239152 -0.05444588
000090 f4 74 09 bc 9d 73 38 be 43 ac 1c be cf 79 33 3d
       -0.0083897 -0.18012853 -0.15300088 0.043817338
0000a0 47 8c 94 3d 85 9a fc bd 5f 7b 6f be 35 4d b4 bd
       0.07253318 -0.1233416 -0.23386906 -0.088037886
0000b0 48 00 0f be 49 de 31 bd bd 65 e6 3d 33 9b 7a bd
       -0.13964951 -0.04342488 0.11249874 -0.061183166
0000c0 14 a6 1f be 5a 8b 2d be 5a 25 f7 3d d9 ec 2a 3d
       -0.15590698 -0.1694769 0.12067671 0.04172978
0000d0 17 00 c4 bd d1 f5 77 bd 42 72 73 3c 05 39 ab bc
       -0.0957033 -0.060537163 0.014858784 -0.020901212
0000e0 bc a5 90 3d 9c d7 9e 3d 06 88 15 3d 91 b8 9a bc
       0.07062861 0.07755968 0.036506675 -0.018886836
0000f0 b2 ab ec 3d 30 03 14 3e 3a bf e6 bd f5 b3 ee 39
       0.11556186 0.14454341 -0.11266942 0.00045528976
000100 68 6a a0 3c 38 a9 14 bc b1 c4 ed bd cd 53 81 3e
       0.019581988 -0.009073548 -0.116097815 0.25259247
000110 6c 36 04 bd 23 a2 19 3b 9d a1 b9 3d 4a c0 68 3d
       -0.032278463 0.0023442588 0.090640284 0.056824006
000120 7c 79 8e bc a7 6c b2 3b 7d 84 e3 3a ae 04 e8 3c
       -0.017391913 0.0054450813 0.001735821 0.028322544
000130 ee 62 76 3c 87 72 ba 3c 2d 39 eb 3d 8d 6d 6d 3d
       0.015038235 0.022759689 0.11485515 0.057965804
000140 8e 73 03 bd bc 49 90 bd 0b 7b f6 3c d8 fb 3b bc
       -0.032092623 -0.07045314 0.030087968 -0.011473618
000150 05 10 3b 3d a2 68 23 bc 9d a2 20 ba a7 bf 10 be
       0.045669574 -0.009973677 -0.0006127747 -0.1413561
000160 90 46 94 3d 55 38 cb 3c 6a ec e6 3c 39 2a 9f 3d
       0.07240021 0.024807135 0.028188903 0.07771725
000170 a1 1d dd 3d 0b 8a 11 be e1 6d a6 3c 3f a9 33 bd
       0.10796667 -0.14212815 0.020316066 -0.043862578
000180 b6 61 e4 bb 4c 5a 13 3d af d8 b5 bc 61 43 86 bd
       -0.006969656 0.035974786 -0.02219805 -0.0655582
000190 7b 97 27 bd 18 59 27 be 03 33 37 be 88 07 29 bd
       -0.040915947 -0.1634258 -0.17890553 -0.041266948
0001a0 c3 9c 03 bc 9c b1 1c 3d 4a 4e d4 3c c9 4b 07 3d
       -0.00803298 0.03825532 0.025916237 0.03303126
0001b0 a1 81 ec 3d 7b a7 88 bd 75 2c 0d 3b 2b db 4e 3d
       0.11548162 -0.06672569 0.002154139 0.050501984
0001c0 f7 15 de 3c da 54 f5 bc 98 38 80 bd 2e c4 10 be
       0.027110083 -0.029947687 -0.062607944 -0.14137337
0001d0 db ca 93 3d 65 bf d6 3d 44 03 9f 3a 7e d0 6c bd
       0.07216426 0.10485724 0.001213171 -0.05781602
0001e0 5e 71 63 bd d4 b7 c5 3d d1 d7 20 be 92 44 2d 3c
       -0.055528037 0.09654203 -0.15707327 0.0105754305
0001f0 c2 ea 92 bd 66 76 d9 bd 7f 50 1a be 4c 83 0f bd
       -0.07173683 -0.10618286 -0.1506977 -0.035037324
000200 8a 10 e5 bb a5 62 69 bd 25 df 0d bc 6e 56 51 bd
       -0.006990497 -0.05697884 -0.008659159 -0.051107816
000210 43 3b 11 3d d3 a0 09 bd a8 85 5b bd 9a 04 7c bd
       0.035456907 -0.03360064 -0.05359426 -0.061527826
000220 5e 45 76 3c 3c c8 e1 bd 28 05 4f bc 37 18 1a be
       0.015031187 -0.1102452 -0.012635507 -0.150483
000230 40 47 4e be 14 55 83 bb eb 2f b2 3d a3 df 87 bd
       -0.20144367 -0.004007945 0.08700546 -0.06634452
000240 d4 a4 60 bd 63 7a 14 3e fa f4 80 3d 09 88 eb 3d
       -0.054844692 0.14499812 0.062967256 0.11500556
000250 54 03 aa bc 55 86 1d bc 4e 38 b6 bd cd 00 98 bd
       -0.02075354 -0.009614547 -0.08897458 -0.07422028
000260 cb 73 50 3e 9a 3e a5 3d 8e 41 4a 3c fc d7 05 3d
       0.20356672 0.08068581 0.012344731 0.032676682
000270 c6 2f d9 bd bd 45 68 3d bb eb c5 3d 14 8c e3 bd
       -0.10604815 0.056707133 0.09664103 -0.11110702
000280 4d e0 82 bc 77 8d e1 bd 7e e2 d3 ba af f0 87 bd
       -0.015976096 -0.110133104 -0.0016165522 -0.066377036
000290 08 82 12 3e 76 8b af 3c f1 ba 0a 3e 33 42 99 bc
       0.14307415 0.021428805 0.13547875 -0.018708324
0002a0 1c 7b 1c 3d e6 a1 ad 3c dc 11 4c 3d 47 72 0e 3e
       0.038203344 0.021195363 0.04982172 0.13910781
0002b0 51 dd dc bd d0 88 9d 3d 20 1d a1 3d 03 59 22 3c
       -0.107844 0.076921105 0.07866883 0.009908917
0002c0 ac 37 2b 3e 41 01 7f 3c 5a e4 bf 3d 3d f5 b2 bd
       0.16720456 0.015564264 0.093697265 -0.08738182
0002d0 b4 e4 89 3c d1 94 2f 3e 27 ce fc 3d e1 07 3a bb
       0.016832687 0.17146613 0.12344008 -0.0028386044
0002e0 0c c8 26 3d 9d e0 fd 3d 2d f3 48 3c c4 44 2b bd
       0.040718123 0.12396357 0.012265009 -0.041813627
0002f0 28 ef c9 bb 7b da 0d bc 69 2c 08 3e 6f 9d 93 3d
       -0.006162543 -0.008658047 0.13298191 0.072077624
000300 33 83 ba bd ec f0 f4 bd 52 65 5f bd 17 55 3a 3d
       -0.091070555 -0.11960015 -0.054539986 0.045491304
000310 13 00 93 3d 06 f9 9d 3d b9 17 d5 bd 45 76 a4 bc
       0.071777485 0.07713513 -0.10404915 -0.020075927
000320 23 39 be b9 b6 68 e9 3d 09 69 dc bd 1d 06 dc bd
       -0.00036282194 0.11396925 -0.10762221 -0.107433535
000330 0c 20 e2 bd 54 ce fe bd 84 f0 87 bc cc 17 b9 bb
       -0.11041269 -0.12441698 -0.016594179 -0.0056485888
000340 67 32 fd bd 25 2f c9 bc 85 cb 60 be 42 79 75 3d
       -0.12363129 -0.024558613 -0.21952637 0.059930094
000350 cc fe 8b 3d 91 b9 90 3d 4c 45 f3 3c 36 36 18 3e
       0.06835708 0.07066644 0.02969613 0.1486443
000360 0c ee 8c 3d 5b 0c 98 3c 56 82 da 3d 5c be 06 be
       0.06881341 0.018560579 0.10669391 -0.13158554
000370 1e 66 19 bc 51 29 97 3d 82 08 9f bc 6e 23 11 bd
       -0.009362726 0.07380927 -0.019413237 -0.03543418
000380 29 02 6e 3d ef 3f 22 3e d8 24 2f be 0c b4 1a bd
       0.05810753 0.15844701 -0.17103899 -0.037769362
000390 d7 be 84 3d f2 50 ac bd c4 e3 4e 3d 3f ab 30 3b
       0.06481712 -0.084138766 0.050510183 0.002695754
0003a0 44 88 01 3d a1 65 c6 3d 51 c4 63 bd 1f 6a 35 3d
       0.031624094 0.09687353 -0.055607144 0.044290658
0003b0 d3 83 47 3d c1 87 45 be dd 19 16 bb 91 fb 69 bd
       0.0487097 -0.19290067 -0.00229036 -0.057124678
0003c0 0f 8d 34 be d6 44 a2 3d 7d 99 27 bd 0e 9b 00 bd
       -0.17631935 0.07923286 -0.040917862 -0.03139787
0003d0 b7 e0 24 3e 2c 33 5e 3d 42 6d c6 bb ca e6 7d bb
       0.16101347 0.05424802 -0.006055505 -0.0038742297
0003e0 84 4b 09 3d 3d 87 b5 3c 67 fa 6d 3d a6 e1 9a bd
       0.033519283 0.022159213 0.05810013 -0.0756257
0003f0 88 80 ae bd 8e c1 a7 3d e9 e9 56 be 48 78 1d bc
       -0.08520609 0.081912145 -0.20987667 -0.009611197

encoder.feature_extract.mlps.0.linears.1.bias f4 [128]
000000 1b b2 33 bb e7 31 82 ba 6f 59 50 bb ef 04 cf 3a
       -0.0027419392 -0.0009933085 -0.0031791588 0.0015794317
000010 58 05 95 bb e9 af 3f ba 73 26 0c 3a 60 6f 35 bb
       -0.004547756 -0.00073122844 0.00053463056 -0.0027684793
000020 6a a9 30 bb 0b f4 8f 3b 79 73 86 3a c9 29 65 bb
       -0.0026956447 0.004393106 0.0010257802 -0.0034967533
000030 57 4f ab bb 39 29 cd 3a b0 73 ab bb d8 86 a9 bb
       -0.005227964 0.0015652544 -0.005232297 -0.0051735453
000040 9c 93 60 3a 7e e5 01 3a b7 83 10 3b 9d 3c 9d 3b
       0.00085669174 0.00049551565 0.0022051164 0.0047984854
000050 19 0c 1c ba 63 b5 43 ba 4e f4 2c ba 15 3d cd ba
       -0.00059527304 -0.00074656884 -0.00065976835 -0.0015658463
000060 56 b4 8f 3a f5 e5 10 3a e8 77 c1 bb 1e 86 8f bb
       0.0010963778 0.00055274303 -0.0059041865 -0.0043800017
000070 8c b5 50 3a 63 68 d6 3a 3d c7 f2 3a 57 a3 d9 b9
       0.0007961623 0.0016358014 0.0018522512 -0.00041511163
000080 76 7f aa 3b 81 31 8f ba 06 60 ae 3a cc 8e ea bb
       0.005203183 -0.0010924787 0.0013303764 -0.007158136
000090 05 8a 01 3b 45 7a 85 bb 51 bd 39 bb 74 87 e4 3a
       0.0019766104 -0.0040734136 -0.00283416 0.0017435388
0000a0 81 23 55 3a 22 76 ce 3b 25 06 0a b8 10 45 87 3b
       0.00081305957 0.0063007036 -3.2907486e-05 0.004128106
0000b0 e3 a5 07 39 14 1c d3 3b bc be 48 bb b7 db b4 ba
       0.00012936401 0.006442556 -0.0030631265 -0.001379839
0000c0 18 78 3b 39 9a 09 22 3b 9d f2 fd 3a f9 b0 32 3a
       0.00017878448 0.0024724961 0.0019374673 0.0006816532
0000d0 2b b6 2d 3b 4e a5 cf 3a d8 4e 5f bb 89 79 44 ba
       0.0026506286 0.0015842111 -0.0034074094 -0.0007494917
0000e0 3d 1d b6 ba 3f b3 b1 bb 92 b5 92 bb 82 34 83 bb
       -0.0013894212 -0.005422979 -0.0044772113 -0.004004062
0000f0 d1 98 b8 ba 05 6f 6c bb aa f1 19 bb 77 60 9a bb
       -0.0014083629 -0.0036076915 -0.002348999 -0.0047112065
000100 a1 dc 61 39 e6 05 52 bb 51 f4 0e 3b 7b a3 79 ba
       0.00021539863 -0.0032046973 0.0021813104 -0.00095229567
000110 64 fa 25 bb 5a 67 1b bb ac 2c 06 3b 39 28 ab bb
       -0.0025326246 -0.0023712725 0.0020473404 -0.005223301
000120 4e e1 35 3a e7 63 84 3a 71 9e 73 39 fe f4 8d 3b
       0.0006938175 0.0010100574 0.0002323331 0.004332184
000130 a1 5c 93 3b 76 65 32 3b 85 d1 43 3a c2 2c 9c ba
       0.004497126 0.002722112 0.00074698805 -0.0011915194
000140 0e 3b e5 3a 8f 0c 89 3a 52 6a 75 3b d4 42 ca bb
       0.0017488913 0.0010456013 0.0037447405 -0.0061725173
000150 aa 23 62 3a af 90 ad 3b a5 94 8c 3b 5a 0e 1b b8
       0.000862653 0.0052967886 0.0042901807 -3.6968246e-05
000160 31 47 3e 3b cf 14 0f 3b 07 3a e5 3a d2 28 47 bb
       0.0029034133 0.0021832471 0.0017488607 -0.003038932
000170 c0 37 4e b9 49 94 bb ba 2c 43 17 b8 8b 52 55 3a
       -0.0001966646 -0.001431116 -3.6063764e-05 0.0008137605
000180 0b 56 f0 b8 39 47 2f ba 13 3e 05 bb 71 e6 ad bb
       -0.000114601185 -0.0006686333 -0.0020331189 -0.005307012
000190 ec f8 32 3b 7c fd bb bb 98 57 73 3b 3e 04 11 bb
       0.0027309014 -0.005737005 0.0037131067 -0.0022127773
0001a0 fd 09 f1 bb fb 73 61 3b 73 b5 fe 3a f1 9a 14 3b
       -0.007355927 0.0034401405 0.0019432738 0.002267536
0001b0 a1 1c ab 3b 48 f5 5d 3a ce 8e 92 3b fd 92 20 b8
       0.0052219187 0.0008467031 0.00447259 -3.8283866e-05
0001c0 9c 76 fd b9 2b 3d 87 39 a0 af 11 bb 18 88 90 bb
       -0.0004834429 0.0002579478 -0.0022229925 -0.004410755
0001d0 ee e8 3e 3a 5e 59 88 bb 97 5f 6b 3b 03 90 42 3a
       0.0007282634 -0.004161044 0.003591513 0.0007421972
0001e0 34 08 5c 3a 16 45 9e 3a ba ef e9 b9 d0 1f dc bb
       0.00083935563 0.0012075033 -0.00044619833 -0.0067176595
0001f0 55 ae 84 ba 1d 4d ef ba ef cd ca 38 54 09 c0 ba
       -0.0010122756 -0.0018257234 9.670469e-05 -0.0014651217

encoder.feature_extract.mlps.0.linears.2.weight f4 [128, 128]
000000 d2 ab d4 3c 35 93 0b 3e 86 1e 10 be 34 65 72 3d
       0.025960837 0.13630374 -0.14074144 0.059178546
000010 ec ba 3e bd 01 e9 13 bd 90 34 96 bd 69 5c b9 bc
       -0.04656498 -0.03611088 -0.07334244 -0.022627072
000020 bf 77 08 bd 73 9d 40 be 88 c6 c5 3d 10 86 9b 3d
       -0.033317324 -0.18810062 0.096570075 0.0759393
000030 07 74 cd bd f9 49 65 be b7 bb e7 bc 78 f5 8f bc
       -0.10031896 -0.223915 -0.028287752 -0.017573103
000040 94 b4 2c be 74 e2 ae 3b d3 52 87 bd d8 a4 03 3d
       -0.1686576 0.005337054 -0.06607594 0.03213963
000050 fb e7 ff 3d 8d da 05 3e d4 d1 a1 3c ca c0 ac bd
       0.12495419 0.13071652 0.019753374 -0.08435209
000060 76 d4 dc 3d 2c a7 eb 3d 46 b4 30 3e ff e2 78 bd
       0.10782711 0.11506495 0.17256269 -0.060763355
000070 c7 cd 6b bc 41 cc 88 3d ad e5 ef 3d ab 16 43 bd
       -0.014392323 0.06679583 0.11713729 -0.04762904
000080 a6 49 89 bd 15 7d ca 3d 19 e4 19 bd 3e b4 23 3b
       -0.067035004 0.09887139 -0.037571047 0.002497926
000090 f8 4e 5f bd bf 9a 1d 3d bc 00 0d be 70 d5 a4 3d
       -0.05451867 0.038477656 -0.13769811 0.080485225
0000a0 66 82 69 3b e6 80 24 3e a0 d8 a1 bc f0 86 64 bd
       0.0035630702 0.16064796 -0.019756615 -0.05579275
0000b0 e0 83 f3 bd a3 98 0e be c2 40 c2 3d ca f4 a3 3b
       -0.118903875 -0.13925414 0.09485008 0.0050035464
0000c0 88 03 01 3e 81 df e9 bc 81 5e e2 bd 59 c8 9f 3c
       0.12599003 -0.028548958 -0.110531814 0.019504713
0000d0 55 9a 9b bc 89 bf 09 3e 8e 77 c9 3d 27 5a fc bd
       -0.01899449 0.13451971 0.09837256 -0.12321883
0000e0 05 bd 95 bc f3 d7 4a bd 26 19 e6 3d b7 cf 70 bd
       -0.018278608 -0.04952235 0.112352654 -0.058791842
0000f0 80 0a c4 bd a7 c9 11 be 4c 02 f5 3d 07 80 ba bc
       -0.09572315 -0.1423708 0.11963329 -0.022766126
000100 c0 55 20 3e 48 2a 1d bc 85 b8 02 3e f2 b3 f2 3c
       0.15657711 -0.0095926 0.12765701 0.02962682
000110 48 3e 12 bd 1b fe 1e bd 5d 7e d9 ba ca 04 e3 bd
       -0.035703927 -0.038816553 -0.0016593445 -0.11084898
000120 4f fa 64 bd fe d9 3b bd f0 ea 82 bd 0b f7 be 3c
       -0.055902775 -0.04586219 -0.06392467 0.023311159
000130 9a 4b 09 bd 14 6f 57 3d b9 b2 f7 bd d8 7e 92 bd
       -0.033519365 0.052596167 -0.120946355 -0.071531
000140 86 4a 21 be 85 87 d8 3c b7 76 92 3d 9b cc cf bb
       -0.15751085 0.026431808 0.07151549 -0.0063415295
000150 17 3a b4 3d 01 e5 2c 3d e8 ed 97 3d e6 91 e2 bc
       0.08800142 0.042210583 0.07418424 -0.02765746
000160 99 bc 1a bd 2e af 04 be c1 3c 6f 3c 48 3c 11 3c
       -0.037777517 -0.12957451 0.014601887 0.00886447
000170 96 01 a6 3d 4d 44 fa 3c cd 66 da bd af 69 c2 bc
       0.08105771 0.030550146 -0.10664139 -0.023732034
000180 0e a7 c0 3d 74 0d 44 bc 97 b8 2d 3e aa fd 02 3e
       0.09406863 -0.011966098 0.16964947 0.12792078
000190 08 29 11 3e c5 64 02 be 2f f3 23 be cf 4d ce 3d
       0.14175808 -0.12733753 -0.16010736 0.100734346
0001a0 73 19 1a 3d 85 16 17 bd 8b 67 50 3a 14 c7 15 3c
       0.037621927 -0.03688671 0.00079499994 0.009141702
0001b0 cb e2 a1 3d f3 f1 7a 3a d2 98 3b 3d fc 38 b5 bd
       0.079045855 0.00095727964 0.045800038 -0.088487595
0001c0 2d c6 a0 bd f3 3d 13 be 76 7e cb 3d fa a6 9e bc
       -0.07850299 -0.143791 0.0993623 -0.01936673
0001d0 0e c1 50 bc 04 d6 40 3d 07 09 ab bd 3a 4e 81 3d
       -0.01274134 0.0470791 -0.08351331 0.06313749
0001e0 a5 08 09 3e 07 0c 85 bd fb b0 9f bd 7d d0 bf bd
       0.13382204 -0.06496435 -0.07797428 -0.09365938
0001f0 5c 40 a5 3c aa 7e bf bc 12 a7 da 3d ca 91 04 be
       0.02017229 -0.023375828 0.106763974 -0.12946239
000200 e0 f9 c5 3c af 57 14 bd d4 9e ad 3c c9 ab b1 bd
       0.024167001 -0.036216434 0.0211939 -0.086753435
000210 13 e5 ef 3c 6e c5 f2 3d 6f a0 3b bd d2 87 c2 3d
       0.029284036 0.11854063 -0.0458073 0.09498562
000220 e5 06 ed bd 33 c5 33 bd 30 e2 df bd 44 f0 ad bd
       -0.11573581 -0.043889236 -0.10931814 -0.08493093
000230 8d e9 64 3d f8 27 61 bc 58 f6 d1 3c ec 27 c8 3c
       0.055886794 -0.013742439 0.025630161 0.024433099
000240 42 b6 51 bd 94 3a ef bd e8 1e a0 bd 6c 16 af 3c
       -0.051199205 -0.11681095 -0.07818395 0.021372996
000250 51 00 30 3d 83 2b 78 3d d1 db f3 bc dc 16 ab 3d
       0.04296905 0.06058837 -0.029767903 0.083539695
000260 3e de d7 3c 3c d7 9f 3d 45 e5 68 ba 24 79 21 bd
       0.02635109 0.078047246 -0.00088842615 -0.03942217
000270 6d 30 99 bd 25 20 1e 3e 62 97 f0 bc ce 5e b0 3d
       -0.074799396 0.1544195 -0.02936906 0.086118326
000280 30 0b 6d 39 ef 6f 6f bb 81 72 b1 3b c4 ac 3e 3e
       0.00022606249 -0.0036535223 0.0054152613 0.18620592
000290 3f d8 30 be 6c 5b 8c be 1b bc f6 bd de 5d 47 bd
       -0.17269991 -0.274135 -0.12047597 -0.048673503
0002a0 d1 f2 92 3d ef d5 26 3d d3 3f 75 3e aa 93 58 bd
       0.0717522 0.040731367 0.23950128 -0.0528752
0002b0 33 48 6d 3d f3 fe 59 3d 26 c9 d6 bb 26 14 57 3b
       0.057930183 0.053221654 -0.0065547405 0.0032818406
0002c0 ce d0 10 3e e1 37 ca bd bc ad a9 3d b4 ba 3c bd
       0.14142153 -0.09873939 0.0828509 -0.04607649
0002d0 98 b3 9f bd 01 a7 89 bb dd d7 29 be c9 36 87 3d
       -0.07797927 -0.0042008166 -0.16586252 0.06602246
0002e0 d3 25 08 bd 0b 36 f6 bd c2 c7 a0 3d 43 99 41 bd
       -0.033239197 -0.12022027 0.07850601 -0.047265302
0002f0 a0 c3 cc 3c 94 fc 3c 3d f3 e9 a5 bd 39 21 01 be
       0.024995625 0.046139315 -0.08101263 -0.1261033
000300 29 65 8d 3c b3 ea 8c bd 21 1e d5 bd 15 b8 80 bd
       0.017260151 -0.06880703 -0.10406137 -0.06285111
000310 4d de 84 bd 12 29 2c bd a0 e5 27 3d e3 f7 2e bd
       -0.06487713 -0.042031355 0.04099047 -0.042716872
000320 4a b4 d0 3d 83 d8 1b 3e 6e 86 83 bc ef 23 aa bd
       0.101906374 0.15219311 -0.016055312 -0.08307635
000330 d8 58 d1 bd 19 69 27 3e 93 3a 66 3c 55 c8 10 be
       -0.10222024 0.16348685 0.014052051 -0.1413892
000340 9f a8 34 be 68 ee 86 bc 39 d3 bb 3c 51 49 c6 bc
       -0.17642449 -0.016471103 0.022927867 -0.024204882
000350 72 31 83 3d 67 19 48 3e 94 ef 63 bd 01 f4 e0 3c
       0.06405915 0.1954094 -0.0556484 0.0274601
000360 12 bf b3 3d c7 86 3f bd 68 06 8d 3c d7 e3 80 bd
       0.08776678 -0.046759393 0.017214969 -0.06293457
000370 58 f9 e9 bd 3b 6d a2 3d e9 86 1c 3e ff 37 78 bd
       -0.11424512 0.0793099 0.15285839 -0.060600277
000380 f8 a0 23 3e b1 fc c5 bd eb 36 1f 3d 5e 61 16 bd
       0.15979373 -0.09667338 0.038870733 -0.03671395
000390 a4 c5 ae bd 08 2c 55 bd 26 99 f8 3d ae 28 3e bb
       -0.08533791 -0.052043945 0.12138586 -0.0029015946
0003a0 da a3 3c bd fb 4e 35 3e 69 c4 4a 3e 93 27 31 bc
       -0.0460547 0.1770591 0.19801487 -0.010812658
0003b0 6f 47 f6 3c 12 fa 04 3e 1c b5 8a 3d 72 3f 67 bc
       0.030063359 0.12986019 0.06772825 -0.014114248
0003c0 7c cb 58 bb 52 01 03 be a0 b6 3f bd 78 00 82 3d
       -0.003308027 -0.12793472 -0.046805024 0.06347746
0003d0 64 28 a8 3b 98 77 07 be d4 11 70 bd d1 7e aa bb
       0.005131768 -0.13229215 -0.058610752 -0.005203106
0003e0 9d 7f e9 bb 25 df 9d 3c 05 8e d3 3d 7c 9e 1d 3d
       -0.0071258084 0.019271443 0.103298225 0.03848122
0003f0 a6 af 22 3d 34 ca a7 3d 59 dc 57 bd ce 8f 06 bd
       0.039718293 0.08192864 -0.052700374 -0.032851987

encoder.feature_extract.mlps.0.linears.2.bias f4 [128]
000000 a0 f5 ab 3a 57 4b 9e ba 8c 53 13 39 9e 8f a7 3a
       0.0013119467 -0.0012076896 0.00014050136 0.001278389
000010 ac 04 61 bb b8 2a 5c 39 35 ff 15 bb a9 a5 ab 3a
       -0.003433506 0.00020996749 -0.002288771 0.0013095635
000020 a2 59 b0 ba 24 91 f1 3a 8f 06 33 bb 58 fb 3e bb
       -0.0013454447 0.0018430096 -0.0027317142 -0.0029141512
000030 be e1 81 bb b6 47 57 3a cd a7 5c bb 08 85 a4 ba
       -0.003963678 0.0008212285 -0.0033669353 -0.0012551853
000040 16 f9 08 3a e9 90 fb ba f1 15 bb ba 95 41 b3 3a
       0.0005225105 -0.0019192967 -0.0014273507 0.0013676161
000050 32 3c 1d bb 28 b5 3b bb 31 76 f0 b9 1b 0f 1d bb
       -0.0023992178 -0.0028641913 -0.00045864427 -0.0023965302
000060 ad 88 95 b8 8c b5 9b 3b a2 2f 3f 39 44 06 3f ba
       -7.1303315e-05 0.0047518667 0.00018232924 -0.00072870054
000070 67 0b 96 b9 1d 81 1f ba 9d d3 5b b6 42 22 d5 3a
       -0.00028618725 -0.0006084608 -3.2756718e-06 0.001626082
000080 63 73 5e ba 51 33 66 3a 29 b6 96 3b 58 0e 18 ba
       -0.0008485822 0.00087814505 0.004599352 -0.0005800477
000090 8c e4 df ba c8 22 62 b4 fe a5 bb b9 de 6b 3c b9
       -0.0017081662 -2.1060544e-07 -0.00035791093 -0.00017969261
0000a0 15 ac c4 3a b8 f2 c0 ba 53 2c 55 3a 28 82 88 b8
       0.0015004898 -0.0014720773 0.000813191 -6.509229e-05
0000b0 29 0b 41 bb c1 c8 17 b9 79 3b 90 3b ef 5b 8e 3a
       -0.0029456115 -0.00014475269 0.004401621 0.0010861139
0000c0 77 62 5a 3b 77 0b 65 3a 9d 88 1b 39 32 4f d0 b9
       0.003332285 0.0008737365 0.00014832844 -0.00039731857
0000d0 0e 05 42 3a 81 36 ab ba 23 b0 34 3b aa 9f 53 38
       0.0007401266 -0.0013062508 0.0027570806 5.045502e-05
0000e0 2f 6b 57 3b 4c 14 7d ba f5 5d bb b8 d7 7d e8 ba
       0.0032870283 -0.00096542086 -8.934356e-05 -0.0017737699
0000f0 51 a7 52 bb 59 4e 4d 3b 09 83 a6 39 9e 4c 87 3a
       -0.0032143185 0.0031327216 0.00031759616 0.0010322516
000100 dc 42 3b 39 f7 fc 6f 39 d0 56 38 3b 8e e1 90 bb
       0.00017858617 0.00022887053 0.0028127916 -0.0044214195
000110 0f f5 79 bb 83 78 58 bb c9 55 73 ba 61 6c 05 3b
       -0.003814045 -0.0033030815 -0.00092824973 0.0020358788
000120 89 69 c2 bb ea 54 29 3b 96 92 24 3b b3 ef bd 3a
       -0.005932991 0.0025837966 0.0025111786 0.0014490992
000130 36 15 3b ba 63 d8 0e bb d2 07 fd 39 76 b5 b9 39
       -0.00071366446 -0.0021796457 0.00048261747 0.0003542115
000140 8e 73 ee ba 12 ae da b8 8d 2c 7c 39 26 f5 89 3a
       -0.0018192397 -0.00010427473 0.00024049189 0.001052533
000150 56 3e eb 39 72 d7 1a 3a c0 b5 80 39 f6 7d 44 bb
       0.00044869137 0.00059067376 0.00024549477 -0.0029982305
000160 e8 3b 90 3b bb 84 1f ba 3c 67 52 bb bd 1d 94 bb
       0.0044016726 -0.0006085147 -0.003210499 -0.0045201466
000170 2f 2d 0d ba 77 ae 53 ba a2 63 86 bb f5 12 bd 3a
       -0.0005385456 -0.00080750085 -0.0041012326 0.0014425205
000180 c2 48 36 ba 2a ff db ba 87 30 43 3b 94 6b 9a b8
       -0.0006953591 -0.0016784419 0.0029783563 -7.36333e-05
000190 ec b8 3a ba 82 38 4a bb 0b 1c f7 ba 37 f4 30 3b
       -0.00071228924 -0.0030856435 -0.0018852962 0.0027001032
0001a0 d0 75 47 ba 6e ec 01 3b ad 64 03 3a 56 b7 f3 ba
       -0.0007608803 0.001982476 0.0005012255 -0.0018594067
0001b0 df 46 99 bb 0d cc ae 3a ad a0 8f 39 a0 14 aa ba
       -0.004677638 0.0013335958 0.00027394798 -0.0012976117
0001c0 8e 2e c8 38 14 49 a9 3a 89 e9 bf 3a 1a 0d ca 3a
       9.545415e-05 0.0012915456 0.0014641742 0.0015415282
0001d0 0a 97 dc ba 2f 75 03 3b 0b d5 ae 3a a8 6c 27 ba
       -0.0016829681 0.002005886 0.0013338638 -0.00063867355
0001e0 3a 24 bb 3a 89 9a d2 b9 c7 82 fb ba c3 f5 e2 3a
       0.0014277764 -0.0004016946 -0.0019188755 0.0017315674
0001f0 c7 d3 2c ba f3 da f7 39 64 d5 1e bb a9 7e 05 b9
       -0.00065928366 0.0004727464 -0.0024236077 -0.00012731053

encoder.feature_extract.mlps.0.batch_norms.0.weight f4 [128]
000000 a3 e5 7f 3f 42 64 80 3f 25 b7 7e 3f e8 ce 7f 3f
       0.9995977 1.0030596 0.99498206 0.9992509
000010 e9 c3 7e 3f 16 27 80 3f 71 14 7d 3f 3d 45 7f 3f
       0.99517685 1.0011928 0.98859316 0.99715024
000020 85 b6 7e 3f 43 25 80 3f 25 26 80 3f d4 3a 7e 3f
       0.9949725 1.0011371 1.0011641 0.99308515
000030 cb ba 7f 3f 4e e1 80 3f 61 c1 7e 3f 54 00 80 3f
       0.998944 1.0068758 0.9951382 1.00001
000040 27 9f 7f 3f 70 98 80 3f b4 b9 7f 3f 38 35 7f 3f
       0.9985222 1.004652 0.99892735 0.9969058
000050 d2 78 7f 3f a3 5e 80 3f 84 35 80 3f 29 5b 7f 3f
       0.9979373 1.0028881 1.0016332 0.99748474
000060 6e f6 7f 3f 43 e5 80 3f cc e5 7f 3f 75 22 80 3f
       0.99985397 1.0069965 0.9996002 1.0010515
000070 39 f7 7e 3f 78 ad 80 3f 59 a6 7f 3f 64 cf 7e 3f
       0.9959598 1.0052938 0.998632 0.995352
000080 9c 63 80 3f b2 37 7f 3f d2 85 7f 3f 34 0f 80 3f
       1.0030398 0.9969436 0.9981357 1.000464
000090 ce 9f 7f 3f 0e e0 7e 3f 69 c3 7f 3f 70 35 80 3f
       0.9985322 0.9956063 0.9990755 1.0016308
0000a0 18 70 80 3f 62 45 7f 3f 00 c3 7f 3f fe dc 80 3f
       1.0034208 0.99715245 0.9990692 1.0067441
0000b0 06 1f 7f 3f 96 cc 80 3f b8 77 80 3f aa 02 80 3f
       0.99656713 1.0062435 1.0036535 1.0000813
0000c0 6b b0 80 3f 01 66 80 3f 73 f4 7d 3f e9 9e 7f 3f
       1.0053838 1.0031129 0.99201125 0.9985185
0000d0 1c 8a 80 3f 9a 49 80 3f 32 22 7f 3f 1c 01 80 3f
       1.0042148 1.0022461 0.9966155 1.0000339
0000e0 26 d9 80 3f 12 1e 81 3f 79 aa 80 3f 91 8c 80 3f
       1.0066268 1.0087302 1.0052024 1.0042897
0000f0 61 a6 80 3f 1d 99 80 3f e6 39 80 3f d5 d3 7e 3f
       1.0050775 1.0046726 1.0017669 0.9954198
000100 ea 2d 81 3f c6 3c 7f 3f 25 41 80 3f d0 75 80 3f
       1.0092137 0.9970211 1.001988 1.0035954
000110 1a d8 80 3f 2b dc 7d 3f 14 47 81 3f 91 a9 7e 3f
       1.0065949 0.99164075 1.0099816 0.9947749
000120 32 db 7e 3f f0 77 80 3f 53 82 7f 3f 44 05 80 3f
       0.99553216 1.0036602 0.99808234 1.0001607
000130 83 f1 7e 3f ec 5d 80 3f d8 bf 7e 3f bb ba 7e 3f
       0.9958727 1.0028663 0.9951148 0.9950368
000140 dd 69 80 3f a5 90 7f 3f 26 6d 80 3f c3 2c 7f 3f
       1.0032307 0.99830085 1.003331 0.99677676
000150 a8 90 7f 3f 2f f3 7f 3f 7b 0c 80 3f bf 94 7f 3f
       0.998301 0.99980444 1.0003809 0.99836344
000160 cf 2b 80 3f c8 8a 7e 3f bb 2a 7f 3f 15 e9 7f 3f
       1.0013369 0.99430513 0.99674577 0.9996503
000170 10 ca 7f 3f c0 98 7e 3f 05 6a 80 3f e6 63 80 3f
       0.999177 0.9945183 1.0032355 1.0030487
000180 0b a7 80 3f 58 68 7f 3f c7 73 80 3f 77 7d 7f 3f
       1.0050977 0.9976859 1.0035332 0.9980082
000190 d5 41 80 3f 80 a2 7f 3f c8 e4 7f 3f 2f b2 7f 3f
       1.002009 0.9985733 0.9995847 0.9988126
0001a0 38 bf 80 3f fd d9 80 3f 65 1a 81 3f 50 9e 7f 3f
       1.0058355 1.0066525 1.008618 0.9985094
0001b0 b7 3d 7f 3f 39 4d 80 3f b8 74 80 3f 87 26 80 3f
       0.99703544 1.0023566 1.003562 1.0011758
0001c0 83 b9 7f 3f 3a 54 80 3f cf c2 7e 3f d5 ad 7f 3f
       0.99892443 1.0025704 0.99516004 0.9987462
0001d0 20 5a 80 3f d7 3e 80 3f a9 c7 80 3f 10 15 80 3f
       1.0027504 1.0019177 1.0060931 1.0006428
0001e0 b2 cd 80 3f 05 9a 7e 3f 14 2b 81 3f 8e df 7e 3f
       1.0062773 0.99453765 1.0091271 0.9955987
0001f0 b2 0a 80 3f 44 8a 7e 3f 25 3a 80 3f 26 4f 7e 3f
       1.0003264 0.99429727 1.0017744 0.9933952

encoder.feature_extract.mlps.0.batch_norms.0.bias f4 [128]
000000 fb 8d 5c 3b da 85 2f 39 24 da 12 bc a9 cb c5 bb
       0.0033653963 0.00016739164 -0.008963142 -0.006036241
000010 0a 5f 16 bb 24 8f 06 3b 99 7d 33 bc 48 fd c4 bb
       -0.0022944831 0.0020532096 -0.010955238 -0.006011639
000020 b7 f7 e9 ba b1 15 38 bb 43 08 9b bb ef 5e b1 ba
       -0.0017850314 -0.00280891 -0.0047312095 -0.0013532321
000030 25 78 2d b9 b9 62 aa 3b b4 b0 03 bb 10 5e 32 3b
       -0.00016543323 0.005199757 -0.0020094337 0.002721671
000040 6a e0 57 3a 7e 31 dc 3b ab 08 b3 bb 4f b4 7d bb
       0.00082350394 0.006719767 -0.00546368 -0.0038712209
000050 de fd 84 3b 18 52 4d 3a b4 99 43 bb fb 92 98 bb
       0.0040585836 0.00078323623 -0.0029846253 -0.0046561933
000060 7c 21 07 3c 5d 7b 0d bb a2 d6 c0 bb 67 e5 bf bb
       0.008247729 -0.0021588423 -0.005884961 -0.0058562043
000070 18 7d 8f bb f6 d1 1c 3c e9 4f 92 3b d4 8a 00 bc
       -0.004378926 0.009571543 0.0044650924 -0.007845599
000080 65 26 10 3c 48 f2 59 bb 58 67 ff 39 35 eb 56 bb
       0.0087982165 -0.0033255983 0.00048714387 -0.0032794003
000090 34 ec e4 bb db 5f 82 bb 76 5c 0a bc 3f 8c 55 3a
       -0.0069861654 -0.003978712 -0.008444896 0.00081462035
0000a0 97 40 dd 39 08 6a 7b bb 11 5e 92 3a 75 ef 6c bb
       0.00042200528 -0.003836276 0.001116695 -0.003615347
0000b0 50 6d 45 3b 0a 78 06 3c cc b4 f6 3b b9 4e af bb
       0.003012497 0.0082073305 0.007528877 -0.0053499606
0000c0 9b 7e 43 3b eb bf ab 3b 7a 40 ba bb ea 01 b5 3a
       0.0029830101 0.0052413843 -0.0056839557 0.0013809775
0000d0 d3 0e 6e ba 29 a2 32 3b 39 32 e0 bb a8 54 a8 bb
       -0.00090811885 0.00272573 -0.0068419245 -0.005137045
0000e0 69 3b b0 3b e4 b3 bf 3a 7f c8 e2 3b ad fc a1 bb
       0.005378176 0.0014625755 0.0069208737 -0.0049434514
0000f0 f3 34 77 3b e1 c6 03 3c e4 42 16 3b db 2f aa bb
       0.003772077 0.008043022 0.0022928054 -0.005193693
000100 7a de 51 bb 90 78 d2 ba 1d 9c bf 3b 54 58 74 bb
       -0.0032023476 -0.0016057659 0.0058474676 -0.0037284093
000110 68 71 4f 3c 1a 8a 3c bb 46 5f ef 3b c6 21 06 bc
       0.0126613155 -0.0028768838 0.0073050587 -0.008186763
000120 38 e0 bc bb 28 ab 9b 3b ac ff d2 3a 7c ab 04 bc
       -0.0057640336 0.004750628 0.0016097925 -0.008097526
000130 4a cd df ba ec 91 a5 3b ec 9c 80 bb 39 4d e8 3a
       -0.0017074731 0.0050527956 -0.0039249565 0.001772321
000140 00 e9 3a 3b 63 99 3c 3b 4f fb 34 3b c7 9d c7 bb
       0.0028520226 0.002877795 0.0027615612 -0.0060918066
000150 90 28 58 bb 85 06 50 3b 8d cd 82 3b af e1 f4 39
       -0.0032983162 0.0031742167 0.0039917887 0.00046707454
000160 e8 46 17 3b 12 f9 48 bc 17 b5 be bb 33 6d 5d bb
       0.0023083035 -0.012266414 -0.0058199274 -0.0033787012
000170 26 1d 04 bc 91 89 31 bc 5a 4c 63 3b d0 68 6d bb
       -0.00806359 -0.010836021 0.003468296 -0.0036225803
000180 e6 38 8e bb aa 89 e1 bb 14 7a 0e 38 78 c4 a4 bb
       -0.004340279 -0.006882866 3.3969132e-05 -0.0050283037
000190 25 f5 50 3a 90 39 cd 3a 6a f8 bc bb 06 9a 5e bb
       0.00079710997 0.0015657414 -0.005766918 -0.0033966317
0001a0 87 60 3d 3c 60 fb fb bb d7 24 af 3b 9c 8f bb b8
       0.011558658 -0.0076898783 0.005344968 -8.943604e-05
0001b0 13 da 1a bb cc e2 20 3a ba be 6f 3b fe c6 96 3a
       -0.0023628518 0.0006137311 0.0036582188 0.0011503396
0001c0 e0 7a 0d 39 6c a3 57 ba f6 e0 13 bc 96 aa d3 3b
       0.00013492582 -0.0008225951 -0.009025803 0.0064595444
0001d0 99 a8 6a 3b 72 d6 ff ba 1c a7 96 3b 67 b8 9d ba
       0.0035806058 -0.0019518866 0.0045975577 -0.0012033106
0001e0 6a bb 1d bb 47 b9 cf bb 09 a4 e0 3b 5a bb f1 ba
       -0.0024068006 -0.0063392255 0.006855492 -0.0018442676
0001f0 5e fc 08 bb 11 8c 66 ba 6a 6c f4 39 98 ed c8 bb
       -0.0020902376 -0.0008794675 0.0004662008 -0.006131839

encoder.feature_extract.mlps.0.batch_norms.0.running_mean f4 [128]
000000 e7 91 96 bd 32 82 d6 bb 30 27 5d 3c 2d a3 85 bd
       -0.073520474 -0.006546282 0.013498113 -0.06525264
000010 30 bc 3d 3d ac 2f d5 bd c1 e1 c3 bc 56 b3 d0 3d
       0.046322048 -0.10409483 -0.023911359 0.101904556
000020 30 65 9c 3c a0 09 b1 bd be ca 3c 3d 5a 9e 42 bd
       0.019091219 -0.08644414 0.046091788 -0.047514297
000030 51 18 cf 3d 83 ec 7a 3d 4a 05 09 3e 1e 14 88 3d
       0.1011206 0.06126071 0.13380924 0.06644462
000040 85 7b 1b bd 95 71 0b 3e cb f0 68 3c 66 e3 f2 bc
       -0.037959594 0.13617547 0.014217566 -0.029649448
000050 61 02 98 3d c1 70 ce 3d da bb 4d 3d 1c 0f 4f 3d
       0.07422329 0.100801 0.050227977 0.05055152
000060 44 6b 1d 3e 46 7b 43 3d e3 0c 26 bd 51 e2 0d 3e
       0.1537295 0.047724985 -0.040539633 0.13855864
000070 17 28 b1 3d d7 b3 83 3d c7 39 cb bb 71 87 c0 3d
       0.08650225 0.06430786 -0.006201956 0.094008334
000080 dd 00 0b bd 3a 5b d1 3d 63 1b 94 bc 4b 42 9e bc
       -0.03393637 0.10222478 -0.018079465 -0.01931872
000090 48 3e 96 3d 15 cd c4 3d 61 08 ca 3d f5 4b 1d be
       0.07336098 0.09609429 0.098648794 -0.15361007
0000a0 a7 2a 99 3d dc 5e 1f 3c bc d8 15 bd 77 8b af bd
       0.074788384 0.009727206 -0.036583647 -0.08571523
0000b0 bc 37 86 3d 00 8e bf bd a9 4e 97 bd 11 d0 54 3e
       0.06553599 -0.09353256 -0.0738805 0.20782496
0000c0 eb c1 6e be 6b 43 70 bd 5a c7 21 be e8 2b 2f 3b
       -0.23316161 -0.058658045 -0.15798703 0.002672905
0000d0 04 34 49 be 12 0e 30 be 74 31 ba 3d 3f df 82 3c
       -0.19648749 -0.17192867 0.09091464 0.015975593
0000e0 cb 60 56 bd d8 96 d1 3c 1e ad 56 bd d5 75 3f bd
       -0.052338403 0.025584623 -0.05241119 -0.046743233
0000f0 eb dc 09 3e 2b b4 b4 3d 6e ce 3e bd 0f dc 8e 3d
       0.1346318 0.08823427 -0.046583585 0.069755666
000100 29 9e be 3d 26 0a c9 bd f8 40 08 3e f6 99 1e 3d
       0.093075104 -0.09816389 0.13306034 0.038721047
000110 72 9c b9 bd b5 cf df bd d9 bd 89 3d f8 aa c3 bd
       -0.09063043 -0.10928289 0.06725664 -0.09554094
000120 d4 75 f3 3d ec 74 e2 bc b8 42 b8 3d 83 80 79 3c
       0.11887708 -0.027643643 0.089971006 0.0152283935
000130 76 09 8c 3d 60 19 b4 3c 27 0b 68 3d 3f e2 50 3d
       0.06837742 0.021984756 0.05665126 0.050997015
000140 49 4f 27 3e 27 3a 19 3b c9 0b 1a bd 04 b1 af bd
       0.16338839 0.0023380609 -0.037608895 -0.08578685
000150 b5 2d 96 bd 46 b8 30 3d b7 8b 57 3b 20 57 64 bd
       -0.07332937 0.043144487 0.0032889673 -0.05574715
000160 55 24 85 bd fb 71 c7 bc c5 58 13 3e 6d fb 46 3e
       -0.065010704 -0.024346342 0.14389332 0.19431849
000170 91 f1 7c 3d 22 95 a1 3c ad 9a ca bd c9 88 b4 bd
       0.061753813 0.019724432 -0.09892783 -0.08815152
000180 78 4b 6b bd 74 26 9e 3d 79 86 09 3d 24 1a 85 3e
       -0.05744502 0.07722178 0.03357551 0.25996506
000190 01 60 3f bd da 09 96 bd 57 15 e4 bd f8 b6 33 3d
       -0.046722416 -0.07326098 -0.11136883 0.043875664
0001a0 3d 1f 85 3c 6f 69 46 bd 20 76 a3 bd da 8f a3 bc
       0.016250247 -0.048440393 -0.07981515 -0.019966055
0001b0 e9 bb 09 3d 03 81 e5 3d 88 97 f8 3d 5e 6b 20 3c
       0.03362647 0.11206248 0.12138277 0.009791223
0001c0 e7 ed 90 3c 86 8f 55 3d d6 af 03 3c a2 49 3b bd
       0.017691566 0.052138828 0.008037528 -0.04572452
0001d0 3b 68 ed bb 42 fe 45 3e 5c 3a 5b 3d b8 eb ce bd
       -0.0072450913 0.19335273 0.053522453 -0.101035535
0001e0 87 13 04 3d 57 a6 ab bd 62 e0 76 bd 09 6b 34 bd
       0.032245185 -0.08381336 -0.060272582 -0.04404739
0001f0 d7 54 64 3d 15 8d a7 3d 11 2f bc 3d 86 4b a7 3d
       0.055744972 0.08181206 0.09188665 0.08168702

encoder.feature_extract.mlps.0.batch_norms.0.running_var f4 [128]
000000 3b e2 e8 38 4d 37 dd 39 ab cb dd 38 e8 b1 20 39
       0.00011104761 0.00042193607 0.00010576037 0.00015325064
000010 de 40 af 38 cc 06 83 39 e9 46 fa 39 39 0d 21 3a
       8.356733e-05 0.0002499133 0.00047736548 0.0006143633
000020 cb de 63 38 64 8e 0e 39 fa d2 72 39 35 da 29 39
       5.432851e-05 0.0001359522 0.00023157513 0.00016198384
000030 11 b1 33 3a 78 22 e6 38 76 12 ce 39 a6 c4 f7 38
       0.0006854693 0.00010973675 0.00039305136 0.000118145064
000040 59 28 7c 38 47 3a 17 3a 72 d1 e0 36 5f 06 81 38
       6.011906e-05 0.0005768877 6.700103e-06 6.152386e-05
000050 55 1e d9 39 68 e9 91 39 4b 76 0b 3a 7c 24 10 39
       0.00041412064 0.00027830456 0.0005320056 0.00013746502
000060 f5 a7 49 3a f4 fc 85 39 7a a7 f5 38 a1 fb 76 3a
       0.0007692569 0.00025556202 0.00011713705 0.0009421651
000070 70 1b c4 39 34 0d f6 38 33 a3 44 38 1f e3 d0 39
       0.00037404476 0.000117326534 4.6882033e-05 0.0003984207
000080 b3 bb 06 39 42 0e d3 39 f9 bb fd 38 50 be 4d 38
       0.00012849159 0.0004025568 0.00012098993 4.905305e-05
000090 f0 88 e6 39 25 98 71 39 40 93 ce 39 48 86 29 3a
       0.00043971045 0.0002304023 0.00039401092 0.0006466848
0000a0 55 aa eb 38 f1 c3 65 37 df 66 ff 39 9d 54 20 39
       0.000112374 1.3695085e-05 0.00048714035 0.0001529031
0000b0 6a 0e aa 39 5e e0 24 3a 54 5f fe 38 69 21 62 3a
       0.00032435666 0.0006289537 0.0001212942 0.00086261943
0000c0 c4 c7 d7 3a 93 6a 83 38 85 fb 0f 3a 0e e6 81 39
       0.0016462733 6.266418e-05 0.00054924964 0.00024776201
0000d0 6e 1b e0 3a a0 01 e1 3a e9 c1 51 39 df 19 be 38
       0.0017098018 0.0017166622 0.0002000403 9.064725e-05
0000e0 d6 69 a4 38 42 e5 79 38 85 25 22 3a a5 f4 ea 38
       7.839843e-05 5.957974e-05 0.00061854004 0.00011203558
0000f0 1d 9a d1 39 b2 f9 27 39 cf a4 d9 38 de 10 eb 39
       0.0003997841 0.0001601938 0.00010378064 0.0004483526
000100 d5 25 6c 39 d5 4f 8f 39 86 f1 24 3a 74 7c b6 38
       0.00022520807 0.00027334565 0.00062920933 8.7016175e-05
000110 37 cd 3e 39 83 95 b5 39 2b 99 a0 39 f0 08 4c 39
       0.0001819626 0.00034634405 0.00030631697 0.00019458286
000120 f3 e4 a6 39 08 06 23 37 8c ad c8 39 b2 8e 33 37
       0.00031832568 9.716961e-06 0.00038276275 1.0702455e-05
000130 11 ae 28 3a 64 82 eb 39 73 5b 67 39 8a 04 a5 39
       0.00064346293 0.00044919841 0.00022063944 0.00031474634
000140 93 4d 12 3a 04 92 80 36 a3 10 69 3a 98 34 6b 39
       0.00055810175 3.8316957e-06 0.00088907237 0.00022430939
000150 8c 48 cb 38 80 80 6c 39 87 45 8e 39 a2 4b 78 38
       9.693307e-05 0.00022554584 0.00027136152 5.9198246e-05
000160 34 90 06 39 32 cf 14 39 b1 da 9a 3a 31 a7 13 3b
       0.00012832956 0.00014191566 0.0011814443 0.0022530074
000170 b5 91 c2 39 24 87 36 39 73 fd 86 3a df 16 bf 39
       0.00037111124 0.00017407216 0.0010298922 0.000364474
000180 50 33 97 38 ec 22 ed 38 9a 77 f2 38 56 66 de 3a
       7.209799e-05 0.00011307545 0.00011561737 0.0016967754
000190 ed f0 39 3a 2f 32 99 39 d7 49 82 39 e5 08 b1 39
       0.00070930907 0.00029219824 0.00024850547 0.00033766698
0001a0 97 ff ed 39 27 df 50 38 ea 47 41 3a 7f b9 87 39
       0.00045394592 4.979889e-05 0.0007373082 0.00025887412
0001b0 02 c6 c8 3a d0 bf 89 39 4a 2f b0 39 d3 95 93 38
       0.00153178 0.00026273588 0.0003360457 7.037413e-05
0001c0 4a 2a 27 3a e3 17 22 39 60 38 3b 36 d6 6a a0 39
       0.0006376846 0.00015458422 2.7897986e-06 0.00030597177
0001d0 f8 cb 28 37 7b f0 6a 3a 89 1d 46 39 ec 62 6f 39
       1.00610705e-05 0.0008962226 0.00018893754 0.00022829667
0001e0 bf 61 4c 39 d9 4e a1 3a 3a 03 a4 38 3a 33 2c 38
       0.0001949137 0.0012306824 7.8207304e-05 4.1055704e-05
0001f0 fe 85 f6 38 f2 49 1b 3a da a1 3c 39 1b 33 09 39
       0.00011755152 0.00059237995 0.00017989372 0.00013084376
