DRL coding/RM_RealWorld/saved_network/FJSP_J30M15/100_19/policy_job.pth (torch, 648359 bytes, 53 tensors)

_input f4 [128]
0	0xbdb4bfb5	-0.08825628
1	0xbf509348	-0.81474733
2	0x3e98c1d2	0.29835373
3	0x3ecbb9a9	0.39790085
4	0xbf64d023	-0.8938009
5	0xbe47dab1	-0.19517018
6	0x3f02a788	0.5103688
7	0x3f082757	0.5318503
8	0xbeef2934	-0.46711123
9	0x3f3ca91a	0.7369553
10	0xbf67f9d9	-0.9061561
11	0xbf2b7c33	-0.6698639
12	0x3da9ee3d	0.082973935
13	0x3ea6e24c	0.32594526
14	0xbe96f4e8	-0.29483724
15	0x3f470f9d	0.777582
16	0x3f18c180	0.5967026
17	0xbeb29281	-0.348774
18	0xbee8e189	-0.4548457
19	0x3f55ecac	0.8356426
20	0x3ed3ce07	0.41368124
21	0x3eba6476	0.3640477
22	0x3e916445	0.28396812
23	0xbe149189	-0.14508642
24	0x3d92ea6a	0.07173617
25	0x3f406775	0.7515786
26	0xbe98a600	-0.29814148
27	0x3f6fd133	0.9367859
28	0xbf05a7c6	-0.52209127
29	0x3f222320	0.63334846
30	0x3f21dada	0.63224566
31	0xbf0ee9eb	-0.5582568
32	0x3e322f54	0.17400867
33	0x3e96ad77	0.29429218
34	0xbf6d943f	-0.9280433
35	0xbe73ee98	-0.23821485
36	0xbf024eb9	-0.5090137
37	0xbeb4c25e	-0.3530454
38	0xbd7392cf	-0.05946618
39	0x3da9d2a2	0.08292128
40	0xbf209272	-0.6272346
41	0x3f04657c	0.5171735
42	0x3ec667ea	0.38751155
43	0xbf55dfc4	-0.83544564
44	0xbcba4914	-0.022739924
45	0x3e74c3f8	0.23902881
46	0xbe5baeb1	-0.21453358
47	0xbf2fc85e	-0.6866511
48	0xbd097395	-0.033557493
49	0x3f7e3550	0.993001
50	0xbf6fb879	-0.9364086
51	0xbeb345f2	-0.35014302
52	0xbf53bcdc	-0.8271005
53	0xbf4e66d2	-0.8062564
54	0xbf3ddc34	-0.7416413
55	0x3df3ee34	0.11910668
56	0xbe38bb22	-0.18040136
57	0x3f0912c8	0.5354428
58	0xbe5108ef	-0.20413564
59	0xbed56ff2	-0.4168697
60	0xbded3a13	-0.115833424
61	0x3f1e55cb	0.6184966
62	0xbe33566b	-0.17513435
63	0x3f389a41	0.7211037
64	0xbf1669f0	-0.587554
65	0xbf593d32	-0.84859
66	0x3eed4d09	0.46347836
67	0x3dd920c9	0.106019564
68	0x3f7bb457	0.9832205
69	0xbf6aea3c	-0.91763663
70	0x3e7bc13a	0.24585429
71	0x3ef5bbe9	0.47994927
72	0x3f498a46	0.78726614
73	0x3ea36b40	0.31917763
74	0xbe98462c	-0.29741037
75	0x3f582c5e	0.844427
76	0xbf331440	-0.69952774
77	0xbea4d176	-0.32191056
78	0x3bdef4c7	0.006804082
79	0xbf3023c1	-0.68804556
80	0xbf3bbc83	-0.7333452
81	0xbe2a8078	-0.1665057
82	0xbf55321d	-0.8327959
83	0xbecfd53f	-0.4059238
84	0x3f7de00a	0.9916998
85	0x3dc845eb	0.09778961
86	0xbf2192d9	-0.63114697
87	0x3e6b64bd	0.22987647
88	0x3f37cca2	0.7179662
89	0xbf154fd0	-0.5832491
90	0xbe8961bc	-0.26832378
91	0xbf41091d	-0.7540453
92	0xbf2c2b08	-0.6725316
93	0x3f40f6b8	0.7537646
94	0x3e1f538f	0.15559219
95	0x3f1a2d8d	0.60225755
96	0x3f54d612	0.83139145
97	0x3eb352fb	0.35024247
98	0xbf41cebd	-0.7570608
99	0x3e241b59	0.16026057
100	0xbf6694ae	-0.9007062
101	0x3ee0898c	0.4385494
102	0xbf4a14be	-0.789379
103	0x3f20c7ab	0.6280467
104	0x3e5e2acc	0.21696013
105	0xbf656341	-0.89604574
106	0xbf013f98	-0.5048766
107	0xbe817496	-0.2528426
108	0x3f203529	0.62581116
109	0x3f00d714	0.50328183
110	0xbf3ccf6f	-0.7375402
111	0x3ea31a10	0.31855822
112	0xbf6b152d	-0.91829187
113	0xbeb86441	-0.36013988
114	0xbf2dbee2	-0.6786939
115	0xbef871d2	-0.48524338
116	0x3ec89c3e	0.39181703
117	0xbe05b42e	-0.13057014
118	0xbf3eacff	-0.7448272
119	0xbf718663	-0.9434568
120	0x3ef0eb65	0.47054592
121	0xbf140125	-0.57814246
122	0xbe824fb4	-0.25451434
123	0x3f4661c4	0.7749293
124	0xbebef21a	-0.37294084
125	0x3ebbc297	0.36671898
126	0x3f7d6f53	0.9899799
127	0x3ea10df3	0.31455955

bn.weight f4 [2]
0	0x3f800000	1.0
1	0x3f800000	1.0

bn.bias f4 [2]
0	0x00000000	0.0
1	0x00000000	0.0

bn.running_mean f4 [2]
0	0x00000000	0.0
1	0x00000000	0.0

bn.running_var f4 [2]
0	0x3f800000	1.0
1	0x3f800000	1.0

encoder.feature_extract.mlps.0.linears.0.weight f4 [128, 2]
0	0x3df7aa3b	0.12093016
1	0x3d8c7ccb	0.0685974
2	0xbc951dd8	-0.018202707
3	0x3d559645	0.05214526
4	0x3c527bc7	0.012846894
5	0x3e8258b3	0.25458297
6	0xbd69f432	-0.05711765
7	0x3d958fc4	0.07302812
8	0x3da2198a	0.079150274
9	0x3d9afcb3	0.0756773
10	0x3c6ec513	0.014573353
11	0xbe49cd77	-0.19707285
12	0x3dd7de06	0.105403945
13	0x3dbbd8af	0.091721885
14	0xbd2ae412	-0.04172141
15	0xbda9082d	-0.082535125
16	0xbddd77b2	-0.10813846
17	0x3c92f853	0.017940676
18	0x3df7b082	0.12094213
19	0xbe070d09	-0.13188566
20	0x3d780a07	0.060556438
21	0xbe098ade	-0.1343188
22	0x3d230a85	0.039804954
23	0xbd8b0c4b	-0.06789454
24	0x3d1984dc	0.03748022
25	0x3d1969c6	0.03745439
26	0xbd34a3bf	-0.044101473
27	0x3a13e896	0.0005642263
28	0x3dd0614f	0.1017481
29	0x3cee5de7	0.02909751
30	0xbd2f536a	-0.04280416
31	0x3dc31245	0.09524969
32	0x3dc3a1c9	0.095523424
33	0x3d81b5a4	0.06333473
34	0x3da195f4	0.078899294
35	0xbdf756f0	-0.12077129
36	0x3c844a03	0.016148573
37	0x3e102b37	0.14078985
38	0xbcac788d	-0.021053577
39	0x3d3aa59c	0.045568094
40	0xbdacc57b	-0.08436104
41	0x3e310f36	0.17290959
42	0xbe330eb6	-0.1748608
43	0x3c85f175	0.016350487
44	0x3d4d5564	0.050130263
45	0x3d3a9fd9	0.0455626
46	0x3d25caa5	0.04047646
47	0xbbd18289	-0.006393735
48	0x3d8ff003	0.070282005
49	0xbd7e38c6	-0.062065862
50	0x3db8d505	0.09025005
51	0x3dd89b7e	0.10576533
52	0xbd90e544	-0.07074979
53	0x3de0439f	0.10950398
54	0xbe149b33	-0.14512329
55	0xbd9d278c	-0.076735586
56	0xbcc602f1	-0.024171324
57	0x3d4d6b24	0.050151005
58	0x3d3e0a3d	0.046396483
59	0x3e432b36	0.19059452
60	0x3c51e708	0.01281143
61	0xbbec2591	-0.0072066267
62	0xbc8fa4fc	-0.017534725
63	0xbd3e97c5	-0.046531457
64	0x3ca3bf3c	0.019988649
65	0x3e153135	0.14569552
66	0x3d0b3092	0.033981867
67	0xbc5ec054	-0.013595659
68	0xbd8701cf	-0.06592142
69	0x3d9c89b3	0.076434515
70	0xbe633c86	-0.22191057
71	0x3ccc9744	0.024974473
72	0xbc772702	-0.015084984
73	0x3dadef08	0.08492857
74	0x3d8a5e43	0.0675626
75	0x3de0534c	0.109533876
76	0x3e276c6d	0.16349955
77	0x3e0eab92	0.13932636
78	0xbe039956	-0.12851462
79	0x3d95751b	0.07297727
80	0xbd9a470a	-0.07533081
81	0xbde8c25d	-0.11365197
82	0xbdb340d3	-0.087525986
83	0xbd102865	-0.035194773
84	0xbd32139f	-0.043475743
85	0x3cc40d72	0.023932192
86	0x3c2282b9	0.009918862
87	0xbd6b0978	-0.057382077
88	0x3d02787e	0.03185319
89	0x3bbb7c3e	0.005721598
90	0xbd95473e	-0.07288979
91	0xbd59be55	-0.05316003
92	0xbc049b1b	-0.008093621
93	0x3bafab7b	0.0053610182
94	0xbdabf88d	-0.08397017
95	0x3c2ef473	0.010678398
96	0xbd6937a2	-0.05693782
97	0xbdfa75fe	-0.122295365
98	0xbe11ddd6	-0.1424478
99	0x3e053298	0.13007581
100	0xbd53178b	-0.051536124
101	0x3ce867e3	0.02836985
102	0xbcf58f8b	-0.029975673
103	0x3d89949a	0.067177966
104	0x3c8a97c0	0.016918063
105	0xbe29f676	-0.16597924
106	0x3e61e70f	0.22060798
107	0x3d832244	0.0640302
108	0x3e627f83	0.22118954
109	0x3e32a6ea	0.17446485
110	0x3deb03ab	0.11475309
111	0x3d539bf3	0.051662397
112	0xbdf1a4c3	-0.11799004
113	0x3e017778	0.1264323
114	0x3dda166a	0.106488064
115	0x3c9b329c	0.01894503
116	0xbc6da295	-0.014504095
117	0x3c7cd3fe	0.015431402
118	0xbd339e51	-0.043852154
119	0xbc885fdd	-0.016647274
120	0xbd4ff74b	-0.050772946
121	0xbc2bfb16	-0.010496875
122	0x3d4ea770	0.05045265
123	0x3d5b0074	0.05346723
124	0xbd0ad2b5	-0.033892352
125	0x3dfd9e8d	0.12383757
126	0xbe026453	-0.12733583
127	0x3de45551	0.11149085
128	0x3dcdeb92	0.10054697
129	0xbd8e3706	-0.06944089
130	0x3d1ede2c	0.0387861
131	0x3cde2396	0.027116578
132	0x3d24b8c1	0.040215258
133	0xbbf5f46c	-0.007505944
134	0xbdccd428	-0.10001403
135	0xbd5d1b0e	-0.05398088
136	0xbd01bb4d	-0.031672765
137	0xbdc62887	-0.09675699
138	0x3d9746ab	0.07386526
139	0x3d3fdcb1	0.046841327
140	0x3dec01cb	0.115237795
141	0x3c758dd7	0.014987431
142	0xbdc2ef96	-0.09518354
143	0x3d22916e	0.039689474
144	0x3ddaee79	0.10690016
145	0xbd4d4462	-0.050114043
146	0xbd443f6d	-0.04791205
147	0x3dbc71d2	0.09201397
148	0x3e050268	0.12989199
149	0xbd311846	-0.04323604
150	0x3da5f145	0.08102659
151	0x3d5cb178	0.053880185
152	0x3c9c6f92	0.01909617
153	0x3be8ae85	0.0071008825
154	0x3ce24505	0.027620802
155	0xbbadc8fd	-0.0053035007
156	0xbb0dfe7a	-0.0021666572
157	0x3d85723c	0.06515929
158	0x3d4aaa6e	0.04947894
159	0x3cd34d30	0.025793642
160	0x3dc1b504	0.09458354
161	0xbdebc848	-0.1151281
162	0xbc81c10f	-0.015839128
163	0xbd95f4f5	-0.073221125
164	0x3c48f026	0.012264287
165	0x3d84fd51	0.06493629
166	0x3e155dfe	0.14586636
167	0x3dcdbb23	0.10045459
168	0xbe3062ff	-0.17225264
169	0xbe46770d	-0.19381352
170	0x3d6bf841	0.0576098
171	0x3cb438d1	0.021999748
172	0x3e5cc0e1	0.21557952
173	0xbd56c844	-0.052437082
174	0x3dec3d97	0.11535185
175	0xbe268013	-0.16259794
176	0xbd53f143	-0.051743757
177	0x3e3c459f	0.18385933
178	0xbdae80ac	-0.08520636
179	0xbc2b6077	-0.010460011
180	0x3d9a732f	0.07541501
181	0x3dc9e48f	0.09858047
182	0x3d4e3ff7	0.05035397
183	0xbd53135f	-0.051532146
184	0x3ad8f6bb	0.0016553024
185	0x3dc7bc7f	0.0975275
186	0xbdbf60a8	-0.093446076
187	0xbd66b41a	-0.056324102
188	0x3e497306	0.19672784
189	0xbdc46c7e	-0.09591006
190	0xbbf25968	-0.007395912
191	0xbd9d0c1f	-0.076683275
192	0xbcd524e3	-0.026018566
193	0xbd7235be	-0.059133284
194	0x3c8015a7	0.015635325
195	0xbdd903f6	-0.105964586
196	0xbe36c5fa	-0.1784896
197	0x3d96e5a9	0.07368023
198	0x3d6b7cc8	0.057492048
199	0xbcc7758a	-0.02434804
200	0xba605615	-0.0008557749
201	0xbd888f29	-0.06667931
202	0xbd1e947d	-0.03871583
203	0xbd64d07d	-0.055862892
204	0xbc265b38	-0.010153584
205	0x3cde095d	0.027104074
206	0x3d8c2bc1	0.06844283
207	0xbc373bb3	-0.011183667
208	0xbddcb07d	-0.1077585
209	0xbdcb3579	-0.099223085
210	0x3e1bae0e	0.15203115
211	0x3c062699	0.008187913
212	0xbc215499	-0.00984683
213	0x3d948cc3	0.07253411
214	0xbd8637fc	-0.06553647
215	0x3e0e424a	0.13892475
216	0x3d84e74f	0.06489431
217	0xbd36a847	-0.044594076
218	0xbd21576b	-0.03939001
219	0x3be5d491	0.0070138653
220	0x3d1fa8a7	0.0389792
221	0xbe690da4	-0.2275911
222	0x3babdce8	0.00524484
223	0xbe484d85	-0.19560821
224	0xbdce48b3	-0.1007246
225	0x3d0fc866	0.035103224
226	0xbe19ec91	-0.15031649
227	0xbdb102f5	-0.08643142
228	0xbe49cc8a	-0.19706932
229	0x3d9449ab	0.072406135
230	0x3ceb2656	0.028704803
231	0x3c075226	0.008259332
232	0x3d96eff3	0.073699854
233	0x3dd801a1	0.10547186
234	0xbc450c27	-0.012026823
235	0x3b096678	0.0020965617
236	0x3d7e613d	0.062104452
237	0xbd131a51	-0.03591377
238	0x3d83b61a	0.064312175
239	0xbd9efc40	-0.077629566
240	0xbe063bff	-0.13108824
241	0xbc738163	-0.014862391
242	0xbdb0467e	-0.08607195
243	0x3c7345fa	0.014848227
244	0xbd573222	-0.052538045
245	0x3b779504	0.003777803
246	0x3daa4b35	0.08315126
247	0x3d4a436c	0.049380705
248	0xbd9bf3d8	-0.07614869
249	0x3ae59a93	0.001751738
250	0x3a4e493e	0.00078691903
251	0xbd12b56b	-0.035817545
252	0xbd160513	-0.036625933
253	0xbdec0d6b	-0.11525997
254	0xbce4ad12	-0.027914558
255	0xbd0af314	-0.033923224

encoder.feature_extract.mlps.0.linears.0.bias f4 [128]
0	0xbb947261	-0.0045302366
1	0xbba898c7	-0.0051451656
2	0x3bc943fb	0.006142137
3	0x3bb15d36	0.005412723
4	0xbbb4b4e8	-0.00551473
5	0x3c0d4b45	0.008623903
6	0x3b9c5a65	0.004771518
7	0xbb1f65de	-0.0024322192
8	0x3b8c7716	0.004286657
9	0xbb9a068c	-0.0047004875
10	0x3b665d74	0.0035150917
11	0xbb98ccf8	-0.004663106
12	0x3bd44cf5	0.0064789006
13	0x39ed7e8a	0.00045298442
14	0xb921f8c2	-0.00015446826
15	0x399fc748	0.0003047532
16	0xbaafb308	-0.0013404796
17	0x3b9852f2	0.0046485597
18	0xbb6cd304	-0.0036136517
19	0x3b4f6d9d	0.0031651028
20	0x3b42e1b0	0.002973657
21	0x3b0f6e66	0.002188587
22	0xb994718f	-0.00028313368
23	0x3bc1dfe5	0.005916583
24	0x3b757aab	0.003745715
25	0x3b8b887f	0.004258215
26	0x3ad4b440	0.0016228035
27	0xb9030434	-0.000124947
28	0xbb61c2b5	-0.003444833
29	0x3b3c844e	0.0028765383
30	0x3bdb0f1c	0.006685151
31	0xbbba5ab1	-0.005687081
32	0xbb48df02	-0.00306505
33	0xbb728026	-0.0037002652
34	0x3a8f040e	0.0010911243
35	0xbbb7d117	-0.0056096422
36	0xbb41f396	-0.0029594651
37	0x3a46ba80	0.0007580891
38	0x3ac730a0	0.0015196986
39	0x3b39901a	0.002831465
40	0x3a8e6ad0	0.0010865573
41	0x3bdd1bd2	0.006747701
42	0xba127ffc	-0.0005588529
43	0xbb67ae89	-0.0035351834
44	0x3b09240a	0.0020926022
45	0xbb6d09ea	-0.003616924
46	0xbb935eec	-0.0044973996
47	0x3bb73158	0.005590599
48	0x3b30e334	0.0026990892
49	0x3bafcd18	0.0053650253
50	0xbb9ae254	-0.0047266874
51	0x3b83516d	0.0040075094
52	0x3b6fb1d7	0.0036574507
53	0x3b8532d0	0.004064895
54	0x3a2c0555	0.0006562074
55	0xbb30ada5	-0.002695897
56	0xbb9de0db	-0.0048180646
57	0x3b9dbd5d	0.0048138336
58	0xb9e8e2ff	-0.00044419614
59	0x3b863f8a	0.00409693
60	0x3a348fbd	0.0006887874
61	0xbba7ed8c	-0.0051247533
62	0x393c4b93	0.00017957231
63	0x3b0c25d8	0.0021384861
64	0x3b178d3a	0.002312495
65	0xbbb83960	-0.005622074
66	0xba2729ac	-0.0006376754
67	0xbbb3e730	-0.005490206
68	0xbbd7f1f0	-0.0065901205
69	0x3bb4d8f7	0.0055190283
70	0x3b87f57f	0.0041491385
71	0xbb89652a	-0.004192968
72	0x3b55f628	0.0032647941
73	0xbb99689d	-0.0046816603
74	0x3b104b9b	0.002201772
75	0xbb53bed1	-0.003230978
76	0x3b0c4568	0.0021403674
77	0xbb01e1a3	-0.0019818328
78	0x3b58706c	0.0033025993
79	0x3906b0a6	0.00012845043
80	0xbb8f11eb	-0.0043661497
81	0xbbd4ef79	-0.006498274
82	0xbb4d605f	-0.003133796
83	0xbbb88664	-0.005631255
84	0x3b856272	0.0040705735
85	0xbb22480e	-0.0024762186
86	0xbb5220a9	-0.0032062924
87	0xbbaa5803	-0.00519848
88	0x3b303a64	0.0026890272
89	0xbbbef758	-0.0058278255
90	0xbb852383	-0.004063071
91	0xbb936aee	-0.004498831
92	0x3b87f101	0.004148603
93	0xbb10da5e	-0.0022102813
94	0x3ba431fc	0.0050108414
95	0xbb8b2ee4	-0.004247533
96	0x3a864624	0.0010244292
97	0xbba2f1c7	-0.0049726698
98	0xbbb1398c	-0.0054084715
99	0xbb95e7d8	-0.004574757
100	0xb9911c64	-0.00027677708
101	0xbb4847cb	-0.003056037
102	0x3c07ac54	0.008280832
103	0x3b37eac2	0.002806351
104	0xbb526e51	-0.003210921
105	0xbb93bdc9	-0.004508708
106	0x3b5d6679	0.0033783002
107	0x3bacba5f	0.0052712406
108	0xbbbc4cf7	-0.0057464796
109	0x3a6b8ff7	0.0008985991
110	0xbb6474aa	-0.0034859576
111	0x3b97e464	0.0046353806
112	0x3b6ce00b	0.0036144282
113	0xbb276051	-0.0025539587
114	0xbb86426a	-0.0040972726
115	0xbaaa634c	-0.0012999563
116	0xbb8d240d	-0.004307276
117	0xbc03db90	-0.008047953
118	0x3b83e6bc	0.0040253084
119	0xbb645af2	-0.0034844247
120	0x3bcb16a3	0.006197767
121	0xbbdd7d71	-0.0067593385
122	0xbb8e9f76	-0.0043525053
123	0xbb2f3ced	-0.0026739195
124	0xbb318ff2	-0.0027093855
125	0x3bb04522	0.005379335
126	0x3b8e37b0	0.0043401346
127	0xbabb858e	-0.001430677

encoder.feature_extract.mlps.0.linears.1.weight f4 [128, 128]
0	0xbe3b0819	-0.18264808
1	0x3de1ed39	0.11031575
2	0x3d9b3401	0.07578278
3	0x3e741380	0.23835564
4	0xbd8f39e0	-0.06993461
5	0x3dae0b12	0.08498205
6	0xbe18948c	-0.14900416
7	0x3dc8bd7b	0.098017655
8	0xbd8ac411	-0.06775678
9	0x3d68d3c1	0.05684257
10	0xbdaaed7e	-0.08346079
11	0xbd3d6a5f	-0.04624402
12	0xbc48b6d3	-0.01225062
13	0xbdcbcc06	-0.09951024
14	0xbd903c7a	-0.07042785
15	0x3db41337	0.087927274
16	0xbdf9ef9e	-0.122039065
17	0xbcf0397e	-0.02932429
18	0xbc3fe24d	-0.011711669
19	0xbda92db9	-0.08260674
20	0x3d4e18a6	0.050316475
21	0xbdbb36ea	-0.091413334
22	0x3e661204	0.2246781
23	0x3dac5066	0.08413772
24	0xbdebdfd9	-0.11517305
25	0x3d413d8f	0.047177847
26	0xbe24438c	-0.16041392
27	0x3c880561	0.016604127
28	0xbdb577b0	-0.08860719
29	0x3e05a709	0.13052
30	0xbda4b26f	-0.08041846
31	0xbdeaf665	-0.11472777
32	0x3d099ae0	0.033594966
33	0x3dbe6e1d	0.09298346
34	0x3d0bd51e	0.03413879
35	0xbc0ac9aa	-0.008470932
36	0xbc9a57df	-0.018840728
37	0xbda99ba6	-0.08281641
38	0x3bdffe68	0.0068357475
39	0xbdf8bae3	-0.12145021
40	0x3da962e5	0.08270816
41	0xbdb3d71f	-0.087812655
42	0xbd5c7625	-0.05382361
43	0xbdcbc979	-0.09950537
44	0xbcbeeb22	-0.02330548
45	0x3d9784ef	0.07398402
46	0x3dc71b62	0.0972202
47	0xbd756f39	-0.059920523
48	0xbd93cacf	-0.07216417
49	0x3dbd6933	0.09248581
50	0x3e231d1e	0.15929076
51	0xbd9e1efd	-0.07720754
52	0x3d0dca1b	0.03461657
53	0x3dd9120f	0.105991475
54	0xbd915023	-0.07095363
55	0x3d17057e	0.036870472
56	0x3d9dace1	0.0769899
57	0x3aa7f9ff	0.0012815594
58	0xbd8a2d29	-0.06746895
59	0xbd09378f	-0.03350025
60	0xbdc6acf3	-0.09700956
61	0xbd05b469	-0.032642756
62	0x3d074c13	0.033031534
63	0x3e2e097b	0.16995804
64	0xbda2a897	-0.07942312
65	0x3cec2cd3	0.028829968
66	0x3bb36302	0.005474449
67	0xbe4a4e6b	-0.19756477
68	0xbd218ba8	-0.039439827
69	0x3c6e38b3	0.014539885
70	0x3d4e3ecc	0.050352857
71	0x3d2e2f26	0.042525433
72	0x3dd221cb	0.10260352
73	0x3d0b72f5	0.03404518
74	0x3e256e4d	0.16155358
75	0x3cd6c489	0.026216762
76	0x3ddf48f6	0.10902588
77	0xbdacb602	-0.08433153
78	0x3d1ed2c3	0.038775217
79	0x3d133457	0.035938587
80	0xb9ad6a09	-0.00033076134
81	0x3e76620e	0.24060842
82	0x3d8e06a4	0.0693486
83	0xbda758c0	-0.081712246
84	0x3e1a4291	0.15064456
85	0x3ca59100	0.020210743
86	0x3d8c4a8f	0.068501584
87	0xbd5c90e2	-0.05384911
88	0xbccf5145	-0.025307307
89	0x3cdd0220	0.026978552
90	0x3d2628a1	0.04056609
91	0xbcacc233	-0.021088695
92	0xbccc1e0a	-0.024916667
93	0x3db47164	0.0881069
94	0x3dfba426	0.12287168
95	0x3dfba19c	0.12286684
96	0xbe39678e	-0.18105909
97	0xbe011b59	-0.12608089
98	0xbca54d73	-0.020178532
99	0x3cc93d07	0.024565233
100	0xbcb51f32	-0.022109602
101	0x3d9cf7ca	0.076644495
102	0xbba53fdf	-0.0050430144
103	0x3db08cc6	0.086206004
104	0x3da5c6ba	0.08094545
105	0xbdba1caa	-0.090874985
106	0xbd598488	-0.053104907
107	0xbd16446b	-0.036686342
108	0xbcbe7787	-0.023250354
109	0x3d4f73a8	0.050647408
110	0xbdef9daf	-0.11699998
111	0x3e16870b	0.14699952
112	0x3cafd8b5	0.021465639
113	0x3d0f1129	0.034928475
114	0xbd795693	-0.06087358
115	0x3d75f2c1	0.06004596
116	0xbd1f26d4	-0.03885539
117	0xbe07105f	-0.13189839
118	0xbcbebf10	-0.023284465
119	0x3dc57a75	0.096424975
120	0x3d3a822c	0.045534298
121	0xbcbf2b7e	-0.023336168
122	0xbcf9192e	-0.030407514
123	0x3d8c652a	0.06855233
124	0xbd10fbc3	-0.03539635
125	0xbd112a39	-0.035440657
126	0x3deabec2	0.114621654
127	0xbbfe86cc	-0.007767534
128	0x3d12a728	0.035803944
129	0x3dfc555f	0.12320971
130	0xbe26bafd	-0.16282268
131	0xbd8f47f7	-0.06996148
132	0x3d135484	0.035969272
133	0x3d63c2d0	0.05560571
134	0x3ddb8aa1	0.10719801
135	0x3d9269ba	0.07149072
136	0x3de3d730	0.11125028
137	0xbe023173	-0.12714176
138	0x3dcfe9c6	0.101520106
139	0xbd8ff2a6	-0.070287034
140	0x3d7679a7	0.06017461
141	0x3a4284ed	0.000742032
142	0xbe5ed526	-0.21760997
143	0xbcba16af	-0.022715895
144	0xbe1a99df	-0.1509776
145	0x3cc30226	0.023804735
146	0xbd28a1fb	-0.0411701
147	0xbdabbe0e	-0.083858594
148	0x3e03d7ee	0.1287534
149	0xbdcb39f5	-0.09923164
150	0xbde9d347	-0.11417251
151	0x3d6328bc	0.05545877
152	0xbdba87b8	-0.091079175
153	0x3d30a10c	0.043122336
154	0x3dad5f7d	0.084654786
155	0xbdcc0686	-0.09962182
156	0xbe164ec3	-0.14678483
157	0x3d1ec190	0.038758814
158	0x3d12ea5e	0.03586804
159	0x3c68ce06	0.014209276
160	0xbd4c618b	-0.04989771
161	0x3d80cd35	0.0628914
162	0xbe0405d2	-0.12892845
163	0xbbd48f3b	-0.006486801
164	0xbd970721	-0.073744066
165	0xbe6b1a49	-0.22959246
166	0x3d1f1cd4	0.038845852
167	0x3d21ee6e	0.039534025
168	0xbbd6de9d	-0.0065572993
169	0xbd2d7d76	-0.042355977
170	0xbd08ccb3	-0.03339834
171	0xbcfdeeb4	-0.030997612
172	0xbb6dff1d	-0.003631539
173	0x3c66a531	0.014077471
174	0xbd6ef7c1	-0.058341745
175	0xbc25e366	-0.010125017
176	0xbe3a026c	-0.18164986
177	0x3d89769c	0.06712076
178	0x3d39a5ee	0.04532426
179	0xbd1f2869	-0.038856898
180	0x3d3f5383	0.046710502
181	0xbe030248	-0.12793839
182	0xbca58cd4	-0.020208754
183	0x3d46e5aa	0.04855887
184	0xbdd6e523	-0.10492923
185	0xbd2028be	-0.039101355
186	0x3dbfbd7a	0.09362312
187	0x3d5f193e	0.054467432
188	0xbcb9d6ea	-0.022685487
189	0xbd70c8c0	-0.0587852
190	0x3c51e798	0.012811564
191	0xbdb57646	-0.088604495
192	0xbe748556	-0.23878989
193	0x3e35c6cf	0.1775162
194	0x3d8974e3	0.067117475
195	0x3d658647	0.05603626
196	0xbdb71d48	-0.08941132
197	0x3d1020ba	0.03518746
198	0xbda6499e	-0.0811951
199	0x3bd537c6	0.006506893
200	0xbcd7ff58	-0.026366875
201	0x3da55a75	0.08073894
202	0xbd92e58a	-0.07172687
203	0x3e4dd2bb	0.20099919
204	0xbdb9ac5e	-0.090660796
205	0x3dcd229f	0.10016369
206	0x3d854e6f	0.06509101
207	0x3d17b7fb	0.03704069
208	0x3e3ba322	0.18323949
209	0xbd27d845	-0.040977735
210	0xbd89169d	-0.06693766
211	0x3d4b5b7f	0.049647804
212	0xbe10ec31	-0.141526
213	0xbca21e8f	-0.019789962
214	0xbd3ee415	-0.046604235
215	0x3c05086a	0.008119682
216	0xbd0459bc	-0.03231214
217	0x3aaecba0	0.0013335831
218	0x3d3f68fe	0.046730988
219	0xbe052b5f	-0.13004826
220	0xbbb964c6	-0.005657765
221	0x3d9f28be	0.07771443
222	0x3becf320	0.007231131
223	0xbcf89720	-0.0303455
224	0x3cf312a8	0.029671982
225	0xbace10c5	-0.001572155
226	0xbd6f93f8	-0.058490723
227	0x3dff0289	0.124516554
228	0xbd3d03eb	-0.046146315
229	0x3cdc512d	0.026894176
230	0x3d17aa6f	0.037027773
231	0x3cb1ae1b	0.021689465
232	0x3b149191	0.0022669772
233	0xbd337037	-0.04380819
234	0xbdde97d2	-0.10868801
235	0xbe19d1c1	-0.15021421
236	0xbccfc4de	-0.025362428
237	0x3dfad60f	0.1224786
238	0x3d2a9978	0.041650265
239	0x3d792bae	0.06083267
240	0xbc0c701f	-0.008571654
241	0x3a798182	0.00095178944
242	0xbde47e2e	-0.11156879
243	0x3d3b7c33	0.045772742
244	0xbe2c54cb	-0.16829221
245	0x3e234329	0.15943588
246	0x3d6b628a	0.05746702
247	0xbe171840	-0.14755344
248	0x3dc04a43	0.09389164
249	0x3d502c89	0.050823722
250	0xbd54a499	-0.051914785
251	0x3c5dc2e3	0.013535234
252	0xbe4efd1d	-0.20213743
253	0xbdd89773	-0.10575762
254	0x3d454863	0.048164736
255	0xbbc80e39	-0.006105211

encoder.feature_extract.mlps.0.linears.1.bias f4 [128]
0	0x3b242b71	0.0025050307
1	0xba977964	-0.0011556563
2	0x3b917534	0.0044390205
3	0x3a81d9b4	0.00099068
4	0xbafedcb0	-0.0019444432
5	0x3b480b72	0.00305244
6	0xbb9995d1	-0.004687049
7	0xb9f251a8	-0.00046218676
8	0x3b28af1c	0.002573914
9	0xbb370b93	-0.0027930483
10	0x387bcbd9	6.003291e-05
11	0x39a033ca	0.00030556164
12	0xba01fe19	-0.0004958823
13	0x3b31ab9c	0.0027110344
14	0xbb22d5e5	-0.002484673
15	0xba2b5a6d	-0.0006536607
16	0xbabbb0e2	-0.0014319683
17	0x3b5a147b	0.0033276367
18	0x3ab70b5c	0.0013965177
19	0x39f76733	0.000471884
20	0xbb1f6894	-0.0024323808
21	0xbab3ecf0	-0.0013727229
22	0xbb08f7fa	-0.0020899759
23	0x3b34f218	0.002761012
24	0x3b023c50	0.0019872375
25	0xbbdaba35	-0.0066750296
26	0xbb83c798	-0.004021596
27	0x3aa64bda	0.00126874
28	0xbb271be4	-0.0025498802
29	0x3ac5321d	0.0015044842
30	0x3a8c4220	0.0010700859
31	0xbb479c11	-0.0030458013
32	0xbaebdf23	-0.0017995577
33	0xb8f22ab3	-0.000115474126
34	0x3a5db274	0.00084570725
35	0x3ae2a005	0.0017290121
36	0x39d194e4	0.0003997452
37	0x3acb925c	0.0015531289
38	0xba50d889	-0.00079668366
39	0xba9ccce5	-0.0011962919
40	0x3b89111d	0.0041829483
41	0xba8df8bd	-0.0010831576
42	0xbb32663d	-0.0027221583
43	0xbb3eae58	-0.0029095616
44	0xb82b8b72	-4.0899446e-05
45	0xbb5429a4	-0.0032373453
46	0x3886ebbe	6.433528e-05
47	0xbb37d3ea	-0.0028049895
48	0xbb9272c5	-0.004469248
49	0xb9b7b516	-0.000350394
50	0xb8bbae99	-8.949376e-05
51	0xbae5ab6a	-0.0017522399
52	0xba8b8ca0	-0.0010646768
53	0x3b2fe7c5	0.0026841026
54	0x3b074537	0.002064062
55	0x391a4bd9	0.0001471484
56	0x3b2dc747	0.0026516484
57	0xba120d3d	-0.00055714307
58	0xb9f34957	-0.00046403214
59	0x3acff449	0.0015865649
60	0x3b2ae3f9	0.0026075824
61	0x3b82c7f6	0.0039911224
62	0x3b9f4e9d	0.0048616664
63	0x3b8a77ba	0.0042256983
64	0xbac7df41	-0.001524903
65	0xbb2787ef	-0.00255632
66	0x3ad784c8	0.001644277
67	0xbacc9a03	-0.0015609864
68	0x3b552aef	0.003252681
69	0xba058d5b	-0.0005094611
70	0x3a05e869	0.0005108179
71	0x3a64c7d7	0.0008727288
72	0x3a92a57d	0.0011188235
73	0x3b6c8d01	0.0036094787
74	0xbacf1ffa	-0.0015802376
75	0x3a0a6f51	0.00052808697
76	0xb9ee998d	-0.00045509302
77	0xb9a296e4	-0.0003101147
78	0x3b35a9ae	0.0027719545
79	0xbae0cac9	-0.0017150278
80	0x3a0fc635	0.0005484552
81	0xb9cdf931	-0.0003928631
82	0xbb0b851c	-0.0021289056
83	0x3a439713	0.00074611715
84	0x3a879854	0.001034508
85	0xb993e9d6	-0.00028212246
86	0xb9cc392e	-0.00038952514
87	0xbb433282	-0.0029784744
88	0x398ab1c3	0.00026453854
89	0x3a1ecf59	0.0006058119
90	0xbb3ae278	-0.0028516334
91	0xba6b29c9	-0.0008970765
92	0x3a3db7ad	0.00072371477
93	0xbb18d6f7	-0.0023321488
94	0x3a0d28b8	0.0005384791
95	0x3bb00a3b	0.0053723133
96	0x3891ccf2	6.952313e-05
97	0x3a807035	0.0009799065
98	0xba713c78	-0.0009202431
99	0xbb24880e	-0.002510551
100	0x396f86de	0.00022843058
101	0x3b520422	0.003204592
102	0x3b18d71a	0.002332157
103	0x3b325c7b	0.0027215767
104	0xbb23882a	-0.0024952986
105	0xbbb77a72	-0.0055993134
106	0x3b81329f	0.003942802
107	0xbb62d40d	-0.0034611255
108	0x3abbaf27	0.0014319167
109	0x3a5ab440	0.00083428994
110	0xbb0544ce	-0.00203352
111	0x3b218491	0.0024645666
112	0xba83a809	-0.0010044585
113	0x3b062287	0.0020467357
114	0x38c83c41	9.547966e-05
115	0x395778db	0.0002054902
116	0xbb77b1de	-0.0037795226
117	0x3a379ab4	0.00070039486
118	0x37b517e2	2.1588003e-05
119	0xb7c709d6	-2.3727229e-05
120	0x3b0c3397	0.0021393055
121	0xbb3cf5a1	-0.002883293
122	0xb982a9ae	-0.00024921953
123	0xba939915	-0.0011260832
124	0x3ad3f13e	0.0016169918
125	0xbb809f81	-0.0039252643
126	0xba7b4cb4	-0.000958632
127	0x387eaa1d	6.071675e-05

encoder.feature_extract.mlps.0.linears.2.weight f4 [128, 128]
0	0xbc1f2c9a	-0.009715224
1	0xbce72659	-0.028216528
2	0xbc93df90	-0.018050939
3	0xbe1462aa	-0.14490762
4	0x3cf605ee	0.030032124
5	0xbdce200a	-0.10064705
6	0xbe14475f	-0.14480351
7	0xbdbca4e3	-0.09211137
8	0x3dde8d7d	0.108668305
9	0x3cef2bd0	0.029195696
10	0xbc2ba9ad	-0.010477466
11	0xbd6fe165	-0.058564562
12	0x3d78f3d8	0.060779423
13	0xbcb59adc	-0.02216857
14	0xbe2d59c0	-0.16928768
15	0x3d39144d	0.045185376
16	0x3dc982bb	0.09839388
17	0xbcc7f39e	-0.024408158
18	0xbd74e22b	-0.059786003
19	0xbd1d8398	-0.038455576
20	0x3d26e265	0.04074325
21	0xbd103337	-0.035205092
22	0xbcaa0d59	-0.020758318
23	0x3de345fb	0.11097332
24	0x3b148626	0.0022662967
25	0xbe4d81de	-0.20069072
26	0x3c9c4806	0.019077312
27	0xbd86107b	-0.06546112
28	0x3e7357f4	0.2376402
29	0xbcc93c97	-0.024565024
30	0x3dea953d	0.11454246
31	0xbdc39491	-0.09549821
32	0xbd875f7c	-0.06610009
33	0x3cf9e1f2	0.030503247
34	0x3c8a42ee	0.016877618
35	0x3d87cd52	0.066309586
36	0xbc6c618f	-0.014427557
37	0x3d965ff6	0.07342522
38	0x3bfe8684	0.0077675004
39	0x3dcb3b9d	0.0992348
40	0xbe0eab4a	-0.13932529
41	0x3c93059e	0.017947014
42	0xbd8d174b	-0.068892084
43	0xbe861123	-0.2618495
44	0xbd718cec	-0.058972284
45	0x3ca4c55d	0.020113641
46	0xbe20dc25	-0.15708978
47	0xbd7128bb	-0.058876734
48	0x3e32426a	0.17408147
49	0x3cffcd95	0.031225959
50	0x3d5b4d2d	0.053540397
51	0xbded7ee3	-0.11596467
52	0x3d05f4bf	0.03270411
53	0xbdabe1df	-0.08392691
54	0x3e28f1d5	0.16498502
55	0x3c8aa004	0.016922005
56	0xbbbba435	-0.005726362
57	0x3e04cb1f	0.1296811
58	0x3d31f08e	0.0434423
59	0x3cc59a73	0.024121499
60	0xbdd030b4	-0.101655394
61	0xbc6304b2	-0.0138561
62	0x3e4325b6	0.19057354
63	0xbd4cede2	-0.05003155
64	0x3e009794	0.12557822
65	0xbbaf9841	-0.0053587263
66	0xbca4b03f	-0.020103572
67	0xbd4ee020	-0.05050671
68	0xbdb4881c	-0.08815023
69	0xbdd90166	-0.1059597
70	0x3dcda80f	0.1004182
71	0xbc964180	-0.01834178
72	0x3e043660	0.12911367
73	0x3e0c7a52	0.13718536
74	0xbd83fb35	-0.06444398
75	0x3e0e38fe	0.13888928
76	0xbe1fa5e7	-0.1559063
77	0xbcf9aa73	-0.030476784
78	0x3e18e396	0.14930567
79	0x3da461aa	0.080264404
80	0x3d1e1a4b	0.038599294
81	0x3d90ab68	0.07063943
82	0x3e0f533d	0.13996597
83	0xbd50cf08	-0.05097869
84	0xbe14cc37	-0.14531027
85	0x3b928ee4	0.0044726003
86	0x3e0f2c95	0.1398185
87	0xbc25e76b	-0.010125975
88	0xbd436589	-0.047704253
89	0xbd13908e	-0.03602653
90	0x3bd932bb	0.006628362
91	0x3e050a93	0.12992315
92	0x3d7138ab	0.058891933
93	0xbde1c783	-0.11024382
94	0x3d33a4f2	0.043858476
95	0xbc99f3b2	-0.01879296
96	0x3d158cca	0.03651122
97	0x3dade86b	0.08491596
98	0x3cc35ffb	0.023849478
99	0x3cf38f0e	0.0297313
100	0x3bc1a089	0.00590903
101	0xbc008b2b	-0.00784568
102	0x3df81930	0.12114179
103	0xbd6421bb	-0.05569623
104	0xbb75097c	-0.0037389686
105	0xbdc2a16b	-0.09503444
106	0x3d9ac428	0.07556945
107	0xbe397b43	-0.18113427
108	0x3d5bba6d	0.053644586
109	0xbc368937	-0.011141113
110	0x3dfecdc8	0.124415934
111	0xbbea2fb2	-0.007146799
112	0xbd54f188	-0.051988155
113	0x3cbc63cb	0.022996804
114	0x3dcb79f7	0.09935372
115	0xbe005910	-0.12533975
116	0x3defa01b	0.117004596
117	0x3cdbabcd	0.02681532
118	0x3c2df766	0.010618066
119	0x3d88e9ec	0.06685242
120	0x3d1f9914	0.038964346
121	0xbd1c6ba7	-0.038188603
122	0x3ca900c4	0.020630248
123	0x3d4fa951	0.050698582
124	0xbb2c2287	-0.0026265697
125	0xbd730db8	-0.059339255
126	0x3da2dc18	0.07952136
127	0x3d95c2ef	0.07312571
128	0xbdba368a	-0.09092434
129	0x3d2639cb	0.04058246
130	0xbd795fdd	-0.060882438
131	0xbd0c3da9	-0.03423849
132	0xbc6c9c04	-0.014441494
133	0xbd909e23	-0.07061412
134	0x3cb28795	0.021793166
135	0x3db2bcbe	0.08727406
136	0xbe0ad2ca	-0.13556972
137	0x3e5974f8	0.21236026
138	0x3d835c66	0.06414108
139	0xbda8035a	-0.08203764
140	0x3c62d789	0.013845333
141	0xbdf96a90	-0.12178528
142	0x3de47415	0.111549534
143	0x3d4f667b	0.050634842
144	0x3c0d80d3	0.008636671
145	0x3d478c8d	0.048718024
146	0x3d4c689b	0.049904447
147	0xbce02fc6	-0.02736653
148	0x3d0924b2	0.03348226
149	0xbd3a273e	-0.04544758
150	0xbd94ac9c	-0.07259485
151	0xbc2f9eec	-0.010719042
152	0xbdd4f2be	-0.10397862
153	0x3e0d7a58	0.13816202
154	0xbd20d646	-0.039266847
155	0xbddf76fd	-0.10911367
156	0x3d60c55c	0.054875717
157	0x3d83442b	0.064094864
158	0x3e4662af	0.19373582
159	0xbd189d66	-0.03725948
160	0xbafefdc6	-0.0019454292
161	0x3e0c3644	0.13692576
162	0xbda86dcb	-0.08224066
163	0xbdd415bb	-0.10355707
164	0xbd6663ff	-0.056247707
165	0x3d9eb5b6	0.07749502
166	0x3e48ec79	0.19621457
167	0xbd565387	-0.05232575
168	0xbe0ae3b9	-0.13563432
169	0xbd4f7a61	-0.05065382
170	0xbc981768	-0.018565848
171	0xbd83d093	-0.06436267
172	0xbe7767b7	-0.24160658
173	0xbca29682	-0.019847158
174	0xbd037064	-0.032089606
175	0xbdca3b93	-0.09874644
176	0xbdd5c382	-0.10437681
177	0x3d7e6214	0.062105253
178	0xbd1835f8	-0.037160844
179	0x3c453cd8	0.012038432
180	0x3c289be2	0.010291072
181	0xbd755d0e	-0.059903197
182	0x3ddb17e2	0.10697915
183	0xbd92d04a	-0.07168634
184	0xbd85ddbc	-0.06536433
185	0x3d58ca44	0.05292727
186	0xbc12108e	-0.00891508
187	0xbd0f9884	-0.03505756
188	0x3dde4353	0.10852685
189	0x3d6b08d6	0.057381473
190	0xb873f01a	-5.8159327e-05
191	0x3e260349	0.1621219
192	0x3d7eb870	0.062187612
193	0x3c55ba67	0.01304493
194	0x3c9ab5f6	0.018885594
195	0x3d6fce8f	0.0585466
196	0x3c8d4375	0.01724408
197	0x3e0efd7f	0.13963889
198	0x3c829295	0.015939036
199	0xbd905f4c	-0.070494264
200	0xbe205bfd	-0.1566009
201	0xbd556f09	-0.052107845
202	0xbc629c61	-0.013831229
203	0x3d2473fa	0.040149666
204	0x3db32083	0.087464355
205	0x3d6a1d92	0.057157107
206	0x3d4e8ff0	0.05043024
207	0xbd0783ed	-0.0330848
208	0x3d01af58	0.03166136
209	0xbdcfbf59	-0.101439185
210	0xbe0c945a	-0.13728467
211	0x3dbd3615	0.09238831
212	0xbc16a864	-0.009195421
213	0xbd014da4	-0.031568184
214	0x3cc7b150	0.024376541
215	0xbd85862a	-0.065197304
216	0x3dccc8ca	0.09999235
217	0x3d69ef18	0.057112783
218	0x3de824c1	0.11335135
219	0x3bfe72ad	0.0077651353
220	0xbe192d9f	-0.1495881
221	0xbcc6c803	-0.024265295
222	0xbdcc1428	-0.09964782
223	0xbd71784a	-0.058952607
224	0xbd1d0678	-0.038336247
225	0x3dbba08c	0.09161481
226	0xbc9ebcc2	-0.019377116
227	0x3d8f43b4	0.06995335
228	0x3c0971e1	0.008388967
229	0x3cf60737	0.030032737
230	0x3d4be703	0.049780857
231	0x3c658afa	0.014010185
232	0x3d83f120	0.06442475
233	0xbe055502	-0.13020709
234	0x3e162fd4	0.14666682
235	0xbd4f46e1	-0.050604705
236	0x3df400c2	0.11914207
237	0x3d48fd63	0.049069773
238	0xbd092e73	-0.033491563
239	0xbd9e55ee	-0.077312335
240	0x3e0f2506	0.13978967
241	0x3dbff2f8	0.093725145
242	0x3d81a25c	0.06329796
243	0x3de5ba36	0.112171575
244	0xbdae7c37	-0.08519786
245	0x3d9bcda6	0.07607584
246	0x3def8606	0.11695485
247	0x3d532a49	0.051554
248	0x3e548e04	0.207573
249	0x3e6602e1	0.22462036
250	0x3d4bd94b	0.049767774
251	0x3c709bbc	0.0146855675
252	0x3e33bd56	0.17552695
253	0xbd7580bd	-0.059937228
254	0xbdf82e12	-0.12118162
255	0x3d92fcf7	0.071771555

encoder.feature_extract.mlps.0.linears.2.bias f4 [128]
0	0x3b84d2b6	0.004053439
1	0x3b437dfe	0.0029829736
2	0x3a33f586	0.0006864894
3	0xbab22df1	-0.0013594014
4	0xbabb77d4	-0.0014302679
5	0xbb172a91	-0.0023066143
6	0x3aaaa237	0.0013018314
7	0x39f91542	0.0004750882
8	0x3b236f91	0.0024938325
9	0x3a5e633c	0.0008483415
10	0xbaa757dd	-0.0012767274
11	0xbb2f4f5a	-0.0026750178
12	0xb93302c3	-0.00017071799
13	0xbaa05f4e	-0.0012235434
14	0x3aaae7ac	0.0013039014
15	0xbb647a40	-0.0034862906
16	0xba94753c	-0.0011326442
17	0xba990a99	-0.0011676132
18	0xb936cf41	-0.0001743408
19	0x3ab945bd	0.0014135164
20	0xbacc0546	-0.0015565536
21	0xba0f0edd	-0.0005457232
22	0xbafc3411	-0.0019241591
23	0x3b4d562b	0.0031331878
24	0xba2bef56	-0.0006558796
25	0xbb7136e4	-0.00368064
26	0x3ac32054	0.0014886954
27	0x3b1e079c	0.0024113422
28	0x3aeab855	0.0017907718
29	0xb9b81327	-0.00035109484
30	0x3acb4da6	0.0015510812
31	0xbb52dcd8	-0.003217509
32	0xb98bc263	-0.00026656975
33	0xba0c2324	-0.00053458125
34	0xba02c9e4	-0.00049891905
35	0xb9df876c	-0.00042634772
36	0xbb5fa7a1	-0.0034127014
37	0xba3a4f86	-0.0007107187
38	0xbb1b21d1	-0.002367128
39	0xbabfb86b	-0.0014627104
40	0xbac5abb3	-0.0015081078
41	0xba90df82	-0.0011052939
42	0x3922ef5c	0.00015538692
43	0x3a0e6e0c	0.00054332684
44	0x39666499	0.00021971985
45	0xbae0dd7d	-0.0017155852
46	0xbabb3b65	-0.0014284669
47	0xb9417f21	-0.00018453274
48	0x39e016b1	0.00042741516
49	0xbb40303d	-0.0029325627
50	0xba9fd240	-0.0012193397
51	0x3a581f50	0.0008244412
52	0x3b7a229a	0.0038167597
53	0x3b9580b9	0.004562464
54	0xba688491	-0.00088698516
55	0xba9956cf	-0.0011698845
56	0x3b01cb05	0.0019804847
57	0x39acafa4	0.0003293726
58	0xb8bd30aa	-9.021287e-05
59	0xbadf4929	-0.0017035353
60	0x39d33cb9	0.00040290298
61	0x3adc3e2e	0.0016803199
62	0xb9b40e54	-0.0003434295
63	0x391b9b7d	0.00014839876
64	0x39990852	0.00029188633
65	0xb96376a5	-0.00021692606
66	0x3b1216d3	0.0022291436
67	0xba88897c	-0.001041695
68	0x3b03d2bd	0.0020114623
69	0x3b02b224	0.0019942606
70	0xb9a5c04a	-0.0003161452
71	0x3a46715b	0.0007569992
72	0xbaf6030e	-0.0018769221
73	0x3b0e4eb9	0.0021714403
74	0x3ae1a9f9	0.0017216793
75	0x396cacf5	0.00022571145
76	0xbb709db4	-0.0036715092
77	0xb9d19e97	-0.00039981745
78	0xba2573a8	-0.00063114846
79	0xb999feee	-0.00029372372
80	0xb941ee99	-0.00018494799
81	0xba0d1f1a	-0.00053833576
82	0x3b78c421	0.0037958699
83	0x3af3f02e	0.0018611008
84	0x3b7efb96	0.003890728
85	0xb77b8f5a	-1.49941425e-05
86	0xba0cc2b3	-0.00053695886
87	0x3b46ad28	0.0030315612
88	0x3a31c122	0.0006780793
89	0x3ac6767c	0.0015141512
90	0x39e25620	0.00043170247
91	0xbaaed4a3	-0.0013338517
92	0x3b461b32	0.0030228612
93	0x38521d78	5.0095347e-05
94	0xbb52acb5	-0.0032146398
95	0x3a51f152	0.0008008677
96	0x39b1c5c9	0.00033907432
97	0x39cc38ca	0.00038952223
98	0x3ad1f1cc	0.0016017496
99	0x3a75200e	0.0009350785
100	0xb783c4d6	-1.5708076e-05
101	0x3a2a7213	0.0006501984
102	0xba192108	-0.0005841409
103	0x3a769108	0.00094057666
104	0x3aa9cde7	0.001295504
105	0x3b616711	0.0034393708
106	0x3b7e645a	0.0038817138
107	0xba0902c4	-0.00052265474
108	0xbb049c80	-0.0020234883
109	0xb8c58428	-9.418308e-05
110	0xba70179d	-0.0009158792
111	0xbaa948b3	-0.0012915343
112	0xb8c0c356	-9.1916576e-05
113	0xba9dcc37	-0.001203901
114	0xba7073c4	-0.0009172524
115	0xbac72dfe	-0.0015196202
116	0x3a48aee6	0.00076554564
117	0xb9a3089e	-0.00031096203
118	0x3abbbf07	0.0014323898
119	0xbb18a8dc	-0.0023294007
120	0x39ea86b5	0.00044732323
121	0x3a06aade	0.00051371555
122	0xba2b4dfa	-0.0006534752
123	0x3ae95e07	0.0017804512
124	0xbb500c6d	-0.0031745688
125	0xbb649f6b	-0.003488506
126	0xb9f848b5	-0.00047356417
127	0x3b15fb91	0.002288554

encoder.feature_extract.mlps.0.batch_norms.0.weight f4 [128]
0	0x3f7f1393	0.9963924
1	0x3f7f603d	0.9975622
2	0x3f7f1f11	0.9965678
3	0x3f7ee6a6	0.9957069
4	0x3f80340a	1.0015881
5	0x3f80a091	1.0049001
6	0x3f8093ec	1.0045142
7	0x3f803236	1.0015323
8	0x3f803b39	1.0018073
9	0x3f808aaf	1.0042323
10	0x3f80a21f	1.0049475
11	0x3f806a61	1.0032464
12	0x3f7fa72b	0.99864453
13	0x3f805534	1.0026002
14	0x3f7f7393	0.9978573
15	0x3f80092c	1.0002799
16	0x3f8030fe	1.0014951
17	0x3f7ea212	0.9946605
18	0x3f804551	1.0021154
19	0x3f80df9e	1.0068243
20	0x3f801816	1.000735
21	0x3f7e4aa0	0.9933262
22	0x3f80a1e9	1.0049411
23	0x3f803e75	1.001906
24	0x3f7f04c5	0.9961665
25	0x3f7ff89c	0.9998872
26	0x3f7fb459	0.99884564
27	0x3f7ff907	0.9998936
28	0x3f7f04c4	0.99616647
29	0x3f7f63db	0.9976174
30	0x3f802085	1.0009924
31	0x3f80a330	1.0049801
32	0x3f7f8fe5	0.9982894
33	0x3f7f6b9b	0.9977357
34	0x3f7e95ba	0.99447215
35	0x3f800d22	1.0004008
36	0x3f800d7e	1.0004117
37	0x3f7ec367	0.9951691
38	0x3f8027f8	1.0012197
39	0x3f806c58	1.0033064
40	0x3f80066a	1.0001957
41	0x3f7fe047	0.99951595
42	0x3f7ed382	0.99541485
43	0x3f7fec5e	0.9997004
44	0x3f8098d6	1.0046642
45	0x3f7ec889	0.9952474
46	0x3f7e9944	0.99452615
47	0x3f80b445	1.0055014
48	0x3f803c79	1.0018455
49	0x3f7f4887	0.9972004
50	0x3f7f1329	0.9963861
51	0x3f7f1402	0.99639904
52	0x3f7e9a8b	0.99454564
53	0x3f8085af	1.0040797
54	0x3f7f415b	0.997091
55	0x3f80bb86	1.0057228
56	0x3f80dda6	1.0067642
57	0x3f80a361	1.0049859
58	0x3f80431d	1.0020481
59	0x3f804277	1.0020283
60	0x3f7faf0a	0.99876463
61	0x3f7f18e6	0.99647367
62	0x3f801e19	1.0009185
63	0x3f80a4d3	1.00503
64	0x3f7fd059	0.9992729
65	0x3f7ebd03	0.9950716
66	0x3f80a08b	1.0048994
67	0x3f7f2d78	0.99678755
68	0x3f7fbd0d	0.99897844
69	0x3f7f4627	0.9971642
70	0x3f80b508	1.0055246
71	0x3f803c2c	1.0018363
72	0x3f7ed240	0.99539566
73	0x3f806759	1.0031539
74	0x3f7f34b5	0.996898
75	0x3f7ee7bb	0.9957234
76	0x3f803bd2	1.0018256
77	0x3f8087e0	1.0041466
78	0x3f805c7d	1.0028225
79	0x3f803f14	1.001925
80	0x3f7eba50	0.9950304
81	0x3f7e9756	0.9944967
82	0x3f80398f	1.0017565
83	0x3f808d0b	1.0043043
84	0x3f7e8f47	0.99437374
85	0x3f7ee0a3	0.9956152
86	0x3f809bcd	1.0047547
87	0x3f806127	1.0029649
88	0x3f80d6b7	1.0065526
89	0x3f80055b	1.0001634
90	0x3f805bef	1.0028056
91	0x3f7f196e	0.9964818
92	0x3f7fe695	0.99961215
93	0x3f7fe4aa	0.9995829
94	0x3f7e919c	0.9944093
95	0x3f7f3ea5	0.9970496
96	0x3f80aede	1.0053365
97	0x3f7e82c7	0.994183
98	0x3f7e8564	0.9942229
99	0x3f8074af	1.0035609
100	0x3f7fa877	0.9986643
101	0x3f80e4fc	1.006988
102	0x3f807e71	1.0038587
103	0x3f80ce9b	1.0063051
104	0x3f80197d	1.0007778
105	0x3f7ec997	0.9952635
106	0x3f800422	1.0001261
107	0x3f807c2e	1.0037897
108	0x3f7ee1de	0.99563396
109	0x3f80d1be	1.0064008
110	0x3f808cbc	1.0042949
111	0x3f7f6ceb	0.9977557
112	0x3f7ee322	0.9956533
113	0x3f7f86f4	0.998153
114	0x3f809109	1.0044261
115	0x3f7ea594	0.994714
116	0x3f7faa00	0.99868774
117	0x3f80202c	1.0009818
118	0x3f7f120c	0.9963691
119	0x3f7ed7ff	0.99548334
120	0x3f7fd05b	0.999273
121	0x3f803159	1.001506
122	0x3f8087a7	1.0041398
123	0x3f807ce9	1.003812
124	0x3f805031	1.0024472
125	0x3f7fc9c3	0.9991724
126	0x3f802361	1.0010797
127	0x3f803301	1.0015565

encoder.feature_extract.mlps.0.batch_norms.0.bias f4 [128]
0	0xbb85cec8	-0.004083488
1	0xbb72bd26	-0.003703901
2	0xbbd0d3cf	-0.006372906
3	0xbbab3102	-0.005224348
4	0x3b4810c6	0.0030527576
5	0x3b88559a	0.004160595
6	0x3b82d70b	0.0039929203
7	0x3b7e43f6	0.0038797832
8	0x3b6e6e57	0.0036381686
9	0x3bb4251f	0.0054975892
10	0x3b92e1f8	0.004482504
11	0x3af46a29	0.0018647361
12	0xbb5e465f	-0.0033916456
13	0x3b87f1d8	0.004148703
14	0xbb8aa849	-0.004231487
15	0xbbcd6e7b	-0.006269274
16	0x3b26420d	0.002536896
17	0xbba75ff2	-0.005107873
18	0x3b9febb1	0.0048803915
19	0xbbab53a0	-0.0052284747
20	0x3b9198ed	0.004443279
21	0xbb967126	-0.004591125
22	0x3b80acce	0.00392685
23	0x3b5b00b7	0.0033417174
24	0xbb6a5eb9	-0.0035762026
25	0xbb86124c	-0.0040915366
26	0xbb2115d8	-0.002457967
27	0x3b97ef5d	0.0046366886
28	0xbba43f33	-0.0050124167
29	0xbb450671	-0.0030063654
30	0x3b880a12	0.004151591
31	0x3b93fcc7	0.0045162174
32	0xbb8abda5	-0.004234033
33	0xbab5e030	-0.0013876017
34	0xbb683ee4	-0.0035437876
35	0xbb4e65a7	-0.0031493695
36	0xbba42ae2	-0.005009995
37	0xbb348060	-0.0027542338
38	0x3b9c6b06	0.0047735004
39	0x3aeaefa1	0.0017924198
40	0xbb1b9a93	-0.0023743256
41	0xbb91baa5	-0.0044472986
42	0xbb69e873	-0.003569153
43	0x3b7e98a7	0.0038848312
44	0x3b925c13	0.0044665425
45	0xbb96d5d1	-0.0046031256
46	0x3abe0008	0.0014495859
47	0x3bacd4ba	0.0052743824
48	0x3b0bc1e8	0.0021325294
49	0xbb5d1f44	-0.003374056
50	0xbb78de17	-0.0037974173
51	0xbb8a3ba9	-0.004218538
52	0xbb9e3dac	-0.004829129
53	0x3b01a337	0.0019781122
54	0xbba34761	-0.0049828743
55	0x3b9b2d83	0.00473565
56	0x3bcacd88	0.006189052
57	0x3ba51207	0.0050375494
58	0xbb88cbaa	-0.0041746693
59	0x3b800adf	0.003907546
60	0xbb1a49f4	-0.0023542615
61	0xbb74bc42	-0.0037343656
62	0xb9f1e1ba	-0.0004613528
63	0x3b9d7f4a	0.004806434
64	0x3aae6b40	0.001330711
65	0xbb97c700	-0.004631877
66	0x3b94a3ae	0.0045361137
67	0x3b0b1f83	0.00212285
68	0x3b8481ef	0.0040438096
69	0xbb72963d	-0.0037015819
70	0x3b9d2350	0.0047954693
71	0x3b785f14	0.0037898468
72	0xbb9bed4b	-0.004758512
73	0x3b67074f	0.003525216
74	0xbb339aee	-0.0027405578
75	0xbbd01c09	-0.0063509983
76	0x3b53ceac	0.003231923
77	0x3b9bf970	0.00475996
78	0xbb915ec0	-0.004436344
79	0x3b23a342	0.0024969135
80	0xbb848579	-0.0040442315
81	0xbb913407	-0.004431251
82	0x3bbe05a6	0.005799013
83	0x3b9ee68b	0.00484926
84	0xbb0fa271	-0.002191689
85	0xbb911bee	-0.0044283783
86	0x3ba0e763	0.004910396
87	0x3b110e2e	0.0022133696
88	0x3b0eb12b	0.002177308
89	0x3b1f37e6	0.0024294793
90	0x3b383e0b	0.0028113152
91	0xbb8683f2	-0.0041050846
92	0xbb7a0712	-0.0038151187
93	0x3b1f789d	0.0024333366
94	0xbba9cee6	-0.005182135
95	0xbb9202ff	-0.0044559236
96	0x3b947498	0.0045305006
97	0xbb8275b6	-0.0039813174
98	0x3b27a424	0.0025580013
99	0x3b8098a2	0.0039244452
100	0xb89482b2	-7.081534e-05
101	0x3bb24d2a	0.0054413276
102	0x3bdef856	0.0068045063
103	0x3bcd5322	0.0062660137
104	0x3ba2006c	0.004943898
105	0xbba8de43	-0.005153449
106	0x3b98e6ab	0.0046661696
107	0xb9f41ff3	-0.0004656311
108	0xbb94e0bd	-0.0045433925
109	0x3b8e979b	0.004351569
110	0x3b90d6fb	0.004420159
111	0xbb8e1e65	-0.0043371194
112	0xbb8f644e	-0.004375971
113	0x3b7da522	0.0038703163
114	0x3ba68dc4	0.0050828177
115	0xbb9de40b	-0.0048184446
116	0xbb2916d7	-0.0025800967
117	0xbbede829	-0.0072603417
118	0xbb99ad3a	-0.0046898397
119	0xbba78548	-0.005112324
120	0xbb959dd5	-0.004565934
121	0xbbdb42a2	-0.006691293
122	0x3b91c91a	0.004449022
123	0x3b8d9a95	0.004321406
124	0x3b98a71c	0.004658593
125	0xbb95d495	-0.004572461
126	0x3b892c93	0.004186222
127	0x3bb6f489	0.00558335

encoder.feature_extract.mlps.0.batch_norms.0.running_mean f4 [128]
0	0x3e9ed481	0.31021503
1	0x3c16e9c2	0.009211006
2	0x3e91523e	0.28383058
3	0xbd2074ff	-0.039174076
4	0x3e6c6fc5	0.23089512
5	0xbe200a62	-0.1562896
6	0x3e9ef5c6	0.31046885
7	0xbe2d1711	-0.1690333
8	0xbe4c341a	-0.1994175
9	0x3de6c8fc	0.112688035
10	0xbba9fc96	-0.0051875813
11	0x3c2375b5	0.009976794
12	0x3df55bcf	0.11980402
13	0xbdb60949	-0.0888849
14	0x3e7209f6	0.23636612
15	0x3bcfe330	0.0063442215
16	0x3e833a93	0.25630626
17	0x3d3e76ce	0.04650002
18	0x3e2c2d6a	0.16814199
19	0x3b9e3b28	0.0048288293
20	0x3a96ce52	0.001150558
21	0xbead9307	-0.33901235
22	0x3e16da0d	0.14731617
23	0x3da83966	0.08214073
24	0x3db17479	0.086647935
25	0x3e95e86f	0.29278895
26	0xbd0ef606	-0.034902595
27	0xbebe893e	-0.37214082
28	0xbb789148	-0.0037928391
29	0x3e926656	0.285937
30	0x3cd34dfe	0.025794026
31	0xbdb2a16e	-0.087221965
32	0x3e39fd0d	0.18162937
33	0x3d55e66e	0.052221708
34	0xbd6fb084	-0.058517948
35	0xbede7132	-0.43445736
36	0x3d4d5716	0.05013188
37	0x3e7cba2c	0.24680394
38	0x3ef22d48	0.47300172
39	0xbe3f91f4	-0.1870802
40	0xbe878f5d	-0.26476565
41	0xbe53cc06	-0.20683298
42	0xbd879a2a	-0.06621201
43	0xbd231cc1	-0.039822344
44	0x3d94c16d	0.072634555
45	0xbe5206c7	-0.20510398
46	0xbc80a8a2	-0.01570541
47	0xbe1efd31	-0.15526272
48	0xbe6fb6fc	-0.23409647
49	0xbe21553b	-0.15755169
50	0xbda6ec37	-0.08150523
51	0x3c139840	0.009008467
52	0xbe000222	-0.12500814
53	0x3f0483e1	0.5176373
54	0x3f1ffb40	0.6249275
55	0x3e90bef1	0.28270677
56	0xbdf87a74	-0.12132731
57	0x3e76badd	0.2409472
58	0xbc72e65b	-0.014825429
59	0xbdd0aaa5	-0.10188798
60	0xbde857ac	-0.11344847
61	0x3e1a66de	0.15078303
62	0x3d5a64a2	0.053318627
63	0xbe176f97	-0.14788662
64	0x3e0ef6e9	0.13961376
65	0x3dce133d	0.10062263
66	0x3d97c627	0.074108414
67	0xbe86b6c5	-0.26311317
68	0xbe2a7992	-0.16647938
69	0x3e4f8f2a	0.20269457
70	0x3e823a0f	0.2543492
71	0xbe234bb2	-0.15946844
72	0x3e3080f7	0.17236696
73	0xbc40e438	-0.011773162
74	0x3e66078c	0.22463816
75	0x3e5cbd1a	0.21556512
76	0x3d477e8f	0.04870468
77	0x3d48d811	0.049034182
78	0x3d810929	0.06300575
79	0x3e018cff	0.12651442
80	0x3d994dfc	0.074855775
81	0xbde35efe	-0.11102103
82	0x3db01daf	0.08599412
83	0x3ec88094	0.39160597
84	0xbf09fdc3	-0.53902835
85	0x3e0c785b	0.13717787
86	0x3ec56019	0.3854988
87	0x3d8f2d54	0.069910675
88	0x3da0cb2f	0.07851254
89	0xbe42b121	-0.19012882
90	0x3e7d3de1	0.24730636
91	0x3d42db91	0.047572676
92	0x3dd4a117	0.10382288
93	0xbe7e6b29	-0.24845566
94	0x3e9fd183	0.31214532
95	0xbdc2ac0d	-0.09505472
96	0xbde1e361	-0.11029697
97	0xbd9edd46	-0.07757048
98	0xbe987c22	-0.29782206
99	0x3db5e55f	0.0888164
100	0xbd8ba026	-0.06817655
101	0xbe0c4ee7	-0.13701974
102	0x3c6f5500	0.014607668
103	0x3e06ae4b	0.13152425
104	0xbea46e82	-0.3211556
105	0x3ea0f0eb	0.31433806
106	0x3d6056d2	0.0547703
107	0x3c03c154	0.0080416985
108	0x3da9f229	0.082981415
109	0xbd9463bd	-0.07245586
110	0xbe17cf28	-0.14825118
111	0xbe35e472	-0.17762926
112	0xbe2bb562	-0.16768411
113	0xbeca320b	-0.39491305
114	0xbeab8505	-0.33499923
115	0x3d8621fa	0.06549449
116	0x3e801d82	0.25022513
117	0xbcfa7c24	-0.030576773
118	0x3dc32830	0.095291495
119	0x3d52fcfa	0.05151079
120	0xbe8d8bc8	-0.27645707
121	0xbe2ba8fa	-0.16763678
122	0xbddd16f1	-0.10795391
123	0x3e5d0b96	0.21586451
124	0xbe2046d1	-0.15652014
125	0xbce7a929	-0.028278904
126	0xbe3c76e2	-0.18404725
127	0xbdbbad5f	-0.09163927

encoder.feature_extract.mlps.0.batch_norms.0.running_var f4 [128]
0	0x3caac93b	0.020847907
1	0x3a112d0e	0.00055380247
2	0x3a2148f0	0.0006152531
3	0x3ba36aef	0.0049871127
4	0x3c103f72	0.008804189
5	0x3a4dfd2a	0.0007857854
6	0x3c80664a	0.015673775
7	0x3b1d48e7	0.0023999752
8	0x3c8c2699	0.017108249
9	0x3cb633c0	0.022241473
10	0x3bc1206c	0.0058937576
11	0x3b230e2c	0.0024880273
12	0x3b014ac9	0.0019728413
13	0x3b3815ca	0.002808916
14	0x3c72d9d9	0.014822447
15	0x3b429d91	0.0029695968
16	0x3c53c540	0.012925446
17	0x3c1e384a	0.009656975
18	0x39deb53f	0.00042478179
19	0x3a3c2cc5	0.0007178302
20	0x3c39d45d	0.011342135
21	0x3d363cbd	0.04449152
22	0x3b67f327	0.0035392733
23	0x3b1ccd4e	0.0023926082
24	0x3bf44d9f	0.007455542
25	0x3c3a94cc	0.011388015
26	0x3bfec260	0.007774636
27	0x3cf5ab55	0.029988924
28	0x3a76c7fb	0.00094139547
29	0x3b421505	0.002961458
30	0x397e25f0	0.0002423746
31	0x39dc92d8	0.00042071077
32	0x3a1f0f23	0.0006067624
33	0x3addc182	0.0016918632
34	0x3bd95e84	0.0066335816
35	0x3d92f70d	0.071760274
36	0x39f0279d	0.0004580588
37	0x3bcf161e	0.0063197752
38	0x3d1a7368	0.037707716
39	0x3cc82e4d	0.02443614
40	0x3c010f48	0.0078771785
41	0x3c3351bf	0.010944783
42	0x3b3812bf	0.0028087345
43	0x3953024c	0.00020123384
44	0x3abe8d6b	0.0014537995
45	0x3bf6b319	0.0075286743
46	0x38c94e36	9.598995e-05
47	0x3c283ae4	0.010267947
48	0x3b9198d4	0.0044432674
49	0x3cfa4116	0.030548614
50	0x3b802e6f	0.0039117853
51	0x3abdf5a1	0.0014492759
52	0x3a52a04c	0.00080347504
53	0x3d8ef2aa	0.06979878
54	0x3d8dc73f	0.06922769
55	0x3c99ffbc	0.018798701
56	0x3cad046a	0.021120269
57	0x3c85a325	0.016313145
58	0x39a676d9	0.00031750536
59	0x3b346bb3	0.0027530014
60	0x3b74737b	0.0037300277
61	0x3b6aab3e	0.0035807635
62	0x3b03ae82	0.0020093028
63	0x3cc76f81	0.024345161
64	0x3c7742d0	0.015091613
65	0x3b0bda7d	0.0021339946
66	0x3b1a8627	0.0023578496
67	0x3c69f103	0.014278653
68	0x3ab3055d	0.0013658215
69	0x3bfdc286	0.0077441363
70	0x3c9d18a1	0.019176783
71	0x3c5aa557	0.013345084
72	0x3c8a5688	0.016886964
73	0x3b6e0c1a	0.003632313
74	0x3ccad482	0.024759535
75	0x3c18ce78	0.00932657
76	0x3a0c3c6b	0.0005349579
77	0x3a913b16	0.0011080231
78	0x385163bb	4.9922364e-05
79	0x3b62fe6c	0.003463651
80	0x3c5f4012	0.013626115
81	0x39b21b71	0.0003397125
82	0x395d4307	0.00021101172
83	0x3cf756df	0.03019279
84	0x3d2a153c	0.041524157
85	0x3b9bf7f3	0.0047597825
86	0x3d8b531d	0.06802962
87	0x3ca7ed81	0.020498993
88	0x3b98bc28	0.004661102
89	0x3c2bdaff	0.010489224
90	0x3c01e38f	0.007927789
91	0x3b7b9b42	0.0038392101
92	0x389e65cc	7.552988e-05
93	0x3c4b50e9	0.012409427
94	0x3d6a3a74	0.05718465
95	0x38d2a2cb	0.00010043903
96	0x3a726650	0.0009246813
97	0x3a0cb253	0.00053671486
98	0x3d40b3ab	0.047046345
99	0x3b9f7d2c	0.0048672166
100	0x3816b006	3.592672e-05
101	0x3b0740bc	0.002063795
102	0x392ffd99	0.00016783773
103	0x3bdfab5a	0.0068258466
104	0x3c862b3f	0.016378043
105	0x3d090d22	0.03345979
106	0x3969287c	0.00022235693
107	0x3be234a1	0.0069032465
108	0x3bcdfc13	0.006286153
109	0x3b145a3d	0.0022636794
110	0x3b4b7d10	0.0031049885
111	0x39dabbad	0.0004172003
112	0x3c74819c	0.014923479
113	0x3d03da5a	0.03219066
114	0x3d69c77b	0.057075005
115	0x3a9b9c4d	0.0011872143
116	0x3bf69861	0.007525489
117	0x39603ca3	0.00021384894
118	0x3bbb9a19	0.005725157
119	0x3bcf0c08	0.006318573
120	0x3ccbc68b	0.024874946
121	0x3c31257c	0.01081216
122	0x3b83cca0	0.004022196
123	0x3c215a96	0.0098482575
124	0x3c09c88d	0.008409631
125	0x375cddec	1.3164692e-05
126	0x3aedfc35	0.0018156829
127	0x3a8e2102	0.0010843577
