DRL coding/RM_RealWorld/saved_network/FJSP_J30M15/100_19/policy_mch.pth (torch, 274615 bytes, 14 tensors)

bn.weight f4 [128]
000000 6d 95 7f 3f c4 24 7f 3f e6 d5 7e 3f f5 f0 80 3f
       0.9983738 0.99665475 0.99545133 1.0073534
000010 f4 ad 80 3f c3 11 80 3f cb 7c 80 3f e4 5c 80 3f
       1.0053086 1.000542 1.0038084 1.0028348
000020 4e f2 7e 3f b8 11 7f 3f c1 72 7f 3f ab 4a 80 3f
       0.9958848 0.9963641 0.99784476 1.0022787
000030 d5 12 7f 3f 94 db 7e 3f 5c 7c 7e 3f 9d 12 80 3f
       0.9963811 0.995538 0.9940851 1.000568
000040 8f c5 80 3f d4 6f 80 3f c6 3c 7f 3f d4 21 80 3f
       1.006029 1.0034127 0.9970211 1.0010324
000050 3d 28 80 3f a3 f9 80 3f a1 96 80 3f 60 1e 7f 3f
       1.001228 1.0076183 1.0045968 0.99655724
000060 56 1d 7f 3f 9d 75 80 3f 24 bc 80 3f 4f 65 80 3f
       0.9965414 1.0035893 1.0057416 1.0030917
000070 84 b6 80 3f 69 b1 80 3f 18 3e 7f 3f 16 e5 7e 3f
       1.0055699 1.0054141 0.9970412 0.9956831
000080 3c c4 80 3f 82 d1 7e 3f 7a 97 80 3f e2 46 7e 3f
       1.0059886 0.99538434 1.0046227 0.9932691
000090 6a 36 80 3f c0 f6 7e 3f 77 f3 7e 3f 02 65 80 3f
       1.0016606 0.9959526 0.9959025 1.0030825
0000a0 9a 24 80 3f 5e 31 80 3f 59 53 7e 3f 86 73 7f 3f
       1.001117 1.0015066 0.9934593 0.9978565
0000b0 de 8f 7e 3f 0e 9c 7f 3f d5 22 7f 3f 5a 35 80 3f
       0.99438274 0.99847496 0.99662524 1.0016282
0000c0 3f 0a 80 3f a0 4c 80 3f c4 a7 7e 3f 73 43 7f 3f
       1.0003127 1.0023384 0.9947474 0.99712294
0000d0 d0 45 7f 3f 16 57 80 3f 11 58 80 3f 28 7f 80 3f
       0.997159 1.0026577 1.0026876 1.0038805
0000e0 cf e5 7f 3f 09 3e 7f 3f 38 72 80 3f 85 70 80 3f
       0.99960035 0.99704033 1.0034857 1.0034338
0000f0 02 50 80 3f 76 f1 7e 3f 34 37 80 3f 4f 7c 80 3f
       1.0024416 0.9958719 1.0016847 1.0037936
000100 eb a5 80 3f 12 5b 80 3f 2b 53 7f 3f ce 01 7f 3f
       1.0050634 1.0027792 0.9973628 0.9961213
000110 f5 b3 7f 3f 69 7a 7f 3f dd 8b 80 3f 8b 74 80 3f
       0.9988397 0.9979616 1.0042683 1.0035566
000120 57 63 80 3f 17 7f 80 3f 69 b6 80 3f 3e 44 80 3f
       1.0030316 1.0038785 1.0055667 1.0020826
000130 7e 82 80 3f c2 56 7e 3f a6 b7 80 3f a4 9b 7e 3f
       1.0039823 0.9935113 1.0056045 0.9945624
000140 09 d7 80 3f 80 a7 80 3f b6 35 80 3f 03 5c 80 3f
       1.0065624 1.0051117 1.0016391 1.002808
000150 4c 57 7f 3f eb d1 80 3f 4c 91 7f 3f eb a2 7f 3f
       0.9974258 1.0064062 0.9983108 0.9985797
000160 14 d0 7e 3f 8a a8 7f 3f a5 87 7f 3f e8 82 80 3f
       0.9953625 0.99866545 0.9981635 1.003995
000170 2d ad 7e 3f 6a 01 7f 3f 0b e0 7e 3f 5c e6 7e 3f
       0.99482995 0.9961153 0.9956061 0.9957025
000180 11 e4 80 3f 72 a5 7e 3f b2 c0 7f 3f 75 5e 7f 3f
       1.00696 0.994712 0.99903405 0.99753505
000190 ec 50 80 3f 77 b5 7e 3f 81 c5 7f 3f c8 cb 7f 3f
       1.0024695 0.99495643 0.9991074 0.9992032
0001a0 56 f1 7f 3f ee 11 80 3f c5 df 7e 3f ff 59 80 3f
       0.99977624 1.0005472 0.99560195 1.0027465
0001b0 f7 4b 7f 3f 2a 0d 80 3f 0e c4 7f 3f 3c 68 80 3f
       0.9972529 1.0004017 0.9990853 1.003181
0001c0 a5 bc 80 3f e1 43 7f 3f ef 14 80 3f 29 40 7f 3f
       1.005757 0.9971295 1.0006388 0.99707276
0001d0 48 92 7e 3f 8c bc 7f 3f db f4 7f 3f e5 07 7f 3f
       0.9944196 0.99897075 0.99982995 0.9962142
0001e0 b8 56 7f 3f 7b 1a 80 3f be 6f 80 3f f2 e2 7e 3f
       0.997417 1.0008081 1.0034101 0.9956504
0001f0 9d 7b 80 3f ea c4 7e 3f 4a 0e 80 3f 6a aa 80 3f
       1.0037724 0.99519217 1.0004361 1.0052006

bn.bias f4 [128]
000000 6d b9 b4 3b 9c 5f 0d ba 01 9a 0d bc 99 99 73 3b
       0.0055152685 -0.000539297 -0.008642674 0.0037170409
000010 e9 6a 29 ba 2b 88 9c bb d9 73 b4 bb 87 a9 97 3b
       -0.0006462769 -0.0047769747 -0.005506974 0.0046283635
000020 41 45 ec bb 52 8e 62 b9 a4 14 b1 3b 5e 5a 97 3b
       -0.007210404 -0.00021606058 0.005404072 0.004618927
000030 91 d7 86 bb 1c e7 ae 3b 31 76 8d bb 14 c5 b5 3a
       -0.004115053 0.005337609 -0.004317068 0.0013867938
000040 26 46 c4 bb d3 c0 a6 bb 2b 5d 9c 3b 5b 0b ca bb
       -0.0059898077 -0.0050889044 0.0047718487 -0.0061659045
000050 1a 3f 75 bb 17 88 34 3b c3 fa 9c bb a1 8d a2 3b
       -0.0037421645 0.0027546936 -0.0047906353 0.004960731
000060 05 ac a2 3b b0 78 1a 3b 57 3b 8e 3b 01 72 a2 3b
       0.004964354 0.002357047 0.00434057 0.004957438
000070 d4 62 71 bb 59 61 22 3b 95 46 17 3c dc ad d0 3b
       -0.0036832588 0.0024777262 0.009233137 0.006368382
000080 40 2d 94 3b 97 44 d3 bb d8 1d bc bb 8c b3 cc 3a
       0.004521996 -0.0064473855 -0.0057408623 0.0015617474
000090 0b ef b1 3a cb bf c5 3b 8f 26 8c 3b 44 a7 e5 ba
       0.0013575269 0.0060348264 0.0042770575 -0.0017521163
0000a0 60 7e 04 bc 9d b5 18 bb a5 a6 98 3b c8 3b 7b bb
       -0.008086771 -0.002330161 0.0046585375 -0.0038335193
0000b0 7e 70 d4 ba 76 cc d3 3b 9d cc f4 39 ca 57 69 bb
       -0.0016207842 0.0064635826 0.00046691755 -0.0035605305
0000c0 9b e8 da 3b a8 b4 71 bb 0d 2a 54 3b fd 84 10 3b
       0.0066805608 -0.003688136 0.0032373697 0.0022051923
0000d0 14 eb 52 bb 7b bd cc bb 78 61 69 bb 0a 75 f4 3a
       -0.0032183575 -0.006248174 -0.0035611074 0.0018650603
0000e0 72 61 02 bc e0 92 77 3b 0c 8b 6c bb 27 dc 29 bb
       -0.007957803 0.0037776753 -0.003609362 -0.0025918575
0000f0 c8 bc 79 bb 82 7e c7 bb 16 7e ec bb 10 8a 5c 3b
       -0.0038106907 -0.006088079 -0.007217179 0.0033651628
000100 b0 7f 8c 3b a9 49 bf bb 47 31 10 bc 2f 3a 6e 3b
       0.0042876825 -0.0058376384 -0.008800811 0.0036350598
000110 b4 bc cb bb d1 c2 09 bc c7 3b 01 bb 1d fd 94 bb
       -0.0062175635 -0.008408264 -0.0019719468 -0.004546775
000120 58 23 04 3c 9a 17 62 ba 32 25 b1 bb 7b 69 46 bb
       0.008065067 -0.0008624733 -0.0054060454 -0.0030275274
000130 36 dd 67 bb 01 77 02 3c 7b 45 a2 3b fe 79 0c 3a
       -0.0035379655 0.007962943 0.0049521304 0.00053587544
000140 8e 19 f9 3a dd ae bc 3b 89 22 d8 3b f6 13 0c bc
       0.0019004808 0.00575815 0.006595914 -0.008549681
000150 ac 2f b9 bb 2e a1 20 bb a3 e3 05 3b a4 c5 71 3b
       -0.005651435 -0.0024510133 0.0020429872 0.0036891485
000160 5d e4 0b bb a2 d4 dd bb ed d2 27 3b 18 34 87 ba
       -0.0021345832 -0.0067697326 0.00256079 -0.0010315208
000170 18 35 62 3b d3 fe de bb 80 cf df ba 7f d7 b3 bb
       0.003451651 -0.0068052798 -0.001707539 -0.0054883356
000180 a5 de b1 3b e9 9c f4 bb 13 2b 49 bb e4 16 c7 39
       0.0054281526 -0.007464994 -0.003069584 0.00037973293
000190 ef c2 8e 38 01 aa 63 bb 61 97 ff 3b 32 3c ef b9
       6.807397e-05 -0.0034738781 0.007800028 -0.0004563048
0001a0 08 d7 82 bb 44 31 76 bb ca bb b1 bb ab 06 69 3a
       -0.003992919 -0.0037565986 -0.0054239975 0.0008889238
0001b0 b5 0a b5 3b 48 75 4c 3b b3 82 de 3b a3 96 bb bb
       0.005524958 0.0031197835 0.006790483 -0.0057247444
0001c0 a8 d5 9e bb 3e 9e e0 bb ca 7d d0 3b 2b b0 79 3b
       -0.004847247 -0.0068548014 0.0063626515 0.003809939
0001d0 4b 10 02 bc f5 54 98 3b 3a 26 00 bc cd 5d 3a 3b
       -0.007938455 0.0046487995 -0.007821614 0.0028437257
0001e0 8e ea 90 bb c9 01 16 3c 9b 54 36 3a 94 35 63 3b
       -0.0044224923 0.009155699 0.0006955356 0.0034669386
0001f0 df ff b6 3b fd 70 32 bb 64 bf c1 bb 29 bd d8 3b
       0.0055847014 -0.002722799 -0.005912708 0.0066143465

bn.running_mean f4 [128]
000000 31 5d a6 bd 23 6f 8d 3c 38 9e 9f 3e 16 fb 22 bb
       -0.081232436 0.017264908 0.311754 -0.0024868897
000010 aa 8b 99 3d ac b5 9a 3e 30 d5 f7 bd 7f 06 4d bd
       0.07497342 0.3021673 -0.12101209 -0.050055023
000020 31 ba 95 3e 03 83 58 3e 97 c6 41 3e d8 28 33 3e
       0.29243615 0.21143727 0.18923412 0.1749605
000030 d0 fe 10 3e db 48 81 3b fd 17 fc be 09 68 cf 3d
       0.14159703 0.0039454526 -0.49237052 0.10127265
000040 7a 49 f7 be 6f cb 88 3e c5 3f a9 be c4 48 df 3e
       -0.48298246 0.26717708 -0.33056465 0.43610203
000050 ac 04 d4 3e 93 ca 1d 3d 93 67 59 bc f2 79 9c 3d
       0.41409814 0.038523268 -0.013269323 0.07640447
000060 d8 4d 5f 3e 14 21 22 3c 36 f8 33 be 5a 7c f0 3e
       0.21807039 0.009895582 -0.17575154 0.46969873
000070 6f 0b 32 3d c5 0d e6 3d 4d 50 9c bd b9 35 65 3d
       0.043467935 0.11233095 -0.07632504 0.055959437
000080 e8 1f c7 bd a7 c0 09 3e 2a d0 b1 bd c7 60 0b be
       -0.097228825 0.13452397 -0.08682282 -0.13611136
000090 7e 7d a1 3d 7d 52 8c be 39 de a0 3e bd a3 5a be
       0.07885264 -0.27406684 0.31419542 -0.21351524
0000a0 48 e0 a0 3d 7f b6 5f 3e 22 cd 5c 3d 66 f5 9a 3e
       0.07855278 0.2184696 0.053906567 0.3026535
0000b0 fa a1 70 bd e0 d3 be be 98 c4 80 bd 97 41 81 3e
       -0.058748223 -0.37271023 -0.06287497 0.25245354
0000c0 9d 6a f8 b9 3e 7f af be b0 f2 91 3e 6b 07 89 be
       -0.0004738168 -0.34276766 0.28505468 -0.26763472
0000d0 61 59 01 3e 07 29 bb 3e f7 9b 0d 3e 0e 4e 00 3f
       0.12631752 0.3655474 0.13829027 0.501191
0000e0 e1 a8 a9 3e c3 ec f6 3e 05 6b ed 3e c7 bd dc bd
       0.33136657 0.4822751 0.46370712 -0.10778385
0000f0 6a 65 ca 3e d1 db 26 3e 1c 10 7a be 46 39 0d 3d
       0.39530498 0.16294791 -0.24420208 0.03447845
000100 9f 51 65 3e 72 67 b4 be bf 44 76 3c 36 21 f8 3d
       0.22394417 -0.35235173 0.015031039 0.121157095
000110 46 da fd 3c 69 c5 fe bd 6e 28 4d be 1a 93 8e bd
       0.03098787 -0.12439997 -0.20034954 -0.06961651
000120 1d 9c 9d 3e e6 ba 1d be 92 05 27 3e 46 83 80 3e
       0.30783167 -0.15403327 0.16310719 0.25100154
000130 cf 2a 66 be f4 0c 03 be fc 4a 34 be f7 87 5b 3c
       -0.22477268 -0.1279791 -0.1760673 0.013399116
000140 cd ef 9b be 02 6a f7 bd 5b 92 13 be 40 88 33 bc
       -0.3045639 -0.12080766 -0.14411299 -0.0109577775
000150 4c 98 06 3f f1 b3 3e bd 22 45 91 3e d4 d0 ad be
       0.52576137 -0.046558324 0.28373057 -0.33948386
000160 69 9e f6 3d 3e 9d 1b be a8 2c ea bd 08 44 04 be
       0.12041933 -0.15196702 -0.11434299 -0.12916577
000170 af 0c 5f bc d8 6c d2 3d c0 9f 60 be b6 ad a7 3e
       -0.013613864 0.102746665 -0.2193594 0.32749718
000180 a3 f9 b6 ba 36 07 89 be 85 67 cb 3e 87 62 e3 3d
       -0.0013959896 -0.26763314 0.39727417 0.11102777
000190 ad e7 8c be 21 46 0e be 57 ec 1e 3d 23 a0 c8 be
       -0.27520505 -0.1389394 0.03879961 -0.39184675
0001a0 47 1b 6e 3d 82 7b 7f be 34 d8 2c 3e cc bd 73 3e
       0.058131482 -0.24949458 0.1687935 0.2380287
0001b0 19 b7 7c bd 1b d6 80 3c f0 ae a2 be 2d a4 eb bd
       -0.061698053 0.015727093 -0.31774092 -0.115059234
0001c0 2b 26 2a 3d b6 bf 1a 3e 9b 6b 1b be 0e 88 36 bd
       0.041540306 0.15112194 -0.15177767 -0.044563346
0001d0 d1 ba 96 bd 40 6d d7 3e e7 c5 88 bd 87 2a 0a 3e
       -0.07359851 0.4207554 -0.06678372 0.13492785
0001e0 8f 3c 77 3e 78 09 96 3e 7b 53 8b 3e 29 79 17 3d
       0.24144195 0.293041 0.27212128 0.03698078
0001f0 78 58 8c bd 08 fe 3e bc 5f 50 50 3e c2 19 90 3e
       -0.068528116 -0.011657245 0.20343159 0.28144652

bn.running_var f4 [128]
000000 63 9b 7d 3b c5 10 cb 39 55 3c 62 3d 83 69 37 37
       0.0038697354 0.00038731672 0.05523332 1.0932216e-05
000010 37 e0 6a 3b fe 78 5d 3d e1 09 02 3c 90 ee b5 3a
       0.003583921 0.054070465 0.007936926 0.0013880301
000020 c2 9b 47 3d 59 84 c2 3c 07 ff 9f 3c f5 ae 89 3c
       0.048732527 0.023744749 0.019530786 0.016807059
000030 82 66 33 3c ed af 22 37 31 5e 0e 3e 5f dc 8f 3b
       0.010949733 9.696913e-06 0.13903119 0.004390284
000040 a6 45 04 3e 5b 4e 21 3d 65 c0 7b 3d c8 1f db 3d
       0.12917194 0.039381366 0.06146278 0.10699421
000050 12 36 c5 3d ba db 4f 3a b6 28 84 38 38 5a 4c 3b
       0.09629454 0.0007929165 6.3018335e-05 0.0031181704
000060 67 40 cc 3c c2 06 5c 38 cf 83 94 3c 87 24 fc 3d
       0.024933053 5.245838e-05 0.018129257 0.123116545
000070 18 96 c7 3a 7b 63 c4 3b 95 73 5a 3b 2a 03 0b 3b
       0.0015227227 0.0059933043 0.0033333052 0.0021211603
000080 46 b2 c4 3b 9c 45 1d 3c 7c 35 75 3b 56 3a 31 3c
       0.006002697 0.009599116 0.0037415912 0.010817131
000090 6d e1 7e 3b 40 80 25 3d 24 9d 65 3d 48 4b ca 3c
       0.0038891688 0.04040551 0.056058064 0.0246941
0000a0 d5 74 70 3b bf 27 da 3c 0d 78 e4 3a dd 27 5e 3d
       0.003669073 0.02663028 0.0017430797 0.054237235
0000b0 da c8 19 3b 55 b3 a6 3d fc d2 0e 3b 55 40 10 3d
       0.0023465664 0.081396736 0.0021793237 0.0352176
0000c0 9f e2 67 37 67 00 86 3d a3 02 3f 3d 18 9a 23 3d
       1.3821437e-05 0.065430455 0.046633374 0.039941877
0000d0 6e 4f 18 3c 60 39 9f 3d 3d 58 2d 3c 5d 4d 10 3e
       0.009296281 0.07774615 0.01058012 0.14092012
0000e0 a4 af 81 3d ea b6 04 3e dd 32 f7 3d 6b d0 e7 3b
       0.06332329 0.12960401 0.12070248 0.007074406
0000f0 9c 33 b9 3d bf ce 61 3c ef 9e 0d 3d 16 6f 1e 3a
       0.09043047 0.013782202 0.0345754 0.0006043775
000100 b4 1b eb 3c 3a bb 90 3d f4 65 10 39 8a ef 06 3c
       0.028699733 0.07066961 0.0001377089 0.0082358215
000110 de 6b 91 3a 95 6e 1a 3c 8b 7c b6 3c 78 c3 26 3b
       0.0011094769 0.009425779 0.022276184 0.0025446098
000120 e8 19 5a 3d dd dc 54 3c 13 22 86 3c 61 23 18 3d
       0.053247362 0.012992111 0.01637367 0.037143115
000130 3d 63 dd 3c 32 1a 26 3c b7 20 9b 3c fd 49 b6 38
       0.02702486 0.010138081 0.018936498 8.692218e-05
000140 5a b5 5f 3d f7 15 12 3c fe 06 37 3c 7e a2 a7 38
       0.05461631 0.00891637 0.011171101 7.993447e-05
000150 52 53 1e 3e 35 ab d1 3a 74 0b 45 3d 35 40 89 3d
       0.15461472 0.0015996458 0.048106626 0.067017
000160 0a 41 eb 3b 4d 88 58 3c 31 cf e6 3b d2 ad 10 3c
       0.007179384 0.01321609 0.007043742 0.0088305045
000170 46 5f cd 38 8e 99 d4 3b 69 63 de 3c 1d ea 70 3d
       9.792908e-05 0.0064880317 0.027147012 0.058817018
000180 87 d5 4d 37 8b 29 27 3d 92 74 b9 3d 0b 63 e6 3b
       1.2268668e-05 0.040811103 0.09055437 0.00703085
000190 ef 5d 2f 3d 24 ac 3c 3c 2b de 63 3a 02 d9 b5 3d
       0.04281419 0.011515651 0.00086924684 0.088792816
0001a0 d1 03 e9 3a b6 59 10 3d 4b 64 74 3c 59 95 fa 3c
       0.0017777627 0.035241805 0.01491649 0.030588793
0001b0 59 7d 0b 3b de a6 25 39 88 86 6b 3d b1 ee e3 3b
       0.002128443 0.00015797789 0.057501346 0.0069559445
0001c0 ab b0 a6 3a 6f 0f 4d 3c 74 e4 4d 3c ca 4b 8e 3a
       0.0012717446 0.012515887 0.0125666745 0.0010856327
0001d0 6a 30 50 3b 66 49 d2 3d ed fc 38 3b 9e 43 2c 3c
       0.0031767138 0.10267906 0.0028226927 0.010514168
0001e0 99 36 08 3d d1 c4 42 3d 90 2b 27 3d d7 b9 2f 3a
       0.033255193 0.04755098 0.04081303 0.00067034125
0001f0 7a 19 17 3b 29 e2 e5 37 17 54 c1 3c 38 6c 3a 3d
       0.0023055957 2.7404241e-05 0.023599667 0.04551336

bn1.weight f4 [128]
000000 00 00 80 3f 00 00 80 3f 00 00 80 3f 00 00 80 3f
       1.0 1.0 1.0 1.0
000010 00 00 80 3f 00 00 80 3f 00 00 80 3f 00 00 80 3f
       1.0 1.0 1.0 1.0
000020 00 00 80 3f 00 00 80 3f 00 00 80 3f 00 00 80 3f
       1.0 1.0 1.0 1.0
000030 00 00 80 3f 00 00 80 3f 00 00 80 3f 00 00 80 3f
       1.0 1.0 1.0 1.0
000040 00 00 80 3f 00 00 80 3f 00 00 80 3f 00 00 80 3f
       1.0 1.0 1.0 1.0
000050 00 00 80 3f 00 00 80 3f 00 00 80 3f 00 00 80 3f
       1.0 1.0 1.0 1.0
000060 00 00 80 3f 00 00 80 3f 00 00 80 3f 00 00 80 3f
       1.0 1.0 1.0 1.0
000070 00 00 80 3f 00 00 80 3f 00 00 80 3f 00 00 80 3f
       1.0 1.0 1.0 1.0
000080 00 00 80 3f 00 00 80 3f 00 00 80 3f 00 00 80 3f
       1.0 1.0 1.0 1.0
000090 00 00 80 3f 00 00 80 3f 00 00 80 3f 00 00 80 3f
       1.0 1.0 1.0 1.0
0000a0 00 00 80 3f 00 00 80 3f 00 00 80 3f 00 00 80 3f
       1.0 1.0 1.0 1.0
0000b0 00 00 80 3f 00 00 80 3f 00 00 80 3f 00 00 80 3f
       1.0 1.0 1.0 1.0
0000c0 00 00 80 3f 00 00 80 3f 00 00 80 3f 00 00 80 3f
       1.0 1.0 1.0 1.0
0000d0 00 00 80 3f 00 00 80 3f 00 00 80 3f 00 00 80 3f
       1.0 1.0 1.0 1.0
0000e0 00 00 80 3f 00 00 80 3f 00 00 80 3f 00 00 80 3f
       1.0 1.0 1.0 1.0
0000f0 00 00 80 3f 00 00 80 3f 00 00 80 3f 00 00 80 3f
       1.0 1.0 1.0 1.0
000100 00 00 80 3f 00 00 80 3f 00 00 80 3f 00 00 80 3f
       1.0 1.0 1.0 1.0
000110 00 00 80 3f 00 00 80 3f 00 00 80 3f 00 00 80 3f
       1.0 1.0 1.0 1.0
000120 00 00 80 3f 00 00 80 3f 00 00 80 3f 00 00 80 3f
       1.0 1.0 1.0 1.0
000130 00 00 80 3f 00 00 80 3f 00 00 80 3f 00 00 80 3f
       1.0 1.0 1.0 1.0
000140 00 00 80 3f 00 00 80 3f 00 00 80 3f 00 00 80 3f
       1.0 1.0 1.0 1.0
000150 00 00 80 3f 00 00 80 3f 00 00 80 3f 00 00 80 3f
       1.0 1.0 1.0 1.0
000160 00 00 80 3f 00 00 80 3f 00 00 80 3f 00 00 80 3f
       1.0 1.0 1.0 1.0
000170 00 00 80 3f 00 00 80 3f 00 00 80 3f 00 00 80 3f
       1.0 1.0 1.0 1.0
000180 00 00 80 3f 00 00 80 3f 00 00 80 3f 00 00 80 3f
       1.0 1.0 1.0 1.0
000190 00 00 80 3f 00 00 80 3f 00 00 80 3f 00 00 80 3f
       1.0 1.0 1.0 1.0
0001a0 00 00 80 3f 00 00 80 3f 00 00 80 3f 00 00 80 3f
       1.0 1.0 1.0 1.0
0001b0 00 00 80 3f 00 00 80 3f 00 00 80 3f 00 00 80 3f
       1.0 1.0 1.0 1.0
0001c0 00 00 80 3f 00 00 80 3f 00 00 80 3f 00 00 80 3f
       1.0 1.0 1.0 1.0
0001d0 00 00 80 3f 00 00 80 3f 00 00 80 3f 00 00 80 3f
       1.0 1.0 1.0 1.0
0001e0 00 00 80 3f 00 00 80 3f 00 00 80 3f 00 00 80 3f
       1.0 1.0 1.0 1.0
0001f0 00 00 80 3f 00 00 80 3f 00 00 80 3f 00 00 80 3f
       1.0 1.0 1.0 1.0

bn1.bias f4 [128]
000000 00 00 00 00 00 00 00 00 00 00 00 00 00 00 00 00
       0.0 0.0 0.0 0.0
000010 00 00 00 00 00 00 00 00 00 00 00 00 00 00 00 00
       0.0 0.0 0.0 0.0
000020 00 00 00 00 00 00 00 00 00 00 00 00 00 00 00 00
       0.0 0.0 0.0 0.0
000030 00 00 00 00 00 00 00 00 00 00 00 00 00 00 00 00
       0.0 0.0 0.0 0.0
000040 00 00 00 00 00 00 00 00 00 00 00 00 00 00 00 00
       0.0 0.0 0.0 0.0
000050 00 00 00 00 00 00 00 00 00 00 00 00 00 00 00 00
       0.0 0.0 0.0 0.0
000060 00 00 00 00 00 00 00 00 00 00 00 00 00 00 00 00
       0.0 0.0 0.0 0.0
000070 00 00 00 00 00 00 00 00 00 00 00 00 00 00 00 00
       0.0 0.0 0.0 0.0
000080 00 00 00 00 00 00 00 00 00 00 00 00 00 00 00 00
       0.0 0.0 0.0 0.0
000090 00 00 00 00 00 00 00 00 00 00 00 00 00 00 00 00
       0.0 0.0 0.0 0.0
0000a0 00 00 00 00 00 00 00 00 00 00 00 00 00 00 00 00
       0.0 0.0 0.0 0.0
0000b0 00 00 00 00 00 00 00 00 00 00 00 00 00 00 00 00
       0.0 0.0 0.0 0.0
0000c0 00 00 00 00 00 00 00 00 00 00 00 00 00 00 00 00
       0.0 0.0 0.0 0.0
0000d0 00 00 00 00 00 00 00 00 00 00 00 00 00 00 00 00
       0.0 0.0 0.0 0.0
0000e0 00 00 00 00 00 00 00 00 00 00 00 00 00 00 00 00
       0.0 0.0 0.0 0.0
0000f0 00 00 00 00 00 00 00 00 00 00 00 00 00 00 00 00
       0.0 0.0 0.0 0.0
000100 00 00 00 00 00 00 00 00 00 00 00 00 00 00 00 00
       0.0 0.0 0.0 0.0
000110 00 00 00 00 00 00 00 00 00 00 00 00 00 00 00 00
       0.0 0.0 0.0 0.0
000120 00 00 00 00 00 00 00 00 00 00 00 00 00 00 00 00
       0.0 0.0 0.0 0.0
000130 00 00 00 00 00 00 00 00 00 00 00 00 00 00 00 00
       0.0 0.0 0.0 0.0
000140 00 00 00 00 00 00 00 00 00 00 00 00 00 00 00 00
       0.0 0.0 0.0 0.0
000150 00 00 00 00 00 00 00 00 00 00 00 00 00 00 00 00
       0.0 0.0 0.0 0.0
000160 00 00 00 00 00 00 00 00 00 00 00 00 00 00 00 00
       0.0 0.0 0.0 0.0
000170 00 00 00 00 00 00 00 00 00 00 00 00 00 00 00 00
       0.0 0.0 0.0 0.0
000180 00 00 00 00 00 00 00 00 00 00 00 00 00 00 00 00
       0.0 0.0 0.0 0.0
000190 00 00 00 00 00 00 00 00 00 00 00 00 00 00 00 00
       0.0 0.0 0.0 0.0
0001a0 00 00 00 00 00 00 00 00 00 00 00 00 00 00 00 00
       0.0 0.0 0.0 0.0
0001b0 00 00 00 00 00 00 00 00 00 00 00 00 00 00 00 00
       0.0 0.0 0.0 0.0
0001c0 00 00 00 00 00 00 00 00 00 00 00 00 00 00 00 00
       0.0 0.0 0.0 0.0
0001d0 00 00 00 00 00 00 00 00 00 00 00 00 00 00 00 00
       0.0 0.0 0.0 0.0
0001e0 00 00 00 00 00 00 00 00 00 00 00 00 00 00 00 00
       0.0 0.0 0.0 0.0
0001f0 00 00 00 00 00 00 00 00 00 00 00 00 00 00 00 00
       0.0 0.0 0.0 0.0

bn1.running_mean f4 [128]
000000 00 00 00 00 00 00 00 00 00 00 00 00 00 00 00 00
       0.0 0.0 0.0 0.0
000010 00 00 00 00 00 00 00 00 00 00 00 00 00 00 00 00
       0.0 0.0 0.0 0.0
000020 00 00 00 00 00 00 00 00 00 00 00 00 00 00 00 00
       0.0 0.0 0.0 0.0
000030 00 00 00 00 00 00 00 00 00 00 00 00 00 00 00 00
       0.0 0.0 0.0 0.0
000040 00 00 00 00 00 00 00 00 00 00 00 00 00 00 00 00
       0.0 0.0 0.0 0.0
000050 00 00 00 00 00 00 00 00 00 00 00 00 00 00 00 00
       0.0 0.0 0.0 0.0
000060 00 00 00 00 00 00 00 00 00 00 00 00 00 00 00 00
       0.0 0.0 0.0 0.0
000070 00 00 00 00 00 00 00 00 00 00 00 00 00 00 00 00
       0.0 0.0 0.0 0.0
000080 00 00 00 00 00 00 00 00 00 00 00 00 00 00 00 00
       0.0 0.0 0.0 0.0
000090 00 00 00 00 00 00 00 00 00 00 00 00 00 00 00 00
       0.0 0.0 0.0 0.0
0000a0 00 00 00 00 00 00 00 00 00 00 00 00 00 00 00 00
       0.0 0.0 0.0 0.0
0000b0 00 00 00 00 00 00 00 00 00 00 00 00 00 00 00 00
       0.0 0.0 0.0 0.0
0000c0 00 00 00 00 00 00 00 00 00 00 00 00 00 00 00 00
       0.0 0.0 0.0 0.0
0000d0 00 00 00 00 00 00 00 00 00 00 00 00 00 00 00 00
       0.0 0.0 0.0 0.0
0000e0 00 00 00 00 00 00 00 00 00 00 00 00 00 00 00 00
       0.0 0.0 0.0 0.0
0000f0 00 00 00 00 00 00 00 00 00 00 00 00 00 00 00 00
       0.0 0.0 0.0 0.0
000100 00 00 00 00 00 00 00 00 00 00 00 00 00 00 00 00
       0.0 0.0 0.0 0.0
000110 00 00 00 00 00 00 00 00 00 00 00 00 00 00 00 00
       0.0 0.0 0.0 0.0
000120 00 00 00 00 00 00 00 00 00 00 00 00 00 00 00 00
       0.0 0.0 0.0 0.0
000130 00 00 00 00 00 00 00 00 00 00 00 00 00 00 00 00
       0.0 0.0 0.0 0.0
000140 00 00 00 00 00 00 00 00 00 00 00 00 00 00 00 00
       0.0 0.0 0.0 0.0
000150 00 00 00 00 00 00 00 00 00 00 00 00 00 00 00 00
       0.0 0.0 0.0 0.0
000160 00 00 00 00 00 00 00 00 00 00 00 00 00 00 00 00
       0.0 0.0 0.0 0.0
000170 00 00 00 00 00 00 00 00 00 00 00 00 00 00 00 00
       0.0 0.0 0.0 0.0
000180 00 00 00 00 00 00 00 00 00 00 00 00 00 00 00 00
       0.0 0.0 0.0 0.0
000190 00 00 00 00 00 00 00 00 00 00 00 00 00 00 00 00
       0.0 0.0 0.0 0.0
0001a0 00 00 00 00 00 00 00 00 00 00 00 00 00 00 00 00
       0.0 0.0 0.0 0.0
0001b0 00 00 00 00 00 00 00 00 00 00 00 00 00 00 00 00
       0.0 0.0 0.0 0.0
0001c0 00 00 00 00 00 00 00 00 00 00 00 00 00 00 00 00
       0.0 0.0 0.0 0.0
0001d0 00 00 00 00 00 00 00 00 00 00 00 00 00 00 00 00
       0.0 0.0 0.0 0.0
0001e0 00 00 00 00 00 00 00 00 00 00 00 00 00 00 00 00
       0.0 0.0 0.0 0.0
0001f0 00 00 00 00 00 00 00 00 00 00 00 00 00 00 00 00
       0.0 0.0 0.0 0.0

bn1.running_var f4 [128]
000000 00 00 80 3f 00 00 80 3f 00 00 80 3f 00 00 80 3f
       1.0 1.0 1.0 1.0
000010 00 00 80 3f 00 00 80 3f 00 00 80 3f 00 00 80 3f
       1.0 1.0 1.0 1.0
000020 00 00 80 3f 00 00 80 3f 00 00 80 3f 00 00 80 3f
       1.0 1.0 1.0 1.0
000030 00 00 80 3f 00 00 80 3f 00 00 80 3f 00 00 80 3f
       1.0 1.0 1.0 1.0
000040 00 00 80 3f 00 00 80 3f 00 00 80 3f 00 00 80 3f
       1.0 1.0 1.0 1.0
000050 00 00 80 3f 00 00 80 3f 00 00 80 3f 00 00 80 3f
       1.0 1.0 1.0 1.0
000060 00 00 80 3f 00 00 80 3f 00 00 80 3f 00 00 80 3f
       1.0 1.0 1.0 1.0
000070 00 00 80 3f 00 00 80 3f 00 00 80 3f 00 00 80 3f
       1.0 1.0 1.0 1.0
000080 00 00 80 3f 00 00 80 3f 00 00 80 3f 00 00 80 3f
       1.0 1.0 1.0 1.0
000090 00 00 80 3f 00 00 80 3f 00 00 80 3f 00 00 80 3f
       1.0 1.0 1.0 1.0
0000a0 00 00 80 3f 00 00 80 3f 00 00 80 3f 00 00 80 3f
       1.0 1.0 1.0 1.0
0000b0 00 00 80 3f 00 00 80 3f 00 00 80 3f 00 00 80 3f
       1.0 1.0 1.0 1.0
0000c0 00 00 80 3f 00 00 80 3f 00 00 80 3f 00 00 80 3f
       1.0 1.0 1.0 1.0
0000d0 00 00 80 3f 00 00 80 3f 00 00 80 3f 00 00 80 3f
       1.0 1.0 1.0 1.0
0000e0 00 00 80 3f 00 00 80 3f 00 00 80 3f 00 00 80 3f
       1.0 1.0 1.0 1.0
0000f0 00 00 80 3f 00 00 80 3f 00 00 80 3f 00 00 80 3f
       1.0 1.0 1.0 1.0
000100 00 00 80 3f 00 00 80 3f 00 00 80 3f 00 00 80 3f
       1.0 1.0 1.0 1.0
000110 00 00 80 3f 00 00 80 3f 00 00 80 3f 00 00 80 3f
       1.0 1.0 1.0 1.0
000120 00 00 80 3f 00 00 80 3f 00 00 80 3f 00 00 80 3f
       1.0 1.0 1.0 1.0
000130 00 00 80 3f 00 00 80 3f 00 00 80 3f 00 00 80 3f
       1.0 1.0 1.0 1.0
000140 00 00 80 3f 00 00 80 3f 00 00 80 3f 00 00 80 3f
       1.0 1.0 1.0 1.0
000150 00 00 80 3f 00 00 80 3f 00 00 80 3f 00 00 80 3f
       1.0 1.0 1.0 1.0
000160 00 00 80 3f 00 00 80 3f 00 00 80 3f 00 00 80 3f
       1.0 1.0 1.0 1.0
000170 00 00 80 3f 00 00 80 3f 00 00 80 3f 00 00 80 3f
       1.0 1.0 1.0 1.0
000180 00 00 80 3f 00 00 80 3f 00 00 80 3f 00 00 80 3f
       1.0 1.0 1.0 1.0
000190 00 00 80 3f 00 00 80 3f 00 00 80 3f 00 00 80 3f
       1.0 1.0 1.0 1.0
0001a0 00 00 80 3f 00 00 80 3f 00 00 80 3f 00 00 80 3f
       1.0 1.0 1.0 1.0
0001b0 00 00 80 3f 00 00 80 3f 00 00 80 3f 00 00 80 3f
       1.0 1.0 1.0 1.0
0001c0 00 00 80 3f 00 00 80 3f 00 00 80 3f 00 00 80 3f
       1.0 1.0 1.0 1.0
0001d0 00 00 80 3f 00 00 80 3f 00 00 80 3f 00 00 80 3f
       1.0 1.0 1.0 1.0
0001e0 00 00 80 3f 00 00 80 3f 00 00 80 3f 00 00 80 3f
       1.0 1.0 1.0 1.0
0001f0 00 00 80 3f 00 00 80 3f 00 00 80 3f 00 00 80 3f
       1.0 1.0 1.0 1.0

fc2.weight f4 [128, 2]
000000 99 9d 00 bd c4 69 f4 3c 62 de 21 3c 98 e4 33 be
       -0.031400297 0.02983559 0.00987968 -0.1756767
000010 cd 9e f2 3d 98 b5 3c bc 03 01 e3 ba 80 b6 18 3d
       0.11846695 -0.011517905 -0.0017319027 0.03728342
000020 8f 6b f8 3c 31 ed c1 bd 90 52 f0 3d d0 7a 11 be
       0.030324725 -0.09469069 0.117344975 -0.14207006
000030 60 63 37 bd 68 96 61 bd 0f 03 9a bc 1d 6e 3c bc
       -0.044772506 -0.05507508 -0.018800287 -0.011500862
000040 99 5c e4 3d 2e 4f 9c bc 68 24 9f 3d 0a 55 0f 3e
       0.11150474 -0.019080725 0.07770616 0.13997284
000050 a2 19 90 3d 4d 4a 97 3d a7 71 85 3d 03 9d 66 3d
       0.07036139 0.073872186 0.06515818 0.05630208
000060 85 ac 58 3d c3 13 5a 3d b4 fa 77 ba 2d c1 01 3e
       0.052898902 0.053241502 -0.000945966 0.12671347
000070 5f ac 40 be 5b e2 84 3d d1 ff 07 3d 94 24 91 3e
       -0.18815754 0.064884864 0.03320295 0.2834822
000080 e9 72 39 be c4 04 e7 bd 0d 90 cc 3d 7b 06 95 3d
       -0.18110241 -0.11280206 0.09988413 0.07276627
000090 09 2f 00 be fd f5 be bc e0 bb 28 3e 6d 30 f6 3c
       -0.12517942 -0.023310656 0.16477919 0.030052388
0000a0 6f 1d 20 3e 04 f3 14 3d 50 59 69 3c 26 17 be 3c
       0.15636228 0.03636457 0.014242485 0.023204397
0000b0 17 7f 79 bb 54 da 73 bd 7e 6a e6 3c 08 59 3d 3d
       -0.0038070136 -0.059534386 0.028126951 0.046227485
0000c0 2a 0c a3 3d 97 52 31 3e 04 99 6e 3b 44 ef bb 3b
       0.079613045 0.17316662 0.0036407122 0.00573531
0000d0 27 73 8b bd cb 03 87 3d d8 16 35 3e 8e 17 93 3d
       -0.06809073 0.0659252 0.17684495 0.07182227
0000e0 d5 4e a1 3c 8a 91 2e be 9a 31 1f 3d 7d 73 4d 3e
       0.01969091 -0.17047706 0.038865663 0.20063587
0000f0 34 92 ee bc fe f0 07 3c c3 e1 be 3c 4f c1 dc bd
       -0.02912245 0.008297203 0.023301011 -0.10779058
000100 d9 49 20 bd c4 93 f2 3d e5 a4 4a 3d da 0b ba 3d
       -0.039132927 0.1184459 0.049473662 0.09084292
000110 d8 f0 fb bc 0f b0 ef bd 27 d3 56 bd 38 f5 32 3d
       -0.030754492 -0.117035024 -0.052447464 0.04369089
000120 bf 18 01 3d 29 7c aa bd 03 a6 cf bd b0 3b 15 be
       0.03151774 -0.08324463 -0.10139086 -0.1457355
000130 ec 9a f4 3d 23 58 12 bc 74 11 a2 bd 7f a4 c9 bd
       0.119436115 -0.008932146 -0.07913485 -0.09845828
000140 e1 59 fb 3c e5 e4 24 bd b1 1d a8 3d 8b b6 0a 3d
       0.030682506 -0.040257353 0.08208788 0.033865493
000150 a5 ec ac 3c 75 a4 05 bd 3c c1 f0 3d ce 31 11 be
       0.021108935 -0.03262754 0.117556065 -0.14179155
000160 0c 93 c8 bc f7 ca ec 3d 0c 39 13 be 38 db 08 3e
       -0.02448418 0.1156215 -0.1437723 0.13364875
000170 dc f9 c0 bc 13 c4 8f bc fc 6f c1 3d f0 ff 83 3d
       -0.023556642 -0.01754955 0.094451874 0.064453006
000180 29 9c f1 ba 1f 0d a7 3d 12 eb 03 be 53 c9 74 bd
       -0.001843338 0.081567995 -0.12882641 -0.05976231
000190 46 2e df 3d 6a 2d 23 bd 34 ac ce bd 0b 07 30 bd
       0.10897498 -0.039838232 -0.10091439 -0.042975467
0001a0 a5 c2 47 3d 11 d2 19 bd 51 38 10 3e e2 11 d4 bd
       0.048769612 -0.03755385 0.14083983 -0.103549734
0001b0 24 c5 53 3d be f2 09 3d 5f c3 41 3e 6b 7b 49 3d
       0.05170168 0.033678763 0.18922184 0.049189966
0001c0 0a ff 01 3e 91 4f 81 bd b4 ff 39 3e 02 05 a6 3d
       0.12694946 -0.06314004 0.18163949 0.08106424
0001d0 4f 40 33 3e d2 92 2e 3d 27 6b 2e bd 14 5d a9 3d
       0.17505 0.042620488 -0.042582657 0.08269706
0001e0 f6 7a 1b 3e 21 8c b7 bd 9b 57 72 3d 58 8a 15 3e
       0.15183625 -0.08962274 0.05916558 0.14603555
0001f0 7b 2c c0 bd df 79 76 3d f4 2d 4b 3c 48 5f 1c 3d
       -0.09383484 0.06017482 0.012401093 0.038176805
000200 68 0e af 3d 82 5b c8 bc 44 56 09 be c5 66 9a 3c
       0.0854767 -0.024457697 -0.13411814 0.018847832
000210 2b f1 c1 3b 98 04 40 bc 0e d2 3a 3d f5 ca 40 3c
       0.005918642 -0.011719845 0.04561048 0.011767139
000220 b6 d7 88 3c 7f 32 87 be 43 da 49 bd e0 a2 c3 3d
       0.016704421 -0.26405713 -0.049280416 0.0955255
000230 bd b0 99 bd 6d e7 2c bd c1 8c cf bc 0d 87 5e bd
       -0.07504413 -0.042212892 -0.025335671 -0.054328013
000240 0f f0 ed 3d 1a b2 cc 3c 2d a8 6a bd f5 81 5c bd
       0.11618053 0.02498727 -0.05728929 -0.053834874
000250 0f 50 84 3d a4 2e 13 be c8 5a c7 3d 82 56 d9 bd
       0.064605825 -0.1437326 0.09734112 -0.10612203
000260 7b 59 a9 bd 32 de 07 be 4b 0d 51 bd 73 d7 f6 3d
       -0.0826902 -0.13268355 -0.051038068 0.120528124
000270 74 a3 8e bd 2a 3a 10 3e f4 68 98 3b 50 a3 ae 3c
       -0.0696477 0.14084688 0.0046511833 0.021318108
000280 ab 90 f1 bd 82 4a ff 3d 11 77 43 bd df 7b c6 3d
       -0.11795171 0.12465383 -0.047720972 0.09691595
000290 f1 c4 59 bd 8b 7d 9d bd ae 06 96 bb 4d 9d 9b 3c
       -0.053166334 -0.07689961 -0.004578433 0.018995905
0002a0 f9 24 4b 3e 50 b1 8a 3d 92 d1 a5 bc c0 fc 09 3e
       0.19838323 0.06772101 -0.020241532 0.13475323
0002b0 60 dd e2 3d 33 63 24 be 77 d3 05 be bf f8 c0 3d
       0.1107738 -0.16053466 -0.13068949 0.094224446
0002c0 81 a4 2e 3d f1 39 29 3e b8 5c 6d bd b2 11 88 3c
       0.042637352 0.16526009 -0.05794975 0.01661
0002d0 c5 ff 2c bd 0e 5f 72 bd 3c 7b 41 bd 60 bb b8 bd
       -0.04223611 -0.059172682 -0.047236666 -0.09020114
0002e0 d1 59 a3 bb 80 4f 1e bc 6f db 26 3d 68 10 b6 bd
       -0.004985072 -0.009662509 0.040736612 -0.08889848
0002f0 be 9b aa bd 42 20 0d bc 2b 92 fa 3d 20 b6 df 3d
       -0.08330487 -0.008613648 0.122349106 0.109234095
000300 2c d8 ef ba 1e bb 7a 3d e4 ab d0 bd f9 b7 8a 3c
       -0.0018298677 0.061213605 -0.101890355 0.016933428
000310 d9 92 1b 3e 31 77 5e bd 27 57 2d 3d 03 14 07 bc
       0.15192737 -0.05431289 0.042319443 -0.008244517
000320 be c1 d5 bd 74 21 ab bb b6 82 5e bd 7b a4 9b 3d
       -0.10437344 -0.005222494 -0.054323874 0.075997315
000330 42 19 74 3c 35 41 00 bc 83 f4 19 be 07 1a b0 3d
       0.0148986 -0.007828047 -0.1503468 0.08598714
000340 4e 55 ad 3c f1 5e 35 3d 0c ba c1 bd 42 53 47 ba
       0.02115884 0.044279996 -0.09459314 -0.0007603654
000350 db 23 7c 3d a4 cd 0b 3e aa 5b b4 3d 98 45 f1 3d
       0.061557632 0.13652664 0.08806546 0.11780852
000360 94 d2 be bc 77 62 05 bc 96 4e d0 3b 25 6b a5 bc
       -0.02329377 -0.008141152 0.0063570244 -0.020192692
000370 52 77 f7 bd 3a 70 9a 3c 51 a7 2b bd 22 30 b6 bd
       -0.120833054 0.018852342 -0.041907612 -0.08895899
000380 32 8c 93 3c 26 00 f5 bd a9 59 67 3d 5c 9d 52 3d
       0.018011186 -0.11962919 0.05648199 0.0514196
000390 ce 06 67 bd 26 ac 71 bd dc 3d 88 bc 43 49 85 bc
       -0.056402974 -0.059002064 -0.01663106 -0.016270285
0003a0 e7 7a e9 bc 45 bb dc 3c 1b a3 25 3e 59 86 d7 bd
       -0.028500987 0.026944766 0.16175501 -0.10523672
0003b0 3b 6f dc bc f9 84 a1 3d 48 c2 53 3d d1 71 e3 bc
       -0.026908508 0.07886691 0.051698953 -0.027764233
0003c0 8d c6 bc 3d 85 3f 97 bc 57 d6 e0 3d 99 36 8c 3d
       0.09217558 -0.018462906 0.10978382 0.06846351
0003d0 60 37 d0 3d ce 33 9d 3d 32 16 56 3c 8c 03 5f 3d
       0.10166812 0.076758966 0.013066815 0.054446742
0003e0 31 a3 c5 bc 0b 8a cc bd ef 4d 0c bb 7a 53 ea bd
       -0.024125667 -0.09987267 -0.0021408757 -0.11441703
0003f0 4d a2 9e 3d 89 f6 70 bc cf fb dc 3d a5 56 2e bd
       0.077458 -0.014707216 0.10790216 -0.0425631

actor.linears.0.weight f4 [128, 384]
000000 ad 3f b1 bc 19 45 20 3d c2 59 46 3d 7d 08 ef 3c
       -0.021636808 0.039128397 0.048425443 0.029178852
000010 9a fd db ba 69 c7 d8 3b 6e 60 b3 bd 89 7e 57 3d
       -0.0016783953 0.0066155684 -0.08758627 0.052610908
000020 42 fe 13 bd cc 11 75 3d 90 77 84 bd a4 0d a0 bd
       -0.03613115 0.059831426 -0.06468117 -0.07815102
000030 78 cc 8e bd 06 15 94 3d 7f ea 6a bc ef a5 75 3d
       -0.06972593 0.072305724 -0.014338135 0.0599727
000040 24 c3 89 3c 6c 55 c2 bc a1 76 1f bc 57 41 73 bd
       0.016816683 -0.023722373 -0.009732873 -0.059388485
000050 4d aa 97 3d 3d 91 ed 3d 71 70 83 ba dd 70 2c 3c
       0.07405529 0.11599968 -0.0010028017 0.010524956
000060 58 bb 16 3d 53 74 cd bb b3 39 cb bd ce 35 6c 3d
       0.03679976 -0.0062699704 -0.09923115 0.0576685
000070 8d 7d 24 bc 0b c8 90 bd fd c9 b4 3b e5 b2 e8 3c
       -0.010039699 -0.07069405 0.005517243 0.028405616
000080 ff 7d 11 bd 7f 47 f1 3c b9 a5 16 3c c7 2c d4 3c
       -0.03552055 0.029453037 0.009194785 0.025900258
000090 2f fa 22 3d 16 26 36 bb e2 58 ff bc ec 91 44 bd
       0.039789375 -0.0027793697 -0.031170312 -0.047990724
0000a0 ed c1 80 bc ff db 11 be 58 8a 8f bd 07 c2 8b 3c
       -0.015717471 -0.14244078 -0.07008809 0.017060293
0000b0 97 7a 9e bc 91 90 c2 3c 64 a3 2b bd 3f 1f ec bd
       -0.019345565 0.023750575 -0.04190387 -0.11529397
0000c0 da 6d 92 3d e2 e3 a7 bc f5 c6 39 bd 84 52 92 bc
       0.07149859 -0.020494405 -0.045355756 -0.017861612
0000d0 d8 ba 5d bc 1c 13 02 3d af c9 88 bd 3e 63 c8 bc
       -0.013533317 0.031756505 -0.06679093 -0.024461385
0000e0 54 81 9d 3c fa 94 3d 3b 24 c0 23 3b b2 11 59 bc
       0.019226708 0.0028927908 0.002498635 -0.013248848
0000f0 13 94 43 bc 06 f3 c8 3c ec 8c ec bb ad 4d 05 bd
       -0.011937159 0.024529945 -0.0072189476 -0.03254478
000100 ea ba 4e bd 0e 4c a2 bc c5 15 fe 3c 3d 83 b9 bd
       -0.050471224 -0.019811656 0.03101624 -0.09058235
000110 96 48 fb bb b9 a8 7a bd 32 2e 4e 3d c9 d0 69 3c
       -0.007668565 -0.061196063 0.050337024 0.01427097
000120 ed 3c 57 3c 0d f0 69 bd d5 a9 b3 3c db 05 b7 3c
       0.013137084 -0.057113696 0.021931568 0.02234166
000130 78 73 98 bd 3e 76 d8 3c f8 b2 fb bc 76 73 3e bc
       -0.07443899 0.02642357 -0.030724987 -0.011624208
000140 be 9e a3 3d 26 15 86 bb e3 ab 93 bd dd 92 3b 3d
       0.07989262 -0.0040918766 -0.07210519 0.045794357
000150 cd 61 81 3d 05 69 94 bd 22 26 af 3c 29 f8 30 3d
       0.06317482 -0.072465934 0.021380488 0.043205414
000160 2b c6 d6 3b 3f 47 f1 3d 08 52 ac bd 13 c8 df 3c
       0.006554385 0.11781167 -0.08414084 0.027317083
000170 92 4f 04 bd fc d6 27 3d 92 e5 af bc 71 ab 62 3d
       -0.032302447 0.04097651 -0.021471772 0.05533928
000180 69 7d c7 3c 52 5f 2c 3d 72 d5 8a bd ed 5f 72 3d
       0.024351792 0.042083092 -0.06778993 0.059173513
000190 8b 17 f3 bc 1f fd 57 3d da d7 09 bd f1 9a 94 bd
       -0.029674312 0.05273163 -0.033653118 -0.07256115
0001a0 6c 45 a3 bd 6f 26 0a bc 09 03 7b 3d ea 01 da 3c
       -0.079722255 -0.008432015 0.06128219 0.02661224
0001b0 06 1b 89 bd 28 0d 81 3d e2 0b ec ba 70 b5 47 3c
       -0.066946074 0.063013375 -0.0018008912 0.012189254
0001c0 0d 89 66 3d 1b da 70 bb 8a 0c 4c 3d 4c 89 1b bc
       0.056283046 -0.0036751095 0.049816646 -0.009493183
0001d0 39 e8 19 3c f0 2f 7c 3d a8 3f cc 3b 07 6f 0d bd
       0.009393745 0.061569154 0.0062331744 -0.034529712
0001e0 66 4d b0 bc 29 66 38 bb e3 04 0b bc 2a e4 8e 3c
       -0.021521281 -0.0028137064 -0.008485052 0.017442781
0001f0 97 10 75 3d e9 a9 da 3d ba bc 22 3d da f1 a0 3c
       0.059830274 0.10676939 0.039730765 0.019646574
000200 e6 60 c3 3d f5 f7 92 3d 84 73 2d 3c a4 0a 7e bd
       0.09539966 0.071762 0.010586623 -0.062021866
000210 9a ce d5 bc 8c 70 80 3d 99 a9 ca 3d 83 74 8e bd
       -0.026099492 0.062714666 0.098956294 -0.069558166
000220 ca 7f ac 3d 11 f2 4e 3c e7 33 35 3d de 63 35 bc
       0.08422811 0.012630955 0.04423895 -0.0110711735
000230 ab 2f bd 3d 9b de 03 be 04 1f db 3a c5 e8 ac 3d
       0.092376076 -0.12877886 0.0016717617 0.08442835
000240 44 3e 1a bd d6 ad 96 bd 30 d0 92 bb 5a fa 23 bd
       -0.037657037 -0.07357375 -0.0044803843 -0.040033676
000250 c3 cf a3 3c e8 2c 30 3d 30 e6 22 bc e3 c3 87 bc
       0.01999653 0.043011576 -0.009942576 -0.016572898
000260 e3 94 f6 3c 28 c8 a9 3d 41 8e 2c bd 76 74 8f ba
       0.030100292 0.0829013 -0.04212785 -0.0010944742
000270 58 80 35 3d 2b c9 45 ba b0 c1 2c bd 6d 74 93 3d
       0.04431185 -0.000754493 -0.042176902 0.07199941
000280 a2 55 1a 3b 83 51 df 3c a4 f6 0e bd 34 ac c2 3c
       0.0023549576 0.027260548 -0.034903184 0.023763753
000290 62 2d 77 bd cc 58 7c bc 48 10 73 3d 13 54 a2 3d
       -0.060346015 -0.01540203 0.0593417 0.07926192
0002a0 ba 83 98 bd df d3 5f bd f7 5f d7 3d a3 fe c4 bc
       -0.07447 -0.054645415 0.10516351 -0.024047201
0002b0 6a be 69 bd f5 76 37 bc f4 68 24 3a ca b7 7d bd
       -0.05706636 -0.011197795 0.0006271743 -0.061942853
0002c0 08 0a 61 bd 47 31 10 bd bb 19 c3 3c 7b 7b 8e bd
       -0.054941207 -0.035203245 0.02381598 -0.06957146
0002d0 54 b0 53 bb 63 c0 48 bd 9a 9a 87 3d bd 08 83 bc
       -0.0032301145 -0.0490116 0.06621285 -0.015995378
0002e0 67 2a 50 3c 73 d0 24 3d 9c fa 31 3d 68 ac d4 bd
       0.012705422 0.040237855 0.04345189 -0.103844464
0002f0 ba 26 0c bd c4 ad 2f 3d 11 c0 4e bc 99 66 bc bd
       -0.03421662 0.042890325 -0.012619034 -0.091992564
000300 53 8d 68 3d 83 da d5 3b 2e 25 4a 3d 58 1e 98 bd
       0.056775402 0.006526293 0.049351864 -0.074276626
000310 2b 8f 60 3d d4 3c c8 3c 55 70 27 be 50 51 cf 3c
       0.054824036 0.024443068 -0.16351445 0.025307328
000320 28 d8 08 bd 52 53 2f bd 9a 88 d0 3d ea a2 84 3d
       -0.033409268 -0.04280407 0.10182305 0.06476386
000330 4e ec 5f bd 9c bb 4a 3c 86 a0 c3 ba ea 7a 35 3c
       -0.054668717 0.012373831 -0.0014925159 0.011076668
000340 d1 05 57 bd 79 74 7f bc ab 4f aa 3c 15 37 1f 3d
       -0.05249578 -0.015591734 0.020789942 0.03887089
000350 29 61 9d 3c b1 3c fa bc 60 ec 3c 3d 36 0f c4 3a
       0.019211369 -0.030546518 0.046123862 0.0014958146
000360 c1 ed 94 3c 47 b5 26 39 3a 79 8b 3d 17 73 a0 3c
       0.018179776 0.00015898525 0.068102315 0.01958613
000370 5f d3 18 3d 91 84 f6 bb 58 c3 7d 3c 91 fa 21 bd
       0.037310954 -0.0075231274 0.015488468 -0.0395456
000380 d1 dc 36 3d 11 0f 82 bd 8c 6e 19 3d 61 50 96 3c
       0.04464418 -0.0635053 0.03745894 0.018348875
000390 8a 4e 99 bd 54 ec fa bc 20 4a 27 3d 70 2c 2a be
       -0.07485683 -0.030630268 0.040842175 -0.16618514
0003a0 49 2d 86 3d 8c 02 ba 3d 4b f2 af bd 87 d9 97 bc
       0.06551606 0.09082517 -0.085911356 -0.018536342
0003b0 4d 36 94 bc a8 39 21 3d 41 ca 4c bd 5e 04 d0 bc
       -0.018092299 0.039361626 -0.04999757 -0.025392707
0003c0 c3 ff 1f 3d c7 b7 95 3c 5d 52 b8 bc ed 31 48 bd
       0.039062273 0.018276108 -0.022500211 -0.048875738
0003d0 83 06 24 be 15 fb 2f 3b 48 8a 38 bd 28 b7 8a bd
       -0.16018109 0.0026852537 -0.04505375 -0.067732155
0003e0 35 2c ed 3c ed 97 80 3c 62 64 12 3d cd 23 85 bc
       0.028951744 0.015697444 0.035740264 -0.016252423
0003f0 d4 04 9b 3c 7f de 16 bd 6f 1d e7 bc f3 34 16 3d
       0.0189232 -0.036833283 -0.028212277 0.03667159

actor.linears.0.bias f4 [128]
000000 e0 f7 ba 3b 20 e8 98 3b 5d d6 89 bb c2 0e 8a 3b
       0.0057058185 0.0046663433 -0.0042064623 0.004213185
000010 16 36 84 3b a3 c8 1c 3a 4b 17 13 ba 90 ef b8 bb
       0.004034768 0.0005980825 -0.0005611076 -0.0056437925
000020 1a b7 8a 3b af 7d 49 3a bb bf cc 3b 34 4a 26 bb
       0.004233253 0.000768627 0.006248442 -0.0025373818
000030 e8 a8 8a ba 9c 19 96 bb f0 c2 d7 bb fe b7 c0 bb
       -0.0010578902 -0.0045806896 -0.0065845177 -0.0058813086
000040 2c 2a aa bb b1 ea 99 bb e2 db 66 3b af 80 9c 3b
       -0.0051930156 -0.004697167 0.0035226275 0.0047760825
000050 b7 8b 8a ba 04 38 af 3b bc f8 85 3b b7 17 a7 3b
       -0.0010570203 0.0053472538 0.0040884893 0.0050992626
000060 49 28 04 bb 53 62 fd 3a b3 2c a9 3b 82 f8 29 bb
       -0.0020165613 0.0019331671 0.0051627993 -0.0025935476
000070 59 7a 21 3b b1 82 5d ba a0 67 05 39 ed 4d 97 bb
       0.0024639575 -0.00084499555 0.00012722472 -0.004617444
000080 f1 62 91 bb e5 56 8f 3b 28 6e e6 3b d2 23 53 bb
       -0.0044368436 0.0043743723 0.0070321746 -0.0032217395
000090 84 70 b7 bb 67 9d d0 bb 95 f3 98 bb 8b 1c 47 bb
       -0.0055981297 -0.00636642 -0.004667709 -0.0030382003
0000a0 2b 4b ba b9 48 25 9a bb fd b7 ba bb c4 8d b5 bb
       -0.0003553269 -0.0047041513 -0.0056982026 -0.0055405814
0000b0 cb ed b2 bb 7d e0 85 3b d8 72 cb bb f1 fb da bb
       -0.005460476 0.004085599 -0.006208759 -0.006682866
0000c0 df 2a 25 bb 37 f9 e5 ba a7 98 41 3b 61 c9 01 3b
       -0.0025202555 -0.0017545585 0.002954045 0.001980387
0000d0 0c 13 89 3b 00 d1 f2 3a a4 e1 14 bc d1 f8 bb ba
       0.004183179 0.0018525422 -0.009087 -0.0014341121
0000e0 09 14 31 ba c4 a5 ad 3b 7b 6f ab 3b 3b c8 5a bb
       -0.00067549996 0.005299302 0.0052317954 -0.0033383507
0000f0 be fe 4b ba af e0 db bb db 19 e7 ba 41 02 d2 3b
       -0.0007781795 -0.006710134 -0.0017631607 0.00640896
000100 25 af 77 3b 45 69 bb bb 7c af 07 bb f0 67 af 3b
       0.0037793603 -0.005719336 -0.0020703962 0.0053529665
000110 86 94 ad 3b 68 a7 0d bb 88 ae 21 3b 9a 78 ba 3b
       0.0052972464 -0.0021614674 0.002467068 0.0056906464
000120 98 c7 35 3b 48 9e 40 ba 8b 23 3f 3b f9 e7 c1 bb
       0.0027737375 -0.00073478045 0.0029165472 -0.005917546
000130 1c 25 97 3a 8e 01 52 3b 53 e5 9f bb 8d 99 dd bb
       0.0011531445 0.0032044384 -0.0048796325 -0.0067626894
000140 de a6 be bb b5 14 be 3a 05 b7 d5 3b 53 a8 90 ba
       -0.005818232 0.0014502021 0.006522062 -0.0011036493
000150 b9 d7 d5 3b c2 e1 e9 3b 2c 1d ef bb 18 f9 bd 3b
       0.0065259603 0.007137508 -0.0072971787 0.0057975166
000160 cf b0 84 bb de 17 47 3a ac 03 b8 bb f8 4f b8 3b
       -0.0040493975 0.0007594804 -0.005615672 0.0056247674
000170 a8 a5 bf bb 33 7f bc 3b 47 43 8e bb 5b 2d c2 bb
       -0.005848605 0.005752468 -0.004341516 -0.005925817
000180 9d d1 63 bb 8c fc a8 bb 2b af 77 3a fb 52 90 bb
       -0.003476239 -0.005157059 0.00094484043 -0.0044044233
000190 32 49 c0 bb d5 a2 9d 3b d2 14 5a bb ab 6b 7b 3b
       -0.0058681006 0.004810671 -0.003327657 0.0038363736
0001a0 10 29 d3 bb e2 95 fe 39 8f 9a 61 3a e6 dc 8f ba
       -0.006444104 0.00048558327 0.00086061 -0.0010975867
0001b0 be 59 d0 3a 22 e5 ad 3b 8c 52 7f 3b 22 37 b0 ba
       0.0015895886 0.005306856 0.0038959114 -0.0013444165
0001c0 e0 6b 63 bb 62 d5 ad 3b 28 cc bc bb 4b 1f de b9
       -0.003470175 0.005304978 -0.005761642 -0.00042366455
0001d0 48 37 2e bb dd 88 5c bb d6 93 d4 3b 48 78 ca bb
       -0.0026583243 -0.0033650913 0.00648735 -0.0061788894
0001e0 65 3b 4c 3b 9b 97 e5 3b 12 97 cf ba c2 02 1d b7
       0.0031163332 0.007006598 -0.0015837869 -9.358571e-06
0001f0 46 a8 a5 39 ef 74 93 ba 95 9d 8b 3b e0 0e de bb
       0.00031596626 -0.0011250059 0.0042607286 -0.0067766756

actor.linears.1.weight f4 [128, 128]
000000 81 42 32 3d 89 d7 8f bd 7b 80 d0 bd 66 af 09 3d
       0.043520454 -0.07023532 -0.10180756 0.03361454
000010 e8 bf 38 bd 67 71 9e bd 3a 7e a3 bd 89 f0 b1 bd
       -0.04510489 -0.077364735 -0.0798306 -0.086884566
000020 a8 57 1a 3d 99 90 ab bd 9a e5 02 be d7 fa 57 3d
       0.03768125 -0.08377189 -0.12782899 0.052729454
000030 9d 69 11 be fe 51 89 bd c1 e4 dc 3d 5b 7a 16 3d
       -0.14200445 -0.06705092 0.10785819 0.03673778
000040 bb 2d 2c 3e 9d dd 18 bd 9b 67 3a 3e 3b cc 90 3d
       0.1681432 -0.037320722 0.18203585 0.07070204
000050 bc b8 e6 bc 94 57 84 3d 2d a0 9b bd ac c5 f3 3d
       -0.02816426 0.06462017 -0.075989105 0.11902937
000060 7c 60 ae bd de eb d1 3d fa 45 06 3d 61 1b 03 3e
       -0.08514497 0.10250066 0.03278158 0.12803413
000070 4f 80 33 3d 16 52 91 3b 67 6e 70 bd 50 6b b1 3d
       0.043823536 0.0044348342 -0.058699038 0.08663046
000080 43 9d d5 bc c4 31 21 bd ae 70 41 bd 75 43 3d bd
       -0.026075965 -0.0393541 -0.0472266 -0.04620691
000090 e8 7d e4 3d d6 03 53 bd 35 7f 80 bd 25 74 8f 3d
       0.11156827 -0.05151733 -0.06274263 0.07004575
0000a0 26 cb 53 bd f1 ef 3d 3e b7 fc ba bd 01 5e 9e bd
       -0.05170741 0.18548562 -0.09130233 -0.077327736
0000b0 2a 44 2c bd 45 04 02 be 74 99 f4 bb d4 36 54 3d
       -0.042057194 -0.12696941 -0.007464582 0.0518101
0000c0 65 8b 09 be 26 9c 1f 3e 5d e9 a1 3d ac 53 d7 bd
       -0.13432081 0.1558691 0.07905839 -0.10514006
0000d0 c5 8d e9 3d 06 6c c1 bd 05 08 5e bd 27 de 46 bc
       0.114039935 -0.09444432 -0.054206867 -0.012137926
0000e0 27 b8 a8 3c 0f 30 82 bd 66 b0 5f 3d e1 2e bf bd
       0.020595623 -0.06356823 0.054611586 -0.09335113
0000f0 d7 a6 ec bd c8 ec f7 bc fb 2d a6 bd 9a 1d da 3c
       -0.1155526 -0.030264273 -0.08114239 0.026625443
000100 04 bf 33 3d 13 e9 1e 3e dc e0 1a 3d 59 16 82 3d
       0.04388334 0.15518598 0.0378121 0.06351919
000110 80 cb a8 3d 1c 3c b9 3d ab 8c b7 3d 02 2e 9b bd
       0.082419395 0.09044668 0.08962377 -0.07577135
000120 bc de 82 3c a9 6c 35 bd f3 9b d4 3d 50 cd 85 bc
       0.015975349 -0.04429308 0.103813075 -0.016333252
000130 94 c9 f3 bd 81 3b 33 be 75 e3 4a bd 4a 35 0c 3d
       -0.11903682 -0.17503168 -0.049533326 0.034230508
000140 44 35 c6 3c ec 86 81 3d 63 13 1d be 58 b8 36 be
       0.02419532 0.063245624 -0.15339427 -0.17843759
000150 32 3d 5a bd 31 b3 32 3d 2d ab a9 3c 66 09 8b 3c
       -0.053281017 0.04362792 0.020711506 0.016972255
000160 4e be fa 3d b4 9d 56 bd 44 fc 82 3d 96 1d f7 3d
       0.12243329 -0.05239649 0.06395772 0.1206619
000170 89 d1 82 bd ad 03 06 bd 62 61 8a be f9 de d1 3c
       -0.06387622 -0.03271835 -0.27027422 0.025619017
000180 e8 39 68 bd 04 99 b2 bc 1b 46 39 3e 08 9b 0b 3d
       -0.05669585 -0.02180148 0.1809315 0.034083396
000190 71 1b 85 3d a7 c3 4d 3d d6 40 b3 3c 70 11 1e bd
       0.06499375 0.050235417 0.021881502 -0.03859085
0001a0 45 07 18 bd 68 f2 98 bd 17 b8 f9 3d 18 67 a0 3d
       -0.037116308 -0.0746811 0.121933155 0.078321636
0001b0 c0 26 b9 3d 46 e9 2d 3c 40 27 13 3c 86 b5 f9 bc
       0.09040594 0.010614699 0.008981526 -0.030482065
0001c0 c6 a0 9a bd 26 43 22 be 32 6e 34 be 4c a5 00 be
       -0.07550196 -0.15845928 -0.17620161 -0.12563056
0001d0 d4 28 89 3d a4 0f e1 3c b0 e1 35 3d 5a 09 e5 bc
       0.066972405 0.027473278 0.044404685 -0.02795856
0001e0 9e 05 c6 3d 73 bc 40 3d 6a f7 e9 3d d2 41 25 bd
       0.0966904 0.04705472 0.114241436 -0.040345974
0001f0 ca e4 d9 3d 13 53 15 be d3 9a d7 3d 7e a3 cb 3c
       0.10639341 -0.14582472 0.10527577 0.024858233
000200 2f 98 28 3b 49 26 0a 3e cd 81 08 be 5a cf 87 bc
       0.0025725474 0.13491167 -0.13330765 -0.016578365
000210 ad 3b 09 3d b9 f4 7f 3c f9 b5 bc bd 39 ca 3b 3d
       0.033504177 0.015622311 -0.09214396 0.04584715
000220 44 02 d9 bc 25 43 bf 3d ef c5 36 3e 88 f3 e8 bc
       -0.026490338 0.09338979 0.17848943 -0.028436437
000230 7d 12 b3 3d 6a 54 40 be 6a 6b d8 bd cc 0e 6f bd
       0.08743761 -0.18782201 -0.105673626 -0.05836372
000240 a8 1d c7 3c 84 43 29 be 96 5a 5c bc 41 43 93 3c
       0.024306133 -0.16529661 -0.013449332 0.017976405
000250 c5 f6 2d be 0d 0c 41 be 6e 62 23 3d e8 01 8a 3d
       -0.16988666 -0.18852253 0.03988879 0.06738645
000260 dd bc 0c bd 5b 4f 4c 3d f8 3c 82 bd ca 6a b8 3d
       -0.0343598 0.049880367 -0.06359285 0.090047434
000270 13 32 86 3d 04 17 87 3d a8 65 22 be 5e 02 11 bd
       0.0655252 0.06596187 -0.15859091 -0.03540265
000280 f9 f6 15 bb 4c 71 a3 3d 8c 42 04 be 6c e9 f1 bc
       -0.0022882803 0.07980594 -0.1291601 -0.02953025
000290 41 a7 b2 3c 06 16 90 bd 2d 79 54 3d b1 87 30 bb
       0.021808269 -0.07035451 0.051873375 -0.0026936347
0002a0 ea 58 fa 3c d9 da dd bd 5e f8 bc bb 68 19 a3 bd
       0.030559976 -0.108327575 -0.0057669124 -0.0796383
0002b0 f8 56 34 bd 6e 45 3c 3e 9c b1 99 3d 16 08 5b 3d
       -0.044028252 0.1838586 0.075045794 0.05347451
0002c0 6c 15 dc bc 2b 99 92 bd b7 ec 5e 3c a5 d5 db 3d
       -0.026865683 -0.07158121 0.013606242 0.10734109
0002d0 8f a5 4f 3d 38 2c 92 bd b6 d4 40 bd 1b 45 24 3d
       0.050695 -0.0713734 -0.047077857 0.040104967
0002e0 4c 9b 6d bd 5a a4 04 ba 71 58 f9 3d 78 82 91 bd
       -0.05800943 -0.00050598907 0.12175072 -0.07104963
0002f0 b9 fb 83 3d 5b bf b5 3d be 28 a3 bd c2 79 5e bd
       0.06444497 0.08874389 -0.07966755 -0.054315336
000300 95 c9 9a 3d 7b 2b 02 bd 2b 69 6f bc 44 8a cc 3d
       0.0755798 -0.031779747 -0.014612476 0.099873096
000310 9a 55 23 bd 00 6e 0f be ab 08 79 bc 6b f2 91 3b
       -0.039876558 -0.14006805 -0.0151998205 0.0044539473
000320 fe 0b 3c 3d 9c 3b 18 3e 48 a0 56 bd d8 35 6b be
       0.045909874 0.14866489 -0.05239895 -0.22969759
000330 8f cb fa 3c 44 a1 4a 3c 58 aa d3 bc ab cc 48 be
       0.030614642 0.01236755 -0.025838062 -0.19609325
000340 eb 37 47 bd e6 74 82 3e 8e a9 cd bd ab b0 a0 3c
       -0.048637312 0.2547981 -0.100421056 0.019615492
000350 7f 11 50 bd e1 fb 08 3d 2b 8e 60 3d a1 16 fc bc
       -0.050797936 0.033443335 0.054823082 -0.030772509
000360 9c 24 58 bd 94 04 a5 bd a8 d0 9b 3d 92 c0 c7 3d
       -0.05276929 -0.08057514 0.076081574 0.09753527
000370 a2 b5 45 bb e5 10 40 3e 5d a7 11 3c fa cf 00 be
       -0.0030168076 0.18756445 0.00889 -0.12579337
000380 2d 9c ab 3c 87 3c 31 3e 03 d9 5a bb 3a 5b 7e bd
       0.020948494 0.17308246 -0.003339351 -0.06209872
000390 25 a6 6c bd 31 f6 4e bd 45 7a a4 bd 87 20 3c 3d
       -0.057775635 -0.050527755 -0.080311336 0.045929458
0003a0 be 2a 10 3d 07 0c 4d bd 68 b1 c8 bc 39 3f 3a 3d
       0.035197012 -0.0500603 -0.024498656 0.04547045
0003b0 99 f6 3c 3d cc 0b 52 3d 7f c3 ad 3d b3 0e 3e 3d
       0.04613361 0.05128078 0.084845535 0.046400737
0003c0 83 a6 04 be ab 9e f8 3b 31 80 69 3b cc 1b db 3d
       -0.12954144 0.007587274 0.0035629387 0.10698661
0003d0 e4 c8 72 3a 03 7a 4b 3d c9 37 c7 bc c7 c6 2d bc
       0.00092615024 0.049676906 -0.024318593 -0.010606474
0003e0 33 02 b5 3d 18 70 06 be 4a 8a 88 3e 19 d4 54 3d
       0.0883831 -0.13128698 0.26668006 0.051960085
0003f0 c3 04 18 3d 53 d5 e3 bd 27 c1 4f 3d c9 e1 98 bd
       0.037113916 -0.11124673 0.050721314 -0.0746494
