DRL coding/saved_network/FJSP_J15M15/100_19/policy_job.pth (torch, 648359 bytes, 53 tensors)

_input f4 [128]
00000000: d4ce 583f fe49 553f 60e0 b93e 949f 40bf
00000010: f016 05bf 2195 03be 7d76 003d 498d a7be
00000020: 4e1f 7ebf 969f 23bf 2bb3 37bf 0653 48bf
00000030: 6ee4 75bc afcf 7e3f 8304 043f bca1 61bf
00000040: e314 b3be 278e 98be 0388 b63e 2d69 29bf
00000050: 86bb 5b3f 5fd5 24bf df66 3abf d6c9 2dbf
00000060: bd1e 573f b7dc 603f 4a5c 4bbf 4aba 0abf
00000070: 9bd2 f33e 853c 0ebe 44ab 7ebf e20b fe3e
00000080: 5e83 eebd e1cd 763f dbc4 ad3e df79 213f
00000090: 898e 2b3f f19e 02be eefd 6bbf 5ebf 283f
000000a0: ce99 193f deb9 b7be 17fa 363f 68c1 a33d
000000b0: cc7b 9cbe c39c 42bf 6aba 99bd 5260 d2bb
000000c0: 7e5f 363f 6742 243f 6fa0 ad3e b404 ca3d
000000d0: a41a 68bf 9181 5cbf aa52 733f c2e0 36bf
000000e0: 5996 a13e 2610 4d3e b253 9f3e a278 953e
000000f0: 3606 203e 790f 1dbf f3d7 a63e b45c 323e
00000100: 4d2d 52bf c907 503e 068d 853e 4937 41bf
00000110: 1281 1d3f 6684 883e 9d42 5c3f 6645 233e
00000120: 6f83 e7be db3e 17bd 9e6b 2b3f cb07 993d
00000130: 37b6 bcbe e600 1a3f 86e7 773f f26b 463d
00000140: 5a1f 3c3f c224 14bf 8742 083f 9c1b d23c
00000150: da17 b4be 960e f23d 667c c2be 31a8 8d3e
00000160: f310 c83e 78e9 cb3e bf0f 283e 8ffa 50be
00000170: 3ef5 353f 470e e9be 1ac9 5dbf 5218 52be
00000180: 3181 35bf f7b2 51bf eceb b7be afb1 08be
00000190: c507 03bf e2d2 023f e38d 483e d44a e93e
000001a0: 83f5 fdbe c19a 293f e2ee 5bbe 3cbf edbc
000001b0: f605 7dbf 48a4 75bf 9c69 03bf 96d8 c2bc
000001c0: d65b c53e 2ba6 10bf 01a5 6dbf 716a 203f
000001d0: 6f90 773f bd3c 473f 00d2 ad3e 7203 3d3f
000001e0: 4dc7 293e a722 8fbb 1c10 6a3f 185f b93e
000001f0: cf80 2fbe 74ea 553f 5d14 ba3e f9d7 823e
0.84690595 0.8331603 0.36303997 -0.75243497 -0.51988125 -0.12849857 0.031363 -0.3272498
-0.9926652 -0.63915384 -0.71757764 -0.78251684 -0.015008075 0.9953565 0.51569384 -0.8813741
-0.34976873 -0.29795954 0.35650644 -0.6617611 0.85833013 -0.6438808 -0.7281322 -0.678861
0.8403128 0.87836784 -0.79437697 -0.54190505 0.47621617 -0.13890274 -0.9948008 0.4961844
-0.1164615 0.96407896 0.3393925 0.63076586 0.67014366 -0.12755944 -0.9218434 0.65917003
0.6000031 -0.35883993 0.71475357 0.07995874 -0.305632 -0.7602045 -0.07506259 -0.0064201737
0.7123946 0.6416382 0.33911464 0.09864178 -0.9066565 -0.861352 0.9504801 -0.71436703
0.3156002 0.20025691 0.31118542 0.29193598 0.1562737 -0.61351734 0.3258663 0.17418176
-0.82100374 0.2031547 0.26084155 -0.75474983 0.6152507 0.26663512 0.86039144 0.15944442
-0.45217463 -0.036925178 0.66961086 0.074721895 -0.3685777 0.6015762 0.9683765 0.04844279
0.7348534 -0.5786859 0.5322651 0.02564793 -0.35174447 0.11819188 -0.37985533 0.27667382
0.3907543 0.3982656 0.16412257 -0.2040808 0.71077335 -0.45518705 -0.8663498 -0.2051709
-0.70900255 -0.81913704 -0.35922182 -0.13349031 -0.5118373 0.5110303 0.19585375 0.45564902
-0.49601373 0.6625176 -0.21477845 -0.029021852 -0.9883722 -0.959538 -0.5133302 -0.023784917
0.38546628 -0.5650355 -0.928299 0.62662417 0.96704763 0.77827054 0.3394928 0.7383338
0.16579933 -0.0043681446 0.9143083 0.36205363 -0.1713898 0.8356087 0.3634366 0.255554

bn.weight f4 [2]
00000000: 0000 803f 0000 803f
1.0 1.0

bn.bias f4 [2]
00000000: 0000 0000 0000 0000
0.0 0.0

bn.running_mean f4 [2]
00000000: 0000 0000 0000 0000
0.0 0.0

bn.running_var f4 [2]
00000000: 0000 803f 0000 803f
1.0 1.0

encoder.feature_extract.mlps.0.linears.0.weight f4 [128, 2]
00000000: f4fe c5bc 5163 8abd 7fb2 043e c600 13bd
00000010: 1939 63bd b72e e83c c9e3 a6ba 37a3 99bd
00000020: 5ba0 943d f194 0a3d 565f 59bd cd7b cbbd
00000030: 3a38 fe3d 49c5 60bd ba32 7dbd 91ce f33d
00000040: ffda 743d 9927 253c 58dd 09bd ad92 9abd
00000050: 54be ff3d ccb1 a03c 0579 273d 1ef2 6cbd
00000060: 6ec9 9abd 7a7d f63d f930 723c 8f15 823d
00000070: fb4e c63d 7469 f83d bb5c 773d 099f 833d
00000080: c3cb 883c f328 20bd f313 233b 4215 113e
00000090: 2679 0f3c 0f6e 893c a3af 87bd 5494 85bc
000000a0: 7d83 8fbd 4a77 b13d b347 963c 90a2 cc3d
000000b0: 5c74 f3bd 2ec1 8c3d 43d8 be3d f58a 163d
000000c0: e6c4 85bc 576b 223e ae79 033e f087 ae3c
000000d0: e4be ed3c 81d0 53bd 36de 5dbd bb54 223e
000000e0: b858 13bd 27c9 ca3d 0764 4f3c 9614 863d
000000f0: 9af0 36bd 3ed4 343c c996 12bd 267e d13d
00000100: f871 aebd c0eb 9fbb 9aa0 263e d15b 803d
00000110: 9883 6f3d 839a fbbc 0238 5bbd 5ad3 51bb
00000120: 2627 8cbd d868 b93d b93e cc3c 3801 bd3d
00000130: 7e6c afbc cd52 db3d 63e5 67bc f91a 1cbe
00000140: 8d27 a03c 790e 873d d62c 85bc 4feb 413c
00000150: 8828 ff3d 2a01 59bd 3fe3 92bd 7176 8cbd
00000160: 95b8 79bd 9b83 9e3d 1419 8e3d 4dba eabd
00000170: 0aff 81bd 36a2 82bd 15ef fc3d bf4f 3c3e
00000180: 334e cebc e813 7abe 7c0b afbc 9d22 4bbd
00000190: 9cd0 dabd c2ac 15be 321e dd3d 57d6 84bc
000001a0: 3d88 833d ccaa 5fbe 6e53 df3d db71 4abe
000001b0: 412c ba3d 2d7f a03d 19a8 933d 289f 883b
000001c0: 36b2 8cbd 0c3a 0dbd 1677 753d 4097 c13b
000001d0: 027c 42be 6237 39bc 90ac 193c f728 70bd
000001e0: a118 f73d 8e66 ea3d 6511 493d 7c84 a13d
000001f0: d4c7 4a3c 8f50 64bd b901 313e 5ac5 193d
00000200: 0d37 f53c 7616 bd3d 1c30 f1bd 5f6a a7bd
00000210: 9401 97bc 2765 0f3e 6e46 bfbc 7b17 3e3d
00000220: c21c 98bd 8d37 a4bd e0eb 2c3c 9a39 dcbd
00000230: 68bc 123e 6392 0b3d 0df3 f2bc 5b8c b7bd
00000240: d000 9e3d e619 e13d 9d1f 73bc f7ee 8fbc
00000250: 6fad 223e f100 673d c1fb 7fbc d8d3 453c
00000260: 7aa1 4b3e 6b48 d43c 60bb 1b3e 9260 46bc
00000270: 4cc7 f73d fa45 093d 57cc 9fbd 86bc 833d
00000280: d73b ad3d 7509 183e bda3 7c3c 0fb3 f63b
00000290: e7ae 283e 8485 a1bd 260e e8bd 4d85 88bd
000002a0: 64f4 1bbd d624 78bd 5ec8 f83d 41c6 b53c
000002b0: cc7c dfbd 9718 be3c 6ce9 23bd 9ed8 3ebd
000002c0: 3f42 abbd a399 59bd bc1f 6e3d e4d2 23bd
000002d0: 443e a5bd 51a4 2b3e 850b fabd 9495 673e
000002e0: 7a93 91bd 27d1 a13d 50f2 d33d e570 773b
000002f0: e084 f83d 3aa8 02be 1a17 c93c e0be d0bd
00000300: edba 10bc d2d5 57bd 6e98 b93c 1b02 873d
00000310: fe57 b13d 210a 823c 92ce 1d3d 9082 803e
00000320: 5d40 0c3e 7ac8 a0bd dac4 0fbe 25c3 41bd
00000330: b9f1 bbbd 465c babd 3e91 acbd fa26 823d
00000340: 4c21 fabd 5c54 4e3d 560e 31bd 664f 1fbd
00000350: 016c df3d db3c d6bd c9cd f6bd 1d64 283b
00000360: 2725 6abe 75c4 b83d 7dd7 d13d e322 ba3d
00000370: 2f2e f53d 1cb5 cc3d 394b 6a3d afff 33bc
00000380: f819 3a3e 0ea4 50bc 9ba2 cf3d 30fd e33c
00000390: e5b2 443c 02d2 f93a 9d83 0bbe 310d 6ebc
000003a0: 2914 7f3c 1d3a 19bc f4e2 493d a3f9 3e3e
000003b0: 1d61 37bd 8ac1 783d 9ea2 7fbd 02ad bfbd
000003c0: b099 db3d 0081 7bba efdf 203e bd89 febd
000003d0: ba2f 57bc 9d20 5cbd 8552 32bc 3e2d 26bd
000003e0: 896b b23d 3cb7 123d c622 a5bd ee4a db3d
000003f0: 0dfb 6c3d d312 ac3d f2a1 623d 37e0 8d3d
-0.024169423 -0.06757224 0.12958716 -0.03588941 -0.055474374 0.028342588 -0.001273268 -0.07501834
0.07257148 0.033833448 -0.053069435 -0.099357225 0.12413068 -0.054875646 -0.061815955 0.11904634
0.059779163 0.010080242 -0.033658355 -0.075475074 0.12487474 0.01961603 0.040886898 -0.05784809
-0.07557951 0.120356515 0.014782184 0.06351768 0.09683033 0.121294886 0.06039117 0.06426818
0.016698724 -0.039101552 0.0024883717 0.14168265 0.008756911 0.016776113 -0.06625297 -0.01630608
-0.07007501 0.08665331 0.018344736 0.09991944 -0.11887428 0.068727836 0.093185924 0.036753614
-0.01632924 0.1586126 0.12839386 0.021305054 0.029021688 -0.051712517 -0.054166995 0.15852635
-0.03597328 0.09901648 0.012658126 0.06546895 -0.04466305 0.011036931 -0.03578833 0.10229139
-0.085178316 -0.0048803985 0.16272202 0.062675126 0.058475107 -0.030713325 -0.05352021 -0.0032016844
-0.068434045 0.090532005 0.024932252 0.09228748 -0.021414038 0.10709152 -0.014153811 -0.15244664
0.01955011 0.06594557 -0.016256731 0.011835887 0.124589026 -0.052979626 -0.0717225 -0.068585284
-0.060967047 0.077399455 0.06938377 -0.11461315 -0.06347473 -0.063785955 0.12350289 0.18389796
-0.025183773 -0.24421656 -0.02136778 -0.049593557 -0.1068432 -0.14616683 0.10796775 -0.016215486
0.0642247 -0.21842498 0.10904585 -0.19769995 0.09090472 0.07836757 0.072097965 0.0041693635
-0.068699285 -0.034479186 0.059928022 0.005907923 -0.18992618 -0.011304708 0.009379521 -0.058632817
0.120652445 0.11445342 0.049088854 0.078865975 0.012376744 -0.05574089 0.17285813 0.037541725
0.029933477 0.092328 -0.11776754 -0.081745856 -0.01843337 0.1400343 -0.023349013 0.04640911
-0.0742736 -0.08018408 0.010554284 -0.10753174 0.14329684 0.034075152 -0.029656911 -0.089623176
0.07714999 0.10991268 -0.01483908 -0.017570002 0.15886472 0.056397382 -0.015623988 0.012074433
0.19885817 0.025913438 0.15208197 -0.012107985 0.1209856 0.033514 -0.078026466 0.06432442
0.08458679 0.14847358 0.015419898 0.0075286697 0.1647297 -0.07886794 -0.113308236 -0.0666605
-0.038074866 -0.060582004 0.12147592 0.022189261 -0.10912475 0.023205085 -0.04001753 -0.0465933
-0.08362245 -0.053125035 0.058135733 -0.039996043 -0.08068517 0.167619 -0.122092284 0.22615653
-0.07108207 0.07901221 0.10348952 0.00377565 0.12134719 -0.12759486 0.024547148 -0.101926565
-0.008833629 -0.05269415 0.022655692 0.065921985 0.08659361 0.01587397 0.03852708 0.2509961
0.13696428 -0.07850738 -0.14039937 -0.047305245 -0.09176964 -0.09099631 -0.0842614 0.063550904
-0.12213382 0.05037342 -0.043226562 -0.03889408 0.10909272 -0.10460826 -0.12050969 0.0025694438
-0.22865735 0.09021846 0.10246179 0.09088685 0.119716994 0.09995481 0.057200644 -0.010986253
0.18173969 -0.012734426 0.101384364 0.02783069 0.012005542 0.001905978 -0.13624425 -0.014529512
0.015568771 -0.009352234 0.049288705 0.18649916 -0.04477035 0.06073145 -0.062410943 -0.093591705
0.10722673 -0.00095941126 0.15710424 -0.12428615 -0.0131339375 -0.05374204 -0.010883932 -0.04057049
0.08711917 0.035819277 -0.08063273 0.10707651 0.05785661 0.08402028 0.055330224 0.06927531

encoder.feature_extract.mlps.0.linears.0.bias f4 [128]
00000000: b066 81bb 3a5c 37ba ee79 75ba 052f da3b
00000010: 5297 8837 94ba 313b c73a 8a3b f5bc 8eba
00000020: 49fd 30bb ff83 cebb 0832 49b9 efd8 c7ba
00000030: 3757 f93a 43ce a5bb 3194 81bb 09a0 f5bb
00000040: 63da 51bb b8be 8bba 2a81 44bb 6522 0f3b
00000050: 9a4f 873b cba7 95bb 4081 d63b afd3 7ebb
00000060: b858 973b c147 4bba 33d5 073b 67b0 a6bb
00000070: 4a5e 5dba e4d9 46bb b89b d4bb 2182 883a
00000080: 5189 15bc 189b ae3b 884a c8ba 8365 7bbb
00000090: 8b8f 11bb 6016 1cba 40ca 57bb a599 5dbb
000000a0: 544e 7a3b 67fb be3a 97a9 dfbb cc4f 8aba
000000b0: dc5c 6a3b 3526 f63b 299e c7b8 8fe4 993b
000000c0: 6d50 ec3b 50f3 c7bb fefa 253b 5ac1 78bb
000000d0: 1a88 303b 1c45 2fbb bb11 56bb 4168 b1ba
000000e0: c191 2abb bdde f43b 267e 17bb 6903 d33b
000000f0: 1781 3939 7378 413b 992f 853b 7e96 6fbb
00000100: 8151 6fbb a3bd e63b a17b 9fb8 af75 f3ba
00000110: 27e9 073b 5ec0 dabb 6b11 433b e5f8 b0bb
00000120: 4dc2 92bb d821 abbb f49a 203b 06e3 ae3b
00000130: dac4 e83a 4cce e03b 4e9f 01bb 4c2c 963b
00000140: 6212 9e39 22c6 febb a0f5 5a3b 0086 a03a
00000150: fc2d 9ebb 17c5 63bb a8b9 2e3b 37cb 2dbb
00000160: 2e38 6e3b 931c 1fba c1b4 51bb 6f8f e0ba
00000170: 5281 c1b9 906a e3bb ab06 9d3a 6692 da3b
00000180: eafe 96bb 0af8 bc3b 17d2 d5b8 ba54 f33b
00000190: 407e 843a a3db 1e3b 5104 57bb 70c5 f7ba
000001a0: ad5e a4bb ed45 37ba 5802 9d38 dffb 353b
000001b0: 19b0 85bb 8f11 ea3a 7bbe 23bb 4742 c53b
000001c0: e849 4dbb 566d 943b 60f7 2c3b d548 7bbb
000001d0: 0fea 9f3a a77c 663b 5a23 883b c48d 6a3b
000001e0: 6323 d53b e98a 9b3a 6a9f 8cbb c28b 50bb
000001f0: 3def 543b eddf 94bb 4867 1aba 0499 9139
-0.003949009 -0.0006994639 -0.0009364177 0.006658437 1.6282927e-05 0.0027119266 0.0042184326 -0.0010890054
-0.0027006438 -0.0063023563 -0.00019187492 -0.0015247146 0.0019023184 -0.0050599887 -0.0039544334 -0.0074958843
-0.0032021038 -0.0010661697 -0.0029984214 0.002184057 0.0041293623 -0.0045671216 0.0065461695 -0.0038883497
0.0046187304 -0.00077545276 0.0020726442 -0.0050869468 -0.0008444531 -0.0030342275 -0.0064882897 0.0010414758
-0.009126977 0.005328547 -0.0015281001 -0.0038360066 -0.0022210802 -0.0005954262 -0.0032926947 -0.0033813503
0.003819366 0.0014570773 -0.0068256366 -0.0010552346 0.0035760915 0.007511879 -9.518519e-05 0.0046964358
0.007211736 -0.006102003 0.0025326605 -0.0037957043 0.0026936592 -0.0026744073 -0.0032664377 -0.0013535098
-0.0026026818 0.0074728415 -0.0023115962 0.0064396155 0.00017691065 0.0029521256 0.004064512 -0.0036558206
-0.0036517086 0.0070416494 -7.6047385e-05 -0.0018574501 0.0020738335 -0.006675764 0.002976502 -0.0054007643
-0.004478729 -0.0052225403 0.0024506422 0.005337122 0.0017758862 0.00686053 -0.001977879 0.0045829173
0.00030149805 -0.007775084 0.0033410564 0.0012246966 -0.004827259 -0.0034754926 0.0026660953 -0.002651883
0.0036349404 -0.00060696265 -0.0031998607 -0.001713259 -0.0003690818 -0.0069401935 0.0011980137 0.006670284
-0.004608025 0.0057668732 -0.00010195764 0.0074258717 0.0010108426 0.00242398 -0.003280897 -0.0018903445
-0.005016169 -0.0006991316 7.48678e-05 0.0027768535 -0.0040798304 0.0017858016 -0.0024985361 0.0060198638
-0.003132457 0.0045296354 0.0026392564 -0.0038342972 0.0012200492 0.0035169513 0.004154605 0.0035790065
0.0065044626 0.001186696 -0.0042914646 -0.0031821583 0.003249123 -0.0045432956 -0.0005890024 0.0002777056

encoder.feature_extract.mlps.0.linears.1.weight f4 [128, 128]
00000000: 021e 9a3d b322 83bd 6c1a 433d bd91 b2bb
00000010: 3a89 953d 0ed0 95bb 6f44 cabd 7859 9cbd
00000020: 1759 333e a7e7 873c 0bdf cebd 9bb7 64bd
00000030: c888 003b 747a 093c 95e4 233d 4ee2 5e3e
00000040: 86a1 c7bc 92ba e53c 8131 a5bc 47c0 63bd
00000050: 9d95 fabd b596 c3bd a995 9abd 3ce8 733d
00000060: 8077 e13d f4dd 36bd 9032 68bd fd8d f53c
00000070: cd3b aebd e6c4 04be 8632 f9bd af85 583e
00000080: 649c 3bbd bfe0 90bd 850d fe3c 081d 5cbd
00000090: f0d8 15bc 4a2d 39be c688 1dbe c440 3c3d
000000a0: 9321 933d d488 fdbd 60ff 70be 8cf3 b0bd
000000b0: cec6 0fbe 38c2 33bd 21d0 e93d 4449 7dbd
000000c0: 328f 1dbe ad39 2bbe 3f8b fa3d adb3 223d
000000d0: a4c1 c3bd 2f89 79bd e4f4 653c d94d bebc
000000e0: a05d 933d e162 993d 15e2 183d c633 97bc
000000f0: 2e0c eb3d 4a57 133e 6003 e6bd 6f9a c0ba
00000100: 14be 9a3c bc3f f9bb 7780 efbd 3cef 803e
00000110: ada2 f9bc 9413 5c3b 8fe4 b53d 354f 703d
00000120: e7de 93bc 39d5 f33b 4020 6d39 c324 e53c
00000130: 52af 493c 1f12 a93c 03c2 e73d 08e4 6a3d
00000140: 8d18 06bd 600c 92bd b307 eb3c d76a 25bc
00000150: 90ab 423d 6f94 47bc a6ce 1fba d5d8 0ebe
00000160: b052 973d 3e86 c13c cb1e e03c e378 9d3d
00000170: efb5 db3d c8f8 13be 954e a03c ca4e 33bd
00000180: c897 a0bb 138c 103d 28b8 c7bc d3bd 87bd
00000190: dcc0 2cbd ad32 26be 3a7b 35be a67a 2bbd
000001a0: fcdc 09bc 62bc 233d c46f cd3c acb7 093d
000001b0: 51db eb3d 9856 8abd 48ed a83a 7fff 463d
000001c0: 226d cc3c 1ab4 01bd 0eec 83bd ca1c 10be
000001d0: 6859 913d 364f d53d 5100 ed39 36aa 65bd
000001e0: f6c6 6cbd b4ac c33d 417e 1ebe 5881 4f3c
000001f0: 1bb9 95bd 3a09 dbbd 4dff 1abe 4d4d 12bd
00000200: 9b87 03bc 2dcf 64bd 568d 10bc cde0 59bd
00000210: 8ab3 0c3d 0be5 0bbd 2e8d 58bd 316c 7dbd
00000220: 334d 813c e446 e3bd 6e3f 46bc 75f5 1abe
00000230: 57bb 4ebe 5a5c 9ebb 7ff1 b03d cb2a 89bd
00000240: 4c7f 63bd 55e1 133e 03b8 7e3d d0a9 e93d
00000250: ec41 acbc bea0 2abc efaf b6bd 9c53 9abd
00000260: b908 503e b54b a63d 4241 3a3c 47f4 043d
00000270: 0f89 d9bd 542d 653d 4b9b c53d e3ef e3bd
00000280: 4e2d 88bc f6da e3bd 5891 71ba fefc 88bd
00000290: a517 123e 0b9b a83c d064 0a3e 59af a9bc
000002a0: 7717 193d 3821 ac3c 9714 4f3d 1f72 0e3e
000002b0: 518f ddbd ca7f 9b3d 9b34 a13d 30f4 163c
000002c0: a860 293e 1249 723c 8e74 bf3d d8d2 b0bd
000002d0: 43f7 803c b78e 2e3e 2b5b fb3d 7be3 d8ba
000002e0: af8f 243d b45b 003e 8f49 3c3c 1d57 31bd
000002f0: f0fe dfbb 19b9 19bc 5cef 063e eef5 923d
00000300: 6b39 bcbd 2859 f5bd 4ef2 60bd 7944 393d
00000310: 98ff 923d 5d30 9a3d 2135 d6bd 8108 aebc
00000320: 281e 89ba faa5 ea3d f0b0 debd f564 dcbd
00000330: 3dec dfbd 27e9 fcbd a2df 8ebc 66ef c1bb
00000340: 6fca febd 9398 d2bc e33c 60be 63df 733d
00000350: b36d 8b3d 13ac 913d dfc5 f03c df4b 183e
00000360: 4058 8c3d 1da8 993c 63ce d93d 6823 07be
00000370: 06ec 1cbc e465 993d 156d a2bc 8e67 16bd
00000380: ec15 673d b65e 213e 449e 2ebe 991c 1ebd
00000390: 2a5b 853d 9744 aebd becc 4e3d cabe 1e3b
000003a0: 4fc9 003d 278f c63d 7d53 65bd 4d5d 323d
000003b0: b7af 463d 9242 46be 968c 46bb a60e 64bd
000003c0: 1c9d 33be 7c9d a03d e612 21bd 691f 03bd
000003d0: f898 263e 437d 5a3d 7f79 d1bb 471e 87bb
000003e0: d3f7 0c3d 0ae4 b33c a1db 673d 976c 9dbd
000003f0: 39d1 b0bd 76f7 a63d 0694 57be 0168 28bc
0.07525255 -0.06403103 0.04763262 -0.0054495023 0.073015645 -0.004571921 -0.09876334 -0.07634252
0.17514454 0.016589953 -0.10101136 -0.055839162 0.0019612778 0.0083910115 0.040012915 0.21766016
-0.024369013 0.028043065 -0.020165207 -0.05560329 -0.12235568 -0.095502295 -0.07548077 0.059547648
0.11009121 -0.044645265 -0.056688845 0.029974932 -0.085075 -0.12965736 -0.1216784 0.21144746
-0.045803443 -0.07074117 0.031012306 -0.053738624 -0.00914596 -0.18083683 -0.15384206 0.045960203
0.07184138 -0.123796135 -0.23534918 -0.08640203 -0.14040682 -0.043886393 0.114166506 -0.06183745
-0.15386656 -0.1672122 0.1223359 0.039722133 -0.095584184 -0.060921844 0.014035437 -0.02323048
0.07195592 0.07489563 0.037324984 -0.018457305 0.114769325 0.14388767 -0.112311125 -0.0014694462
0.018889464 -0.0076064747 -0.116944246 0.2518252 -0.030473078 0.0033581005 0.08881485 0.058669288
-0.018050624 0.0074411896 0.00022614095 0.02797163 0.012309866 0.020638524 0.11316302 0.057346374
-0.032738257 -0.071312666 0.028690195 -0.010096273 0.047526896 -0.012181385 -0.00060961617 -0.13949902
0.07388818 0.023623582 0.027358433 0.07689073 0.107280605 -0.14450371 0.01956872 -0.04377631
-0.0049009062 0.035289835 -0.024379805 -0.06628003 -0.042176113 -0.16230269 -0.17722788 -0.041865014
-0.008414503 0.039974578 0.025077708 0.03362243 0.11516441 -0.06754798 0.0012888098 0.048583504
0.024954382 -0.0316659 -0.06441508 -0.14073482 0.07097131 0.10415499 0.00045204398 -0.05607053
-0.05780693 0.09554425 -0.1547785 0.012665115 -0.07310697 -0.10695119 -0.15136452 -0.03571825
-0.008027936 -0.05586164 -0.00882276 -0.053192902 0.03435091 -0.03415398 -0.052869014 -0.061870757
0.015783882 -0.11097506 -0.012100084 -0.15132697 -0.20188652 -0.0048327865 0.08639812 -0.06697615
-0.05554132 0.14441426 0.062187206 0.11409342 -0.021027528 -0.0104143005 -0.089202754 -0.075354785
0.20315827 0.08119909 0.011368098 0.032459524 -0.10621845 0.05595143 0.096487604 -0.11129739
-0.016623165 -0.11125748 -0.00092150783 -0.066888794 0.14266832 0.020581743 0.1351502 -0.020713495
0.037375893 0.021011934 0.050556745 0.13910721 -0.10818351 0.07592733 0.07871362 0.009213492
0.16540778 0.014787929 0.09348403 -0.08633965 0.015742904 0.17046629 0.12273248 -0.0016547287
0.04017609 0.12534982 0.011492147 -0.04329597 -0.006835811 -0.00938251 0.13177246 0.071758136
-0.09190639 -0.11979896 -0.05491858 0.045231316 0.07177657 0.07528756 -0.10459352 -0.02124429
-0.0010461258 0.11457439 -0.10873592 -0.107614435 -0.10933731 -0.12349158 -0.01744062 -0.005918431
-0.12440955 -0.025707519 -0.21898226 0.05953921 0.06808033 0.07112899 0.029391227 0.14872693
0.0685277 0.01875692 0.10635068 -0.131971 -0.009577757 0.07490137 -0.019827405 -0.03671985
0.05641739 0.15758786 -0.17052561 -0.03860149 0.06511529 -0.08509176 0.050488226 0.0024222606
0.031441983 0.09695273 -0.055987824 0.04354601 0.04850742 -0.19361332 -0.0030296198 -0.055678032
-0.17540401 0.07842538 -0.039324664 -0.032012377 0.1626929 0.053342115 -0.0063926573 -0.0041234824
0.03441603 0.021959323 0.05660594 -0.076867275 -0.08633656 0.08152668 -0.2105256 -0.010278703

encoder.feature_extract.mlps.0.linears.1.bias f4 [128]
00000000: a55b 06bb fab1 40ba 2ff4 d7ba 69f7 0c3b
00000010: 1106 33bb 7982 9aba c2f4 fd39 d0f3 53bb
00000020: e5a8 eaba 268e 3c3b a304 7738 2f57 08bb
00000030: 444e 85bb 2db3 ea3a f648 86bb 0b86 40bb
00000040: 0c29 a43a 4914 1b3a ef36 0a3b 78df 6b3b
00000050: 0a22 b4b9 72d3 12bb 57f3 91b9 b89c a6ba
00000060: 39e0 2a3a ea34 0e3a acca c5bb a4d5 39bb
00000070: 5716 bc3a 2121 11b9 9fb0 503a 2e80 8938
00000080: 4554 963b 08e3 08bb 6608 be3a f718 cfbb
00000090: 4ef1 f93a 24ce 86bb f59e 2bbb 3bf5 133b
000000a0: 2333 4ab9 3618 853b 5952 eeb7 093c 743b
000000b0: af6f 4039 e0db b83b e18d 99bb 85ec 9bba
000000c0: c68d 8bb7 68ad 3c3b 5c1e ec3a a4f4 8d3a
000000d0: 301d 273a 4bd6 783a 3e6c 56bb 5643 7bba
000000e0: 2bd2 28ba e381 99bb 8c17 8ebb 4a0d 25bb
000000f0: 7345 baba b5f5 46bb 7493 f0ba 685f 56bb
00000100: 45bf 53b9 f464 48bb 9ba6 dd3a f92e 84ba
00000110: 6491 06bb db5a 00bb 557c ec3a 68ca 99bb
00000120: 2169 90ba 12b1 be39 ac69 003a d801 893b
00000130: 7e77 8b3b 5f4f 013b 5237 143a 3c8a 62ba
00000140: ab66 e23a 8210 0d3a 114a 613b 311c 97bb
00000150: 3df2 9fb9 8239 a23b c461 8a3b 55e4 293a
00000160: 005a 223b 6c49 043b c23a c03a fc5f 63bb
00000170: 62e0 e6b8 bd6a 13ba a061 f038 55b5 8eb8
00000180: 988c a0b7 3454 3eba 3a07 faba 056b 87bb
00000190: 5f75 dc3a 2a57 9cbb 3e67 233b c62b 0fbb
000001a0: ea27 bebb fc3f 473b 9b81 1b3b 2ad4 503b
000001b0: 8ba3 813b f912 d53a 12ad 4e3b b78b 85ba
000001c0: b750 7339 a60c 00b8 1a26 3dbb db8b 64bb
000001d0: 514f 203a 2a7f dfba caf0 3c3b 0758 a9b8
000001e0: ce58 103a 5e4c 213b 4a34 13ba 6c84 99bb
000001f0: 167f 45ba 385b b9ba 2b0f 9039 1147 80ba
-0.0020501402 -0.00073507393 -0.0016475971 0.0021509773 -0.0027316848 -0.0011788151 0.0004843828 -0.0032341368
-0.0017903118 0.002877125 5.8893707e-05 -0.0020803919 -0.004068168 0.0017906182 -0.004098053 -0.002937677
0.001252444 0.00059158035 0.0021089872 0.0035991352 -0.00034357636 -0.0022403863 -0.00027837857 -0.0012711501
0.0006518397 0.0005424755 -0.0060361233 -0.00283561 0.001434992 -0.00013840619 0.0007960889 6.5565444e-05
0.0045876824 -0.0020887274 0.0014498353 -0.0063201147 0.0019069107 -0.0041139293 -0.0026187275 0.0022576589
-0.00019283271 0.004061724 -2.8410157e-05 0.003726723 0.00018352152 0.0056414455 -0.0046861027 -0.001189605
-1.663611e-05 0.0028789882 0.0018014419 0.0010830355 0.0006374894 0.00094923814 -0.0032718326 -0.0009584924
-0.0006440009 -0.004684673 -0.004336303 -0.0025184923 -0.0014211371 -0.0030358855 -0.0018354491 -0.0032710675
-0.00020193782 -0.003057775 0.0016910614 -0.00100848 -0.0020533437 -0.0019585404 0.0018042425 -0.004693318
-0.0011017659 0.00036371552 0.0004898559 0.004181128 0.004256188 0.0019731147 0.00056539953 -0.00086418143
0.0017273029 0.0005381183 0.0034376422 -0.004611515 -0.00030507325 0.004950703 0.0042230804 0.00064808625
0.0024772882 0.0020185364 0.0014665949 -0.0034694662 -0.00011009049 -0.000562351 0.00011462276 -6.8048634e-05
-1.9138955e-05 -0.0007260472 -0.001907564 -0.004132631 0.0016819647 -0.004771133 0.0024933363 -0.002184616
-0.005803098 0.0030403128 0.0023728374 0.003186474 0.0039562634 0.0016256265 0.0031536263 -0.0010188733
0.00023204355 -3.0529358e-05 -0.0028861822 -0.00348734 0.00061153347 -0.0017051448 0.0028830045 -8.074944e-05
0.0005506397 0.0024612169 -0.00056153967 -0.0046849754 -0.0007533891 -0.0014141565 0.0002747712 -0.0009786804

encoder.feature_extract.mlps.0.linears.2.weight f4 [128, 128]
00000000: 670f ff3c b0db 093e 4523 0fbe 7206 783d
00000010: 935c 47bd cb83 15bd edd2 97bd 1839 cabc
00000020: 9b7b 0cbd 1a45 40be de32 c33d 2120 9d3d
00000030: f08b cdbd d207 62be bdc8 cbbc a214 88bc
00000040: b33f 2ebe 8a5e 9b3b 1dd8 87bd 56ec 043d
00000050: 57ec fd3d 4487 043e 2b9e 943c 5d28 b0bd
00000060: 4b39 da3d 1331 ee3d bcb2 2d3e 03f1 79bd
00000070: fc05 88bc a09e 8c3d 35a1 ea3d 18cd 47bd
00000080: 2ebf 88bd eb6b cd3d ced3 27bd d5d2 95ba
00000090: f410 61bd d5a8 263d 5849 10be 0960 a03d
000000a0: 62ac 733a 8397 233e 7680 a2bc 742f 64bd
000000b0: 6770 f2bd 525d 0dbe 28c2 bf3d 828b 8a3b
000000c0: e3c3 003e fc32 eebc 07f4 e3bd b470 9a3c
000000d0: 3759 a0bc 4ac4 053e efbc c73d f935 febd
000000e0: f586 90bc 6736 44bd f54c e53d e228 78bd
000000f0: 4611 c2bd 9d47 13be 65f6 f13d 2c55 c4bc
00000100: ee18 233e 9a76 31bc abba 013e cc31 ed3c
00000110: 1ff4 18bd b8dc 25bd 2a6f 27ba 990e e6bd
00000120: 8d2d 74bd 94a0 34bd 1308 84bd 677d c13c
00000130: bb3b 0ebd a539 553d 38fd f3bd 90a4 94bd
00000140: 6634 22be 48fc d23c fcaf 8d3d 7738 c0bb
00000150: d131 b13d b189 273d c0e8 9b3d 9a96 f0bc
00000160: 25e9 20bd e4f6 05be ff59 6a3c 0d75 003c
00000170: 772b a73d 51ff e23c 79ea dbbd 67a2 c9bc
00000180: 5e82 be3d be07 52bc 7417 2c3e def4 053e
00000190: ac7b 113e 5756 04be 922c 24be 7794 ca3d
000001a0: cc9b 103d 53f2 07bd 26a0 7cb9 5b54 fe3b
000001b0: 4735 a23d 2aa8 e0ba 9520 3a3d bca1 bbbd
000001c0: 53c1 a2bd 0e87 14be 57cd c83d 6402 b5bc
000001d0: 77fd 5bbc fcc4 3f3d 6bed b0bd 96bb 7f3d
000001e0: eaaa 083e 0311 86bd b1d4 a1bd 340d c5bd
000001f0: 6148 a53c 9f4a d5bc ef07 e13d 3f30 00be
00000200: 787f cb3c 1552 16bd 4b27 ad3c 49f8 b0bd
00000210: 7de4 eb3c 1ee9 f23d ff1c 3bbd 39be c03d
00000220: 23e9 e8bd 1cc0 32bd 1bda ddbd 664d adbd
00000230: 6ed7 623d 13c0 1dbc a6f1 db3c 6a89 d33c
00000240: bfdf 4fbd 6b2b eebd 5d96 9dbd f07a ab3c
00000250: 9f18 303d 74b5 733d 7928 f4bc 8798 aa3d
00000260: ef4b d63c 6868 a13d 54ce 8cba 3876 26bd
00000270: 8ad6 9abd 6b42 1f3e 388b fdbc 36c8 ae3d
00000280: f1e3 8ab9 e3ae 60bb 064a 823b 1744 3c3e
00000290: e18d 30be 5556 8bbe 6668 f8bd 4d1c 4abd
000002a0: ff43 903d a360 293d fbfc 753e 576a 5cbd
000002b0: d647 723d b1d2 623d 99d6 04bc 338e 4f3b
000002c0: eea3 113e 91a8 c6bd 7f85 a93d 5075 39bd
000002d0: 3e8f a0bd b93d adbb b524 29be 288e 873d
000002e0: 6509 ffbc 1436 f6bd 2163 a23d d303 44bd
000002f0: eadd ec3c 68a6 413d 1c33 a7bd 0643 02be
00000300: bb7c 9a3c b28b 8cbd 8920 d6bd 02c3 81bd
00000310: 1f56 87bd f464 32bd 7717 2b3d ba9c 33bd
00000320: b9d8 cc3d 3919 1c3e 5657 85bc 50a2 a9bd
00000330: 29f0 d0bd be07 293e 208f 723c d3d9 10be
00000340: 78d3 35be d2f2 84bc 6f73 b73c e5ec c8bc
00000350: fb83 833d e809 483e 665b 64bd c14e e53c
00000360: a538 b33d c6d4 3fbd bc9b 963c fc16 81bd
00000370: 3147 e7bd 0299 9f3d a91c 1d3e 1349 77bd
00000380: 74e0 223e 7901 c5bd c687 183d 9cf5 12bd
00000390: 3819 acbd 5ae7 57bd 18d1 f93d e24b 59bb
000003a0: 2a11 45bd 686c 363e 8409 4a3e 9f46 12bc
000003b0: 9a4b 043d 91dc 033e 9f82 8a3d 40ea 78bc
000003c0: 1b80 8bbb dd9e 04be 7633 49bd b693 813d
000003d0: 55be dd3b c1f4 06be 15c3 72bd 64fb 97bb
000003e0: 5c33 e5bb a2ad aa3c 5899 d23d 9a6c 173d
000003f0: a2c3 243d 9df6 a53d 1c64 54bd d136 fdbc
0.031135274 0.1346271 -0.13978298 0.06055302 -0.04867227 -0.03650264 -0.07413278 -0.024685428
-0.034297567 -0.1877636 0.095311865 0.07672144 -0.100364566 -0.22073296 -0.024875993 -0.016611401
-0.17016487 0.0047414945 -0.06633017 0.03245195 0.12398594 0.12942225 0.018141827 -0.08601449
0.10655459 0.11630454 0.16962713 -0.061020862 -0.016604416 0.06866193 0.11456529 -0.048779577
-0.0667709 0.10030349 -0.040973477 -0.0011430631 -0.05494781 0.040688355 -0.14090478 0.07830817
0.00092954014 0.15975766 -0.019836646 -0.055709317 -0.11837845 -0.1380513 0.09363204 0.0042280564
0.12574725 -0.029077046 -0.11130529 0.01885257 -0.019573791 0.1306316 0.09752833 -0.12412638
-0.017642478 -0.047903445 0.11196319 -0.060585864 -0.09475951 -0.14382787 0.11814574 -0.023966394
0.15927479 -0.0108314995 0.12668864 0.028954409 -0.037342187 -0.040493697 -0.0006387109 -0.11233253
-0.059613753 -0.04409845 -0.064468525 0.023619367 -0.034724932 0.052056927 -0.11913532 -0.0725795
-0.15840301 0.025755063 0.06918332 -0.005866106 0.0865208 0.040902797 0.07612753 -0.029368687
-0.039284844 -0.13082463 0.014303683 0.007840407 0.08162587 0.027709635 -0.107380815 -0.024613572
0.09302209 -0.012819229 0.16805822 0.1308169 0.14207333 -0.12923561 -0.16032627 0.09891599
0.03530483 -0.033190083 -0.00024092253 0.007761521 0.07920318 -0.001713996 0.04544123 -0.09161708
-0.0794703 -0.14504644 0.098047905 -0.022095867 -0.01342713 0.04681872 -0.08639034 0.062434755
0.13346449 -0.065462135 -0.07901896 -0.09621659 0.020176115 -0.026036559 0.10987841 -0.12518404
0.024841055 -0.036699373 0.0211369 -0.08641107 0.028795475 0.1186087 -0.04568195 0.09411282
-0.11372592 -0.04364024 -0.10832616 -0.08462028 0.05538123 -0.009628314 0.026848625 0.02582236
-0.05075049 -0.11629375 -0.07694695 0.020932645 0.04299223 0.05949922 -0.029804455 0.083298735
0.026159255 0.07881242 -0.0010742643 -0.040640086 -0.07560451 0.1555268 -0.030950174 0.08534281
-0.0002649124 -0.0034283928 0.0039761094 0.18385349 -0.17241623 -0.27214304 -0.121292874 -0.049343396
0.07044219 0.041351926 0.24022286 -0.05381235 0.05915054 0.055376712 -0.008107805 0.003167045
0.1422269 -0.0970012 0.082774155 -0.045277894 -0.07839821 -0.005286899 -0.16517909 0.06618911
-0.03113241 -0.12022033 0.079290636 -0.04785521 0.02891441 0.047277838 -0.08164045 -0.1272088
0.018858304 -0.06862582 -0.10455424 -0.06336023 -0.06608223 -0.043553308 0.041770425 -0.043850638
0.10002274 0.15243997 -0.016276997 -0.08282912 -0.10202057 0.1650686 0.0148046315 -0.14145593
-0.1775645 -0.016229067 0.02239391 -0.024527023 0.06421658 0.19535029 -0.055751227 0.027991654
0.087510385 -0.046833776 0.018384807 -0.06303212 -0.112928756 0.07792856 0.15342964 -0.060372423
0.15905935 -0.096194215 0.03723886 -0.035878763 -0.084032476 -0.05271087 0.121980846 -0.0033156802
-0.048112072 0.17814791 0.19730192 -0.00892797 0.03229866 0.12877108 0.06763195 -0.015192568
-0.0042572147 -0.12951227 -0.049121343 0.06327002 0.006767074 -0.13179304 -0.059268076 -0.0046381224
-0.006994648 0.020834748 0.10283154 0.036968805 0.040225632 0.081036784 -0.051853284 -0.030909928

encoder.feature_extract.mlps.0.linears.2.bias f4 [128]
00000000: f261 db3a e76b d4b8 4faa 4a3a 5d6a 883a
00000010: f4bc 55bb 4117 2939 ad37 0fbb 594f 333a
00000020: a496 b5ba 5775 163b 82eb 00bb 36c6 01bb
00000030: bac2 67bb b0a2 633a 753d 26bb 9759 73ba
00000040: 3ba7 fe39 6334 feba acb4 90ba e7c9 363a
00000050: fcf3 e4ba 2d9a 36bb eb46 5dba c595 00bb
00000060: bf59 063a bd3d 553b 16c7 4ab9 3cb9 ffb9
00000070: c0bc 0aba 8ed5 ceb9 4b04 9539 70cf 7639
00000080: 2ecf 55ba 0bef d83a cfcc 813b a20a 58b9
00000090: 395a daba 7e8c 6538 75d3 ad39 bff3 87ba
000000a0: 1f3a de3a d315 88ba 81aa 193a 3044 5eb9
000000b0: 3c30 78bb bdc5 81b9 ea73 713b 4556 223a
000000c0: eec4 2f3b a042 113a a5c6 503a ccda 69b9
000000d0: 94b0 843a 7df5 2dba a741 203b ce4e d538
000000e0: b1b9 563b 9c68 4cba 53db c638 3ed8 aeba
000000f0: 10bc 5ebb a361 163b 8477 953a 3a34 593a
00000100: 2376 8039 7d92 f8b7 776b 273b af09 87bb
00000110: cf50 1fbb 1427 95bb 622d e6b9 3477 083b
00000120: 7b97 95bb b7c3 203b f431 fe3a 6a05 4339
00000130: 81a8 38ba 357e 16bb 4072 eb39 1ca6 c739
00000140: 8b78 ccba 4488 a5b9 565a 64b8 001e 713a
00000150: 673e 173a 8002 9f3a e83f 40b9 5fe5 d2ba
00000160: ffc2 413b 4b7f 75ba eddf 3dbb 1463 8bbb
00000170: c3b1 0bba 6bbc 9bba 97d2 69bb bf4e e83a
00000180: a2eb 90b9 5b4a f1ba 5a01 553b a907 18b6
00000190: b090 09ba 8014 d1ba 39a7 82ba 87e4 fa3a
000001a0: 6e0b 8aba f51b bf3a dc1f d33a 9008 99ba
000001b0: 0564 74bb bc29 9d3a 285e 083a e333 c6ba
000001c0: 0873 9d39 031f a83a 61cf a83a 9d77 c63a
000001d0: e200 82ba 092e b53a f704 d939 08d4 6fba
000001e0: c256 ac3a 3ac3 0339 e162 42bb 9b39 9a3a
000001f0: de76 e739 5c47 153a f750 08bb c1ef 5339
0.0016737564 -0.00010129046 0.00077310664 0.0010407675 -0.0032613846 0.00016125759 -0.0021853254 0.0006840132
-0.0013854099 0.0022958124 -0.0019671624 -0.001980198 -0.0035363869 0.0008683605 -0.002536622 -0.0009283064
0.00048571252 -0.0019394275 -0.0011040173 0.0006972835 -0.0017467733 -0.0027862892 -0.00084410486 -0.001962052
0.00051250675 0.003253802 -0.00019338386 -0.000487754 -0.0005292408 -0.00039450492 0.00028422693 0.00023537665
-0.00081561774 0.0016550733 0.0039611827 -0.00020603326 -0.0016658969 5.4728698e-05 0.0003315468 -0.0010372325
0.0016954577 -0.0010382481 0.0005861894 -0.00021196972 -0.0037870547 -0.00024752124 0.0036842772 0.0006192665
0.002682026 0.0005541239 0.00079641707 -0.0002230212 0.0010123425 -0.0006636007 0.0024453194 0.0001017131
0.003276449 -0.00077975704 9.482228e-05 -0.0013339592 -0.0033986606 0.002294638 0.0011403416 0.00082856754
0.0002450208 -2.9632118e-05 0.0025546232 -0.0041210274 -0.002430964 -0.0045517776 -0.0004390283 0.0020823004
-0.004565177 0.0024530718 0.0019393549 0.00018598666 -0.0007044152 -0.002296341 0.00044907816 0.0003808
-0.001559989 -0.00031572778 -5.4443568e-05 0.0009197891 0.00057694915 0.0012131482 -0.00018334354 -0.0016090086
0.002956569 -0.00093649764 -0.0028972581 -0.0042537544 -0.0005328918 -0.0011881714 -0.00356785 0.0017723663
-0.0002764138 -0.0018409 0.0032502026 -2.2654224e-06 -0.00052476954 -0.0015951544 -0.0009968049 0.0019141593
-0.0010531971 0.0014580475 0.0016107517 -0.0011675525 -0.0037291062 0.0011990587 0.00052020187 -0.0015121665
0.00030031078 0.0012826625 0.0012879187 0.0015141849 -0.0009918476 0.0013822924 0.00041393164 -0.00091487216
0.0013148414 0.00012565861 -0.0029660987 0.0011766435 0.00044148316 0.00056945323 -0.0020800212 0.00020211843

encoder.feature_extract.mlps.0.batch_norms.0.weight f4 [128]
00000000: c044 7f3f 6244 803f a314 7f3f bb94 7f3f
00000010: 7615 7f3f db0c 803f a9ab 7d3f 1531 7f3f
00000020: 87e1 7e3f 4608 803f f373 803f 68a5 7e3f
00000030: dcde 7f3f 62c8 803f 2d23 7f3f d0f4 7f3f
00000040: 9364 7f3f 47a1 803f e8c9 7f3f 5e6c 7f3f
00000050: f84f 7f3f a459 803f 3c63 803f 8c12 7f3f
00000060: 19b8 7f3f e0a0 803f 2300 803f 9ce3 7f3f
00000070: cb38 7f3f d29f 803f 9104 803f 3726 7f3f
00000080: d43c 803f f691 7f3f 6b6e 7f3f 9fd0 7f3f
00000090: f348 7f3f aa04 7f3f fcdd 7f3f 20df 7f3f
000000a0: 9f74 803f 64f2 7e3f 5e5b 7f3f dca9 803f
000000b0: 038f 7f3f 7fe6 803f b260 803f dba6 7f3f
000000c0: 22a5 803f 5377 803f 9e52 7e3f 6bb7 7f3f
000000d0: be51 803f b663 803f 723a 7f3f 2803 803f
000000e0: 1fa7 803f 380e 813f 0e7a 803f 487c 803f
000000f0: e494 803f 06a3 803f c05c 803f 5c95 7e3f
00000100: f9ed 803f fe75 7f3f b880 803f dba9 803f
00000110: c7d2 803f 0801 7e3f 561d 813f d010 7f3f
00000120: 288c 7e3f 906b 803f 2757 7f3f aa2f 803f
00000130: c798 7e3f 6d7d 803f e95d 7e3f 05db 7e3f
00000140: 557e 803f 26b5 7f3f c95b 803f 4358 7f3f
00000150: 357d 7f3f f6ee 7f3f 2111 803f 6d0a 803f
00000160: a817 803f 75fa 7e3f b27b 7f3f f89e 7f3f
00000170: baf8 7f3f a1ee 7e3f 3b4a 803f 2a55 803f
00000180: 2c79 803f 7d89 7f3f a68a 803f 94a6 7f3f
00000190: 3613 803f 39b9 7f3f 49f7 7f3f d67a 7f3f
000001a0: 7e6c 803f fdb8 803f 11be 803f 2cf0 7f3f
000001b0: c76c 7f3f e068 803f 0072 803f 851e 803f
000001c0: c38b 7f3f f163 803f 4d76 7e3f 95b5 7f3f
000001d0: f560 803f 4e49 803f eedc 803f 67e4 7f3f
000001e0: 2cf6 803f 90a1 7e3f ea32 813f 22a6 7e3f
000001f0: caed 7f3f 07f7 7e3f 194b 803f 3587 7e3f
0.9971428 1.0020869 0.99640864 0.9983632 0.9964212 1.0003923 0.9909006 0.9968427
0.9956288 1.0002525 1.0035385 0.9947114 0.9994943 1.0061152 0.9966305 0.9998293
0.9976284 1.0049218 0.9991746 0.9977473 0.997314 1.0027356 1.0030284 0.99637675
0.99890286 1.0049095 1.0000042 0.9995668 0.99696034 1.0048773 1.0001394 0.99667686
1.0018563 0.99832094 0.9977786 0.99927706 0.99720687 0.9961649 0.99948096 0.99949837
1.003559 0.9958861 0.9974879 1.0051837 0.99827594 1.0070342 1.0029509 0.99863976
1.0050395 1.0036415 0.99344814 0.9988925 1.0024946 1.0030429 0.99698555 1.0000963
1.0051001 1.0082464 1.0037248 1.0037928 1.0045438 1.0049751 1.0028305 0.99446654
1.0072623 0.99789417 1.0039282 1.0051836 1.0064324 0.99220324 1.0087078 0.9963503
0.9943261 1.0032825 0.9974236 1.0014546 0.9945187 1.0038277 0.99362046 0.9955295
1.0038553 0.99885786 1.0028011 0.9974405 0.99800426 0.99974 1.0005227 1.0003182
1.0007219 0.9960092 0.9979812 0.9985194 0.999889 0.9958287 1.0022653 1.002599
1.0036979 0.99819165 1.0042312 0.99863553 1.0005863 0.99892 0.999867 0.9979681
1.0033109 1.0056454 1.0058004 0.9997585 0.99775356 1.0032005 1.003479 1.0009314
0.99822634 1.00305 0.9939926 0.9988645 1.0029589 1.0022371 1.0067422 0.9995789
1.0075126 0.99465275 1.0093663 0.9947225 0.9997221 0.99595684 1.0022918 0.9942506

encoder.feature_extract.mlps.0.batch_norms.0.bias f4 [128]
00000000: 57cd 3c3b 3288 b039 eedf 0dbc 9a9f c9bb
00000010: 3cf3 12bb 7193 fe3a 084f 11bc cb86 afbb
00000020: 66de eaba 015d 45bb 4b61 c5ba 4a2f f0ba
00000030: 2c84 2d3a 9b5b a53b e7eb 2bba 9cc5 383b
00000040: 83ed 1bb6 ef6d 873b 2454 76bb 3341 a1bb
00000050: a54e 513b bcb0 d6ba a797 c5ba 0fc0 ccbb
00000060: 795d 033c 7335 66b9 c712 e5bb b839 c8bb
00000070: aef6 86bb d714 f63b e827 dd3b 8a39 dcbb
00000080: c53f dc3b fd98 56bb 7e56 50ba a688 92bb
00000090: 8f17 b9bb b6fe 1bbb b7de bfbb 8e28 dcba
000000a0: 2957 fe3a 6199 65bb 81d3 38bb 98a5 72bb
000000b0: 9136 763b 85d4 033c fe97 bb3b edbe bdbb
000000c0: 996e 423b 6df3 bb3b 8555 9dbb 2931 b33a
000000d0: 8ffc 1239 18d0 353b 1ec8 b8bb 93de 93bb
000000e0: c36a 813b cd35 1c3b 7c47 c53b 3622 c4bb
000000f0: 00f1 203b 6954 fa3b 5a34 383b f35e 9dbb
00000100: 34e8 4fbb a786 013a a002 893b 4a81 5abb
00000110: d317 2f3c e249 79bb 38dc fe3b d148 fdbb
00000120: c102 b9bb 697e 853b b98d 4dba d867 f1bb
00000130: 9c4f c4ba e5c5 953b 6d79 c9bb 9ea0 ac3a
00000140: a331 753b b334 963b b725 5a3b 28bd 75bb
00000150: a3a6 81bb 51fb 1d3b ce20 c33b a26c e33a
00000160: 9b27 843a 9eff 04bc 848d 9abb bda3 cfba
00000170: 3786 06bc c687 ffbb 794f 663b bd3e 25bb
00000180: 8e2c 85bb d9d9 eabb da1b 393a 9fc9 a6bb
00000190: 54e4 dfb9 fc79 ee39 be3e bcbb e6d9 d1ba
000001a0: fad9 103c 11e4 d5bb 935c 413b 8579 993a
000001b0: 2cfc 33bb ea81 233b 2461 383b 1bba de3a
000001c0: c4e3 d0ba 2e5e 873a 5814 fbbb cf80 9d3b
000001d0: da53 123b 8317 66b9 8561 9f3b d507 44bb
000001e0: 2d61 6aba 9de6 a7bb 7d68 993b 7b2b 85bb
000001f0: ad24 a8ba 349e edb9 e66b 653a a8fc c4bb
0.0028808916 0.0003367081 -0.008659346 -0.006153059 -0.002242281 0.0019422603 -0.00886894 -0.0053566447
-0.0017919063 -0.003011525 -0.0015058903 -0.001832464 0.00066191214 0.0050463206 -0.00065582845 0.0028193956
-2.323505e-06 0.004132978 -0.0037586773 -0.0049211024 0.0031937745 -0.0016379575 -0.0015075103 -0.006248481
0.008017891 -0.0002195442 -0.006990764 -0.0061103962 -0.004118762 0.0075098085 0.006749142 -0.0067207264
0.006721469 -0.0032744997 -0.00079474587 -0.004471856 -0.0056485604 -0.0023802943 -0.005855407 -0.0016796754
0.0019404638 -0.0035034048 -0.0028202238 -0.003702497 0.0037569145 0.008046274 0.005724906 -0.0057905824
0.0029667972 0.0057358057 -0.0048014545 0.0013671267 0.0001401773 0.0027742442 -0.00563909 -0.004512617
0.0039494946 0.0023835779 0.0060204845 -0.0059855236 0.002455771 0.007639457 0.0028107376 -0.0048025786
-0.0031724097 0.0004941024 0.004181221 -0.0033341222 0.0106868325 -0.0038038422 0.007777717 -0.0077296277
-0.0056460802 0.004073907 -0.0007841248 -0.0073671155 -0.0014977339 0.00457071 -0.0061485083 0.0013170426
0.003741362 0.004583919 0.003328664 -0.003749678 -0.003956632 0.0024106095 0.0059548384 0.0017351101
0.0010082604 -0.0081175845 -0.004716577 -0.0015841644 -0.00821071 -0.007798168 0.0035142584 -0.0025214397
-0.004064149 -0.0071670827 0.000706134 -0.005089953 -0.00042703992 0.00045485783 -0.005744784 -0.0016010373
0.008841032 -0.006527432 0.0029504641 0.0011709189 -0.0027463539 0.002494926 0.0028134072 0.001699272
-0.001593702 0.001032775 -0.0076623373 0.004806615 0.0022327811 -0.00021943268 0.00486392 -0.0029911895
-0.0008940872 -0.005123927 0.0046816454 -0.004064021 -0.0012828313 -0.00045322033 0.0008751735 -0.0060115643

encoder.feature_extract.mlps.0.batch_norms.0.running_mean f4 [128]
00000000: eaf7 97bd 9131 0cbc d45b 763c 941c 87bd
00000010: a92d 443d e58b d5bd d1d9 babc c5ca ce3d
00000020: 4236 a03c 5b97 b0bd aa38 373d 0caf 48bd
00000030: 0060 d23d 19de 723d cd7b 083e 95e8 893d
00000040: 3b95 18bd c094 0b3e 74b6 763c ab54 dfbc
00000050: 9d1b 963d 1de9 c33d e1db 443d bdba 513d
00000060: e148 1e3e 436a 3d3d 009f 2bbd f6d7 0b3e
00000070: 9eea b23d 645d 803d 4c7b a5bb cd28 bd3d
00000080: 7dc2 00bd f7e4 cb3d d27d 9bbc 5a53 93bc
00000090: f630 913d 799f bf3d f896 c33d 7b43 1dbe
000000a0: 6078 923d fd3d 1d3c b533 03bd dc26 a8bd
000000b0: d8a9 863d 10a3 b5bd f187 99bd 9f17 553e
000000c0: 68b4 6fbe e102 6fbd 8e0e 25be f7aa 313b
000000d0: 6998 47be 92e9 2ebe 3326 bb3d febf 903c
000000e0: 6f17 4dbd 3f94 d03c 9ff6 58bd 2ef5 45bd
000000f0: 4e33 0b3e f25a b73d b84f 41bd 1154 8c3d
00000100: c6dd bb3d e8b8 c5bd a05b 063e 7c40 1c3d
00000110: 9f38 babd 229e ddbd 8285 863d def1 c8bd
00000120: d2e6 f03d 0d7f cdbc 615b b83d b88a 5f3c
00000130: 9c88 8b3d 42fd db3c 7067 633d 5e7c 4e3d
00000140: d846 253e 08d9 423b 4e3e 1ebd c27e b1bd
00000150: b751 91bd 290e 313d 141f 173b 2abc 64bd
00000160: fa95 85bd 736e ddbc 4d1c 113e 2cd6 433e
00000170: 8368 793d 4c41 943c 9753 c6bd be5f b1bd
00000180: 0836 6abd 9c76 973d 178c 073d 2303 843e
00000190: ddaa 3ebd be2d 94bd 2907 e2bd cd7d 2c3d
000001a0: d75d 973c a47b 41bd 6ec6 9fbd 9b06 a2bc
000001b0: 488b 123d 22ff e23d 9f7c f33d 5c1f ec3b
000001c0: 58bd b83c 465f 573d c275 de3b b4c3 3dbd
000001d0: 805e 91bb 677e 463e 521f 5b3d 854c ccbd
000001e0: 7f84 e13c 7ee7 b0bd 0252 71bd b23b 37bd
000001f0: 1c71 653d 0e56 a83d 5ac6 bd3d 2a66 a13d
-0.07420333 -0.008556739 0.015036542 -0.06597248 0.047895107 -0.104270734 -0.022808941 0.10097269
0.019557122 -0.08622619 0.044731773 -0.048995063 0.10272217 0.05929384 0.13328476 0.067338146
-0.037251692 0.13630962 0.015058149 -0.027262053 0.073294856 0.09565947 0.048061255 0.051203478
0.15457489 0.046243917 -0.04189968 0.13656601 0.08736156 0.06267813 -0.0050500985 0.09236298
-0.03143548 0.09955781 -0.018980894 -0.017984081 0.07089417 0.09356589 0.095502794 -0.15357773
0.07151866 0.009597299 -0.032031734 -0.08210537 0.06575364 -0.08868992 -0.07496632 0.20809792
-0.23408663 -0.058352355 -0.16118833 0.002710996 -0.19491734 -0.17081288 0.09138145 0.017669674
-0.050071176 0.025461314 -0.05296957 -0.048329525 0.1359379 0.08952893 -0.047195166 0.06851972
0.09173159 -0.09654409 0.1312089 0.038147435 -0.09092831 -0.10821177 0.06568433 -0.098117575
0.117627755 -0.025084997 0.09001804 0.013643913 0.068131655 0.026854161 0.055518568 0.050411575
0.16140306 0.0029731411 -0.038633637 -0.08666755 -0.07095664 0.043226395 0.0023059295 -0.05584351
-0.065227464 -0.027030205 0.14170952 0.19124669 0.060890686 0.018097542 -0.09683912 -0.086608395
-0.057180434 0.0739567 0.033092584 0.25783643 -0.046549667 -0.07235287 -0.11036522 0.04211216
0.018477364 -0.047237054 -0.07801519 -0.01977854 0.03577736 0.11083819 0.11889004 0.0072058868
0.022551224 0.052581094 0.00678894 -0.046329215 -0.004436314 0.19384156 0.053496666 -0.099755324
0.027529 -0.08637904 -0.0589161 -0.044734664 0.056016073 0.08219539 0.09266348 0.078808144

encoder.feature_extract.mlps.0.batch_norms.0.running_var f4 [128]
00000000: 8505 db38 286d ac39 8646 b138 26b6 1739
00000010: d935 9438 8441 6a39 dcab c839 2356 073a
00000020: 7931 3b38 161c 0839 b267 4c39 7144 1439
00000030: cf78 163a d275 c638 35fd b939 23ab de38
00000040: d8e3 5938 e5d2 063a d6e4 d536 712f 6338
00000050: 2dc4 b339 1e6b 7939 e8db df39 5d58 e738
00000060: e664 343a 4bad 5739 406e d338 c68c 523a
00000070: cce0 a639 fbe6 d438 0506 1c38 ac3d b039
00000080: 1a6c c938 4cf2 af39 c471 c938 abad 1e38
00000090: 95b5 bb39 37df 4e39 165a ae39 756c 163a
000000a0: 4a92 d338 353d 2537 9bc0 c439 819f 0539
000000b0: 4519 8d39 26a3 053a 1b60 e138 5bbc 4d3a
000000c0: 4680 c03a 9992 6a38 cf1b 043a b40c 4a39
000000d0: 0b42 c13a 685e bf3a 9624 3c39 9346 9038
000000e0: 0c14 8838 4ab5 4038 e167 f939 6796 cb38
000000f0: d7ce bb39 3ddc 1539 05ab bf38 b885 c039
00000100: 5d2f 4d39 cef5 7939 8fc0 0e3a c1ad a238
00000110: a044 2c39 8047 a539 48d0 8339 41ab 4139
00000120: e3b9 9339 7e31 fd36 5051 a539 0fc6 2337
00000130: 8907 033a 46aa b739 5e0d 3c39 4578 8739
00000140: bebf 033a 057b 5b36 9d57 3a3a 6524 4b39
00000150: 804a b038 7582 4039 4ba5 5f39 0c84 6038
00000160: e5f0 e938 d3d3 f938 db3a 823a 913c f83a
00000170: b54f a039 f8ea 1739 9f44 593a b9ed a139
00000180: b21c 8c38 8af2 d038 df9a c338 7638 c73a
00000190: 1e94 133a fb50 8039 bfaa 6739 e32d 9039
000001a0: b1d7 b939 e69b 3338 16bd 1c3a 28de 5839
000001b0: 9fbd 9e3a 9eb9 7739 bbd6 9c39 beb3 6f38
000001c0: 73a5 013a a711 0439 7475 f335 a741 7939
000001d0: 266e fd36 ab78 543a fcc8 2639 5a67 5439
000001e0: 27fd 2939 ce41 833a 8f59 8d38 6494 2038
000001f0: 017f cc38 0a6f 033a a6c5 2c39 3bca f238
0.00010443762 0.00032887724 8.453154e-05 0.00014468338 7.06722e-05 0.00022340385 0.00038275018 0.00051626767
4.463035e-05 0.00012980434 0.00019493586 0.00014139876 0.0005740048 9.4633215e-05 0.00035474604 0.000106176616
5.1949028e-05 0.000514312 6.3745347e-06 5.41652e-05 0.00034287703 0.00023786395 0.00042697717 0.00011031397
0.000688149 0.00020568554 0.000100818 0.0008031841 0.00031829474 0.00010151971 3.7198904e-05 0.00033615285
9.6045624e-05 0.00033559126 9.6056174e-05 3.7831876e-05 0.0003580271 0.00019728845 0.00033254985 0.0005738207
0.000100885125 9.849017e-06 0.00037527535 0.00012743288 0.00026912443 0.00050978584 0.00010746737 0.00078481965
0.0014686666 5.5926477e-05 0.0005039544 0.00019268953 0.0014744414 0.0014600279 0.00017942706 6.8796006e-05
6.4887194e-05 4.5945206e-05 0.00047570377 9.707809e-05 0.00035821527 0.00014291792 9.1394446e-05 0.00036720722
0.00019567968 0.0002383806 0.00054455636 7.757126e-05 0.00016428763 0.00031524524 0.0002514145 0.00018469711
0.0002817652 7.545749e-06 0.00031531835 9.761671e-06 0.0004998376 0.00035031344 0.00017934057 0.00025838814
0.0005025825 3.270515e-06 0.00071083923 0.00019373147 8.406211e-05 0.00018359146 0.00021328514 5.352874e-05
0.00011155176 0.000119127006 0.0009935753 0.0018938949 0.00030576964 0.00014488015 0.00082881184 0.0003088543
6.681065e-05 9.963389e-05 9.3271716e-05 0.0015199322 0.0005629676 0.00024474398 0.00022093485 0.0002750001
0.00035446652 4.2822117e-05 0.0005979104 0.00020682125 0.0012110955 0.00023624903 0.00029914625 5.714944e-05
0.00049456133 0.00012595077 1.8139094e-06 0.00023770948 7.5528105e-06 0.0008105139 0.00015905866 0.00020256397
0.00016211403 0.0010014118 6.7400855e-05 3.8285172e-05 9.751134e-05 0.00050137995 0.00016476828 0.000115771276

encoder.feature_extract.mlps.0.batch_norms.1.weight f4 [128]
00000000: 64e8 7f3f 7be3 7e3f b788 803f 2664 7f3f
00000010: a92a 803f 5fea 7e3f d68c 803f 2852 803f
00000020: ba5a 803f 1266 7f3f 5003 7f3f d0bb 803f
00000030: 6dc3 7e3f 8791 803f 3dca 7e3f ac7d 803f
00000040: 6443 803f 74db 7d3f 4d68 803f d1a9 7f3f
00000050: 5593 803f 2c92 803f bf47 7f3f 967a 803f
00000060: b3fc 803f d7d8 7f3f 756b 7e3f 42c1 7f3f
00000070: 29fa 7f3f c258 7e3f a0fb 7e3f fe7f 803f
00000080: 8f2c 803f 1716 7f3f 7568 803f 399b 7e3f
00000090: b9b8 7f3f ff02 803f c063 803f 293b 7f3f
000000a0: 3664 803f 0a80 803f c53e 803f 240a 803f
000000b0: 5a06 7f3f cb9d 803f f66b 803f c43e 803f
000000c0: 3ddd 7e3f 364f 7f3f b42b 803f 2f48 803f
000000d0: c6b4 803f b167 7e3f 4c12 803f 0a06 7f3f
000000e0: 6d46 803f fc53 803f 5a1b 803f e928 7e3f
000000f0: d3ef 803f f328 7f3f ae72 7f3f 5074 803f
00000100: ef7a 7f3f fec0 803f 64b7 7f3f d641 803f
00000110: a379 7e3f f04c 7f3f de29 7f3f 39ad 7f3f
00000120: bef4 7f3f 4ae8 7f3f 731e 7f3f 57da 7e3f
00000130: 1731 803f 10c0 7e3f b366 7f3f b0a5 7f3f
00000140: c62a 7f3f 0516 813f 951a 803f d3a4 803f
00000150: f544 803f 9f00 803f 6921 803f 8546 803f
00000160: 21dd 7e3f 9ddb 7d3f 63b0 7e3f 973c 803f
00000170: 96b8 7f3f e91f 7e3f e546 803f 6355 803f
00000180: 5582 7e3f 88d0 803f 1a40 7f3f b107 803f
00000190: 1335 803f 6e59 7e3f 96c5 7e3f 73a9 803f
000001a0: 1cd4 803f 2402 803f 5d5f 7e3f 6471 7e3f
000001b0: c5b2 803f 6816 803f c50c 7f3f 0c34 803f
000001c0: 2e6f 803f 22bb 7f3f 71c5 7e3f fb00 813f
000001d0: 701a 813f 9e42 803f 4024 803f f896 803f
000001e0: 0ef4 7e3f 4cb1 7f3f d85e 803f 5498 803f
000001f0: b4c2 7f3f 68aa 803f 453c 7f3f b2b0 803f
0.99963975 0.9956586 1.0041722 0.9976219 1.0013019 0.9957637 1.004298 1.0025072
1.0027688 0.9976512 0.9961443 1.0057316 0.99516946 1.0044411 0.9952734 1.0038352
1.0020566 0.99162984 1.003183 0.99868494 1.0044962 1.0044608 0.9971885 1.003741
1.0077118 0.99940246 0.99382716 0.99904263 0.9999109 0.99354184 0.996027 1.003906
1.0013598 0.9964308 1.0031878 0.994556 0.9989124 1.0000914 1.0030441 0.99699646
1.0030582 1.0039074 1.0019156 1.0003095 0.99619067 1.0048155 1.0032947 1.0019155
0.9955633 0.9973024 1.0013337 1.0022029 1.0055168 0.9937697 1.0005584 0.9961859
1.0021492 1.002563 1.0008347 0.99281174 1.0073189 0.9967186 0.9978436 1.0035496
0.99796957 1.0058897 0.99889207 1.0020092 0.9940435 0.9972677 0.9967326 0.9987369
0.9998282 0.9996382 0.99655837 0.9955191 1.0014981 0.99511814 0.9976608 0.99862194
0.9967464 1.0084845 1.0008112 1.00503 1.0021044 1.000019 1.0010196 1.0021521
0.99556166 0.9916323 0.99487895 1.001849 0.9989103 0.9926744 1.0021635 1.0026058
0.9941762 1.0063639 0.99707186 1.0002347 1.0016197 0.9935521 0.9952024 1.0051712
1.0064731 1.0000653 0.9936426 0.9939177 1.0054556 1.0006838 0.9962886 1.0015883
1.0033929 0.99894917 0.9952002 1.0078424 1.0086193 1.002033 1.0011063 1.0046072
0.9959115 0.9987991 1.0028944 1.0046487 0.9990647 1.0052004 0.9970134 1.0053923
