DRL coding/saved_network/FJSP_J15M15/100_19/policy_mch.pth (torch, 274615 bytes, 14 tensors)

bn.weight f4 [128]
00000000: 03bb 7e3f 05a7 7f3f 0bdf 7f3f 9430 803f
00000010: d662 803f 3b23 803f 88bc 7f3f e37f 803f
00000020: b0db 7e3f 302d 803f e8a1 7f3f 3518 803f
00000030: 8de0 7f3f 58db 7f3f 339b 7f3f 02e8 7f3f
00000040: 144e 803f 7a60 7f3f af2e 803f 5e4b 7f3f
00000050: bf26 803f fdb8 803f 0e19 803f 4479 7f3f
00000060: 4ee1 7e3f dfe9 7f3f e0b8 803f d0ac 803f
00000070: fa9b 7e3f ccd8 7f3f ba74 803f 742f 803f
00000080: 02b9 7e3f 6e72 7f3f d4ae 7e3f 97cb 803f
00000090: 767e 7f3f d41b 7f3f 6731 7f3f 1baf 7e3f
000000a0: ec74 803f 53e2 7e3f d141 7f3f f949 803f
000000b0: 4469 7f3f 4a2a 803f 377b 7f3f 963a 7f3f
000000c0: 9c67 7e3f 814b 803f 2451 803f 3464 7f3f
000000d0: c50a 803f 5068 803f ddd9 7e3f 98cc 7e3f
000000e0: 1c76 803f bce7 803f 9527 803f 575b 803f
000000f0: 08ef 7e3f 7000 803f f783 7f3f b2f1 7f3f
00000100: 3179 7f3f 0ef4 803f 9a2b 803f 9839 7f3f
00000110: 84dc 7e3f 0b98 7f3f efbd 803f 1606 7f3f
00000120: c11e 803f 189b 803f b438 7f3f a144 7e3f
00000130: c396 803f 02cd 803f 64bb 803f 2f17 7f3f
00000140: a2de 7f3f 45bb 7f3f 6854 803f b746 7f3f
00000150: 9984 803f 2fa7 803f 7c83 7f3f d20c 7e3f
00000160: 349f 7f3f b190 803f 9598 803f f4a0 803f
00000170: dd5d 7e3f c429 7f3f a51a 803f cd96 803f
00000180: f7a2 7f3f a496 803f f8bf 7f3f 0853 803f
00000190: 7ec5 7f3f df4a 803f 6a07 803f a4fb 7e3f
000001a0: d729 803f ec4b 803f e816 803f efe3 7f3f
000001b0: e04f 803f 1593 803f a5d3 803f 846f 803f
000001c0: 9876 803f 0c56 7e3f 843e 803f c71d 803f
000001d0: 603b 803f 752e 7e3f 9c7c 803f 9c00 7f3f
000001e0: 396f 7f3f 3a32 803f 2537 803f 02aa 7f3f
000001f0: 510d 7f3f a4cb 803f 2ca9 803f 2159 803f
0.9950411 0.99864227 0.9994971 1.0014825 1.0030162 1.0010751 0.9989705 1.0039028
0.99553967 1.001379 0.99856424 1.0007387 0.9995201 0.99944067 0.9984619 0.9996339
1.0023828 0.99756587 1.0014247 0.99724376 1.0011824 1.0056454 1.0007646 0.9979441
0.9956254 0.99966234 1.0056419 1.0052738 0.9945675 0.9994018 1.0035622 1.0014482
0.9950105 0.9978398 0.99485517 1.0062131 0.9980234 0.9965184 0.99684757 0.9948594
1.0035682 0.99564093 0.997098 1.0022575 0.9977 1.0012906 0.99797386 0.9969877
0.99376845 1.0023042 1.0024762 0.9976227 1.0003287 1.0031834 0.99551183 0.99530935
1.0036044 1.007072 1.001208 1.0027875 0.9958348 1.0000134 0.9981074 0.9997817
0.997943 1.007448 1.0013306 0.99697256 0.9955523 0.99841374 1.0057963 0.9961866
1.0009385 1.0047331 0.996959 0.9932347 1.0046009 1.0062563 1.0057187 0.9964475
0.99949086 0.99895126 1.0025759 0.9971728 1.0040466 1.005102 0.99810004 0.9923831
0.998523 1.0044156 1.0046564 1.0049119 0.99361974 0.99673104 1.0008131 1.0046021
0.9985804 1.0045972 0.99902296 1.0025339 0.99910724 1.0022849 1.0002263 0.99602723
1.0012769 1.002317 1.000699 0.99957174 1.0024376 1.0044886 1.0064589 1.0034032
1.0036192 0.9935005 1.0019078 1.0009087 1.001812 0.9928964 1.0038028 0.99610305
0.9977909 1.0015328 1.0016829 0.99868786 0.99629694 1.0062146 1.0051627 1.00272

bn.bias f4 [128]
00000000: 670c c73b d5ea b5bb a85c b8bb 77ee f93b
00000010: ff1b 393a c091 133c 9ce9 af3b 2670 bfba
00000020: 1f73 b03b a5c6 a83b a652 9d3b cb81 fbba
00000030: a5c8 993b 3226 553b e926 af3a 989f c0bb
00000040: 9be3 293b 393c 22bb 321d 97bb 9ac0 abb9
00000050: 62b0 bdbb 5f7d 5fb9 5d7c d13a 8da9 55bb
00000060: d0b6 ce3b 2fbc d438 d28a a9bb dfb6 893b
00000070: 7edf e2bb ed85 de3b c1aa 4439 8206 56ba
00000080: 900e d03b 4d55 cdba f4b0 eebb df4f 15ba
00000090: 94e0 bc3b a658 9c3b 3a65 5fbb d48c 013c
000000a0: 5958 b0bb cd23 0a3b 076c 04bc 68bd 0b3b
000000b0: 536a 273b bf33 2fba 8fa6 c83b 0f30 c8bb
000000c0: 2541 b23a cc98 bfbb d21e 04bb 5c27 46bb
000000d0: 7568 d93b 6425 98b9 4a69 4fbb 6cba c1ba
000000e0: 3f93 c1b9 af25 b73b 65b1 7c3b 2eb3 0139
000000f0: 27df 88bb 426d 153b 2d40 c4b9 d3b6 cbba
00000100: 5ecd ba3b e2b7 b9bb 0973 78bb 2b23 2d3b
00000110: 518f aabb 1b9d 983b 2eb0 13bb a9b5 833b
00000120: a5c2 9d3b a999 843a 8a40 18b9 9213 3138
00000130: ef24 733b d2e3 18bb 5e64 99bb 3265 6e3b
00000140: abc4 503b 108c 053c 59ef 92bb d94d 7fbb
00000150: 7b35 e6bb 9121 81ba 3505 113b edcf c23b
00000160: 95a9 c53b 2a99 00bb eed2 2cbb 24e8 d93b
00000170: 1c68 b43b dd57 47bb 8edc 993b 529e 2c3b
00000180: 30a4 e5ba b10d bebb 4638 5c3b 1a63 a63b
00000190: 9cab b5bb a143 debb 2e88 adbb 1fbf a3bb
000001a0: a354 d9bb a296 e53b f38d 563b 66d1 96bb
000001b0: 1b9f 9cba b8a9 993a 11af d4bb 8a0b bebb
000001c0: 9e37 d8bb 378d bb3b bc79 40bb 87b3 95bb
000001d0: 49bd ca3b 1d6d ecbb 4802 8e3b 431a 7d3b
000001e0: d542 f03b 43d0 8e37 6de1 e83b 1e5e e5bb
000001f0: de55 a0ba 1bde c53b 488e 88ba dfde 883b
0.0060744765 -0.005551676 -0.00562628 0.007627304 0.00070613617 0.0090069175 0.0053684246 -0.0014605566
0.0053848173 0.0051506334 0.004801112 -0.0019188462 0.004693108 0.0032523987 0.0013363037 -0.0058784
0.0025923017 -0.0024755134 -0.0046116346 -0.0003275916 -0.0057888487 -0.00021313642 0.0015982498 -0.003260228
0.006308414 0.00010144 -0.0051740194 0.004202708 -0.006923615 0.0067908675 0.00018755627 -0.0008164422
0.0063493922 -0.001566568 -0.007284278 -0.00056958006 0.0057640765 0.00477131 -0.0034087435 0.007907111
-0.0053816256 0.0021078468 -0.008082396 0.0021322612 0.0025545552 -0.0006683431 0.006123371 -0.0061092447
0.0013599737 -0.005847072 -0.0020159972 -0.0030235862 0.0066347667 -0.00029019557 -0.003164845 -0.001478029
-0.00036921536 0.005589209 0.0038557884 0.00012369148 -0.0041769925 0.0022800718 -0.00037431848 -0.0015542157
0.005700751 -0.0056676725 -0.0037910363 0.0026418667 -0.005205073 0.0046574003 -0.0022535431 0.0040194583
0.004814463 0.0010116595 -0.00014519892 4.2218315e-05 0.0037100872 -0.002332915 -0.004681154 0.0036376235
0.0031855504 0.008151069 -0.004484099 -0.0038956313 -0.0070254183 -0.0009851923 0.0022128348 0.005945197
0.0060321786 -0.0019622543 -0.002637084 0.006649988 0.005505575 -0.003041736 0.0046954816 0.0026339483
-0.0017520245 -0.005799972 0.0033602878 0.005077732 -0.005544139 -0.0067829643 -0.005295775 -0.0049971486
-0.006632404 0.007006482 0.0032738417 -0.004602599 -0.0011949273 0.0011723554 -0.006490596 -0.0057997154
-0.006598427 0.005723621 -0.0029369434 -0.0045685205 0.0061871153 -0.0072151558 0.004333768 0.003862039
0.0073321857 1.7024699e-05 0.007106951 -0.006999745 -0.0012232622 0.00603844 -0.001041838 0.004176959

bn.running_mean f4 [128]
00000000: 7784 5a3c 5338 013d 2b48 dcbc eab6 3cbd
00000010: 9073 433d 71a0 fc3b db64 a6bc 58f0 97bc
00000020: 03fe 033d 23ca afbc 5c32 21bd be02 97bc
00000030: ba6b ae3c 3a43 da3b 0e67 083d de06 1a3c
00000040: 94d7 f6bc 57c0 023c 0321 bf3b 6363 9abc
00000050: 0984 d43c 8bd4 e33b 50e6 4c3d f491 4f3c
00000060: 73a2 3a3c b24e b13c 5834 b1bb 3502 093c
00000070: b46d d339 8ffb 39bb 4570 d33c 1546 2a3d
00000080: c4f0 9f3c 6228 c1bc 5d2d 163d 3918 e9bc
00000090: 50ba d43c 975a 54bc 8979 db3a 3843 a03b
000000a0: c416 0d3c 4644 9dbb 63e7 38bc af66 09bd
000000b0: 355e 323d 5efe f1bb 7349 7dbd 1356 0abd
000000c0: 8385 743c ad5f 83bc 2c1a 0bbd e3d9 12bc
000000d0: 96db 86bc e00b 293b 632e 5a3c 0c7c d9bb
000000e0: e2b2 983b f489 5ebd 3da5 56bc a8ab 00bd
000000f0: 9d53 e5bc 49c7 b73c 2258 fbbc 5e3b a23c
00000100: 951e 0fbd 6898 5b3c d82b 4fbd ee18 9a3b
00000110: 3131 de3c 08da dd3b c3b4 41bb 244e 163c
00000120: c96d 963c 00dd d2bd 5201 e13c f46b 863d
00000130: 8702 7c3d b756 19bb f119 873c 3b0e 6b3c
00000140: a654 fe3c 14c8 05bd 2db8 1bbd 8efe b6bc
00000150: 7988 85bc 5e49 bcbc 69f8 1d3d 32c9 c6bb
00000160: 53fa b3bd faf7 8cbd e1d4 583c 9a98 c3bc
00000170: d288 3f3d bc1f 923c 3fa1 f7bb 6641 163d
00000180: fefe 393d 7449 00bb 29f5 2ebd b2e3 833c
00000190: efab 2e3d 0ee5 31bc cd7c 303c e4b1 ad3c
000001a0: b0b7 9d3c 4ccf 61bd 3c5f c83d 47ca 083c
000001b0: b822 bf3c 183d ba3c 0d79 473b 27f9 5d3c
000001c0: d3a5 df3c 7147 05bd 44b9 2b3b d645 3ebd
000001d0: 2472 403c 4ab8 133d 935a 063d 5c2c 4d3c
000001e0: a486 1b3d 176e 05bd c977 803c ed4b b03c
000001f0: ef6e c13b 95c1 143b bc66 123d 37d6 f2bc
0.013337246 0.031547856 -0.026889881 -0.046072878 0.04771763 0.007709556 -0.020311764 -0.018547222
0.032224666 -0.021458691 -0.039354667 -0.018433925 0.021291602 0.006660846 0.033301406 0.009401051
-0.030132093 0.007980428 0.0058327927 -0.01884622 0.025941866 0.0069528273 0.05002433 0.012669075
0.01139127 0.02164397 -0.005407851 0.008362343 0.0004032679 -0.00283787 0.02581037 0.04157074
0.019523986 -0.023578826 0.036664356 -0.028453933 0.025967747 -0.012961051 0.0016744594 0.0048908256
0.008611385 -0.0047993986 -0.011285636 -0.033545192 0.043546874 -0.0073850593 -0.061837625 -0.033773493
0.01492441 -0.016036833 -0.033960506 -0.008963081 -0.016462129 0.0025794432 0.0133167235 -0.006637102
0.0046599964 -0.05433078 -0.013100919 -0.031413704 -0.027993971 0.022433894 -0.030681673 0.0198037
-0.034941275 0.013403036 -0.050578922 0.004702679 0.027123066 0.006770376 -0.0029557205 0.009173904
0.018362897 -0.10296059 0.02746645 0.06563559 0.061525848 -0.0023397633 0.016491862 0.0143466545
0.031046223 -0.032661512 -0.03801744 -0.022338178 -0.016300427 -0.022984203 0.03856698 -0.006066465
-0.0878798 -0.06883235 0.013234348 -0.023876477 0.04676134 0.017837398 -0.007557064 0.036683463
0.045409195 -0.0019575031 -0.04271427 0.016099785 0.042644437 -0.010857834 0.010771942 0.021202989
0.019252628 -0.055129334 0.097837895 0.008349008 0.023331985 0.02273421 0.0030437142 0.013548172
0.02730075 -0.032538835 0.0026202956 -0.04645332 0.011745963 0.036064424 0.032801222 0.012522783
0.0379702 -0.032575693 0.015682118 0.02152058 0.005903117 0.0022698392 0.035742506 -0.029643161

bn.running_var f4 [128]
00000000: d1a9 4437 9304 d438 b7fd c138 9e83 4739
00000010: 0262 7239 c4fe 8836 9b02 8438 8790 b937
00000020: 56ff 9c38 8071 2b38 6a7f 3d39 4cf0 0f38
00000030: 7c13 5f38 c6a3 7237 f8ff ca38 0dc9 0937
00000040: e45c 9238 21d9 9236 0813 1436 08a7 f437
00000050: 8c6d 6738 f208 8137 cc5a 8f39 86c5 f337
00000060: cefb 3637 bc69 2438 3619 7037 cafa 9a37
00000070: bf29 2737 9fed 8936 f9e8 6038 218d 2039
00000080: 98b0 cf37 5307 6338 5b42 0d39 df34 5b38
00000090: b503 a238 f3b9 ac37 cd15 1736 1b4a 1e36
000000a0: cd21 bc36 6956 4737 6b5c 1537 db02 9738
000000b0: cda8 7d39 3fff 8d36 f875 9439 f960 c638
000000c0: d703 2f38 799a 2e38 bb46 0d39 0e60 2237
000000d0: 751b cc37 8e8b 8c37 602c 9437 de2f a036
000000e0: ffc9 2737 2bf9 7939 f59d 4537 9db0 ac38
000000f0: 24bd 8b38 f61a 9d38 8c81 a538 8633 0938
00000100: 952e 0b39 48fe 4e37 7e0d 5f39 04d3 2d36
00000110: e3f9 8038 bc7b 7837 bf7e af37 8a9e a737
00000120: 627a 5638 8918 703a 3922 9b38 f13d 013a
00000130: 7a4e 9439 db39 8636 f45a b937 4ec3 9837
00000140: 62fb dd38 aaf3 aa38 ac9f 2339 290b 0a38
00000150: 4a1a 0c38 4ad3 0f38 44a6 da38 ad28 3937
00000160: eb51 403a 9e2a f639 ac26 3c37 30ab 2d38
00000170: 0fd6 8c39 4d9a f338 f4db 9636 362d cf38
00000180: 632f 3d39 4e0e d635 a7ff 3739 722a 0638
00000190: adc3 0d39 5f49 0338 e258 8437 bbc8 f237
000001a0: fe22 e937 3d32 b939 becd 613a 47c4 ad36
000001b0: 4d27 1d38 826a 1438 ce26 ac35 d69b 6337
000001c0: afca 4c38 567a e838 d7f7 0535 257f 4039
000001d0: 639c 9b38 af95 2f39 bc0a a638 63a9 2a37
000001e0: 038a ff38 144e a838 073d 2038 116c 8238
000001f0: 8b5d 2a36 4134 4c36 1796 2339 7fbb 7538
1.1722049e-05 0.000101098 9.250215e-05 0.0001902715 0.00023115429 4.0827745e-06 6.294736e-05 2.212102e-05
7.48622e-05 4.0875282e-05 0.0001807191 3.431765e-05 5.318549e-05 1.44624555e-05 9.6797885e-05 8.212647e-06
6.979125e-05 4.376416e-06 2.2064796e-06 2.9164847e-05 5.5176715e-05 1.5382164e-05 0.00027342734 2.9059836e-05
1.0906673e-05 3.919912e-05 1.4310985e-05 1.8475013e-05 9.963695e-06 4.110581e-06 5.3622734e-05 0.00015311364
2.4758556e-05 5.412784e-05 0.00013471527 5.226291e-05 7.7254525e-05 2.0590587e-05 2.2513443e-06 2.358697e-06
5.6067715e-06 1.1881443e-05 8.90261e-06 7.200773e-05 0.00024190843 4.231842e-06 0.00028316653 9.459438e-05
4.1726827e-05 4.1628697e-05 0.00013473157 9.678317e-06 2.433148e-05 1.6754286e-05 1.7663639e-05 4.773944e-06
1.0001007e-05 0.00023839313 1.1778892e-05 8.234496e-05 6.663267e-05 7.491365e-05 7.891943e-05 3.271133e-05
0.00013273426 1.2337761e-05 0.00021271963 2.5901836e-06 6.150061e-05 1.4810761e-05 2.0920646e-05 1.9981777e-05
5.1135554e-05 0.00091589295 7.3973504e-05 0.00049301895 0.0002828723 4.0002465e-06 2.2096072e-05 1.8210758e-05
0.00010584925 8.151618e-05 0.00015604374 3.2912158e-05 3.3403085e-05 3.4290635e-05 0.000104260194 1.103633e-05
0.00073364255 0.0004695253 1.1214677e-05 4.1405845e-05 0.00026862367 0.00011615884 4.4959543e-06 9.8789504e-05
0.00018042098 1.5948406e-06 0.00017547478 3.198762e-05 0.00013519703 3.1301166e-05 1.5777016e-05 2.894212e-05
2.7792059e-05 0.0003532338 0.0008613727 5.1786515e-06 3.746832e-05 3.5385143e-05 1.2826292e-06 1.3566538e-05
4.8826154e-05 0.00011085409 4.9907015e-07 0.00018357912 7.420105e-05 0.00016745062 7.917496e-05 1.0172228e-05
0.00012185054 8.0254074e-05 3.820381e-05 6.219012e-05 2.5386423e-06 3.0428785e-06 0.00015600804 5.858717e-05

bn1.weight f4 [128]
00000000: 0000 803f 0000 803f 0000 803f 0000 803f
00000010: 0000 803f 0000 803f 0000 803f 0000 803f
00000020: 0000 803f 0000 803f 0000 803f 0000 803f
00000030: 0000 803f 0000 803f 0000 803f 0000 803f
00000040: 0000 803f 0000 803f 0000 803f 0000 803f
00000050: 0000 803f 0000 803f 0000 803f 0000 803f
00000060: 0000 803f 0000 803f 0000 803f 0000 803f
00000070: 0000 803f 0000 803f 0000 803f 0000 803f
00000080: 0000 803f 0000 803f 0000 803f 0000 803f
00000090: 0000 803f 0000 803f 0000 803f 0000 803f
000000a0: 0000 803f 0000 803f 0000 803f 0000 803f
000000b0: 0000 803f 0000 803f 0000 803f 0000 803f
000000c0: 0000 803f 0000 803f 0000 803f 0000 803f
000000d0: 0000 803f 0000 803f 0000 803f 0000 803f
000000e0: 0000 803f 0000 803f 0000 803f 0000 803f
000000f0: 0000 803f 0000 803f 0000 803f 0000 803f
00000100: 0000 803f 0000 803f 0000 803f 0000 803f
00000110: 0000 803f 0000 803f 0000 803f 0000 803f
00000120: 0000 803f 0000 803f 0000 803f 0000 803f
00000130: 0000 803f 0000 803f 0000 803f 0000 803f
00000140: 0000 803f 0000 803f 0000 803f 0000 803f
00000150: 0000 803f 0000 803f 0000 803f 0000 803f
00000160: 0000 803f 0000 803f 0000 803f 0000 803f
00000170: 0000 803f 0000 803f 0000 803f 0000 803f
00000180: 0000 803f 0000 803f 0000 803f 0000 803f
00000190: 0000 803f 0000 803f 0000 803f 0000 803f
000001a0: 0000 803f 0000 803f 0000 803f 0000 803f
000001b0: 0000 803f 0000 803f 0000 803f 0000 803f
000001c0: 0000 803f 0000 803f 0000 803f 0000 803f
000001d0: 0000 803f 0000 803f 0000 803f 0000 803f
000001e0: 0000 803f 0000 803f 0000 803f 0000 803f
000001f0: 0000 803f 0000 803f 0000 803f 0000 803f
1.0 1.0 1.0 1.0 1.0 1.0 1.0 1.0
1.0 1.0 1.0 1.0 1.0 1.0 1.0 1.0
1.0 1.0 1.0 1.0 1.0 1.0 1.0 1.0
1.0 1.0 1.0 1.0 1.0 1.0 1.0 1.0
1.0 1.0 1.0 1.0 1.0 1.0 1.0 1.0
1.0 1.0 1.0 1.0 1.0 1.0 1.0 1.0
1.0 1.0 1.0 1.0 1.0 1.0 1.0 1.0
1.0 1.0 1.0 1.0 1.0 1.0 1.0 1.0
1.0 1.0 1.0 1.0 1.0 1.0 1.0 1.0
1.0 1.0 1.0 1.0 1.0 1.0 1.0 1.0
1.0 1.0 1.0 1.0 1.0 1.0 1.0 1.0
1.0 1.0 1.0 1.0 1.0 1.0 1.0 1.0
1.0 1.0 1.0 1.0 1.0 1.0 1.0 1.0
1.0 1.0 1.0 1.0 1.0 1.0 1.0 1.0
1.0 1.0 1.0 1.0 1.0 1.0 1.0 1.0
1.0 1.0 1.0 1.0 1.0 1.0 1.0 1.0

bn1.bias f4 [128]
00000000: 0000 0000 0000 0000 0000 0000 0000 0000
00000010: 0000 0000 0000 0000 0000 0000 0000 0000
00000020: 0000 0000 0000 0000 0000 0000 0000 0000
00000030: 0000 0000 0000 0000 0000 0000 0000 0000
00000040: 0000 0000 0000 0000 0000 0000 0000 0000
00000050: 0000 0000 0000 0000 0000 0000 0000 0000
00000060: 0000 0000 0000 0000 0000 0000 0000 0000
00000070: 0000 0000 0000 0000 0000 0000 0000 0000
00000080: 0000 0000 0000 0000 0000 0000 0000 0000
00000090: 0000 0000 0000 0000 0000 0000 0000 0000
000000a0: 0000 0000 0000 0000 0000 0000 0000 0000
000000b0: 0000 0000 0000 0000 0000 0000 0000 0000
000000c0: 0000 0000 0000 0000 0000 0000 0000 0000
000000d0: 0000 0000 0000 0000 0000 0000 0000 0000
000000e0: 0000 0000 0000 0000 0000 0000 0000 0000
000000f0: 0000 0000 0000 0000 0000 0000 0000 0000
00000100: 0000 0000 0000 0000 0000 0000 0000 0000
00000110: 0000 0000 0000 0000 0000 0000 0000 0000
00000120: 0000 0000 0000 0000 0000 0000 0000 0000
00000130: 0000 0000 0000 0000 0000 0000 0000 0000
00000140: 0000 0000 0000 0000 0000 0000 0000 0000
00000150: 0000 0000 0000 0000 0000 0000 0000 0000
00000160: 0000 0000 0000 0000 0000 0000 0000 0000
00000170: 0000 0000 0000 0000 0000 0000 0000 0000
00000180: 0000 0000 0000 0000 0000 0000 0000 0000
00000190: 0000 0000 0000 0000 0000 0000 0000 0000
000001a0: 0000 0000 0000 0000 0000 0000 0000 0000
000001b0: 0000 0000 0000 0000 0000 0000 0000 0000
000001c0: 0000 0000 0000 0000 0000 0000 0000 0000
000001d0: 0000 0000 0000 0000 0000 0000 0000 0000
000001e0: 0000 0000 0000 0000 0000 0000 0000 0000
000001f0: 0000 0000 0000 0000 0000 0000 0000 0000
0.0 0.0 0.0 0.0 0.0 0.0 0.0 0.0
0.0 0.0 0.0 0.0 0.0 0.0 0.0 0.0
0.0 0.0 0.0 0.0 0.0 0.0 0.0 0.0
0.0 0.0 0.0 0.0 0.0 0.0 0.0 0.0
0.0 0.0 0.0 0.0 0.0 0.0 0.0 0.0
0.0 0.0 0.0 0.0 0.0 0.0 0.0 0.0
0.0 0.0 0.0 0.0 0.0 0.0 0.0 0.0
0.0 0.0 0.0 0.0 0.0 0.0 0.0 0.0
0.0 0.0 0.0 0.0 0.0 0.0 0.0 0.0
0.0 0.0 0.0 0.0 0.0 0.0 0.0 0.0
0.0 0.0 0.0 0.0 0.0 0.0 0.0 0.0
0.0 0.0 0.0 0.0 0.0 0.0 0.0 0.0
0.0 0.0 0.0 0.0 0.0 0.0 0.0 0.0
0.0 0.0 0.0 0.0 0.0 0.0 0.0 0.0
0.0 0.0 0.0 0.0 0.0 0.0 0.0 0.0
0.0 0.0 0.0 0.0 0.0 0.0 0.0 0.0

bn1.running_mean f4 [128]
00000000: 0000 0000 0000 0000 0000 0000 0000 0000
00000010: 0000 0000 0000 0000 0000 0000 0000 0000
00000020: 0000 0000 0000 0000 0000 0000 0000 0000
00000030: 0000 0000 0000 0000 0000 0000 0000 0000
00000040: 0000 0000 0000 0000 0000 0000 0000 0000
00000050: 0000 0000 0000 0000 0000 0000 0000 0000
00000060: 0000 0000 0000 0000 0000 0000 0000 0000
00000070: 0000 0000 0000 0000 0000 0000 0000 0000
00000080: 0000 0000 0000 0000 0000 0000 0000 0000
00000090: 0000 0000 0000 0000 0000 0000 0000 0000
000000a0: 0000 0000 0000 0000 0000 0000 0000 0000
000000b0: 0000 0000 0000 0000 0000 0000 0000 0000
000000c0: 0000 0000 0000 0000 0000 0000 0000 0000
000000d0: 0000 0000 0000 0000 0000 0000 0000 0000
000000e0: 0000 0000 0000 0000 0000 0000 0000 0000
000000f0: 0000 0000 0000 0000 0000 0000 0000 0000
00000100: 0000 0000 0000 0000 0000 0000 0000 0000
00000110: 0000 0000 0000 0000 0000 0000 0000 0000
00000120: 0000 0000 0000 0000 0000 0000 0000 0000
00000130: 0000 0000 0000 0000 0000 0000 0000 0000
00000140: 0000 0000 0000 0000 0000 0000 0000 0000
00000150: 0000 0000 0000 0000 0000 0000 0000 0000
00000160: 0000 0000 0000 0000 0000 0000 0000 0000
00000170: 0000 0000 0000 0000 0000 0000 0000 0000
00000180: 0000 0000 0000 0000 0000 0000 0000 0000
00000190: 0000 0000 0000 0000 0000 0000 0000 0000
000001a0: 0000 0000 0000 0000 0000 0000 0000 0000
000001b0: 0000 0000 0000 0000 0000 0000 0000 0000
000001c0: 0000 0000 0000 0000 0000 0000 0000 0000
000001d0: 0000 0000 0000 0000 0000 0000 0000 0000
000001e0: 0000 0000 0000 0000 0000 0000 0000 0000
000001f0: 0000 0000 0000 0000 0000 0000 0000 0000
0.0 0.0 0.0 0.0 0.0 0.0 0.0 0.0
0.0 0.0 0.0 0.0 0.0 0.0 0.0 0.0
0.0 0.0 0.0 0.0 0.0 0.0 0.0 0.0
0.0 0.0 0.0 0.0 0.0 0.0 0.0 0.0
0.0 0.0 0.0 0.0 0.0 0.0 0.0 0.0
0.0 0.0 0.0 0.0 0.0 0.0 0.0 0.0
0.0 0.0 0.0 0.0 0.0 0.0 0.0 0.0
0.0 0.0 0.0 0.0 0.0 0.0 0.0 0.0
0.0 0.0 0.0 0.0 0.0 0.0 0.0 0.0
0.0 0.0 0.0 0.0 0.0 0.0 0.0 0.0
0.0 0.0 0.0 0.0 0.0 0.0 0.0 0.0
0.0 0.0 0.0 0.0 0.0 0.0 0.0 0.0
0.0 0.0 0.0 0.0 0.0 0.0 0.0 0.0
0.0 0.0 0.0 0.0 0.0 0.0 0.0 0.0
0.0 0.0 0.0 0.0 0.0 0.0 0.0 0.0
0.0 0.0 0.0 0.0 0.0 0.0 0.0 0.0

bn1.running_var f4 [128]
00000000: 0000 803f 0000 803f 0000 803f 0000 803f
00000010: 0000 803f 0000 803f 0000 803f 0000 803f
00000020: 0000 803f 0000 803f 0000 803f 0000 803f
00000030: 0000 803f 0000 803f 0000 803f 0000 803f
00000040: 0000 803f 0000 803f 0000 803f 0000 803f
00000050: 0000 803f 0000 803f 0000 803f 0000 803f
00000060: 0000 803f 0000 803f 0000 803f 0000 803f
00000070: 0000 803f 0000 803f 0000 803f 0000 803f
00000080: 0000 803f 0000 803f 0000 803f 0000 803f
00000090: 0000 803f 0000 803f 0000 803f 0000 803f
000000a0: 0000 803f 0000 803f 0000 803f 0000 803f
000000b0: 0000 803f 0000 803f 0000 803f 0000 803f
000000c0: 0000 803f 0000 803f 0000 803f 0000 803f
000000d0: 0000 803f 0000 803f 0000 803f 0000 803f
000000e0: 0000 803f 0000 803f 0000 803f 0000 803f
000000f0: 0000 803f 0000 803f 0000 803f 0000 803f
00000100: 0000 803f 0000 803f 0000 803f 0000 803f
00000110: 0000 803f 0000 803f 0000 803f 0000 803f
00000120: 0000 803f 0000 803f 0000 803f 0000 803f
00000130: 0000 803f 0000 803f 0000 803f 0000 803f
00000140: 0000 803f 0000 803f 0000 803f 0000 803f
00000150: 0000 803f 0000 803f 0000 803f 0000 803f
00000160: 0000 803f 0000 803f 0000 803f 0000 803f
00000170: 0000 803f 0000 803f 0000 803f 0000 803f
00000180: 0000 803f 0000 803f 0000 803f 0000 803f
00000190: 0000 803f 0000 803f 0000 803f 0000 803f
000001a0: 0000 803f 0000 803f 0000 803f 0000 803f
000001b0: 0000 803f 0000 803f 0000 803f 0000 803f
000001c0: 0000 803f 0000 803f 0000 803f 0000 803f
000001d0: 0000 803f 0000 803f 0000 803f 0000 803f
000001e0: 0000 803f 0000 803f 0000 803f 0000 803f
000001f0: 0000 803f 0000 803f 0000 803f 0000 803f
1.0 1.0 1.0 1.0 1.0 1.0 1.0 1.0
1.0 1.0 1.0 1.0 1.0 1.0 1.0 1.0
1.0 1.0 1.0 1.0 1.0 1.0 1.0 1.0
1.0 1.0 1.0 1.0 1.0 1.0 1.0 1.0
1.0 1.0 1.0 1.0 1.0 1.0 1.0 1.0
1.0 1.0 1.0 1.0 1.0 1.0 1.0 1.0
1.0 1.0 1.0 1.0 1.0 1.0 1.0 1.0
1.0 1.0 1.0 1.0 1.0 1.0 1.0 1.0
1.0 1.0 1.0 1.0 1.0 1.0 1.0 1.0
1.0 1.0 1.0 1.0 1.0 1.0 1.0 1.0
1.0 1.0 1.0 1.0 1.0 1.0 1.0 1.0
1.0 1.0 1.0 1.0 1.0 1.0 1.0 1.0
1.0 1.0 1.0 1.0 1.0 1.0 1.0 1.0
1.0 1.0 1.0 1.0 1.0 1.0 1.0 1.0
1.0 1.0 1.0 1.0 1.0 1.0 1.0 1.0
1.0 1.0 1.0 1.0 1.0 1.0 1.0 1.0

fc2.weight f4 [128, 2]
00000000: 91f0 f23c 18f2 813d 69b5 c13d 85af cebc
00000010: 76fd b5bd a4b2 a43d 6dc4 04be 82c8 aabc
00000020: 897a 123e 9933 1bbd aaf9 923c 05f2 f23c
00000030: 7ca1 92bd 337a c13d ae74 1dbd 0991 d9bd
00000040: 4350 a23d ea2d c93d 18a8 75bd f652 43bc
00000050: 56e1 ffbd f43a ab3d dfbe 60bd ce9e 5f3c
00000060: d239 8b3d f64a 3ebd 88ba fd3c 6109 acbd
00000070: a7fb bd3d fcc2 c53c 19e5 dd3c 153c 293a
00000080: 148e 9ebd 54e8 86bd dfad 533c 5180 923d
00000090: a919 2d3c f0c1 333d 6ce0 4fbd a1e1 d6bc
000000a0: 3c1f 8e3d 90ce 163d 639f 91bb 75f9 323e
000000b0: 6161 1e3e efd7 99bd fed1 423d 817b a3bd
000000c0: 1c36 fe3c 16be 503c 369f 703d e94c d33c
000000d0: 382d eebc b072 c53d 93df 133d 36db aebd
000000e0: 17b8 8c3c b36c eabd d812 7ebc 4c8a 563d
000000f0: 96d8 8b3d b658 2c3d 0d41 ee3d fb62 c33c
00000100: ecfb 2b3d 3905 d13d 3bf1 8dbd b08e 163c
00000110: ac24 df3d cd9c c8bc c57e 75bd 2171 20be
00000120: 3c43 a73d aa6b 4fbd b262 2cbd 5cbf 093d
00000130: f2a5 89bb 6750 833d 299a 6a3c 92bc 1ebb
00000140: 56e0 b23c 4ae3 a93c bdc5 d7bc e76f b63d
00000150: 8e9e 92bc 710f d6bd 8dce 89bd cb07 56be
00000160: 08f1 123e ae44 04be 2160 26bc 5525 a2bd
00000170: 75eb 1ebe 9812 29be adaa babd 035e 32bd
00000180: 5215 693d 6fdd cabd debc 6dbd 7e8b ab3d
00000190: d46a ddbd 8585 943d d55c debb e9c2 0bbe
000001a0: 737d 3dbd 87e0 edbb 017e d63c 6ace 08be
000001b0: 5aea 203d 8ead 03bc b384 c3bb 303b c1bd
000001c0: b9a3 c3bb 2119 0e3e 49de 13be 69d7 b0bd
000001d0: 4347 fabc ea96 4fbd 0a01 aebd 0025 1dbd
000001e0: da65 9dbd 73ef e5bc 32fb a03d 40f9 cabd
000001f0: c06c aabd a09a 11bd ed7b 5b3d 55c9 c43c
00000200: 8540 dcbd fdf5 4f3d a8ff ff3c f5fa 533d
00000210: a9ec 0bbe 3623 82bd 7704 763c 79ec 28bc
00000220: 7082 963d a3f3 043d 4326 003d 7b4d adbd
00000230: 98c8 8f3c f7fb 3ebe 536b d5ba 3654 4d3e
00000240: abb4 843d ce10 adbd 6998 91be 79db b0bd
00000250: f8c1 a53d 047d 4bbc f1c3 533e 3fba 02be
00000260: f8f9 1e3e 6098 203e dc6d 6fbc 5488 653d
00000270: 4d81 af3c a98e 3e3e afd6 243d 476f 073c
00000280: 7396 c43d 0ee4 44bd a705 acbd fbf6 96bd
00000290: 78e3 efbd 1229 583d a054 4abd 5415 d9bd
000002a0: ae09 5bbd c97a 3d3d 78a7 49bd 69ca f7bd
000002b0: de70 bd3d c3bd 093e 1442 dfbc c85d 903d
000002c0: ee99 82be 38f0 4a3c ffa4 50be e3c2 1d3d
000002d0: 17ab da3c 3de2 a53d 24b4 70bd 6525 90bd
000002e0: 6d8a 1b3e 5813 fabd 719f b03d 2a35 7fbe
000002f0: 1abf a0bc 15b6 6bbc fdff ba3d 83d9 d13d
00000300: 69a9 013e ed19 023d 7d19 103b bc30 64bd
00000310: bcc5 febd e52a 383c 7efc 553d 63a6 2fbd
00000320: 2d6c db3d c5bb e43d 2844 40bd 7c79 e43d
00000330: 949e 143d 22c0 1cbd 70d3 223d e253 1b3e
00000340: bbed 463d 87e0 453d ad4d 33be 43aa eb3d
00000350: d29d 8d3e 1084 233d e07a 463c 3823 ae3d
00000360: a897 5f3d af64 b63d 3bb4 583d fd55 b63d
00000370: 120c d43a 50ac 4e3d 226a 0a3d 802d 163d
00000380: 7a3e 743d a444 0a3e 920d cabd 2b92 113d
00000390: ea29 803b db3a d33c 4f97 02be 6f8a 3fbd
000003a0: 33c3 853d bd72 66be 41a4 f43d e821 e1bd
000003b0: a74b a73d 2488 b93d 0e25 bb3c b39e c03d
000003c0: 9bda d43d fb74 263d 6b80 a9bd 57ab 9fbd
000003d0: 74ef 633d 9656 9bbd 35f8 933d 87b8 97bd
000003e0: fc8a 703c 6f45 8b3c 7aca 563c 8f5b 3fbd
000003f0: fd6b ed3d 78cb babd 3b9d 88bd 84c4 07be
0.029655727 0.06345004 0.09458429 -0.025230179 -0.088862345 0.080418855 -0.12965555 -0.020847563
0.14304556 -0.037891004 0.017941315 0.02965642 -0.07159707 0.09447136 -0.038441353 -0.106233664
0.07925465 0.098232105 -0.05997476 -0.011921635 -0.12494151 0.08360854 -0.05486953 0.013648702
0.06798138 -0.046458207 0.030972734 -0.084002264 0.092765145 0.024140827 0.027086781 0.00064557913
-0.07741943 -0.06587282 0.012919872 0.07153381 0.0105652 0.043886125 -0.050751135 -0.026230635
0.06939551 0.036818087 -0.004444049 0.17477973 0.15466835 -0.07511889 0.047563545 -0.07982541
0.03103166 0.0127406325 0.058745585 0.02579351 -0.029074296 0.096410155 0.03610189 -0.08537905
0.017177625 -0.11446514 -0.015507422 0.052377984 0.0682842 0.04207679 0.11633501 0.023850909
0.0419883 0.10206074 -0.06930777 0.009189293 0.108956665 -0.024488831 -0.05993535 -0.15668155
0.08167121 -0.050639786 -0.04208631 0.03362976 -0.0042006904 0.0641182 0.014318981 -0.0024221283
0.021835487 0.020738263 -0.026339406 0.089080624 -0.01789787 -0.10452164 -0.067288496 -0.2090141
0.14349759 -0.12916824 -0.010154755 -0.07917277 -0.15519507 -0.16510999 -0.09114585 -0.043546688
0.0569051 -0.09905516 -0.058041446 0.083762154 -0.108113915 0.07252029 -0.006785969 -0.13648571
-0.046262216 -0.0072594318 0.02618313 -0.1335999 0.039285995 -0.008036984 -0.0059667467 -0.09435117
-0.005970445 0.13876773 -0.14440264 -0.08634836 -0.030551558 -0.050681032 -0.08496292 -0.038365364
-0.07685442 -0.02806828 0.07860412 -0.09910822 -0.08321524 -0.035547853 0.05358498 0.024021784
-0.107544936 0.050771702 0.031249836 0.051753003 -0.13664497 -0.06354372 0.015015713 -0.010310286
0.07349098 0.032458913 0.03128649 -0.08462044 0.017551705 -0.18650804 -0.0016282595 0.20051655
0.06479772 -0.08450471 -0.28436592 -0.08635611 0.08093637 -0.012419943 0.20680214 -0.1276636
0.15525043 0.15683126 -0.014613595 0.056038216 0.02142396 0.18609108 0.0402438 0.008266277
0.095990084 -0.048069052 -0.083995156 -0.073713265 -0.11713308 0.052773543 -0.04939711 -0.10599771
-0.05347603 0.046259675 -0.049231976 -0.120991535 0.09250043 0.13451295 -0.027253188 0.07049137
-0.25508064 0.012386374 -0.20375441 0.038515937 0.02669291 0.08099792 -0.058765545 -0.070383824
0.15189524 -0.12210721 0.08624161 -0.24922624 -0.019622374 -0.014386673 0.09130857 0.10246565
0.12662281 0.031763006 0.0021987848 -0.05571054 -0.124400586 0.011240696 0.05224275 -0.042883288
0.10713992 0.11168627 -0.04694 0.11155984 0.036284044 -0.03826917 0.039752424 0.15168718
0.04856656 0.04830983 -0.175101 0.11507084 0.2765947 0.039920866 0.012114257 0.08502811
0.05458799 0.089059226 0.052906256 0.0890312 0.0016177914 0.0504573 0.033792622 0.036664486
0.059629895 0.13502747 -0.098658696 0.035539787 0.0039112465 0.0257849 -0.12753032 -0.04676288
0.06531372 -0.22504707 0.119453914 -0.10992795 0.081687264 0.0905917 0.022844817 0.094052695
0.10393258 0.040638905 -0.08276447 -0.07796352 0.055648282 -0.07584874 0.07225076 -0.07408243
0.014681574 0.017000882 0.013109798 -0.046718176 0.11592863 -0.0912084 -0.06670614 -0.13258559

actor.linears.0.weight f4 [128, 384]
00000000: 11bd 03bd c551 00bd 858f 01bc de2a 9bbd
00000010: 569d 95bb 0595 ca3c b8ea fe3c e616 fe3c
00000020: 2831 32bc 6386 1dbc 8582 b2bb 9808 283c
00000030: 1b6b 2ebd 5c2e 31bc a998 23bd 165a 31bd
00000040: 763f 9bbb cd25 c63d 251e 65bd 9069 a7bd
00000050: 1c6d 1e3c 57b5 733b 9004 08bd df12 18bd
00000060: fbae 983d d83b ab3d 4010 79bd 5136 e4bb
00000070: db06 6b3d ccbe 893b 0f90 483c 089d cfbd
00000080: fa31 18bc 1f07 053d 939c 23bd e592 113c
00000090: 1f70 2ebd 8314 4dbd 6c45 a83c 93a0 153d
000000a0: 4949 dabc f94e d6bb d053 1e3d 9925 563b
000000b0: 0c37 eebd 1842 aebc d830 dd3c 6926 68bc
000000c0: f831 1fbd c45f 353d f60c 17bd 28b9 d6bd
000000d0: b39e 123c 2fb0 f5bc d9b9 f7ba 1cbd 263d
000000e0: 69d5 04bd c39e 803d 8728 9e3c 5ce8 443d
000000f0: d16c 2cbd 29ae 553d 314f 50bc 44c4 733c
00000100: 8003 bd3c 1494 0b3e f7f3 713d 50f9 69bd
00000110: 8f57 96bd bd29 56bb 046d a73c 9314 ad3b
00000120: 6248 56bd db74 91bc ffae d23c a12d ab3d
00000130: f3ec 84bd 6963 2e3b c7e9 9d3a 39ad cabb
00000140: 23a0 72bc 187b 71bd 6c90 863c 26bf 17bd
00000150: 3177 b7bd 5a59 acbc c379 81bd eb28 20bd
00000160: 7f9b febc b605 72bc 8e5c 353d 55c1 f53b
00000170: 5ada 10be d9cc 8ebd f136 4fbc c255 1fbb
00000180: 3ba5 8a3c c71c 9f3d bda4 8c3c 8a49 c6bc
00000190: ec2e d0bc 6388 29be d161 36bd 543c ebbb
000001a0: 3c1d ef3c 6f59 6f3c 491f d53d a311 b4bd
000001b0: 1e54 cebc 0f0f 223c 4b52 87bd abd2 cebd
000001c0: 4e15 c73a 282b eb3c 2723 60bd ae12 7b3d
000001d0: f197 38bc b90f 3a3d 2336 083c 1e9b af3c
000001e0: e193 963c e95f a4bd a248 a33d 12e5 e6bd
000001f0: 3e9a aa3c 4056 9f3b 58c1 1c3d 2e01 833c
00000200: cf5b 52bd 55cf bfbd d58d 913d 4d31 1a3d
00000210: 154b 0cbd 398f 44bd f432 203d 550d fc3c
00000220: 8d44 373d dbe2 48bc f0a8 6abd ac48 9dbb
00000230: 14d0 0c3c 2f8e 943d 8fdd 74bd 3c90 993b
00000240: 1cce 073d bb4f 76bd f7f7 37bd c27d 4dbd
00000250: 53cc 4ebd 1581 2bbd 12a0 20bd 8b0b f3bd
00000260: 9bf7 913c 91c5 85bd b340 21bb 37b1 7dbd
00000270: 1a50 b6bc 1086 a43d e653 d53d 8a4c 5cbd
00000280: 9f84 5f3d c503 cebc dc67 853b 2152 62bd
00000290: 98a3 00bd 6cae 233d bb95 3c3b 8e1c 46bd
000002a0: 00c2 a03a 0ad2 23bc 4eef 253b 8cdd 493d
000002b0: d66e a93c 733a d33d ab8e db3b ecc0 bf3c
000002c0: 0c38 6b3d d18d a93b 2e57 fe3c 681e 283c
000002d0: ed7a bbbd b069 55bd b106 5bbc f546 a0bd
000002e0: 7134 ea3c 6182 66bd 7dcc 583d f3d9 cebd
000002f0: 5902 a23c 2e41 ce3d 315d b43c 680e 45bd
00000300: 1469 36bd 9746 2b3d dec5 debd 05c4 05bd
00000310: 6f05 13bd 26d3 1cbd 776b 923c 33fe aabd
00000320: df29 e2bb b159 debc 5a62 293d 511e 68bd
00000330: d083 19bd d10c f43c fefa ff3c 23c1 453c
00000340: d9e2 cbbc c4a3 c938 d03c 663c c95f 7f3c
00000350: ed6f a93d e4c4 96bd d38d 913d 8b8a 0d3d
00000360: e459 07bd 56dc 24bd a90a 2c3d 201b 18bd
00000370: 69fb 483d 5e43 0b3c 0995 cbbd eda4 d3bc
00000380: 4584 0a3d 6b07 abbc 3c19 1fbc 4c38 213e
00000390: aade a33c e55b 91bd 691e 8c3c c78b 5d3b
000003a0: a40c 573d 3522 cebb dbe8 e2bb eed5 15bd
000003b0: fdb0 793d 0ab4 8d3d 1de2 54bb 5889 f4bc
000003c0: 51bc 5dbd f75b 813b da63 4f3c 285e 25bd
000003d0: 0b5b d1bb 0de2 8a3d 099d 8f3d 128b 5dbd
000003e0: de31 2a3d 9cdd 06bd c7ab 95bd 8965 373c
000003f0: 0c19 9ebc 1c36 1cbd 038c 3abd a822 db3c
-0.03216273 -0.03132798 -0.007907753 -0.07576536 -0.004565875 0.024729261 0.031117782 0.031016778
-0.010875978 -0.00961456 -0.005447688 0.010255955 -0.042582612 -0.010814276 -0.03994051 -0.043298803
-0.0047377897 0.09675179 -0.05593695 -0.08174431 0.009669568 0.0037186944 -0.033207476 -0.037127372
0.0745525 0.08361024 -0.060806513 -0.006964483 0.057379585 0.004203653 0.0122413775 -0.10137373
-0.009289259 0.032477494 -0.039944243 0.00888512 -0.042587396 -0.05006839 0.020540915 0.03653009
-0.026646273 -0.006540176 0.03865415 0.0032676219 -0.11631593 -0.02127175 0.02700083 -0.014169314
-0.038866013 0.044280782 -0.036877595 -0.104845345 0.00894897 -0.029991237 -0.0018899991 0.040707693
-0.032430086 0.062802814 0.019306434 0.048073158 -0.042095963 0.052168045 -0.012714193 0.014878336
0.023072958 0.13630706 0.059070554 -0.05712253 -0.07340919 -0.0032678687 0.020437725 0.0052819937
-0.052315123 -0.017755916 0.02571821 0.083583124 -0.06490507 0.0026609546 0.001204782 -0.0061852005
-0.014808687 -0.058955282 0.016426288 -0.037047528 -0.08958281 -0.0210387 -0.06322052 -0.039101522
-0.031080006 -0.014771869 0.04427772 0.0074998536 -0.14145795 -0.06972665 -0.012647376 -0.002431259
0.016924491 0.07769161 0.017168397 -0.024204988 -0.025413 -0.16555934 -0.04452688 -0.0071788225
0.029188745 0.014608725 0.10406358 -0.087924264 -0.025186595 0.009891286 -0.06607493 -0.100987755
0.0015188844 0.028707102 -0.054721024 0.06129711 -0.011266694 0.04542515 0.008313688 0.02143627
0.018381061 -0.08026106 0.07972838 -0.112741604 0.020825502 0.0048625767 0.038270324 0.015991773
-0.051357087 -0.09365717 0.071071304 0.037644673 -0.03425129 -0.04798815 0.039111093 0.030768076
0.04474311 -0.012261118 -0.057290018 -0.004799923 0.008594532 0.07253682 -0.059781607 0.0046863835
0.033155546 -0.06013463 -0.044914212 -0.05016876 -0.050487828 -0.04187115 -0.039215155 -0.11867436
0.017818263 -0.065318234 -0.0024605214 -0.061936583 -0.022254992 0.08033383 0.10416393 -0.05378393
0.054569837 -0.025148282 0.004071219 -0.055254105 -0.031406015 0.039961264 0.002877577 -0.048367076
0.0012264848 -0.009998808 0.0025319639 0.04928355 0.020682734 0.10313883 0.006700357 0.023407422
0.057426497 0.0051743765 0.03104743 0.010261156 -0.091543056 -0.052102745 -0.013368295 -0.07826034
0.02858946 -0.056276683 0.05292939 -0.10100164 0.01977651 0.10071026 0.022017093 -0.048109442
-0.044533804 0.041815367 -0.10877584 -0.032657642 -0.035893854 -0.038287304 0.017873509 -0.08349266
-0.006901964 -0.027142378 0.04135356 -0.056669537 -0.03747922 0.029791268 0.031247612 0.012069973
-0.024888443 9.6149306e-05 0.014052585 0.015586802 0.08273301 -0.07361773 0.07107129 0.034555953
-0.03304471 -0.04024919 0.042002354 -0.037135243 0.04906789 0.008499948 -0.099405356 -0.025835479
0.03381755 -0.02087756 -0.009710606 0.15744132 0.020003635 -0.070976056 0.017104344 0.0033805238
0.05250229 -0.006290699 -0.006924731 -0.036580972 0.060959805 0.06919105 -0.0032483407 -0.029850647
-0.05413467 0.0039477306 0.012658084 -0.040372998 -0.006389027 0.06781397 0.07012374 -0.054087706
0.041551463 -0.032926187 -0.073081546 0.011193641 -0.019299053 -0.03813754 -0.04554368 0.026749924

actor.linears.0.bias f4 [128]
00000000: 036d c13b e1a5 acba 29ea f13b 0c8d c53b
00000010: 98b9 bcbb 473f df3b 011b 3f3b 9eb0 69bb
00000020: 9c49 d23b 922d b7b9 3b86 ba3a d443 00bb
00000030: 47bb 14bb 7e53 4d3b 98ef 6bbb 0062 c03b
00000040: 6690 c53b 66f4 2ebb 9e64 cc3a 7032 8dba
00000050: 15b0 713b e6dc 1abb 2352 ecbb 3679 aa3b
00000060: 4328 a8bb c6fc 643b 620b d5bb 41c1 7abb
00000070: 415e c3ba 291a 3c3b f973 bcbb d134 df3b
00000080: 0734 23bb 84ba 633b 535e a73b 3d85 5ebb
00000090: 45fe f5ba 0656 babb 5f39 273b c18f 343a
000000a0: 98f2 d139 3533 833a 0365 7bbb 8431 bc3b
000000b0: c22b 053a ff1f d33b 87bb 7d3b 6ed1 0fbb
000000c0: cb16 533b b1ae eb3b 5013 cabb f8a0 ae3b
000000d0: 025c 973a b592 1e3a d711 d2bb a797 ddbb
000000e0: 316d 97bb 561d 89bb 5521 8fbb d49d 97b9
000000f0: f386 44bb 1ddd 923b cb3b 1a3b 4d16 c73b
00000100: 5053 043b 9cac e2bb b07a 26bb d39b d63b
00000110: 5aea 17bb 5850 bebb 6229 c13a 6337 c7bb
00000120: d087 babb 179a d0bb cbc7 03bc f3b1 43bb
00000130: 8cf7 cf3b 4462 33bb ef2a acba fb1d 0b3b
00000140: c2a8 793b b9d6 f9b9 ba4c c43b acc8 393b
00000150: 5dfb c6bb a5cc 8cbb 0d3c d8bb 40be f33b
00000160: bc85 a4bb 3a07 ad38 f1af c83b 670e 4b3b
00000170: 287c bebb c599 f13b 1dda 15bb 16a4 dabb
00000180: 09b7 17bb d2e7 ac3b 51fb 2cbb f033 163a
00000190: 562e de3a 636c 573b 3423 10bb 6edf cebb
000001a0: 1b34 1a3b 8fbb 483b 9d73 4e3b fc3c 8a3a
000001b0: c13a ae3b acc9 25ba c493 d4ba ae2a d0ba
000001c0: 30f2 a7bb 7fc0 76ba 2569 17ba 5fe3 b1ba
000001d0: fac8 c7bb d939 f6bb 8f49 5dbb e4eb 7b39
000001e0: 378c 0c3b 9a2d f1bb de8c 8e3b d078 cebb
000001f0: fcc0 9dbb bcc4 b53a 17f8 a4bb dea4 09bb
0.005902888 -0.0013171994 0.0073826504 0.006028777 -0.005759429 0.006812963 0.0029160383 -0.003565825
0.0064174663 -0.00034938433 0.0014230678 -0.0019571679 -0.0022694634 0.0031330283 -0.0036000963 0.0058710575
0.0060291765 -0.0026695966 0.0015593951 -0.0010772478 0.0036878635 -0.00236302 -0.00721194 0.0052024378
-0.0051317527 0.0034940704 -0.006501601 -0.003826216 -0.0014905409 0.0028702116 -0.0057511297 0.006811716
-0.0024902837 0.0034748623 0.00510768 -0.0033953928 -0.0018767795 -0.0056865243 0.0025516374 0.0006887876
0.00040044333 0.0010009768 -0.0038359768 0.0057432074 0.0005080068 0.006443023 0.0038716511 -0.0021944898
0.003220963 0.0071924557 -0.006166853 0.0053292476 0.0011547806 0.0006049083 -0.006410818 -0.006762463
-0.004621171 -0.0041844053 -0.004367987 -0.00028918555 -0.0029987663 0.004481925 0.0023534175 0.0060756565
0.002019126 -0.0069175493 -0.0025402717 0.0065493374 -0.0023180456 -0.0058079176 0.0014737064 -0.0060796007
-0.0056924596 -0.006366025 -0.00804324 -0.0029860705 0.0063466486 -0.0027371803 -0.0013135354 0.0021227587
0.0038094972 -0.00047652962 0.005990592 0.002834837 -0.0060724453 -0.0042968565 -0.0065989555 0.007438451
-0.005020825 8.250629e-05 0.0061244895 0.0030983926 -0.0058131404 0.007373067 -0.0022865601 -0.0066723926
-0.002314987 0.0052766586 -0.0026394913 0.0005729785 0.0016951065 0.0032871 -0.002199364 -0.006313256
0.0023529592 0.0030629372 0.0031502016 0.0010546739 0.0053170626 -0.0006324302 -0.0016218354 -0.001588186
-0.0051253065 -0.00094128394 -0.00057758606 -0.001357179 -0.0060969563 -0.00751422 -0.0033765768 0.00024025101
0.002144588 -0.0073601725 0.004350289 -0.006301023 -0.0048142653 0.0013867836 -0.0050344574 -0.002100281

actor.linears.1.weight f4 [128, 128]
00000000: 82bc d03d 6767 31be e940 03be b73f db3d
00000010: 6a68 82bc 49fb 963d 6d44 ee3d 56fe 0e3e
00000020: 1a5c 153d fe1d a43d 436c 0dbe 8682 24be
00000030: 9c1d 713d 7333 c83d 56ac 2abe f1c2 93bd
00000040: 2e5d b9bc b2b0 af3c 8fc3 b7bb 4255 babc
00000050: 9a0c 203e 8144 f53c b61b 11be 2462 9c3d
00000060: a371 8f3c 83a5 213a b21c 89bd b3bc c13a
00000070: 4527 bcbc 41c1 8b3b 66e0 e9bd 549d b53d
00000080: 5562 18be 28bd 713e 55c3 c73c 2264 6abb
00000090: f3fb 0d3e 0020 063d 7224 e83d 396a bb3d
000000a0: 4bb0 e23d 84e6 d53c 60a7 b5bd e611 a0bc
000000b0: 06a8 aebd 0238 97bd f5f1 2d3d 2749 8dbc
000000c0: 8439 743c 4cd8 133e f79b 1fbe f55a 4abc
000000d0: d155 81ba e650 44bd 2865 1b3e 9b08 383e
000000e0: 3aca 01bb d3ea 353e e445 57bc 8e71 863d
000000f0: abb1 c53d cd41 6fbb 615d 373d 17b8 34bd
00000100: 6e7d 513c 5da1 913d c89b 9cbd 2045 7fbc
00000110: ff71 55be 4a15 c53c 7019 523d 34d7 2ebd
00000120: 952e 67bc 0a41 25bc fecc 2bbd 45c3 30bd
00000130: b15b 813c e1fe 363b 6451 6fbd 98a9 83b9
00000140: ed79 93bd 80b9 72bb cf28 4c3d 5136 f73d
00000150: 671e e8bd 2faf 29be e010 b63d 21b3 9e3d
00000160: f894 cebd 858e 513d 3054 c03d d9b2 4ebe
00000170: fc7a 1bbc e575 0e3e e538 ff3d 0d9c 1fbc
00000180: 2f17 94bd 5c22 103d acd1 45bd 3d81 b0bb
00000190: 7212 ba3c c6be c33d 2198 37bd 6737 21bd
000001a0: cfd5 0bbe 7983 70bd d630 50bd cb79 d9bd
000001b0: 18cb eb3d 9bf4 7abc d3c4 a53c 7177 1ebd
000001c0: e1ef 353d 5f78 443d f216 20bd 3528 fa3d
000001d0: ae96 283c 53a7 f7bd d504 8fbd c245 0ebe
000001e0: 582a 3a3d 26e4 37bd eeca c1bd 99c3 ab3c
000001f0: 0074 e13d 1b29 073e e37b 09bd d26f 343b
00000200: 8c75 1b3e 1c10 c2bd db2b e33c 498e 983d
00000210: 232a 06bd b313 49bd 7b66 c13d c8dd 3a3d
00000220: 6ebf 733d a01e 10be 343a b9bd 55a8 e93d
00000230: 1212 d83d e17a f0bc b93a c1bd 8b2d 00be
00000240: 4162 c53d 3ef6 b63d 63ff 9b3c 81c1 0e3e
00000250: c5b3 bebc f1c3 febd e5dc 84bd 13bc 3bbd
00000260: 7b98 093d 2f65 c5bd d45a e9bd b910 a9bd
00000270: 4a4b e03b 7981 203e 3765 bc3c b900 433d
00000280: f10e 0fbe 48ff 1a3d 8079 8fbc 84da 3dbe
00000290: 4c86 313d 0003 8fbd 8586 5f3d b710 e6bd
000002a0: cf34 a0bd 7f47 d43d 9aae 033e 1476 c2bd
000002b0: ef8d 973d eeb5 f03d b747 cdbd ecd6 a1bd
000002c0: 4242 89bd 9592 a7bc bd6e 6bbd 4689 2e3e
000002d0: 5b92 d5bd 1f4e 1c3d c771 063e bf24 d9bd
000002e0: f510 083e ccda 223c 1eb8 84bc a563 8dbc
000002f0: 9417 a9bd 34f3 c33d 032a 86bc e2cb 1fbd
00000300: e2cb 8f3d 7668 6d3d 0b4b 773d 256d 29bc
00000310: 7c38 833c 9291 533d 4e20 4ebc e0ca 02be
00000320: 0717 aabd 1dd3 d23d 7a65 1c3e 9b61 d03c
00000330: 7328 933d 7ae7 7c3d 48f4 dabd 73b4 d2bd
00000340: 90b4 46bb f3db ab3d a399 0e3e 73b0 31be
00000350: a063 07bd f617 ef3d f633 aabc 29c9 4dbc
00000360: 1bdd 5a3d e12f 2a3e 0f2a db3d 2605 f23c
00000370: 4379 2e3d 2fd9 3a3e 6068 08bd 069f 953d
00000380: 93ce b83d d801 b8bd 5365 12bd c01e a9bd
00000390: a7e8 2cba 1fd7 21be ffcc afbc be23 5e3d
000003a0: 6bba 173e 5b94 c0bd 1c8f 9cbd 682a 5bbc
000003b0: 739c 363e f334 cd3a 48a4 873d 62fe a43d
000003c0: cba8 a83d 80bb 8dbd 54e0 213d 1408 113d
000003d0: b203 a6bb dd35 b33d f41a 663d c164 5d3c
000003e0: 65aa ea3d cba6 283e c7c8 923d 1c14 97bd
000003f0: d6c7 9ebd 8bda 09bd 2be3 b03c ffdc 1f3d
0.10192205 -0.17324601 -0.1281773 0.10705512 -0.01591893 0.073721476 0.11634145 0.13964209
0.036464788 0.08013533 -0.1381083 -0.16065416 0.05886613 0.09775438 -0.16667303 -0.072149165
-0.02262744 0.02144656 -0.005608029 -0.022745732 0.15629807 0.029939892 -0.14170727 0.07635906
0.01751024 0.0006166326 -0.06694926 0.0014780968 -0.022967944 0.004264981 -0.11419754 0.088678986
-0.1488126 0.23607314 0.024385134 -0.003576525 0.13865642 0.03274536 0.113350764 0.0915112
0.110687815 0.026110895 -0.08869815 -0.019539785 -0.08528142 -0.073837295 0.042467076 -0.017246796
0.014906291 0.1443798 -0.1558684 -0.012350787 -0.0009867494 -0.047928713 0.15175307 0.17972033
-0.0019804374 0.1776536 -0.013139222 0.065646276 0.09653028 -0.0036507726 0.044766787 -0.044120874
0.012786252 0.07110856 -0.076469004 -0.0155804455 -0.20844267 0.024058003 0.05129379 -0.042685702
-0.014110227 -0.010086307 -0.041943543 -0.043154974 0.015790792 0.0027922916 -0.05842723 -0.00025112624
-0.0720099 -0.0037036836 0.049843606 0.12070907 -0.11333924 -0.16570733 0.088899374 0.0774901
-0.10087007 0.051161308 0.093910575 -0.20185412 -0.009489771 0.1391216 0.12462024 -0.009741795
-0.072309844 0.035189018 -0.04829566 -0.0053865 0.022713874 0.095578715 -0.044822816 -0.039359476
-0.1365578 -0.058719132 -0.050827824 -0.10618933 0.115133464 -0.015317108 0.020235455 -0.038688127
0.04441822 0.047966357 -0.039084382 0.122147 0.010289831 -0.120924614 -0.069833435 -0.13893798
0.04545054 -0.044895314 -0.09462534 0.020967292 0.11008453 0.13199274 -0.033565413 0.002753247
0.1518156 -0.09475729 0.027730873 0.07449014 -0.03275503 -0.049091052 0.09443375 0.045621663
0.059508733 -0.14074183 -0.090443045 0.1140906 0.10550322 -0.029355468 -0.094350286 -0.12517373
0.09637881 0.08933686 0.019042676 0.13941003 -0.02327908 -0.124397166 -0.06487445 -0.04583366
0.033592682 -0.0963844 -0.11394277 -0.08255143 0.0068449127 0.1567439 0.022997482 0.04760811
-0.13970543 0.03784111 -0.01751399 -0.18540388 0.043340966 -0.06982994 0.054571647 -0.11233657
-0.078225724 0.10365199 0.12859574 -0.09495178 0.074001186 0.1175345 -0.10023444 -0.07902321
-0.06702091 -0.020455638 -0.057478655 0.17044553 -0.10428306 0.03816044 0.1312934 -0.10602712
0.13287719 0.009939861 -0.016201075 -0.017259428 -0.0825645 0.09567872 -0.016377455 -0.039012797
0.070213094 0.05796095 0.0603743 -0.0103409635 0.016018145 0.0516525 -0.012580944 -0.12772703
-0.08305173 0.10294173 0.15273085 0.025437167 0.071854495 0.06174419 -0.10691124 -0.10288324
-0.0030320026 0.08391561 0.13925795 -0.17352466 -0.033053994 0.11674492 -0.02077673 -0.012560167
0.05343352 0.16619827 0.107013814 0.02954347 0.042596113 0.18246911 -0.033302665 0.07305722
0.09023776 -0.08984727 -0.03574116 -0.08257818 -0.0006595947 -0.15804718 -0.021460054 0.054233305
0.14817207 -0.094032966 -0.076444834 -0.01337681 0.17833118 0.0015656039 0.06623131 0.08056332
0.0823532 -0.069205284 0.039520577 0.035408095 -0.0050663585 0.08750508 0.05617805 0.013512791
0.114582814 0.16469876 0.071672015 -0.073768824 -0.077529594 -0.033655684 0.021592697 0.039029118

actor.linears.1.bias f4 [128]
00000000: 6f0e b43b 9535 653b b6ac e43a 162a c4ba
00000010: 9720 dfba 5334 e03a a412 e8bb 70d4 813b
00000020: 77bb ecb8 88f1 2eba 309c 6bb9 04fc de3a
00000030: 09df 7dbb 88ca de3b 273e 873b df32 1dbb
00000040: 569b bbbb dc4c 48bb c1f5 c63b d04c 5bbb
00000050: 6b20 43bb add8 833b a750 b3bb 4ff0 043c
00000060: a9e6 e0b9 53f6 3dbb a31d eeba 5121 be3b
00000070: d292 85bb 481d bdbb a024 4bba a469 bebb
00000080: 78a8 d539 800c 2d3a 8eca 5eba 2602 b03b
00000090: d1cd 2cbb fbb8 cebb 76ac b1bb 25f4 8fba
000000a0: f8af c33b d15a a23b 01c0 b03b 8caf f6ba
000000b0: 3849 1f3b e39e 0f3b 12a0 e0bb e44f 923a
000000c0: 6e27 cdbb 3299 d63b 7708 423b a098 4a3b
000000d0: c5ac 80bb 2070 b1bb 0901 c0bb 1d9c e63a
000000e0: 7504 813b d87b 323b 4b9b 29bb 491d 76bb
000000f0: e2fd eebb e03c 6a3b 3797 abba bf31 56bb
00000100: 6ff4 d13b a341 993b da8b 713b 5524 7cbb
00000110: e670 ed3b d091 d0bb b641 40bb 1b4d adbb
00000120: 3141 be3b 5abf 963b 6ada 4f3b 5bd6 20bb
00000130: 4a92 6bbb 66e5 333b 2af4 b93b ea02 95ba
00000140: c5d3 edbb 0990 bfba a88f 27bb 4855 e4bb
00000150: 7547 42bb 4cda cf3b 6100 4b3a 55d3 983b
00000160: d0ae 99bb 8c87 d23b d2dc 9ebb 3f05 913b
00000170: 3ea3 b23b c4fb 62bb 03e6 04ba 52d8 833b
00000180: 71b0 b93b 8570 c1b9 f082 0ebb b4ae df39
00000190: 4ff7 a4bb e08f 4d3b de57 dabb 745e dcbb
000001a0: c325 be3a ec6e 85ba 140b 62b9 0260 863a
000001b0: 9798 233b 64b9 663b 6048 43bb 8a7d 143b
000001c0: a356 823b 24a4 f0bb 5837 b83b 98ad d739
000001d0: e7bd 6dbb ec09 ca3a 3096 ecb9 4913 cd3a
000001e0: 1c7f d4bb cbe0 d3bb 537c 393b 4f63 0a3c
000001f0: 8cf0 c83b 3c07 603b d54b bb3b 62b3 113b
0.0054948847 0.0034974564 0.0017446491 -0.0014966156 -0.0017023262 0.0017105438 -0.0070823003 0.003962092
-0.00011288275 -0.0006673564 -0.00022469531 0.0017012362 -0.0038737676 0.006799046 0.004127282 -0.002398662
-0.0057253046 -0.003056339 0.0060717766 -0.0033462532 -0.0029773961 0.0040236325 -0.005472261 0.008113935
-0.00042896465 -0.0028985932 -0.0018166791 0.0058023115 -0.0040763402 -0.005771313 -0.0007749293 -0.005810933
0.00040752045 0.0006601289 -0.0008498811 0.00537135 -0.0026367793 -0.0063086725 -0.0054221703 -0.0010982795
0.005971905 0.004954674 0.0053939824 -0.0018820628 0.0024305116 0.0021914772 -0.0068550194 0.0011162725
-0.006260804 0.006549024 0.0029607096 0.0030913725 -0.0039268457 -0.0054149777 -0.0058594984 0.0017594133
0.003937299 0.002723446 -0.0025879915 -0.0037554076 -0.007293449 0.003574185 -0.001309133 -0.003268346
0.0064073126 0.004677014 0.003685704 -0.0038473804 0.0072461246 -0.0063650385 -0.0029336042 -0.0052887327
0.0058061113 0.0046004476 0.0031715878 -0.0024541828 -0.003594535 0.0027449965 0.0056748586 -0.0011368666
-0.007257911 -0.0014615069 -0.0025567804 -0.006968174 -0.0029644642 0.0063431617 0.0007743892 0.0046638646
-0.0046900287 0.00642485 -0.004848101 0.004425674 0.005451589 -0.0034634927 -0.0005069675 0.00402359
0.0056667854 -0.00036895662 -0.0021745525 0.00042664038 -0.0050343643 0.0031366274 -0.0066633066 -0.006725127
0.0014507103 -0.0010180152 -0.00021557166 0.0010252001 0.0024962777 0.0035205716 -0.0029797778 0.0022657835
0.003977613 -0.007343786 0.005621832 0.00041137333 -0.003627652 0.0015414334 -0.00045125326 0.0015646006
-0.006484879 -0.0064660064 0.0028302863 0.008446529 0.006132191 0.0034184 0.005715827 0.0022232165

actor.linears.2.weight f4 [1, 128]
00000000: f41a 013e d8b9 d23d 5e01 ca3d 2ac0 1fbe
00000010: b167 03bd 438a f03d 46c3 23bd 9ec0 2fbd
00000020: f764 c83d 8719 7fbc 3cda b9bd 93b5 1abd
00000030: 1f1c 12be 498e 6b3d 7c6c ed3d 9080 04bd
00000040: 89ea b13c 2ad2 c5bd 1cf0 87bd 0e6e 123e
00000050: 4808 82bd 4b10 883c 27aa 00bc e03a 0fbd
00000060: 26c1 273d 4c48 313b d7ed ce3d 50ba c6bd
00000070: 2e95 9bbd ca26 07bd 5eb5 323d 7aa7 863e
00000080: 7e47 a4bc 2165 22bd e334 b73d 7feb c83d
00000090: da5d 8cbd f5e7 ec3d 447f 47bd f11c 093e
000000a0: a87e 7f3d 127f 853c f300 463a 4032 18bd
000000b0: f316 93bb ec1e 613d 3aec 5ebd e3cc 873c
000000c0: 9273 b6bd a450 b7bd 7449 11be a40b a63d
000000d0: e907 013e 7781 b5bd c3ca 293e 68be 213c
000000e0: 5eea e1bd e396 d43d 7949 c0bb 62fc dd3d
000000f0: 0b93 81bd d98d 493d c07f 4f3d 74e3 dbbd
00000100: 2f97 45bc ba7b 573c 5d9c 8f3c 5d49 83bd
00000110: e95b 033d 6dbb 92bd ece1 e0bd 3991 06bc
00000120: 0788 0a3e 0446 4d3d 743a 053e 9258 aa3d
00000130: 5e39 bcbd 579f b13d afb5 9abb 818f 33bd
00000140: 1692 78bd 17c1 733c eb6c 83bc c33d 98bd
00000150: b34f bdbd 6ad0 893e c46f c83d b4f4 7b3c
00000160: ff66 b5bc de12 ee3d 7255 cdbd 73a2 e63b
00000170: 40a7 1a3e f962 0bbc c543 3ebd 59fd 353d
00000180: 8b77 8bbd 5a07 433d 7532 f6bd b908 3dbd
00000190: 6d0e 51bc 0a24 043e a064 9cbc a4ff c3bd
000001a0: 49ae a63d 91e6 c0bd 8393 d73c e8a5 4d3c
000001b0: dda9 e3bc 4a49 4e3d 97c7 22be 48ff 0a3e
000001c0: aa62 e63c 5204 06be e2ee c2bd aafb 42be
000001d0: a891 aabc 0e08 2a3e f402 a0bc b4d2 0d3e
000001e0: 149d 83bd a31b e03d 5a5c 853b 913a b63d
000001f0: 6d3c ae3d 94f6 823c b79a dd3c f5ec c9bc
0.12607938 0.10289353 0.09863542 -0.15600649 -0.03208131 0.11745121 -0.03998115 -0.042908303
0.097848825 -0.015570051 -0.09074828 -0.03777082 -0.1426854 0.05750874 0.115929574 -0.03234917
0.02171828 -0.09659226 -0.06637594 0.14299795 -0.06349236 0.016609332 -0.0078530675 -0.034968257
0.040955685 0.002705115 0.10103958 -0.09703505 -0.07596813 -0.032995977 0.043629996 0.2629965
-0.020053621 -0.039647225 0.08945634 0.09810542 -0.06853838 0.1156768 -0.048705354 0.13389947
0.06237665 0.016295943 0.0007553242 -0.037157297 -0.0044888197 0.05496113 -0.054424502 0.01657719
-0.08908762 -0.08950928 -0.14188176 0.08107689 0.12600674 -0.08862584 0.16581254 0.009872057
-0.1103103 0.10380342 -0.0058681336 0.10839154 -0.06326874 0.049207542 0.05065894 -0.107367426
-0.012059971 0.013152057 0.017530615 -0.06410477 0.032070074 -0.07164655 -0.10980591 -0.008213335
0.13528453 0.0501156 0.1301058 0.08317675 -0.091906294 0.0867297 -0.0047213654 -0.043838028
-0.060686193 0.014877579 -0.016043147 -0.07433655 -0.09243717 0.2691682 0.097869426 0.015378166
-0.022143839 0.116246924 -0.10026063 0.0070384084 0.15102863 -0.008507484 -0.04645135 0.044431064
-0.068099104 0.047614433 -0.12021343 -0.046150897 -0.012759787 0.12904373 -0.01909095 -0.09570244
0.08138711 -0.09418977 0.026315456 0.012551762 -0.027790958 0.050362863 -0.1589645 0.13573945
0.028123219 -0.13087586 -0.095182195 -0.19041315 -0.020821407 0.16604635 -0.019532658 0.13849908
-0.06426445 0.10942771 0.004069847 0.088978894 0.08507619 0.015986718 0.027051313 -0.024649123
